…
I1024 08:49:08.137085 32491 net.cpp:322] The NetState phase (0) differed from the phase (1) specified by a rule in layer data
I1024 08:49:08.137171 32491 net.cpp:322] The NetState phase (0) differed from the phase (1) specified by a rule in layer accuracy
I1024 08:49:08.137742 32491 net.cpp:58] Initializing net from parameters: 
state {
  phase: TRAIN
  level: 0
  stage: ""
}
layer {
  name: "data"
  type: "Data"
  top: "data"
  top: "label"
  include {
    phase: TRAIN
  }
  transform_param {
    crop_size: 227
    mean_file: "/share/zhh/mean.binaryproto"
  }
  data_param {
    source: "/share/front/train_lmdb"
    batch_size: 128
    backend: LMDB
  }
}
layer {
  name: "conv1"
  type: "Convolution"
  bottom: "data"
  top: "conv1"
  convolution_param {
    num_output: 64
    kernel_size: 3
    stride: 2
    weight_filler {
      type: "xavier"
    }
  }
}
layer {
  name: "relu_conv1"
  type: "ReLU"
  bottom: "conv1"
  top: "conv1"
}
layer {
  name: "pool1"
  type: "Pooling"
  bottom: "conv1"
  top: "pool1"
  pooling_param {
    pool: MAX
    kernel_size: 3
    stride: 2
  }
}
layer {
  name: "fire2/squeeze1x1"
  type: "Convolution"
  bottom: "pool1"
  top: "fire2/squeeze1x1"
  convolution_param {
    num_output: 16
    kernel_size: 1
    weight_filler {
      type: "xavier"
    }
  }
}
layer {
  name: "fire2/expand1x1"
  type: "Convolution"
  bottom: "fire2/squeeze1x1"
  top: "fire2/expand1x1"
  convolution_param {
    num_output: 64
    kernel_size: 1
    weight_filler {
      type: "xavier"
    }
  }
}
layer {
  name: "fire2/relu_expand1x1"
  type: "ReLU"
  bottom: "fire2/expand1x1"
  top: "fire2/expand1x1"
}
layer {
  name: "fire2/expand3x3"
  type: "Convolution"
  bottom: "fire2/squeeze1x1"
  top: "fire2/expand3x3"
  convolution_param {
    num_output: 64
    pad: 1
    kernel_size: 3
    weight_filler {
      type: "xavier"
    }
  }
}
layer {
  name: "fire2/relu_expand3x3"
  type: "ReLU"
  bottom: "fire2/expand3x3"
  top: "fire2/expand3x3"
}
layer {
  name: "fire2/concat"
  type: "Concat"
  bottom: "fire2/expand1x1"
  bottom: "fire2/expand3x3"
  top: "fire2/concat"
}
layer {
  name: "fire3/squeeze1x1"
  type: "Convolution"
  bottom: "fire2/concat"
  top: "fire3/squeeze1x1"
  convolution_param {
    num_output: 16
    kernel_size: 1
    weight_filler {
      type: "xavier"
    }
  }
}
layer {
  name: "fire3/expand1x1"
  type: "Convolution"
  bottom: "fire3/squeeze1x1"
  top: "fire3/expand1x1"
  convolution_param {
    num_output: 64
    kernel_size: 1
    weight_filler {
      type: "xavier"
    }
  }
}
layer {
  name: "fire3/relu_expand1x1"
  type: "ReLU"
  bottom: "fire3/expand1x1"
  top: "fire3/expand1x1"
}
layer {
  name: "fire3/expand3x3"
  type: "Convolution"
  bottom: "fire3/squeeze1x1"
  top: "fire3/expand3x3"
  convolution_param {
    num_output: 64
    pad: 1
    kernel_size: 3
    weight_filler {
      type: "xavier"
    }
  }
}
layer {
  name: "fire3/relu_expand3x3"
  type: "ReLU"
  bottom: "fire3/expand3x3"
  top: "fire3/expand3x3"
}
layer {
  name: "fire3/concat"
  type: "Concat"
  bottom: "fire3/expand1x1"
  bottom: "fire3/expand3x3"
  top: "fire3/concat"
}
layer {
  name: "pool3"
  type: "Pooling"
  bottom: "fire3/concat"
  top: "pool3"
  pooling_param {
    pool: MAX
    kernel_size: 3
    stride: 2
  }
}
layer {
  name: "fire4/squeeze1x1"
  type: "Convolution"
  bottom: "pool3"
  top: "fire4/squeeze1x1"
  convolution_param {
    num_output: 32
    kernel_size: 1
    weight_filler {
      type: "xavier"
    }
  }
}
layer {
  name: "fire4/expand1x1"
  type: "Convolution"
  bottom: "fire4/squeeze1x1"
  top: "fire4/expand1x1"
  convolution_param {
    num_output: 128
    kernel_size: 1
    weight_filler {
      type: "xavier"
    }
  }
}
layer {
  name: "fire4/relu_expand1x1"
  type: "ReLU"
  bottom: "fire4/expand1x1"
  top: "fire4/expand1x1"
}
layer {
  name: "fire4/expand3x3"
  type: "Convolution"
  bottom: "fire4/squeeze1x1"
  top: "fire4/expand3x3"
  convolution_param {
    num_output: 128
    pad: 1
    kernel_size: 3
    weight_filler {
      type: "xavier"
    }
  }
}
layer {
  name: "fire4/relu_expand3x3"
  type: "ReLU"
  bottom: "fire4/expand3x3"
  top: "fire4/expand3x3"
}
layer {
  name: "fire4/concat"
  type: "Concat"
  bottom: "fire4/expand1x1"
  bottom: "fire4/expand3x3"
  top: "fire4/concat"
}
layer {
  name: "fire5/squeeze1x1"
  type: "Convolution"
  bottom: "fire4/concat"
  top: "fire5/squeeze1x1"
  convolution_param {
    num_output: 32
    kernel_size: 1
    weight_filler {
      type: "xavier"
    }
  }
}
layer {
  name: "fire5/expand1x1"
  type: "Convolution"
  bottom: "fire5/squeeze1x1"
  top: "fire5/expand1x1"
  convolution_param {
    num_output: 128
    kernel_size: 1
    weight_filler {
      type: "xavier"
    }
  }
}
layer {
  name: "fire5/relu_expand1x1"
  type: "ReLU"
  bottom: "fire5/expand1x1"
  top: "fire5/expand1x1"
}
layer {
  name: "fire5/expand3x3"
  type: "Convolution"
  bottom: "fire5/squeeze1x1"
  top: "fire5/expand3x3"
  convolution_param {
    num_output: 128
    pad: 1
    kernel_size: 3
    weight_filler {
      type: "xavier"
    }
  }
}
layer {
  name: "fire5/relu_expand3x3"
  type: "ReLU"
  bottom: "fire5/expand3x3"
  top: "fire5/expand3x3"
}
layer {
  name: "fire5/concat"
  type: "Concat"
  bottom: "fire5/expand1x1"
  bottom: "fire5/expand3x3"
  top: "fire5/concat"
}
layer {
  name: "pool5"
  type: "Pooling"
  bottom: "fire5/concat"
  top: "pool5"
  pooling_param {
    pool: MAX
    kernel_size: 3
    stride: 2
  }
}
layer {
  name: "fire6/squeeze1x1"
  type: "Convolution"
  bottom: "pool5"
  top: "fire6/squeeze1x1"
  convolution_param {
    num_output: 48
    kernel_size: 1
    weight_filler {
      type: "xavier"
    }
  }
}
layer {
  name: "fire6/expand1x1"
  type: "Convolution"
  bottom: "fire6/squeeze1x1"
  top: "fire6/expand1x1"
  convolution_param {
    num_output: 192
    kernel_size: 1
    weight_filler {
      type: "xavier"
    }
  }
}
layer {
  name: "fire6/relu_expand1x1"
  type: "ReLU"
  bottom: "fire6/expand1x1"
  top: "fire6/expand1x1"
}
layer {
  name: "fire6/expand3x3"
  type: "Convolution"
  bottom: "fire6/squeeze1x1"
  top: "fire6/expand3x3"
  convolution_param {
    num_output: 192
    pad: 1
    kernel_size: 3
    weight_filler {
      type: "xavier"
    }
  }
}
layer {
  name: "fire6/relu_expand3x3"
  type: "ReLU"
  bottom: "fire6/expand3x3"
  top: "fire6/expand3x3"
}
layer {
  name: "fire6/concat"
  type: "Concat"
  bottom: "fire6/expand1x1"
  bottom: "fire6/expand3x3"
  top: "fire6/concat"
}
layer {
  name: "fire7/squeeze1x1"
  type: "Convolution"
  bottom: "fire6/concat"
  top: "fire7/squeeze1x1"
  convolution_param {
    num_output: 48
    kernel_size: 1
    weight_filler {
      type: "xavier"
    }
  }
}
layer {
  name: "fire7/expand1x1"
  type: "Convolution"
  bottom: "fire7/squeeze1x1"
  top: "fire7/expand1x1"
  convolution_param {
    num_output: 192
    kernel_size: 1
    weight_filler {
      type: "xavier"
    }
  }
}
layer {
  name: "fire7/relu_expand1x1"
  type: "ReLU"
  bottom: "fire7/expand1x1"
  top: "fire7/expand1x1"
}
layer {
  name: "fire7/expand3x3"
  type: "Convolution"
  bottom: "fire7/squeeze1x1"
  top: "fire7/expand3x3"
  convolution_param {
    num_output: 192
    pad: 1
    kernel_size: 3
    weight_filler {
      type: "xavier"
    }
  }
}
layer {
  name: "fire7/relu_expand3x3"
  type: "ReLU"
  bottom: "fire7/expand3x3"
  top: "fire7/expand3x3"
}
layer {
  name: "fire7/concat"
  type: "Concat"
  bottom: "fire7/expand1x1"
  bottom: "fire7/expand3x3"
  top: "fire7/concat"
}
layer {
  name: "fire8/squeeze1x1"
  type: "Convolution"
  bottom: "fire7/concat"
  top: "fire8/squeeze1x1"
  convolution_param {
    num_output: 64
    kernel_size: 1
    weight_filler {
      type: "xavier"
    }
  }
}
layer {
  name: "fire8/expand1x1"
  type: "Convolution"
  bottom: "fire8/squeeze1x1"
  top: "fire8/expand1x1"
  convolution_param {
    num_output: 256
    kernel_size: 1
    weight_filler {
      type: "xavier"
    }
  }
}
layer {
  name: "fire8/relu_expand1x1"
  type: "ReLU"
  bottom: "fire8/expand1x1"
  top: "fire8/expand1x1"
}
layer {
  name: "fire8/expand3x3"
  type: "Convolution"
  bottom: "fire8/squeeze1x1"
  top: "fire8/expand3x3"
  convolution_param {
    num_output: 256
    pad: 1
    kernel_size: 3
    weight_filler {
      type: "xavier"
    }
  }
}
layer {
  name: "fire8/relu_expand3x3"
  type: "ReLU"
  bottom: "fire8/expand3x3"
  top: "fire8/expand3x3"
}
layer {
  name: "fire8/concat"
  type: "Concat"
  bottom: "fire8/expand1x1"
  bottom: "fire8/expand3x3"
  top: "fire8/concat"
}
layer {
  name: "fire9/squeeze1x1"
  type: "Convolution"
  bottom: "fire8/concat"
  top: "fire9/squeeze1x1"
  convolution_param {
    num_output: 64
    kernel_size: 1
    weight_filler {
      type: "xavier"
    }
  }
}
layer {
  name: "fire9/expand1x1"
  type: "Convolution"
  bottom: "fire9/squeeze1x1"
  top: "fire9/expand1x1"
  convolution_param {
    num_output: 256
    kernel_size: 1
    weight_filler {
      type: "xavier"
    }
  }
}
layer {
  name: "fire9/relu_expand1x1"
  type: "ReLU"
  bottom: "fire9/expand1x1"
  top: "fire9/expand1x1"
}
layer {
  name: "fire9/expand3x3"
  type: "Convolution"
  bottom: "fire9/squeeze1x1"
  top: "fire9/expand3x3"
  convolution_param {
    num_output: 256
    pad: 1
    kernel_size: 3
    weight_filler {
      type: "xavier"
    }
  }
}
layer {
  name: "fire9/relu_expand3x3"
  type: "ReLU"
  bottom: "fire9/expand3x3"
  top: "fire9/expand3x3"
}
layer {
  name: "fire9/concat"
  type: "Concat"
  bottom: "fire9/expand1x1"
  bottom: "fire9/expand3x3"
  top: "fire9/concat"
}
layer {
  name: "drop9"
  type: "Dropout"
  bottom: "fire9/concat"
  top: "fire9/concat"
  dropout_param {
    dropout_ratio: 0.5
  }
}
layer {
  name: "conv10_2626"
  type: "Convolution"
  bottom: "fire9/concat"
  top: "conv10_2626"
  param {
    lr_mult: 10
    decay_mult: 1
  }
  convolution_param {
    num_output: 2626
    kernel_size: 1
    weight_filler {
      type: "gaussian"
      mean: 0
      std: 0.01
    }
  }
}
layer {
  name: "relu_conv10"
  type: "ReLU"
  bottom: "conv10_2626"
  top: "conv10_2626"
}
layer {
  name: "pool10"
  type: "Pooling"
  bottom: "conv10_2626"
  top: "pool10"
  pooling_param {
    pool: AVE
    global_pooling: true
  }
}
layer {
  name: "loss"
  type: "SoftmaxWithLoss"
  bottom: "pool10"
  bottom: "label"
  top: "loss"
}
I1024 08:49:08.138216 32491 layer_factory.hpp:77] Creating layer data
I1024 08:49:08.147673 32491 net.cpp:100] Creating Layer data
I1024 08:49:08.147697 32491 net.cpp:408] data -> data
I1024 08:49:08.161485 32491 net.cpp:408] data -> label
I1024 08:49:08.161563 32491 data_transformer.cpp:25] Loading mean file from: /share/zhh/mean.binaryproto
I1024 08:49:08.205437 32509 db_lmdb.cpp:35] Opened lmdb /share/front/train_lmdb
I1024 08:49:08.335386 32491 data_layer.cpp:41] output data size: 128,3,227,227
I1024 08:49:08.485849 32491 net.cpp:150] Setting up data
I1024 08:49:08.485914 32491 net.cpp:157] Top shape: 128 3 227 227 (19787136)
I1024 08:49:08.485924 32491 net.cpp:157] Top shape: 128 (128)
I1024 08:49:08.485929 32491 net.cpp:165] Memory required for data: 79149056
I1024 08:49:08.485946 32491 layer_factory.hpp:77] Creating layer conv1
I1024 08:49:08.486024 32491 net.cpp:100] Creating Layer conv1
I1024 08:49:08.486049 32491 net.cpp:434] conv1 <- data
I1024 08:49:08.486069 32491 net.cpp:408] conv1 -> conv1
I1024 08:49:08.500608 32510 blocking_queue.cpp:50] Waiting for data
I1024 08:49:09.893721 32491 net.cpp:150] Setting up conv1
I1024 08:49:09.893858 32491 net.cpp:157] Top shape: 128 64 113 113 (104603648)
I1024 08:49:09.893959 32491 net.cpp:165] Memory required for data: 497563648
I1024 08:49:09.894075 32491 layer_factory.hpp:77] Creating layer relu_conv1
I1024 08:49:09.894162 32491 net.cpp:100] Creating Layer relu_conv1
I1024 08:49:09.894191 32491 net.cpp:434] relu_conv1 <- conv1
I1024 08:49:09.894227 32491 net.cpp:395] relu_conv1 -> conv1 (in-place)
I1024 08:49:09.918423 32491 net.cpp:150] Setting up relu_conv1
I1024 08:49:09.918483 32491 net.cpp:157] Top shape: 128 64 113 113 (104603648)
I1024 08:49:09.918501 32491 net.cpp:165] Memory required for data: 915978240
I1024 08:49:09.918517 32491 layer_factory.hpp:77] Creating layer pool1
I1024 08:49:09.918565 32491 net.cpp:100] Creating Layer pool1
I1024 08:49:09.918587 32491 net.cpp:434] pool1 <- conv1
I1024 08:49:09.918625 32491 net.cpp:408] pool1 -> pool1
I1024 08:49:09.918972 32491 net.cpp:150] Setting up pool1
I1024 08:49:09.919010 32491 net.cpp:157] Top shape: 128 64 56 56 (25690112)
I1024 08:49:09.919029 32491 net.cpp:165] Memory required for data: 1018738688
I1024 08:49:09.919054 32491 layer_factory.hpp:77] Creating layer fire2/squeeze1x1
I1024 08:49:09.919119 32491 net.cpp:100] Creating Layer fire2/squeeze1x1
I1024 08:49:09.919148 32491 net.cpp:434] fire2/squeeze1x1 <- pool1
I1024 08:49:09.919193 32491 net.cpp:408] fire2/squeeze1x1 -> fire2/squeeze1x1
I1024 08:49:09.927004 32491 net.cpp:150] Setting up fire2/squeeze1x1
I1024 08:49:09.927103 32491 net.cpp:157] Top shape: 128 16 56 56 (6422528)
I1024 08:49:09.927141 32491 net.cpp:165] Memory required for data: 1044428800
I1024 08:49:09.927213 32491 layer_factory.hpp:77] Creating layer fire2/squeeze1x1_fire2/squeeze1x1_0_split
I1024 08:49:09.927762 32491 net.cpp:100] Creating Layer fire2/squeeze1x1_fire2/squeeze1x1_0_split
I1024 08:49:09.927850 32491 net.cpp:434] fire2/squeeze1x1_fire2/squeeze1x1_0_split <- fire2/squeeze1x1
I1024 08:49:09.927908 32491 net.cpp:408] fire2/squeeze1x1_fire2/squeeze1x1_0_split -> fire2/squeeze1x1_fire2/squeeze1x1_0_split_0
I1024 08:49:09.927983 32491 net.cpp:408] fire2/squeeze1x1_fire2/squeeze1x1_0_split -> fire2/squeeze1x1_fire2/squeeze1x1_0_split_1
I1024 08:49:09.928356 32491 net.cpp:150] Setting up fire2/squeeze1x1_fire2/squeeze1x1_0_split
I1024 08:49:09.928401 32491 net.cpp:157] Top shape: 128 16 56 56 (6422528)
I1024 08:49:09.928447 32491 net.cpp:157] Top shape: 128 16 56 56 (6422528)
I1024 08:49:09.928474 32491 net.cpp:165] Memory required for data: 1095809024
I1024 08:49:09.928488 32491 layer_factory.hpp:77] Creating layer fire2/expand1x1
I1024 08:49:09.928549 32491 net.cpp:100] Creating Layer fire2/expand1x1
I1024 08:49:09.928586 32491 net.cpp:434] fire2/expand1x1 <- fire2/squeeze1x1_fire2/squeeze1x1_0_split_0
I1024 08:49:09.928618 32491 net.cpp:408] fire2/expand1x1 -> fire2/expand1x1
I1024 08:49:09.935726 32491 net.cpp:150] Setting up fire2/expand1x1
I1024 08:49:09.935822 32491 net.cpp:157] Top shape: 128 64 56 56 (25690112)
I1024 08:49:09.935856 32491 net.cpp:165] Memory required for data: 1198569472
I1024 08:49:09.935940 32491 layer_factory.hpp:77] Creating layer fire2/relu_expand1x1
I1024 08:49:09.935995 32491 net.cpp:100] Creating Layer fire2/relu_expand1x1
I1024 08:49:09.936027 32491 net.cpp:434] fire2/relu_expand1x1 <- fire2/expand1x1
I1024 08:49:09.936065 32491 net.cpp:395] fire2/relu_expand1x1 -> fire2/expand1x1 (in-place)
I1024 08:49:09.937880 32491 net.cpp:150] Setting up fire2/relu_expand1x1
I1024 08:49:09.937937 32491 net.cpp:157] Top shape: 128 64 56 56 (25690112)
I1024 08:49:09.937961 32491 net.cpp:165] Memory required for data: 1301329920
I1024 08:49:09.937974 32491 layer_factory.hpp:77] Creating layer fire2/expand3x3
I1024 08:49:09.938047 32491 net.cpp:100] Creating Layer fire2/expand3x3
I1024 08:49:09.938081 32491 net.cpp:434] fire2/expand3x3 <- fire2/squeeze1x1_fire2/squeeze1x1_0_split_1
I1024 08:49:09.938133 32491 net.cpp:408] fire2/expand3x3 -> fire2/expand3x3
I1024 08:49:09.945180 32491 net.cpp:150] Setting up fire2/expand3x3
I1024 08:49:09.945266 32491 net.cpp:157] Top shape: 128 64 56 56 (25690112)
I1024 08:49:09.945297 32491 net.cpp:165] Memory required for data: 1404090368
I1024 08:49:09.945408 32491 layer_factory.hpp:77] Creating layer fire2/relu_expand3x3
I1024 08:49:09.945454 32491 net.cpp:100] Creating Layer fire2/relu_expand3x3
I1024 08:49:09.945482 32491 net.cpp:434] fire2/relu_expand3x3 <- fire2/expand3x3
I1024 08:49:09.945529 32491 net.cpp:395] fire2/relu_expand3x3 -> fire2/expand3x3 (in-place)
I1024 08:49:09.946533 32491 net.cpp:150] Setting up fire2/relu_expand3x3
I1024 08:49:09.946578 32491 net.cpp:157] Top shape: 128 64 56 56 (25690112)
I1024 08:49:09.946599 32491 net.cpp:165] Memory required for data: 1506850816
I1024 08:49:09.946615 32491 layer_factory.hpp:77] Creating layer fire2/concat
I1024 08:49:09.958465 32491 net.cpp:100] Creating Layer fire2/concat
I1024 08:49:09.958498 32491 net.cpp:434] fire2/concat <- fire2/expand1x1
I1024 08:49:09.958513 32491 net.cpp:434] fire2/concat <- fire2/expand3x3
I1024 08:49:09.958531 32491 net.cpp:408] fire2/concat -> fire2/concat
I1024 08:49:09.958614 32491 net.cpp:150] Setting up fire2/concat
I1024 08:49:09.958650 32491 net.cpp:157] Top shape: 128 128 56 56 (51380224)
I1024 08:49:09.958657 32491 net.cpp:165] Memory required for data: 1712371712
I1024 08:49:09.958665 32491 layer_factory.hpp:77] Creating layer fire3/squeeze1x1
I1024 08:49:09.958684 32491 net.cpp:100] Creating Layer fire3/squeeze1x1
I1024 08:49:09.958704 32491 net.cpp:434] fire3/squeeze1x1 <- fire2/concat
I1024 08:49:09.958721 32491 net.cpp:408] fire3/squeeze1x1 -> fire3/squeeze1x1
I1024 08:49:09.964418 32491 net.cpp:150] Setting up fire3/squeeze1x1
I1024 08:49:09.964453 32491 net.cpp:157] Top shape: 128 16 56 56 (6422528)
I1024 08:49:09.964464 32491 net.cpp:165] Memory required for data: 1738061824
I1024 08:49:09.964486 32491 layer_factory.hpp:77] Creating layer fire3/squeeze1x1_fire3/squeeze1x1_0_split
I1024 08:49:09.964505 32491 net.cpp:100] Creating Layer fire3/squeeze1x1_fire3/squeeze1x1_0_split
I1024 08:49:09.964529 32491 net.cpp:434] fire3/squeeze1x1_fire3/squeeze1x1_0_split <- fire3/squeeze1x1
I1024 08:49:09.964542 32491 net.cpp:408] fire3/squeeze1x1_fire3/squeeze1x1_0_split -> fire3/squeeze1x1_fire3/squeeze1x1_0_split_0
I1024 08:49:09.964565 32491 net.cpp:408] fire3/squeeze1x1_fire3/squeeze1x1_0_split -> fire3/squeeze1x1_fire3/squeeze1x1_0_split_1
I1024 08:49:09.964692 32491 net.cpp:150] Setting up fire3/squeeze1x1_fire3/squeeze1x1_0_split
I1024 08:49:09.964720 32491 net.cpp:157] Top shape: 128 16 56 56 (6422528)
I1024 08:49:09.964728 32491 net.cpp:157] Top shape: 128 16 56 56 (6422528)
I1024 08:49:09.964735 32491 net.cpp:165] Memory required for data: 1789442048
I1024 08:49:09.964751 32491 layer_factory.hpp:77] Creating layer fire3/expand1x1
I1024 08:49:09.964779 32491 net.cpp:100] Creating Layer fire3/expand1x1
I1024 08:49:09.964795 32491 net.cpp:434] fire3/expand1x1 <- fire3/squeeze1x1_fire3/squeeze1x1_0_split_0
I1024 08:49:09.964809 32491 net.cpp:408] fire3/expand1x1 -> fire3/expand1x1
I1024 08:49:09.969463 32491 net.cpp:150] Setting up fire3/expand1x1
I1024 08:49:09.969537 32491 net.cpp:157] Top shape: 128 64 56 56 (25690112)
I1024 08:49:09.969566 32491 net.cpp:165] Memory required for data: 1892202496
I1024 08:49:09.969594 32491 layer_factory.hpp:77] Creating layer fire3/relu_expand1x1
I1024 08:49:09.969632 32491 net.cpp:100] Creating Layer fire3/relu_expand1x1
I1024 08:49:09.969669 32491 net.cpp:434] fire3/relu_expand1x1 <- fire3/expand1x1
I1024 08:49:09.969708 32491 net.cpp:395] fire3/relu_expand1x1 -> fire3/expand1x1 (in-place)
I1024 08:49:09.970691 32491 net.cpp:150] Setting up fire3/relu_expand1x1
I1024 08:49:09.970715 32491 net.cpp:157] Top shape: 128 64 56 56 (25690112)
I1024 08:49:09.970728 32491 net.cpp:165] Memory required for data: 1994962944
I1024 08:49:09.970752 32491 layer_factory.hpp:77] Creating layer fire3/expand3x3
I1024 08:49:09.970775 32491 net.cpp:100] Creating Layer fire3/expand3x3
I1024 08:49:09.970793 32491 net.cpp:434] fire3/expand3x3 <- fire3/squeeze1x1_fire3/squeeze1x1_0_split_1
I1024 08:49:09.970821 32491 net.cpp:408] fire3/expand3x3 -> fire3/expand3x3
I1024 08:49:09.976613 32491 net.cpp:150] Setting up fire3/expand3x3
I1024 08:49:09.976737 32491 net.cpp:157] Top shape: 128 64 56 56 (25690112)
I1024 08:49:09.976764 32491 net.cpp:165] Memory required for data: 2097723392
I1024 08:49:09.976778 32491 layer_factory.hpp:77] Creating layer fire3/relu_expand3x3
I1024 08:49:09.976811 32491 net.cpp:100] Creating Layer fire3/relu_expand3x3
I1024 08:49:09.976833 32491 net.cpp:434] fire3/relu_expand3x3 <- fire3/expand3x3
I1024 08:49:09.976864 32491 net.cpp:395] fire3/relu_expand3x3 -> fire3/expand3x3 (in-place)
I1024 08:49:09.978304 32491 net.cpp:150] Setting up fire3/relu_expand3x3
I1024 08:49:09.978356 32491 net.cpp:157] Top shape: 128 64 56 56 (25690112)
I1024 08:49:09.978365 32491 net.cpp:165] Memory required for data: 2200483840
I1024 08:49:09.978377 32491 layer_factory.hpp:77] Creating layer fire3/concat
I1024 08:49:09.978416 32491 net.cpp:100] Creating Layer fire3/concat
I1024 08:49:09.978441 32491 net.cpp:434] fire3/concat <- fire3/expand1x1
I1024 08:49:09.978471 32491 net.cpp:434] fire3/concat <- fire3/expand3x3
I1024 08:49:09.978503 32491 net.cpp:408] fire3/concat -> fire3/concat
I1024 08:49:09.978668 32491 net.cpp:150] Setting up fire3/concat
I1024 08:49:09.978706 32491 net.cpp:157] Top shape: 128 128 56 56 (51380224)
I1024 08:49:09.978727 32491 net.cpp:165] Memory required for data: 2406004736
I1024 08:49:09.978749 32491 layer_factory.hpp:77] Creating layer pool3
I1024 08:49:09.978787 32491 net.cpp:100] Creating Layer pool3
I1024 08:49:09.978812 32491 net.cpp:434] pool3 <- fire3/concat
I1024 08:49:09.978842 32491 net.cpp:408] pool3 -> pool3
I1024 08:49:09.979060 32491 net.cpp:150] Setting up pool3
I1024 08:49:09.979099 32491 net.cpp:157] Top shape: 128 128 28 28 (12845056)
I1024 08:49:09.979120 32491 net.cpp:165] Memory required for data: 2457384960
I1024 08:49:09.979142 32491 layer_factory.hpp:77] Creating layer fire4/squeeze1x1
I1024 08:49:09.979189 32491 net.cpp:100] Creating Layer fire4/squeeze1x1
I1024 08:49:09.979212 32491 net.cpp:434] fire4/squeeze1x1 <- pool3
I1024 08:49:09.979245 32491 net.cpp:408] fire4/squeeze1x1 -> fire4/squeeze1x1
I1024 08:49:09.984119 32491 net.cpp:150] Setting up fire4/squeeze1x1
I1024 08:49:09.984190 32491 net.cpp:157] Top shape: 128 32 28 28 (3211264)
I1024 08:49:09.984216 32491 net.cpp:165] Memory required for data: 2470230016
I1024 08:49:09.984258 32491 layer_factory.hpp:77] Creating layer fire4/squeeze1x1_fire4/squeeze1x1_0_split
I1024 08:49:09.984299 32491 net.cpp:100] Creating Layer fire4/squeeze1x1_fire4/squeeze1x1_0_split
I1024 08:49:09.984325 32491 net.cpp:434] fire4/squeeze1x1_fire4/squeeze1x1_0_split <- fire4/squeeze1x1
I1024 08:49:09.984361 32491 net.cpp:408] fire4/squeeze1x1_fire4/squeeze1x1_0_split -> fire4/squeeze1x1_fire4/squeeze1x1_0_split_0
I1024 08:49:09.984395 32491 net.cpp:408] fire4/squeeze1x1_fire4/squeeze1x1_0_split -> fire4/squeeze1x1_fire4/squeeze1x1_0_split_1
I1024 08:49:09.984619 32491 net.cpp:150] Setting up fire4/squeeze1x1_fire4/squeeze1x1_0_split
I1024 08:49:09.984658 32491 net.cpp:157] Top shape: 128 32 28 28 (3211264)
I1024 08:49:09.984685 32491 net.cpp:157] Top shape: 128 32 28 28 (3211264)
I1024 08:49:09.984707 32491 net.cpp:165] Memory required for data: 2495920128
I1024 08:49:09.984730 32491 layer_factory.hpp:77] Creating layer fire4/expand1x1
I1024 08:49:09.984778 32491 net.cpp:100] Creating Layer fire4/expand1x1
I1024 08:49:09.984802 32491 net.cpp:434] fire4/expand1x1 <- fire4/squeeze1x1_fire4/squeeze1x1_0_split_0
I1024 08:49:09.984827 32491 net.cpp:408] fire4/expand1x1 -> fire4/expand1x1
I1024 08:49:09.990427 32491 net.cpp:150] Setting up fire4/expand1x1
I1024 08:49:09.990495 32491 net.cpp:157] Top shape: 128 128 28 28 (12845056)
I1024 08:49:09.990519 32491 net.cpp:165] Memory required for data: 2547300352
I1024 08:49:09.990572 32491 layer_factory.hpp:77] Creating layer fire4/relu_expand1x1
I1024 08:49:09.990614 32491 net.cpp:100] Creating Layer fire4/relu_expand1x1
I1024 08:49:09.990638 32491 net.cpp:434] fire4/relu_expand1x1 <- fire4/expand1x1
I1024 08:49:09.990669 32491 net.cpp:395] fire4/relu_expand1x1 -> fire4/expand1x1 (in-place)
I1024 08:49:09.992025 32491 net.cpp:150] Setting up fire4/relu_expand1x1
I1024 08:49:09.992089 32491 net.cpp:157] Top shape: 128 128 28 28 (12845056)
I1024 08:49:09.992112 32491 net.cpp:165] Memory required for data: 2598680576
I1024 08:49:09.992135 32491 layer_factory.hpp:77] Creating layer fire4/expand3x3
I1024 08:49:09.992183 32491 net.cpp:100] Creating Layer fire4/expand3x3
I1024 08:49:09.992208 32491 net.cpp:434] fire4/expand3x3 <- fire4/squeeze1x1_fire4/squeeze1x1_0_split_1
I1024 08:49:09.992243 32491 net.cpp:408] fire4/expand3x3 -> fire4/expand3x3
I1024 08:49:09.998445 32491 net.cpp:150] Setting up fire4/expand3x3
I1024 08:49:09.998471 32491 net.cpp:157] Top shape: 128 128 28 28 (12845056)
I1024 08:49:09.998481 32491 net.cpp:165] Memory required for data: 2650060800
I1024 08:49:09.998499 32491 layer_factory.hpp:77] Creating layer fire4/relu_expand3x3
I1024 08:49:09.998510 32491 net.cpp:100] Creating Layer fire4/relu_expand3x3
I1024 08:49:09.998517 32491 net.cpp:434] fire4/relu_expand3x3 <- fire4/expand3x3
I1024 08:49:09.998528 32491 net.cpp:395] fire4/relu_expand3x3 -> fire4/expand3x3 (in-place)
I1024 08:49:09.999049 32491 net.cpp:150] Setting up fire4/relu_expand3x3
I1024 08:49:09.999070 32491 net.cpp:157] Top shape: 128 128 28 28 (12845056)
I1024 08:49:09.999076 32491 net.cpp:165] Memory required for data: 2701441024
I1024 08:49:09.999083 32491 layer_factory.hpp:77] Creating layer fire4/concat
I1024 08:49:09.999094 32491 net.cpp:100] Creating Layer fire4/concat
I1024 08:49:09.999100 32491 net.cpp:434] fire4/concat <- fire4/expand1x1
I1024 08:49:09.999109 32491 net.cpp:434] fire4/concat <- fire4/expand3x3
I1024 08:49:09.999116 32491 net.cpp:408] fire4/concat -> fire4/concat
I1024 08:49:09.999166 32491 net.cpp:150] Setting up fire4/concat
I1024 08:49:09.999178 32491 net.cpp:157] Top shape: 128 256 28 28 (25690112)
I1024 08:49:09.999183 32491 net.cpp:165] Memory required for data: 2804201472
I1024 08:49:09.999188 32491 layer_factory.hpp:77] Creating layer fire5/squeeze1x1
I1024 08:49:09.999202 32491 net.cpp:100] Creating Layer fire5/squeeze1x1
I1024 08:49:09.999210 32491 net.cpp:434] fire5/squeeze1x1 <- fire4/concat
I1024 08:49:09.999219 32491 net.cpp:408] fire5/squeeze1x1 -> fire5/squeeze1x1
I1024 08:49:10.003339 32491 net.cpp:150] Setting up fire5/squeeze1x1
I1024 08:49:10.003387 32491 net.cpp:157] Top shape: 128 32 28 28 (3211264)
I1024 08:49:10.003396 32491 net.cpp:165] Memory required for data: 2817046528
I1024 08:49:10.003427 32491 layer_factory.hpp:77] Creating layer fire5/squeeze1x1_fire5/squeeze1x1_0_split
I1024 08:49:10.003458 32491 net.cpp:100] Creating Layer fire5/squeeze1x1_fire5/squeeze1x1_0_split
I1024 08:49:10.003475 32491 net.cpp:434] fire5/squeeze1x1_fire5/squeeze1x1_0_split <- fire5/squeeze1x1
I1024 08:49:10.003504 32491 net.cpp:408] fire5/squeeze1x1_fire5/squeeze1x1_0_split -> fire5/squeeze1x1_fire5/squeeze1x1_0_split_0
I1024 08:49:10.003530 32491 net.cpp:408] fire5/squeeze1x1_fire5/squeeze1x1_0_split -> fire5/squeeze1x1_fire5/squeeze1x1_0_split_1
I1024 08:49:10.003685 32491 net.cpp:150] Setting up fire5/squeeze1x1_fire5/squeeze1x1_0_split
I1024 08:49:10.003715 32491 net.cpp:157] Top shape: 128 32 28 28 (3211264)
I1024 08:49:10.003723 32491 net.cpp:157] Top shape: 128 32 28 28 (3211264)
I1024 08:49:10.003737 32491 net.cpp:165] Memory required for data: 2842736640
I1024 08:49:10.003756 32491 layer_factory.hpp:77] Creating layer fire5/expand1x1
I1024 08:49:10.003787 32491 net.cpp:100] Creating Layer fire5/expand1x1
I1024 08:49:10.003803 32491 net.cpp:434] fire5/expand1x1 <- fire5/squeeze1x1_fire5/squeeze1x1_0_split_0
I1024 08:49:10.003816 32491 net.cpp:408] fire5/expand1x1 -> fire5/expand1x1
I1024 08:49:10.007957 32491 net.cpp:150] Setting up fire5/expand1x1
I1024 08:49:10.007990 32491 net.cpp:157] Top shape: 128 128 28 28 (12845056)
I1024 08:49:10.007999 32491 net.cpp:165] Memory required for data: 2894116864
I1024 08:49:10.008014 32491 layer_factory.hpp:77] Creating layer fire5/relu_expand1x1
I1024 08:49:10.008024 32491 net.cpp:100] Creating Layer fire5/relu_expand1x1
I1024 08:49:10.008064 32491 net.cpp:434] fire5/relu_expand1x1 <- fire5/expand1x1
I1024 08:49:10.008080 32491 net.cpp:395] fire5/relu_expand1x1 -> fire5/expand1x1 (in-place)
I1024 08:49:10.008636 32491 net.cpp:150] Setting up fire5/relu_expand1x1
I1024 08:49:10.008654 32491 net.cpp:157] Top shape: 128 128 28 28 (12845056)
I1024 08:49:10.008659 32491 net.cpp:165] Memory required for data: 2945497088
I1024 08:49:10.008668 32491 layer_factory.hpp:77] Creating layer fire5/expand3x3
I1024 08:49:10.008709 32491 net.cpp:100] Creating Layer fire5/expand3x3
I1024 08:49:10.008730 32491 net.cpp:434] fire5/expand3x3 <- fire5/squeeze1x1_fire5/squeeze1x1_0_split_1
I1024 08:49:10.008766 32491 net.cpp:408] fire5/expand3x3 -> fire5/expand3x3
I1024 08:49:10.014178 32491 net.cpp:150] Setting up fire5/expand3x3
I1024 08:49:10.014222 32491 net.cpp:157] Top shape: 128 128 28 28 (12845056)
I1024 08:49:10.014230 32491 net.cpp:165] Memory required for data: 2996877312
I1024 08:49:10.014258 32491 layer_factory.hpp:77] Creating layer fire5/relu_expand3x3
I1024 08:49:10.014284 32491 net.cpp:100] Creating Layer fire5/relu_expand3x3
I1024 08:49:10.014303 32491 net.cpp:434] fire5/relu_expand3x3 <- fire5/expand3x3
I1024 08:49:10.014314 32491 net.cpp:395] fire5/relu_expand3x3 -> fire5/expand3x3 (in-place)
I1024 08:49:10.014987 32491 net.cpp:150] Setting up fire5/relu_expand3x3
I1024 08:49:10.015019 32491 net.cpp:157] Top shape: 128 128 28 28 (12845056)
I1024 08:49:10.015025 32491 net.cpp:165] Memory required for data: 3048257536
I1024 08:49:10.015039 32491 layer_factory.hpp:77] Creating layer fire5/concat
I1024 08:49:10.015074 32491 net.cpp:100] Creating Layer fire5/concat
I1024 08:49:10.015091 32491 net.cpp:434] fire5/concat <- fire5/expand1x1
I1024 08:49:10.015100 32491 net.cpp:434] fire5/concat <- fire5/expand3x3
I1024 08:49:10.015113 32491 net.cpp:408] fire5/concat -> fire5/concat
I1024 08:49:10.015215 32491 net.cpp:150] Setting up fire5/concat
I1024 08:49:10.015226 32491 net.cpp:157] Top shape: 128 256 28 28 (25690112)
I1024 08:49:10.015235 32491 net.cpp:165] Memory required for data: 3151017984
I1024 08:49:10.015240 32491 layer_factory.hpp:77] Creating layer pool5
I1024 08:49:10.015249 32491 net.cpp:100] Creating Layer pool5
I1024 08:49:10.015264 32491 net.cpp:434] pool5 <- fire5/concat
I1024 08:49:10.015290 32491 net.cpp:408] pool5 -> pool5
I1024 08:49:10.015436 32491 net.cpp:150] Setting up pool5
I1024 08:49:10.015460 32491 net.cpp:157] Top shape: 128 256 14 14 (6422528)
I1024 08:49:10.015465 32491 net.cpp:165] Memory required for data: 3176708096
I1024 08:49:10.015470 32491 layer_factory.hpp:77] Creating layer fire6/squeeze1x1
I1024 08:49:10.015507 32491 net.cpp:100] Creating Layer fire6/squeeze1x1
I1024 08:49:10.015525 32491 net.cpp:434] fire6/squeeze1x1 <- pool5
I1024 08:49:10.015533 32491 net.cpp:408] fire6/squeeze1x1 -> fire6/squeeze1x1
I1024 08:49:10.020022 32491 net.cpp:150] Setting up fire6/squeeze1x1
I1024 08:49:10.020068 32491 net.cpp:157] Top shape: 128 48 14 14 (1204224)
I1024 08:49:10.020076 32491 net.cpp:165] Memory required for data: 3181524992
I1024 08:49:10.020103 32491 layer_factory.hpp:77] Creating layer fire6/squeeze1x1_fire6/squeeze1x1_0_split
I1024 08:49:10.020133 32491 net.cpp:100] Creating Layer fire6/squeeze1x1_fire6/squeeze1x1_0_split
I1024 08:49:10.020153 32491 net.cpp:434] fire6/squeeze1x1_fire6/squeeze1x1_0_split <- fire6/squeeze1x1
I1024 08:49:10.020175 32491 net.cpp:408] fire6/squeeze1x1_fire6/squeeze1x1_0_split -> fire6/squeeze1x1_fire6/squeeze1x1_0_split_0
I1024 08:49:10.020203 32491 net.cpp:408] fire6/squeeze1x1_fire6/squeeze1x1_0_split -> fire6/squeeze1x1_fire6/squeeze1x1_0_split_1
I1024 08:49:10.020383 32491 net.cpp:150] Setting up fire6/squeeze1x1_fire6/squeeze1x1_0_split
I1024 08:49:10.020412 32491 net.cpp:157] Top shape: 128 48 14 14 (1204224)
I1024 08:49:10.020419 32491 net.cpp:157] Top shape: 128 48 14 14 (1204224)
I1024 08:49:10.020431 32491 net.cpp:165] Memory required for data: 3191158784
I1024 08:49:10.020445 32491 layer_factory.hpp:77] Creating layer fire6/expand1x1
I1024 08:49:10.020481 32491 net.cpp:100] Creating Layer fire6/expand1x1
I1024 08:49:10.020534 32491 net.cpp:434] fire6/expand1x1 <- fire6/squeeze1x1_fire6/squeeze1x1_0_split_0
I1024 08:49:10.020565 32491 net.cpp:408] fire6/expand1x1 -> fire6/expand1x1
I1024 08:49:10.023242 32491 net.cpp:150] Setting up fire6/expand1x1
I1024 08:49:10.023263 32491 net.cpp:157] Top shape: 128 192 14 14 (4816896)
I1024 08:49:10.023269 32491 net.cpp:165] Memory required for data: 3210426368
I1024 08:49:10.023279 32491 layer_factory.hpp:77] Creating layer fire6/relu_expand1x1
I1024 08:49:10.023294 32491 net.cpp:100] Creating Layer fire6/relu_expand1x1
I1024 08:49:10.023300 32491 net.cpp:434] fire6/relu_expand1x1 <- fire6/expand1x1
I1024 08:49:10.023308 32491 net.cpp:395] fire6/relu_expand1x1 -> fire6/expand1x1 (in-place)
I1024 08:49:10.023882 32491 net.cpp:150] Setting up fire6/relu_expand1x1
I1024 08:49:10.023917 32491 net.cpp:157] Top shape: 128 192 14 14 (4816896)
I1024 08:49:10.023923 32491 net.cpp:165] Memory required for data: 3229693952
I1024 08:49:10.023929 32491 layer_factory.hpp:77] Creating layer fire6/expand3x3
I1024 08:49:10.023943 32491 net.cpp:100] Creating Layer fire6/expand3x3
I1024 08:49:10.023949 32491 net.cpp:434] fire6/expand3x3 <- fire6/squeeze1x1_fire6/squeeze1x1_0_split_1
I1024 08:49:10.023973 32491 net.cpp:408] fire6/expand3x3 -> fire6/expand3x3
I1024 08:49:10.030720 32491 net.cpp:150] Setting up fire6/expand3x3
I1024 08:49:10.030774 32491 net.cpp:157] Top shape: 128 192 14 14 (4816896)
I1024 08:49:10.030791 32491 net.cpp:165] Memory required for data: 3248961536
I1024 08:49:10.030817 32491 layer_factory.hpp:77] Creating layer fire6/relu_expand3x3
I1024 08:49:10.030845 32491 net.cpp:100] Creating Layer fire6/relu_expand3x3
I1024 08:49:10.030860 32491 net.cpp:434] fire6/relu_expand3x3 <- fire6/expand3x3
I1024 08:49:10.030881 32491 net.cpp:395] fire6/relu_expand3x3 -> fire6/expand3x3 (in-place)
I1024 08:49:10.031792 32491 net.cpp:150] Setting up fire6/relu_expand3x3
I1024 08:49:10.031818 32491 net.cpp:157] Top shape: 128 192 14 14 (4816896)
I1024 08:49:10.031823 32491 net.cpp:165] Memory required for data: 3268229120
I1024 08:49:10.031829 32491 layer_factory.hpp:77] Creating layer fire6/concat
I1024 08:49:10.031839 32491 net.cpp:100] Creating Layer fire6/concat
I1024 08:49:10.031844 32491 net.cpp:434] fire6/concat <- fire6/expand1x1
I1024 08:49:10.031852 32491 net.cpp:434] fire6/concat <- fire6/expand3x3
I1024 08:49:10.031862 32491 net.cpp:408] fire6/concat -> fire6/concat
I1024 08:49:10.031916 32491 net.cpp:150] Setting up fire6/concat
I1024 08:49:10.031929 32491 net.cpp:157] Top shape: 128 384 14 14 (9633792)
I1024 08:49:10.031932 32491 net.cpp:165] Memory required for data: 3306764288
I1024 08:49:10.031937 32491 layer_factory.hpp:77] Creating layer fire7/squeeze1x1
I1024 08:49:10.031952 32491 net.cpp:100] Creating Layer fire7/squeeze1x1
I1024 08:49:10.031963 32491 net.cpp:434] fire7/squeeze1x1 <- fire6/concat
I1024 08:49:10.031975 32491 net.cpp:408] fire7/squeeze1x1 -> fire7/squeeze1x1
I1024 08:49:10.035555 32491 net.cpp:150] Setting up fire7/squeeze1x1
I1024 08:49:10.035588 32491 net.cpp:157] Top shape: 128 48 14 14 (1204224)
I1024 08:49:10.035593 32491 net.cpp:165] Memory required for data: 3311581184
I1024 08:49:10.035615 32491 layer_factory.hpp:77] Creating layer fire7/squeeze1x1_fire7/squeeze1x1_0_split
I1024 08:49:10.035650 32491 net.cpp:100] Creating Layer fire7/squeeze1x1_fire7/squeeze1x1_0_split
I1024 08:49:10.035661 32491 net.cpp:434] fire7/squeeze1x1_fire7/squeeze1x1_0_split <- fire7/squeeze1x1
I1024 08:49:10.035670 32491 net.cpp:408] fire7/squeeze1x1_fire7/squeeze1x1_0_split -> fire7/squeeze1x1_fire7/squeeze1x1_0_split_0
I1024 08:49:10.035701 32491 net.cpp:408] fire7/squeeze1x1_fire7/squeeze1x1_0_split -> fire7/squeeze1x1_fire7/squeeze1x1_0_split_1
I1024 08:49:10.035790 32491 net.cpp:150] Setting up fire7/squeeze1x1_fire7/squeeze1x1_0_split
I1024 08:49:10.035814 32491 net.cpp:157] Top shape: 128 48 14 14 (1204224)
I1024 08:49:10.035828 32491 net.cpp:157] Top shape: 128 48 14 14 (1204224)
I1024 08:49:10.035833 32491 net.cpp:165] Memory required for data: 3321214976
I1024 08:49:10.035872 32491 layer_factory.hpp:77] Creating layer fire7/expand1x1
I1024 08:49:10.035893 32491 net.cpp:100] Creating Layer fire7/expand1x1
I1024 08:49:10.035910 32491 net.cpp:434] fire7/expand1x1 <- fire7/squeeze1x1_fire7/squeeze1x1_0_split_0
I1024 08:49:10.035928 32491 net.cpp:408] fire7/expand1x1 -> fire7/expand1x1
I1024 08:49:10.039187 32491 net.cpp:150] Setting up fire7/expand1x1
I1024 08:49:10.039227 32491 net.cpp:157] Top shape: 128 192 14 14 (4816896)
I1024 08:49:10.039232 32491 net.cpp:165] Memory required for data: 3340482560
I1024 08:49:10.039252 32491 layer_factory.hpp:77] Creating layer fire7/relu_expand1x1
I1024 08:49:10.039278 32491 net.cpp:100] Creating Layer fire7/relu_expand1x1
I1024 08:49:10.039295 32491 net.cpp:434] fire7/relu_expand1x1 <- fire7/expand1x1
I1024 08:49:10.039314 32491 net.cpp:395] fire7/relu_expand1x1 -> fire7/expand1x1 (in-place)
I1024 08:49:10.039899 32491 net.cpp:150] Setting up fire7/relu_expand1x1
I1024 08:49:10.039933 32491 net.cpp:157] Top shape: 128 192 14 14 (4816896)
I1024 08:49:10.039952 32491 net.cpp:165] Memory required for data: 3359750144
I1024 08:49:10.039966 32491 layer_factory.hpp:77] Creating layer fire7/expand3x3
I1024 08:49:10.039996 32491 net.cpp:100] Creating Layer fire7/expand3x3
I1024 08:49:10.040012 32491 net.cpp:434] fire7/expand3x3 <- fire7/squeeze1x1_fire7/squeeze1x1_0_split_1
I1024 08:49:10.040038 32491 net.cpp:408] fire7/expand3x3 -> fire7/expand3x3
I1024 08:49:10.045858 32491 net.cpp:150] Setting up fire7/expand3x3
I1024 08:49:10.045897 32491 net.cpp:157] Top shape: 128 192 14 14 (4816896)
I1024 08:49:10.045910 32491 net.cpp:165] Memory required for data: 3379017728
I1024 08:49:10.045931 32491 layer_factory.hpp:77] Creating layer fire7/relu_expand3x3
I1024 08:49:10.045949 32491 net.cpp:100] Creating Layer fire7/relu_expand3x3
I1024 08:49:10.045964 32491 net.cpp:434] fire7/relu_expand3x3 <- fire7/expand3x3
I1024 08:49:10.045994 32491 net.cpp:395] fire7/relu_expand3x3 -> fire7/expand3x3 (in-place)
I1024 08:49:10.046613 32491 net.cpp:150] Setting up fire7/relu_expand3x3
I1024 08:49:10.046641 32491 net.cpp:157] Top shape: 128 192 14 14 (4816896)
I1024 08:49:10.046646 32491 net.cpp:165] Memory required for data: 3398285312
I1024 08:49:10.046653 32491 layer_factory.hpp:77] Creating layer fire7/concat
I1024 08:49:10.046675 32491 net.cpp:100] Creating Layer fire7/concat
I1024 08:49:10.046682 32491 net.cpp:434] fire7/concat <- fire7/expand1x1
I1024 08:49:10.046694 32491 net.cpp:434] fire7/concat <- fire7/expand3x3
I1024 08:49:10.046715 32491 net.cpp:408] fire7/concat -> fire7/concat
I1024 08:49:10.046813 32491 net.cpp:150] Setting up fire7/concat
I1024 08:49:10.046838 32491 net.cpp:157] Top shape: 128 384 14 14 (9633792)
I1024 08:49:10.046850 32491 net.cpp:165] Memory required for data: 3436820480
I1024 08:49:10.046866 32491 layer_factory.hpp:77] Creating layer fire8/squeeze1x1
I1024 08:49:10.046893 32491 net.cpp:100] Creating Layer fire8/squeeze1x1
I1024 08:49:10.046906 32491 net.cpp:434] fire8/squeeze1x1 <- fire7/concat
I1024 08:49:10.046924 32491 net.cpp:408] fire8/squeeze1x1 -> fire8/squeeze1x1
I1024 08:49:10.050871 32491 net.cpp:150] Setting up fire8/squeeze1x1
I1024 08:49:10.050909 32491 net.cpp:157] Top shape: 128 64 14 14 (1605632)
I1024 08:49:10.050915 32491 net.cpp:165] Memory required for data: 3443243008
I1024 08:49:10.050932 32491 layer_factory.hpp:77] Creating layer fire8/squeeze1x1_fire8/squeeze1x1_0_split
I1024 08:49:10.050952 32491 net.cpp:100] Creating Layer fire8/squeeze1x1_fire8/squeeze1x1_0_split
I1024 08:49:10.050966 32491 net.cpp:434] fire8/squeeze1x1_fire8/squeeze1x1_0_split <- fire8/squeeze1x1
I1024 08:49:10.050994 32491 net.cpp:408] fire8/squeeze1x1_fire8/squeeze1x1_0_split -> fire8/squeeze1x1_fire8/squeeze1x1_0_split_0
I1024 08:49:10.051018 32491 net.cpp:408] fire8/squeeze1x1_fire8/squeeze1x1_0_split -> fire8/squeeze1x1_fire8/squeeze1x1_0_split_1
I1024 08:49:10.051131 32491 net.cpp:150] Setting up fire8/squeeze1x1_fire8/squeeze1x1_0_split
I1024 08:49:10.051151 32491 net.cpp:157] Top shape: 128 64 14 14 (1605632)
I1024 08:49:10.051183 32491 net.cpp:157] Top shape: 128 64 14 14 (1605632)
I1024 08:49:10.051194 32491 net.cpp:165] Memory required for data: 3456088064
I1024 08:49:10.051205 32491 layer_factory.hpp:77] Creating layer fire8/expand1x1
I1024 08:49:10.051234 32491 net.cpp:100] Creating Layer fire8/expand1x1
I1024 08:49:10.051250 32491 net.cpp:434] fire8/expand1x1 <- fire8/squeeze1x1_fire8/squeeze1x1_0_split_0
I1024 08:49:10.051268 32491 net.cpp:408] fire8/expand1x1 -> fire8/expand1x1
I1024 08:49:10.056661 32491 net.cpp:150] Setting up fire8/expand1x1
I1024 08:49:10.056684 32491 net.cpp:157] Top shape: 128 256 14 14 (6422528)
I1024 08:49:10.056689 32491 net.cpp:165] Memory required for data: 3481778176
I1024 08:49:10.056699 32491 layer_factory.hpp:77] Creating layer fire8/relu_expand1x1
I1024 08:49:10.056707 32491 net.cpp:100] Creating Layer fire8/relu_expand1x1
I1024 08:49:10.056713 32491 net.cpp:434] fire8/relu_expand1x1 <- fire8/expand1x1
I1024 08:49:10.056722 32491 net.cpp:395] fire8/relu_expand1x1 -> fire8/expand1x1 (in-place)
I1024 08:49:10.057196 32491 net.cpp:150] Setting up fire8/relu_expand1x1
I1024 08:49:10.057216 32491 net.cpp:157] Top shape: 128 256 14 14 (6422528)
I1024 08:49:10.057221 32491 net.cpp:165] Memory required for data: 3507468288
I1024 08:49:10.057226 32491 layer_factory.hpp:77] Creating layer fire8/expand3x3
I1024 08:49:10.057238 32491 net.cpp:100] Creating Layer fire8/expand3x3
I1024 08:49:10.057245 32491 net.cpp:434] fire8/expand3x3 <- fire8/squeeze1x1_fire8/squeeze1x1_0_split_1
I1024 08:49:10.057252 32491 net.cpp:408] fire8/expand3x3 -> fire8/expand3x3
I1024 08:49:10.062147 32491 net.cpp:150] Setting up fire8/expand3x3
I1024 08:49:10.062204 32491 net.cpp:157] Top shape: 128 256 14 14 (6422528)
I1024 08:49:10.062219 32491 net.cpp:165] Memory required for data: 3533158400
I1024 08:49:10.062245 32491 layer_factory.hpp:77] Creating layer fire8/relu_expand3x3
I1024 08:49:10.062271 32491 net.cpp:100] Creating Layer fire8/relu_expand3x3
I1024 08:49:10.062294 32491 net.cpp:434] fire8/relu_expand3x3 <- fire8/expand3x3
I1024 08:49:10.062314 32491 net.cpp:395] fire8/relu_expand3x3 -> fire8/expand3x3 (in-place)
I1024 08:49:10.063179 32491 net.cpp:150] Setting up fire8/relu_expand3x3
I1024 08:49:10.063238 32491 net.cpp:157] Top shape: 128 256 14 14 (6422528)
I1024 08:49:10.063247 32491 net.cpp:165] Memory required for data: 3558848512
I1024 08:49:10.063271 32491 layer_factory.hpp:77] Creating layer fire8/concat
I1024 08:49:10.063294 32491 net.cpp:100] Creating Layer fire8/concat
I1024 08:49:10.063308 32491 net.cpp:434] fire8/concat <- fire8/expand1x1
I1024 08:49:10.063325 32491 net.cpp:434] fire8/concat <- fire8/expand3x3
I1024 08:49:10.063351 32491 net.cpp:408] fire8/concat -> fire8/concat
I1024 08:49:10.063477 32491 net.cpp:150] Setting up fire8/concat
I1024 08:49:10.063510 32491 net.cpp:157] Top shape: 128 512 14 14 (12845056)
I1024 08:49:10.063534 32491 net.cpp:165] Memory required for data: 3610228736
I1024 08:49:10.063545 32491 layer_factory.hpp:77] Creating layer fire9/squeeze1x1
I1024 08:49:10.063573 32491 net.cpp:100] Creating Layer fire9/squeeze1x1
I1024 08:49:10.063587 32491 net.cpp:434] fire9/squeeze1x1 <- fire8/concat
I1024 08:49:10.063606 32491 net.cpp:408] fire9/squeeze1x1 -> fire9/squeeze1x1
I1024 08:49:10.067411 32491 net.cpp:150] Setting up fire9/squeeze1x1
I1024 08:49:10.067459 32491 net.cpp:157] Top shape: 128 64 14 14 (1605632)
I1024 08:49:10.067473 32491 net.cpp:165] Memory required for data: 3616651264
I1024 08:49:10.067497 32491 layer_factory.hpp:77] Creating layer fire9/squeeze1x1_fire9/squeeze1x1_0_split
I1024 08:49:10.067519 32491 net.cpp:100] Creating Layer fire9/squeeze1x1_fire9/squeeze1x1_0_split
I1024 08:49:10.067541 32491 net.cpp:434] fire9/squeeze1x1_fire9/squeeze1x1_0_split <- fire9/squeeze1x1
I1024 08:49:10.067567 32491 net.cpp:408] fire9/squeeze1x1_fire9/squeeze1x1_0_split -> fire9/squeeze1x1_fire9/squeeze1x1_0_split_0
I1024 08:49:10.067592 32491 net.cpp:408] fire9/squeeze1x1_fire9/squeeze1x1_0_split -> fire9/squeeze1x1_fire9/squeeze1x1_0_split_1
I1024 08:49:10.067744 32491 net.cpp:150] Setting up fire9/squeeze1x1_fire9/squeeze1x1_0_split
I1024 08:49:10.067798 32491 net.cpp:157] Top shape: 128 64 14 14 (1605632)
I1024 08:49:10.067806 32491 net.cpp:157] Top shape: 128 64 14 14 (1605632)
I1024 08:49:10.067817 32491 net.cpp:165] Memory required for data: 3629496320
I1024 08:49:10.067831 32491 layer_factory.hpp:77] Creating layer fire9/expand1x1
I1024 08:49:10.067848 32491 net.cpp:100] Creating Layer fire9/expand1x1
I1024 08:49:10.067862 32491 net.cpp:434] fire9/expand1x1 <- fire9/squeeze1x1_fire9/squeeze1x1_0_split_0
I1024 08:49:10.067879 32491 net.cpp:408] fire9/expand1x1 -> fire9/expand1x1
I1024 08:49:10.071468 32491 net.cpp:150] Setting up fire9/expand1x1
I1024 08:49:10.071514 32491 net.cpp:157] Top shape: 128 256 14 14 (6422528)
I1024 08:49:10.071524 32491 net.cpp:165] Memory required for data: 3655186432
I1024 08:49:10.071553 32491 layer_factory.hpp:77] Creating layer fire9/relu_expand1x1
I1024 08:49:10.071573 32491 net.cpp:100] Creating Layer fire9/relu_expand1x1
I1024 08:49:10.071588 32491 net.cpp:434] fire9/relu_expand1x1 <- fire9/expand1x1
I1024 08:49:10.071636 32491 net.cpp:395] fire9/relu_expand1x1 -> fire9/expand1x1 (in-place)
I1024 08:49:10.072559 32491 net.cpp:150] Setting up fire9/relu_expand1x1
I1024 08:49:10.072605 32491 net.cpp:157] Top shape: 128 256 14 14 (6422528)
I1024 08:49:10.072618 32491 net.cpp:165] Memory required for data: 3680876544
I1024 08:49:10.072639 32491 layer_factory.hpp:77] Creating layer fire9/expand3x3
I1024 08:49:10.072669 32491 net.cpp:100] Creating Layer fire9/expand3x3
I1024 08:49:10.072684 32491 net.cpp:434] fire9/expand3x3 <- fire9/squeeze1x1_fire9/squeeze1x1_0_split_1
I1024 08:49:10.072715 32491 net.cpp:408] fire9/expand3x3 -> fire9/expand3x3
I1024 08:49:10.080183 32491 net.cpp:150] Setting up fire9/expand3x3
I1024 08:49:10.080229 32491 net.cpp:157] Top shape: 128 256 14 14 (6422528)
I1024 08:49:10.080242 32491 net.cpp:165] Memory required for data: 3706566656
I1024 08:49:10.080263 32491 layer_factory.hpp:77] Creating layer fire9/relu_expand3x3
I1024 08:49:10.080276 32491 net.cpp:100] Creating Layer fire9/relu_expand3x3
I1024 08:49:10.080291 32491 net.cpp:434] fire9/relu_expand3x3 <- fire9/expand3x3
I1024 08:49:10.080307 32491 net.cpp:395] fire9/relu_expand3x3 -> fire9/expand3x3 (in-place)
I1024 08:49:10.080574 32491 net.cpp:150] Setting up fire9/relu_expand3x3
I1024 08:49:10.080587 32491 net.cpp:157] Top shape: 128 256 14 14 (6422528)
I1024 08:49:10.080603 32491 net.cpp:165] Memory required for data: 3732256768
I1024 08:49:10.080610 32491 layer_factory.hpp:77] Creating layer fire9/concat
I1024 08:49:10.080617 32491 net.cpp:100] Creating Layer fire9/concat
I1024 08:49:10.080626 32491 net.cpp:434] fire9/concat <- fire9/expand1x1
I1024 08:49:10.080632 32491 net.cpp:434] fire9/concat <- fire9/expand3x3
I1024 08:49:10.080639 32491 net.cpp:408] fire9/concat -> fire9/concat
I1024 08:49:10.080682 32491 net.cpp:150] Setting up fire9/concat
I1024 08:49:10.080691 32491 net.cpp:157] Top shape: 128 512 14 14 (12845056)
I1024 08:49:10.080696 32491 net.cpp:165] Memory required for data: 3783636992
I1024 08:49:10.080701 32491 layer_factory.hpp:77] Creating layer drop9
I1024 08:49:10.080714 32491 net.cpp:100] Creating Layer drop9
I1024 08:49:10.080720 32491 net.cpp:434] drop9 <- fire9/concat
I1024 08:49:10.080727 32491 net.cpp:395] drop9 -> fire9/concat (in-place)
I1024 08:49:10.080768 32491 net.cpp:150] Setting up drop9
I1024 08:49:10.080780 32491 net.cpp:157] Top shape: 128 512 14 14 (12845056)
I1024 08:49:10.080785 32491 net.cpp:165] Memory required for data: 3835017216
I1024 08:49:10.080790 32491 layer_factory.hpp:77] Creating layer conv10_2626
I1024 08:49:10.080804 32491 net.cpp:100] Creating Layer conv10_2626
I1024 08:49:10.080812 32491 net.cpp:434] conv10_2626 <- fire9/concat
I1024 08:49:10.080821 32491 net.cpp:408] conv10_2626 -> conv10_2626
I1024 08:49:10.122437 32491 net.cpp:150] Setting up conv10_2626
I1024 08:49:10.122498 32491 net.cpp:157] Top shape: 128 2626 14 14 (65881088)
I1024 08:49:10.122505 32491 net.cpp:165] Memory required for data: 4098541568
I1024 08:49:10.122553 32491 layer_factory.hpp:77] Creating layer relu_conv10
I1024 08:49:10.122582 32491 net.cpp:100] Creating Layer relu_conv10
I1024 08:49:10.122591 32491 net.cpp:434] relu_conv10 <- conv10_2626
I1024 08:49:10.122606 32491 net.cpp:395] relu_conv10 -> conv10_2626 (in-place)
I1024 08:49:10.123163 32491 net.cpp:150] Setting up relu_conv10
I1024 08:49:10.123193 32491 net.cpp:157] Top shape: 128 2626 14 14 (65881088)
I1024 08:49:10.123199 32491 net.cpp:165] Memory required for data: 4362065920
I1024 08:49:10.123214 32491 layer_factory.hpp:77] Creating layer pool10
I1024 08:49:10.123229 32491 net.cpp:100] Creating Layer pool10
I1024 08:49:10.123236 32491 net.cpp:434] pool10 <- conv10_2626
I1024 08:49:10.123246 32491 net.cpp:408] pool10 -> pool10
I1024 08:49:10.123603 32491 net.cpp:150] Setting up pool10
I1024 08:49:10.123634 32491 net.cpp:157] Top shape: 128 2626 1 1 (336128)
I1024 08:49:10.123641 32491 net.cpp:165] Memory required for data: 4363410432
I1024 08:49:10.123647 32491 layer_factory.hpp:77] Creating layer loss
I1024 08:49:10.123658 32491 net.cpp:100] Creating Layer loss
I1024 08:49:10.123664 32491 net.cpp:434] loss <- pool10
I1024 08:49:10.123672 32491 net.cpp:434] loss <- label
I1024 08:49:10.123682 32491 net.cpp:408] loss -> loss
I1024 08:49:10.123986 32491 layer_factory.hpp:77] Creating layer loss
…
I1024 08:49:10.128115 32491 solver.cpp:181] Creating test net (#0) specified by net file: models/squeezenet_relu/train_val.prototxt
I1024 08:49:10.128283 32491 net.cpp:322] The NetState phase (1) differed from the phase (0) specified by a rule in layer data
I1024 08:49:10.128921 32491 net.cpp:58] Initializing net from parameters: 
state {
  phase: TEST
}
layer {
  name: "data"
  type: "Data"
  top: "data"
  top: "label"
  include {
    phase: TEST
  }
  transform_param {
    crop_size: 227
    mean_file: "/share/zhh/mean.binaryproto"
  }
  data_param {
    source: "/share/front/test_lmdb"
    batch_size: 100
    backend: LMDB
  }
}
layer {
  name: "conv1"
  type: "Convolution"
  bottom: "data"
  top: "conv1"
  convolution_param {
    num_output: 64
    kernel_size: 3
    stride: 2
    weight_filler {
      type: "xavier"
    }
  }
}
layer {
  name: "relu_conv1"
  type: "ReLU"
  bottom: "conv1"
  top: "conv1"
}
layer {
  name: "pool1"
  type: "Pooling"
  bottom: "conv1"
  top: "pool1"
  pooling_param {
    pool: MAX
    kernel_size: 3
    stride: 2
  }
}
layer {
  name: "fire2/squeeze1x1"
  type: "Convolution"
  bottom: "pool1"
  top: "fire2/squeeze1x1"
  convolution_param {
    num_output: 16
    kernel_size: 1
    weight_filler {
      type: "xavier"
    }
  }
}
layer {
  name: "fire2/expand1x1"
  type: "Convolution"
  bottom: "fire2/squeeze1x1"
  top: "fire2/expand1x1"
  convolution_param {
    num_output: 64
    kernel_size: 1
    weight_filler {
      type: "xavier"
    }
  }
}
layer {
  name: "fire2/relu_expand1x1"
  type: "ReLU"
  bottom: "fire2/expand1x1"
  top: "fire2/expand1x1"
}
layer {
  name: "fire2/expand3x3"
  type: "Convolution"
  bottom: "fire2/squeeze1x1"
  top: "fire2/expand3x3"
  convolution_param {
    num_output: 64
    pad: 1
    kernel_size: 3
    weight_filler {
      type: "xavier"
    }
  }
}
layer {
  name: "fire2/relu_expand3x3"
  type: "ReLU"
  bottom: "fire2/expand3x3"
  top: "fire2/expand3x3"
}
layer {
  name: "fire2/concat"
  type: "Concat"
  bottom: "fire2/expand1x1"
  bottom: "fire2/expand3x3"
  top: "fire2/concat"
}
layer {
  name: "fire3/squeeze1x1"
  type: "Convolution"
  bottom: "fire2/concat"
  top: "fire3/squeeze1x1"
  convolution_param {
    num_output: 16
    kernel_size: 1
    weight_filler {
      type: "xavier"
    }
  }
}
layer {
  name: "fire3/expand1x1"
  type: "Convolution"
  bottom: "fire3/squeeze1x1"
  top: "fire3/expand1x1"
  convolution_param {
    num_output: 64
    kernel_size: 1
    weight_filler {
      type: "xavier"
    }
  }
}
layer {
  name: "fire3/relu_expand1x1"
  type: "ReLU"
  bottom: "fire3/expand1x1"
  top: "fire3/expand1x1"
}
layer {
  name: "fire3/expand3x3"
  type: "Convolution"
  bottom: "fire3/squeeze1x1"
  top: "fire3/expand3x3"
  convolution_param {
    num_output: 64
    pad: 1
    kernel_size: 3
    weight_filler {
      type: "xavier"
    }
  }
}
layer {
  name: "fire3/relu_expand3x3"
  type: "ReLU"
  bottom: "fire3/expand3x3"
  top: "fire3/expand3x3"
}
layer {
  name: "fire3/concat"
  type: "Concat"
  bottom: "fire3/expand1x1"
  bottom: "fire3/expand3x3"
  top: "fire3/concat"
}
layer {
  name: "pool3"
  type: "Pooling"
  bottom: "fire3/concat"
  top: "pool3"
  pooling_param {
    pool: MAX
    kernel_size: 3
    stride: 2
  }
}
layer {
  name: "fire4/squeeze1x1"
  type: "Convolution"
  bottom: "pool3"
  top: "fire4/squeeze1x1"
  convolution_param {
    num_output: 32
    kernel_size: 1
    weight_filler {
      type: "xavier"
    }
  }
}
layer {
  name: "fire4/expand1x1"
  type: "Convolution"
  bottom: "fire4/squeeze1x1"
  top: "fire4/expand1x1"
  convolution_param {
    num_output: 128
    kernel_size: 1
    weight_filler {
      type: "xavier"
    }
  }
}
layer {
  name: "fire4/relu_expand1x1"
  type: "ReLU"
  bottom: "fire4/expand1x1"
  top: "fire4/expand1x1"
}
layer {
  name: "fire4/expand3x3"
  type: "Convolution"
  bottom: "fire4/squeeze1x1"
  top: "fire4/expand3x3"
  convolution_param {
    num_output: 128
    pad: 1
    kernel_size: 3
    weight_filler {
      type: "xavier"
    }
  }
}
layer {
  name: "fire4/relu_expand3x3"
  type: "ReLU"
  bottom: "fire4/expand3x3"
  top: "fire4/expand3x3"
}
layer {
  name: "fire4/concat"
  type: "Concat"
  bottom: "fire4/expand1x1"
  bottom: "fire4/expand3x3"
  top: "fire4/concat"
}
layer {
  name: "fire5/squeeze1x1"
  type: "Convolution"
  bottom: "fire4/concat"
  top: "fire5/squeeze1x1"
  convolution_param {
    num_output: 32
    kernel_size: 1
    weight_filler {
      type: "xavier"
    }
  }
}
layer {
  name: "fire5/expand1x1"
  type: "Convolution"
  bottom: "fire5/squeeze1x1"
  top: "fire5/expand1x1"
  convolution_param {
    num_output: 128
    kernel_size: 1
    weight_filler {
      type: "xavier"
    }
  }
}
layer {
  name: "fire5/relu_expand1x1"
  type: "ReLU"
  bottom: "fire5/expand1x1"
  top: "fire5/expand1x1"
}
layer {
  name: "fire5/expand3x3"
  type: "Convolution"
  bottom: "fire5/squeeze1x1"
  top: "fire5/expand3x3"
  convolution_param {
    num_output: 128
    pad: 1
    kernel_size: 3
    weight_filler {
      type: "xavier"
    }
  }
}
layer {
  name: "fire5/relu_expand3x3"
  type: "ReLU"
  bottom: "fire5/expand3x3"
  top: "fire5/expand3x3"
}
layer {
  name: "fire5/concat"
  type: "Concat"
  bottom: "fire5/expand1x1"
  bottom: "fire5/expand3x3"
  top: "fire5/concat"
}
layer {
  name: "pool5"
  type: "Pooling"
  bottom: "fire5/concat"
  top: "pool5"
  pooling_param {
    pool: MAX
    kernel_size: 3
    stride: 2
  }
}
layer {
  name: "fire6/squeeze1x1"
  type: "Convolution"
  bottom: "pool5"
  top: "fire6/squeeze1x1"
  convolution_param {
    num_output: 48
    kernel_size: 1
    weight_filler {
      type: "xavier"
    }
  }
}
layer {
  name: "fire6/expand1x1"
  type: "Convolution"
  bottom: "fire6/squeeze1x1"
  top: "fire6/expand1x1"
  convolution_param {
    num_output: 192
    kernel_size: 1
    weight_filler {
      type: "xavier"
    }
  }
}
layer {
  name: "fire6/relu_expand1x1"
  type: "ReLU"
  bottom: "fire6/expand1x1"
  top: "fire6/expand1x1"
}
layer {
  name: "fire6/expand3x3"
  type: "Convolution"
  bottom: "fire6/squeeze1x1"
  top: "fire6/expand3x3"
  convolution_param {
    num_output: 192
    pad: 1
    kernel_size: 3
    weight_filler {
      type: "xavier"
    }
  }
}
layer {
  name: "fire6/relu_expand3x3"
  type: "ReLU"
  bottom: "fire6/expand3x3"
  top: "fire6/expand3x3"
}
layer {
  name: "fire6/concat"
  type: "Concat"
  bottom: "fire6/expand1x1"
  bottom: "fire6/expand3x3"
  top: "fire6/concat"
}
layer {
  name: "fire7/squeeze1x1"
  type: "Convolution"
  bottom: "fire6/concat"
  top: "fire7/squeeze1x1"
  convolution_param {
    num_output: 48
    kernel_size: 1
    weight_filler {
      type: "xavier"
    }
  }
}
layer {
  name: "fire7/expand1x1"
  type: "Convolution"
  bottom: "fire7/squeeze1x1"
  top: "fire7/expand1x1"
  convolution_param {
    num_output: 192
    kernel_size: 1
    weight_filler {
      type: "xavier"
    }
  }
}
layer {
  name: "fire7/relu_expand1x1"
  type: "ReLU"
  bottom: "fire7/expand1x1"
  top: "fire7/expand1x1"
}
layer {
  name: "fire7/expand3x3"
  type: "Convolution"
  bottom: "fire7/squeeze1x1"
  top: "fire7/expand3x3"
  convolution_param {
    num_output: 192
    pad: 1
    kernel_size: 3
    weight_filler {
      type: "xavier"
    }
  }
}
layer {
  name: "fire7/relu_expand3x3"
  type: "ReLU"
  bottom: "fire7/expand3x3"
  top: "fire7/expand3x3"
}
layer {
  name: "fire7/concat"
  type: "Concat"
  bottom: "fire7/expand1x1"
  bottom: "fire7/expand3x3"
  top: "fire7/concat"
}
layer {
  name: "fire8/squeeze1x1"
  type: "Convolution"
  bottom: "fire7/concat"
  top: "fire8/squeeze1x1"
  convolution_param {
    num_output: 64
    kernel_size: 1
    weight_filler {
      type: "xavier"
    }
  }
}
layer {
  name: "fire8/expand1x1"
  type: "Convolution"
  bottom: "fire8/squeeze1x1"
  top: "fire8/expand1x1"
  convolution_param {
    num_output: 256
    kernel_size: 1
    weight_filler {
      type: "xavier"
    }
  }
}
layer {
  name: "fire8/relu_expand1x1"
  type: "ReLU"
  bottom: "fire8/expand1x1"
  top: "fire8/expand1x1"
}
layer {
  name: "fire8/expand3x3"
  type: "Convolution"
  bottom: "fire8/squeeze1x1"
  top: "fire8/expand3x3"
  convolution_param {
    num_output: 256
    pad: 1
    kernel_size: 3
    weight_filler {
      type: "xavier"
    }
  }
}
layer {
  name: "fire8/relu_expand3x3"
  type: "ReLU"
  bottom: "fire8/expand3x3"
  top: "fire8/expand3x3"
}
layer {
  name: "fire8/concat"
  type: "Concat"
  bottom: "fire8/expand1x1"
  bottom: "fire8/expand3x3"
  top: "fire8/concat"
}
layer {
  name: "fire9/squeeze1x1"
  type: "Convolution"
  bottom: "fire8/concat"
  top: "fire9/squeeze1x1"
  convolution_param {
    num_output: 64
    kernel_size: 1
    weight_filler {
      type: "xavier"
    }
  }
}
layer {
  name: "fire9/expand1x1"
  type: "Convolution"
  bottom: "fire9/squeeze1x1"
  top: "fire9/expand1x1"
  convolution_param {
    num_output: 256
    kernel_size: 1
    weight_filler {
      type: "xavier"
    }
  }
}
layer {
  name: "fire9/relu_expand1x1"
  type: "ReLU"
  bottom: "fire9/expand1x1"
  top: "fire9/expand1x1"
}
layer {
  name: "fire9/expand3x3"
  type: "Convolution"
  bottom: "fire9/squeeze1x1"
  top: "fire9/expand3x3"
  convolution_param {
    num_output: 256
    pad: 1
    kernel_size: 3
    weight_filler {
      type: "xavier"
    }
  }
}
layer {
  name: "fire9/relu_expand3x3"
  type: "ReLU"
  bottom: "fire9/expand3x3"
  top: "fire9/expand3x3"
}
layer {
  name: "fire9/concat"
  type: "Concat"
  bottom: "fire9/expand1x1"
  bottom: "fire9/expand3x3"
  top: "fire9/concat"
}
layer {
  name: "drop9"
  type: "Dropout"
  bottom: "fire9/concat"
  top: "fire9/concat"
  dropout_param {
    dropout_ratio: 0.5
  }
}
layer {
  name: "conv10_2626"
  type: "Convolution"
  bottom: "fire9/concat"
  top: "conv10_2626"
  param {
    lr_mult: 10
    decay_mult: 1
  }
  convolution_param {
    num_output: 2626
    kernel_size: 1
    weight_filler {
      type: "gaussian"
      mean: 0
      std: 0.01
    }
  }
}
layer {
  name: "relu_conv10"
  type: "ReLU"
  bottom: "conv10_2626"
  top: "conv10_2626"
}
layer {
  name: "pool10"
  type: "Pooling"
  bottom: "conv10_2626"
  top: "pool10"
  pooling_param {
    pool: AVE
    global_pooling: true
  }
}
layer {
  name: "loss"
  type: "SoftmaxWithLoss"
  bottom: "pool10"
  bottom: "label"
  top: "loss"
}
layer {
  name: "accuracy"
  type: "Accuracy"
  bottom: "pool10"
  bottom: "label"
  top: "accuracy"
  include {
    phase: TEST
  }
}
I1024 08:49:10.129382 32491 layer_factory.hpp:77] Creating layer data
I1024 08:49:10.129570 32491 net.cpp:100] Creating Layer data
I1024 08:49:10.129583 32491 net.cpp:408] data -> data
I1024 08:49:10.129603 32491 net.cpp:408] data -> label
I1024 08:49:10.129616 32491 data_transformer.cpp:25] Loading mean file from: /share/zhh/mean.binaryproto
I1024 08:49:10.159883 32511 db_lmdb.cpp:35] Opened lmdb /share/front/test_lmdb
I1024 08:49:10.191129 32491 data_layer.cpp:41] output data size: 100,3,227,227
I1024 08:49:10.324122 32491 net.cpp:150] Setting up data
I1024 08:49:10.324187 32491 net.cpp:157] Top shape: 100 3 227 227 (15458700)
I1024 08:49:10.324199 32491 net.cpp:157] Top shape: 100 (100)
I1024 08:49:10.324205 32491 net.cpp:165] Memory required for data: 61835200
I1024 08:49:10.324221 32491 layer_factory.hpp:77] Creating layer label_data_1_split
I1024 08:49:10.324240 32491 net.cpp:100] Creating Layer label_data_1_split
I1024 08:49:10.324254 32491 net.cpp:434] label_data_1_split <- label
I1024 08:49:10.324278 32491 net.cpp:408] label_data_1_split -> label_data_1_split_0
I1024 08:49:10.324304 32491 net.cpp:408] label_data_1_split -> label_data_1_split_1
I1024 08:49:10.324481 32491 net.cpp:150] Setting up label_data_1_split
I1024 08:49:10.324517 32491 net.cpp:157] Top shape: 100 (100)
I1024 08:49:10.324530 32491 net.cpp:157] Top shape: 100 (100)
I1024 08:49:10.324537 32491 net.cpp:165] Memory required for data: 61836000
I1024 08:49:10.324560 32491 layer_factory.hpp:77] Creating layer conv1
I1024 08:49:10.324604 32491 net.cpp:100] Creating Layer conv1
I1024 08:49:10.324632 32491 net.cpp:434] conv1 <- data
I1024 08:49:10.324651 32491 net.cpp:408] conv1 -> conv1
I1024 08:49:10.335602 32491 net.cpp:150] Setting up conv1
I1024 08:49:10.335654 32491 net.cpp:157] Top shape: 100 64 113 113 (81721600)
I1024 08:49:10.335666 32491 net.cpp:165] Memory required for data: 388722400
I1024 08:49:10.335695 32491 layer_factory.hpp:77] Creating layer relu_conv1
I1024 08:49:10.335737 32491 net.cpp:100] Creating Layer relu_conv1
I1024 08:49:10.335749 32491 net.cpp:434] relu_conv1 <- conv1
I1024 08:49:10.335775 32491 net.cpp:395] relu_conv1 -> conv1 (in-place)
I1024 08:49:10.336180 32491 net.cpp:150] Setting up relu_conv1
I1024 08:49:10.336213 32491 net.cpp:157] Top shape: 100 64 113 113 (81721600)
I1024 08:49:10.336223 32491 net.cpp:165] Memory required for data: 715608800
I1024 08:49:10.336261 32491 layer_factory.hpp:77] Creating layer pool1
I1024 08:49:10.336285 32491 net.cpp:100] Creating Layer pool1
I1024 08:49:10.336297 32491 net.cpp:434] pool1 <- conv1
I1024 08:49:10.336313 32491 net.cpp:408] pool1 -> pool1
I1024 08:49:10.336437 32491 net.cpp:150] Setting up pool1
I1024 08:49:10.336467 32491 net.cpp:157] Top shape: 100 64 56 56 (20070400)
I1024 08:49:10.336475 32491 net.cpp:165] Memory required for data: 795890400
I1024 08:49:10.336484 32491 layer_factory.hpp:77] Creating layer fire2/squeeze1x1
I1024 08:49:10.336516 32491 net.cpp:100] Creating Layer fire2/squeeze1x1
I1024 08:49:10.336526 32491 net.cpp:434] fire2/squeeze1x1 <- pool1
I1024 08:49:10.336540 32491 net.cpp:408] fire2/squeeze1x1 -> fire2/squeeze1x1
I1024 08:49:10.339133 32491 net.cpp:150] Setting up fire2/squeeze1x1
I1024 08:49:10.339171 32491 net.cpp:157] Top shape: 100 16 56 56 (5017600)
I1024 08:49:10.339180 32491 net.cpp:165] Memory required for data: 815960800
I1024 08:49:10.339215 32491 layer_factory.hpp:77] Creating layer fire2/squeeze1x1_fire2/squeeze1x1_0_split
I1024 08:49:10.339231 32491 net.cpp:100] Creating Layer fire2/squeeze1x1_fire2/squeeze1x1_0_split
I1024 08:49:10.339244 32491 net.cpp:434] fire2/squeeze1x1_fire2/squeeze1x1_0_split <- fire2/squeeze1x1
I1024 08:49:10.339262 32491 net.cpp:408] fire2/squeeze1x1_fire2/squeeze1x1_0_split -> fire2/squeeze1x1_fire2/squeeze1x1_0_split_0
I1024 08:49:10.339282 32491 net.cpp:408] fire2/squeeze1x1_fire2/squeeze1x1_0_split -> fire2/squeeze1x1_fire2/squeeze1x1_0_split_1
I1024 08:49:10.339392 32491 net.cpp:150] Setting up fire2/squeeze1x1_fire2/squeeze1x1_0_split
I1024 08:49:10.339408 32491 net.cpp:157] Top shape: 100 16 56 56 (5017600)
I1024 08:49:10.339423 32491 net.cpp:157] Top shape: 100 16 56 56 (5017600)
I1024 08:49:10.339435 32491 net.cpp:165] Memory required for data: 856101600
I1024 08:49:10.339447 32491 layer_factory.hpp:77] Creating layer fire2/expand1x1
I1024 08:49:10.339469 32491 net.cpp:100] Creating Layer fire2/expand1x1
I1024 08:49:10.339483 32491 net.cpp:434] fire2/expand1x1 <- fire2/squeeze1x1_fire2/squeeze1x1_0_split_0
I1024 08:49:10.339500 32491 net.cpp:408] fire2/expand1x1 -> fire2/expand1x1
I1024 08:49:10.342038 32491 net.cpp:150] Setting up fire2/expand1x1
I1024 08:49:10.342069 32491 net.cpp:157] Top shape: 100 64 56 56 (20070400)
I1024 08:49:10.342092 32491 net.cpp:165] Memory required for data: 936383200
I1024 08:49:10.342119 32491 layer_factory.hpp:77] Creating layer fire2/relu_expand1x1
I1024 08:49:10.342140 32491 net.cpp:100] Creating Layer fire2/relu_expand1x1
I1024 08:49:10.342154 32491 net.cpp:434] fire2/relu_expand1x1 <- fire2/expand1x1
I1024 08:49:10.342170 32491 net.cpp:395] fire2/relu_expand1x1 -> fire2/expand1x1 (in-place)
I1024 08:49:10.342583 32491 net.cpp:150] Setting up fire2/relu_expand1x1
I1024 08:49:10.342617 32491 net.cpp:157] Top shape: 100 64 56 56 (20070400)
I1024 08:49:10.342628 32491 net.cpp:165] Memory required for data: 1016664800
I1024 08:49:10.342640 32491 layer_factory.hpp:77] Creating layer fire2/expand3x3
I1024 08:49:10.342663 32491 net.cpp:100] Creating Layer fire2/expand3x3
I1024 08:49:10.342674 32491 net.cpp:434] fire2/expand3x3 <- fire2/squeeze1x1_fire2/squeeze1x1_0_split_1
I1024 08:49:10.342692 32491 net.cpp:408] fire2/expand3x3 -> fire2/expand3x3
I1024 08:49:10.345510 32491 net.cpp:150] Setting up fire2/expand3x3
I1024 08:49:10.345535 32491 net.cpp:157] Top shape: 100 64 56 56 (20070400)
I1024 08:49:10.345553 32491 net.cpp:165] Memory required for data: 1096946400
I1024 08:49:10.345568 32491 layer_factory.hpp:77] Creating layer fire2/relu_expand3x3
I1024 08:49:10.345587 32491 net.cpp:100] Creating Layer fire2/relu_expand3x3
I1024 08:49:10.345598 32491 net.cpp:434] fire2/relu_expand3x3 <- fire2/expand3x3
I1024 08:49:10.345616 32491 net.cpp:395] fire2/relu_expand3x3 -> fire2/expand3x3 (in-place)
I1024 08:49:10.346371 32491 net.cpp:150] Setting up fire2/relu_expand3x3
I1024 08:49:10.346400 32491 net.cpp:157] Top shape: 100 64 56 56 (20070400)
I1024 08:49:10.346410 32491 net.cpp:165] Memory required for data: 1177228000
I1024 08:49:10.346443 32491 layer_factory.hpp:77] Creating layer fire2/concat
I1024 08:49:10.346462 32491 net.cpp:100] Creating Layer fire2/concat
I1024 08:49:10.346474 32491 net.cpp:434] fire2/concat <- fire2/expand1x1
I1024 08:49:10.346489 32491 net.cpp:434] fire2/concat <- fire2/expand3x3
I1024 08:49:10.346505 32491 net.cpp:408] fire2/concat -> fire2/concat
I1024 08:49:10.346585 32491 net.cpp:150] Setting up fire2/concat
I1024 08:49:10.346604 32491 net.cpp:157] Top shape: 100 128 56 56 (40140800)
I1024 08:49:10.346613 32491 net.cpp:165] Memory required for data: 1337791200
I1024 08:49:10.346624 32491 layer_factory.hpp:77] Creating layer fire3/squeeze1x1
I1024 08:49:10.346645 32491 net.cpp:100] Creating Layer fire3/squeeze1x1
I1024 08:49:10.346657 32491 net.cpp:434] fire3/squeeze1x1 <- fire2/concat
I1024 08:49:10.346673 32491 net.cpp:408] fire3/squeeze1x1 -> fire3/squeeze1x1
I1024 08:49:10.348961 32491 net.cpp:150] Setting up fire3/squeeze1x1
I1024 08:49:10.348991 32491 net.cpp:157] Top shape: 100 16 56 56 (5017600)
I1024 08:49:10.349015 32491 net.cpp:165] Memory required for data: 1357861600
I1024 08:49:10.349042 32491 layer_factory.hpp:77] Creating layer fire3/squeeze1x1_fire3/squeeze1x1_0_split
I1024 08:49:10.349061 32491 net.cpp:100] Creating Layer fire3/squeeze1x1_fire3/squeeze1x1_0_split
I1024 08:49:10.349073 32491 net.cpp:434] fire3/squeeze1x1_fire3/squeeze1x1_0_split <- fire3/squeeze1x1
I1024 08:49:10.349090 32491 net.cpp:408] fire3/squeeze1x1_fire3/squeeze1x1_0_split -> fire3/squeeze1x1_fire3/squeeze1x1_0_split_0
I1024 08:49:10.349110 32491 net.cpp:408] fire3/squeeze1x1_fire3/squeeze1x1_0_split -> fire3/squeeze1x1_fire3/squeeze1x1_0_split_1
I1024 08:49:10.349218 32491 net.cpp:150] Setting up fire3/squeeze1x1_fire3/squeeze1x1_0_split
I1024 08:49:10.349237 32491 net.cpp:157] Top shape: 100 16 56 56 (5017600)
I1024 08:49:10.349252 32491 net.cpp:157] Top shape: 100 16 56 56 (5017600)
I1024 08:49:10.349263 32491 net.cpp:165] Memory required for data: 1398002400
I1024 08:49:10.349274 32491 layer_factory.hpp:77] Creating layer fire3/expand1x1
I1024 08:49:10.349295 32491 net.cpp:100] Creating Layer fire3/expand1x1
I1024 08:49:10.349305 32491 net.cpp:434] fire3/expand1x1 <- fire3/squeeze1x1_fire3/squeeze1x1_0_split_0
I1024 08:49:10.349323 32491 net.cpp:408] fire3/expand1x1 -> fire3/expand1x1
I1024 08:49:10.351971 32491 net.cpp:150] Setting up fire3/expand1x1
I1024 08:49:10.352000 32491 net.cpp:157] Top shape: 100 64 56 56 (20070400)
I1024 08:49:10.352025 32491 net.cpp:165] Memory required for data: 1478284000
I1024 08:49:10.352044 32491 layer_factory.hpp:77] Creating layer fire3/relu_expand1x1
I1024 08:49:10.352063 32491 net.cpp:100] Creating Layer fire3/relu_expand1x1
I1024 08:49:10.352077 32491 net.cpp:434] fire3/relu_expand1x1 <- fire3/expand1x1
I1024 08:49:10.352087 32491 net.cpp:395] fire3/relu_expand1x1 -> fire3/expand1x1 (in-place)
I1024 08:49:10.352847 32491 net.cpp:150] Setting up fire3/relu_expand1x1
I1024 08:49:10.352874 32491 net.cpp:157] Top shape: 100 64 56 56 (20070400)
I1024 08:49:10.352885 32491 net.cpp:165] Memory required for data: 1558565600
I1024 08:49:10.352898 32491 layer_factory.hpp:77] Creating layer fire3/expand3x3
I1024 08:49:10.352923 32491 net.cpp:100] Creating Layer fire3/expand3x3
I1024 08:49:10.352936 32491 net.cpp:434] fire3/expand3x3 <- fire3/squeeze1x1_fire3/squeeze1x1_0_split_1
I1024 08:49:10.352955 32491 net.cpp:408] fire3/expand3x3 -> fire3/expand3x3
I1024 08:49:10.355805 32491 net.cpp:150] Setting up fire3/expand3x3
I1024 08:49:10.355846 32491 net.cpp:157] Top shape: 100 64 56 56 (20070400)
I1024 08:49:10.355856 32491 net.cpp:165] Memory required for data: 1638847200
I1024 08:49:10.355890 32491 layer_factory.hpp:77] Creating layer fire3/relu_expand3x3
I1024 08:49:10.355918 32491 net.cpp:100] Creating Layer fire3/relu_expand3x3
I1024 08:49:10.355931 32491 net.cpp:434] fire3/relu_expand3x3 <- fire3/expand3x3
I1024 08:49:10.355959 32491 net.cpp:395] fire3/relu_expand3x3 -> fire3/expand3x3 (in-place)
I1024 08:49:10.356734 32491 net.cpp:150] Setting up fire3/relu_expand3x3
I1024 08:49:10.356781 32491 net.cpp:157] Top shape: 100 64 56 56 (20070400)
I1024 08:49:10.356792 32491 net.cpp:165] Memory required for data: 1719128800
I1024 08:49:10.356802 32491 layer_factory.hpp:77] Creating layer fire3/concat
I1024 08:49:10.356820 32491 net.cpp:100] Creating Layer fire3/concat
I1024 08:49:10.356832 32491 net.cpp:434] fire3/concat <- fire3/expand1x1
I1024 08:49:10.356861 32491 net.cpp:434] fire3/concat <- fire3/expand3x3
I1024 08:49:10.356874 32491 net.cpp:408] fire3/concat -> fire3/concat
I1024 08:49:10.356978 32491 net.cpp:150] Setting up fire3/concat
I1024 08:49:10.357007 32491 net.cpp:157] Top shape: 100 128 56 56 (40140800)
I1024 08:49:10.357017 32491 net.cpp:165] Memory required for data: 1879692000
I1024 08:49:10.357028 32491 layer_factory.hpp:77] Creating layer pool3
I1024 08:49:10.357045 32491 net.cpp:100] Creating Layer pool3
I1024 08:49:10.357056 32491 net.cpp:434] pool3 <- fire3/concat
I1024 08:49:10.357072 32491 net.cpp:408] pool3 -> pool3
I1024 08:49:10.357173 32491 net.cpp:150] Setting up pool3
I1024 08:49:10.357192 32491 net.cpp:157] Top shape: 100 128 28 28 (10035200)
I1024 08:49:10.357203 32491 net.cpp:165] Memory required for data: 1919832800
I1024 08:49:10.357213 32491 layer_factory.hpp:77] Creating layer fire4/squeeze1x1
I1024 08:49:10.357231 32491 net.cpp:100] Creating Layer fire4/squeeze1x1
I1024 08:49:10.357242 32491 net.cpp:434] fire4/squeeze1x1 <- pool3
I1024 08:49:10.357259 32491 net.cpp:408] fire4/squeeze1x1 -> fire4/squeeze1x1
I1024 08:49:10.359782 32491 net.cpp:150] Setting up fire4/squeeze1x1
I1024 08:49:10.359807 32491 net.cpp:157] Top shape: 100 32 28 28 (2508800)
I1024 08:49:10.359827 32491 net.cpp:165] Memory required for data: 1929868000
I1024 08:49:10.359841 32491 layer_factory.hpp:77] Creating layer fire4/squeeze1x1_fire4/squeeze1x1_0_split
I1024 08:49:10.359858 32491 net.cpp:100] Creating Layer fire4/squeeze1x1_fire4/squeeze1x1_0_split
I1024 08:49:10.359865 32491 net.cpp:434] fire4/squeeze1x1_fire4/squeeze1x1_0_split <- fire4/squeeze1x1
I1024 08:49:10.359876 32491 net.cpp:408] fire4/squeeze1x1_fire4/squeeze1x1_0_split -> fire4/squeeze1x1_fire4/squeeze1x1_0_split_0
I1024 08:49:10.359894 32491 net.cpp:408] fire4/squeeze1x1_fire4/squeeze1x1_0_split -> fire4/squeeze1x1_fire4/squeeze1x1_0_split_1
I1024 08:49:10.359973 32491 net.cpp:150] Setting up fire4/squeeze1x1_fire4/squeeze1x1_0_split
I1024 08:49:10.359992 32491 net.cpp:157] Top shape: 100 32 28 28 (2508800)
I1024 08:49:10.360003 32491 net.cpp:157] Top shape: 100 32 28 28 (2508800)
I1024 08:49:10.360010 32491 net.cpp:165] Memory required for data: 1949938400
I1024 08:49:10.360018 32491 layer_factory.hpp:77] Creating layer fire4/expand1x1
I1024 08:49:10.360034 32491 net.cpp:100] Creating Layer fire4/expand1x1
I1024 08:49:10.360046 32491 net.cpp:434] fire4/expand1x1 <- fire4/squeeze1x1_fire4/squeeze1x1_0_split_0
I1024 08:49:10.360057 32491 net.cpp:408] fire4/expand1x1 -> fire4/expand1x1
I1024 08:49:10.362771 32491 net.cpp:150] Setting up fire4/expand1x1
I1024 08:49:10.362797 32491 net.cpp:157] Top shape: 100 128 28 28 (10035200)
I1024 08:49:10.362820 32491 net.cpp:165] Memory required for data: 1990079200
I1024 08:49:10.362848 32491 layer_factory.hpp:77] Creating layer fire4/relu_expand1x1
I1024 08:49:10.362862 32491 net.cpp:100] Creating Layer fire4/relu_expand1x1
I1024 08:49:10.362875 32491 net.cpp:434] fire4/relu_expand1x1 <- fire4/expand1x1
I1024 08:49:10.362892 32491 net.cpp:395] fire4/relu_expand1x1 -> fire4/expand1x1 (in-place)
I1024 08:49:10.363292 32491 net.cpp:150] Setting up fire4/relu_expand1x1
I1024 08:49:10.363311 32491 net.cpp:157] Top shape: 100 128 28 28 (10035200)
I1024 08:49:10.363322 32491 net.cpp:165] Memory required for data: 2030220000
I1024 08:49:10.363333 32491 layer_factory.hpp:77] Creating layer fire4/expand3x3
I1024 08:49:10.363349 32491 net.cpp:100] Creating Layer fire4/expand3x3
I1024 08:49:10.363358 32491 net.cpp:434] fire4/expand3x3 <- fire4/squeeze1x1_fire4/squeeze1x1_0_split_1
I1024 08:49:10.363374 32491 net.cpp:408] fire4/expand3x3 -> fire4/expand3x3
I1024 08:49:10.366426 32491 net.cpp:150] Setting up fire4/expand3x3
I1024 08:49:10.366471 32491 net.cpp:157] Top shape: 100 128 28 28 (10035200)
I1024 08:49:10.366513 32491 net.cpp:165] Memory required for data: 2070360800
I1024 08:49:10.366525 32491 layer_factory.hpp:77] Creating layer fire4/relu_expand3x3
I1024 08:49:10.366541 32491 net.cpp:100] Creating Layer fire4/relu_expand3x3
I1024 08:49:10.366552 32491 net.cpp:434] fire4/relu_expand3x3 <- fire4/expand3x3
I1024 08:49:10.366565 32491 net.cpp:395] fire4/relu_expand3x3 -> fire4/expand3x3 (in-place)
I1024 08:49:10.367213 32491 net.cpp:150] Setting up fire4/relu_expand3x3
I1024 08:49:10.367239 32491 net.cpp:157] Top shape: 100 128 28 28 (10035200)
I1024 08:49:10.367247 32491 net.cpp:165] Memory required for data: 2110501600
I1024 08:49:10.367257 32491 layer_factory.hpp:77] Creating layer fire4/concat
I1024 08:49:10.367269 32491 net.cpp:100] Creating Layer fire4/concat
I1024 08:49:10.367281 32491 net.cpp:434] fire4/concat <- fire4/expand1x1
I1024 08:49:10.367292 32491 net.cpp:434] fire4/concat <- fire4/expand3x3
I1024 08:49:10.367303 32491 net.cpp:408] fire4/concat -> fire4/concat
I1024 08:49:10.367364 32491 net.cpp:150] Setting up fire4/concat
I1024 08:49:10.367378 32491 net.cpp:157] Top shape: 100 256 28 28 (20070400)
I1024 08:49:10.367389 32491 net.cpp:165] Memory required for data: 2190783200
I1024 08:49:10.367398 32491 layer_factory.hpp:77] Creating layer fire5/squeeze1x1
I1024 08:49:10.367413 32491 net.cpp:100] Creating Layer fire5/squeeze1x1
I1024 08:49:10.367421 32491 net.cpp:434] fire5/squeeze1x1 <- fire4/concat
I1024 08:49:10.367434 32491 net.cpp:408] fire5/squeeze1x1 -> fire5/squeeze1x1
I1024 08:49:10.369596 32491 net.cpp:150] Setting up fire5/squeeze1x1
I1024 08:49:10.369626 32491 net.cpp:157] Top shape: 100 32 28 28 (2508800)
I1024 08:49:10.369649 32491 net.cpp:165] Memory required for data: 2200818400
I1024 08:49:10.369669 32491 layer_factory.hpp:77] Creating layer fire5/squeeze1x1_fire5/squeeze1x1_0_split
I1024 08:49:10.369686 32491 net.cpp:100] Creating Layer fire5/squeeze1x1_fire5/squeeze1x1_0_split
I1024 08:49:10.369699 32491 net.cpp:434] fire5/squeeze1x1_fire5/squeeze1x1_0_split <- fire5/squeeze1x1
I1024 08:49:10.369716 32491 net.cpp:408] fire5/squeeze1x1_fire5/squeeze1x1_0_split -> fire5/squeeze1x1_fire5/squeeze1x1_0_split_0
I1024 08:49:10.369735 32491 net.cpp:408] fire5/squeeze1x1_fire5/squeeze1x1_0_split -> fire5/squeeze1x1_fire5/squeeze1x1_0_split_1
I1024 08:49:10.369845 32491 net.cpp:150] Setting up fire5/squeeze1x1_fire5/squeeze1x1_0_split
I1024 08:49:10.369864 32491 net.cpp:157] Top shape: 100 32 28 28 (2508800)
I1024 08:49:10.369879 32491 net.cpp:157] Top shape: 100 32 28 28 (2508800)
I1024 08:49:10.369890 32491 net.cpp:165] Memory required for data: 2220888800
I1024 08:49:10.369901 32491 layer_factory.hpp:77] Creating layer fire5/expand1x1
I1024 08:49:10.369922 32491 net.cpp:100] Creating Layer fire5/expand1x1
I1024 08:49:10.369933 32491 net.cpp:434] fire5/expand1x1 <- fire5/squeeze1x1_fire5/squeeze1x1_0_split_0
I1024 08:49:10.369953 32491 net.cpp:408] fire5/expand1x1 -> fire5/expand1x1
I1024 08:49:10.372740 32491 net.cpp:150] Setting up fire5/expand1x1
I1024 08:49:10.372771 32491 net.cpp:157] Top shape: 100 128 28 28 (10035200)
I1024 08:49:10.372793 32491 net.cpp:165] Memory required for data: 2261029600
I1024 08:49:10.372813 32491 layer_factory.hpp:77] Creating layer fire5/relu_expand1x1
I1024 08:49:10.372830 32491 net.cpp:100] Creating Layer fire5/relu_expand1x1
I1024 08:49:10.372844 32491 net.cpp:434] fire5/relu_expand1x1 <- fire5/expand1x1
I1024 08:49:10.372861 32491 net.cpp:395] fire5/relu_expand1x1 -> fire5/expand1x1 (in-place)
I1024 08:49:10.373668 32491 net.cpp:150] Setting up fire5/relu_expand1x1
I1024 08:49:10.373697 32491 net.cpp:157] Top shape: 100 128 28 28 (10035200)
I1024 08:49:10.373708 32491 net.cpp:165] Memory required for data: 2301170400
I1024 08:49:10.373719 32491 layer_factory.hpp:77] Creating layer fire5/expand3x3
I1024 08:49:10.373746 32491 net.cpp:100] Creating Layer fire5/expand3x3
I1024 08:49:10.373759 32491 net.cpp:434] fire5/expand3x3 <- fire5/squeeze1x1_fire5/squeeze1x1_0_split_1
I1024 08:49:10.373801 32491 net.cpp:408] fire5/expand3x3 -> fire5/expand3x3
I1024 08:49:10.378571 32491 net.cpp:150] Setting up fire5/expand3x3
I1024 08:49:10.378592 32491 net.cpp:157] Top shape: 100 128 28 28 (10035200)
I1024 08:49:10.378615 32491 net.cpp:165] Memory required for data: 2341311200
I1024 08:49:10.378628 32491 layer_factory.hpp:77] Creating layer fire5/relu_expand3x3
I1024 08:49:10.378648 32491 net.cpp:100] Creating Layer fire5/relu_expand3x3
I1024 08:49:10.378657 32491 net.cpp:434] fire5/relu_expand3x3 <- fire5/expand3x3
I1024 08:49:10.378669 32491 net.cpp:395] fire5/relu_expand3x3 -> fire5/expand3x3 (in-place)
I1024 08:49:10.379294 32491 net.cpp:150] Setting up fire5/relu_expand3x3
I1024 08:49:10.379333 32491 net.cpp:157] Top shape: 100 128 28 28 (10035200)
I1024 08:49:10.379338 32491 net.cpp:165] Memory required for data: 2381452000
I1024 08:49:10.379344 32491 layer_factory.hpp:77] Creating layer fire5/concat
I1024 08:49:10.379359 32491 net.cpp:100] Creating Layer fire5/concat
I1024 08:49:10.379367 32491 net.cpp:434] fire5/concat <- fire5/expand1x1
I1024 08:49:10.379384 32491 net.cpp:434] fire5/concat <- fire5/expand3x3
I1024 08:49:10.379396 32491 net.cpp:408] fire5/concat -> fire5/concat
I1024 08:49:10.379479 32491 net.cpp:150] Setting up fire5/concat
I1024 08:49:10.379510 32491 net.cpp:157] Top shape: 100 256 28 28 (20070400)
I1024 08:49:10.379515 32491 net.cpp:165] Memory required for data: 2461733600
I1024 08:49:10.379539 32491 layer_factory.hpp:77] Creating layer pool5
I1024 08:49:10.379557 32491 net.cpp:100] Creating Layer pool5
I1024 08:49:10.379566 32491 net.cpp:434] pool5 <- fire5/concat
I1024 08:49:10.379580 32491 net.cpp:408] pool5 -> pool5
I1024 08:49:10.379724 32491 net.cpp:150] Setting up pool5
I1024 08:49:10.379746 32491 net.cpp:157] Top shape: 100 256 14 14 (5017600)
I1024 08:49:10.379758 32491 net.cpp:165] Memory required for data: 2481804000
I1024 08:49:10.379770 32491 layer_factory.hpp:77] Creating layer fire6/squeeze1x1
I1024 08:49:10.379798 32491 net.cpp:100] Creating Layer fire6/squeeze1x1
I1024 08:49:10.379812 32491 net.cpp:434] fire6/squeeze1x1 <- pool5
I1024 08:49:10.379844 32491 net.cpp:408] fire6/squeeze1x1 -> fire6/squeeze1x1
I1024 08:49:10.383031 32491 net.cpp:150] Setting up fire6/squeeze1x1
I1024 08:49:10.383059 32491 net.cpp:157] Top shape: 100 48 14 14 (940800)
I1024 08:49:10.383079 32491 net.cpp:165] Memory required for data: 2485567200
I1024 08:49:10.383098 32491 layer_factory.hpp:77] Creating layer fire6/squeeze1x1_fire6/squeeze1x1_0_split
I1024 08:49:10.383113 32491 net.cpp:100] Creating Layer fire6/squeeze1x1_fire6/squeeze1x1_0_split
I1024 08:49:10.383126 32491 net.cpp:434] fire6/squeeze1x1_fire6/squeeze1x1_0_split <- fire6/squeeze1x1
I1024 08:49:10.383144 32491 net.cpp:408] fire6/squeeze1x1_fire6/squeeze1x1_0_split -> fire6/squeeze1x1_fire6/squeeze1x1_0_split_0
I1024 08:49:10.383167 32491 net.cpp:408] fire6/squeeze1x1_fire6/squeeze1x1_0_split -> fire6/squeeze1x1_fire6/squeeze1x1_0_split_1
I1024 08:49:10.383297 32491 net.cpp:150] Setting up fire6/squeeze1x1_fire6/squeeze1x1_0_split
I1024 08:49:10.383317 32491 net.cpp:157] Top shape: 100 48 14 14 (940800)
I1024 08:49:10.383330 32491 net.cpp:157] Top shape: 100 48 14 14 (940800)
I1024 08:49:10.383343 32491 net.cpp:165] Memory required for data: 2493093600
I1024 08:49:10.383357 32491 layer_factory.hpp:77] Creating layer fire6/expand1x1
I1024 08:49:10.383379 32491 net.cpp:100] Creating Layer fire6/expand1x1
I1024 08:49:10.383394 32491 net.cpp:434] fire6/expand1x1 <- fire6/squeeze1x1_fire6/squeeze1x1_0_split_0
I1024 08:49:10.383425 32491 net.cpp:408] fire6/expand1x1 -> fire6/expand1x1
I1024 08:49:10.386281 32491 net.cpp:150] Setting up fire6/expand1x1
I1024 08:49:10.386322 32491 net.cpp:157] Top shape: 100 192 14 14 (3763200)
I1024 08:49:10.386343 32491 net.cpp:165] Memory required for data: 2508146400
I1024 08:49:10.386363 32491 layer_factory.hpp:77] Creating layer fire6/relu_expand1x1
I1024 08:49:10.386384 32491 net.cpp:100] Creating Layer fire6/relu_expand1x1
I1024 08:49:10.386435 32491 net.cpp:434] fire6/relu_expand1x1 <- fire6/expand1x1
I1024 08:49:10.386464 32491 net.cpp:395] fire6/relu_expand1x1 -> fire6/expand1x1 (in-place)
I1024 08:49:10.386917 32491 net.cpp:150] Setting up fire6/relu_expand1x1
I1024 08:49:10.386950 32491 net.cpp:157] Top shape: 100 192 14 14 (3763200)
I1024 08:49:10.386970 32491 net.cpp:165] Memory required for data: 2523199200
I1024 08:49:10.386981 32491 layer_factory.hpp:77] Creating layer fire6/expand3x3
I1024 08:49:10.387004 32491 net.cpp:100] Creating Layer fire6/expand3x3
I1024 08:49:10.387018 32491 net.cpp:434] fire6/expand3x3 <- fire6/squeeze1x1_fire6/squeeze1x1_0_split_1
I1024 08:49:10.387037 32491 net.cpp:408] fire6/expand3x3 -> fire6/expand3x3
I1024 08:49:10.391921 32491 net.cpp:150] Setting up fire6/expand3x3
I1024 08:49:10.391960 32491 net.cpp:157] Top shape: 100 192 14 14 (3763200)
I1024 08:49:10.391983 32491 net.cpp:165] Memory required for data: 2538252000
I1024 08:49:10.392004 32491 layer_factory.hpp:77] Creating layer fire6/relu_expand3x3
I1024 08:49:10.392024 32491 net.cpp:100] Creating Layer fire6/relu_expand3x3
I1024 08:49:10.392050 32491 net.cpp:434] fire6/relu_expand3x3 <- fire6/expand3x3
I1024 08:49:10.392066 32491 net.cpp:395] fire6/relu_expand3x3 -> fire6/expand3x3 (in-place)
I1024 08:49:10.392539 32491 net.cpp:150] Setting up fire6/relu_expand3x3
I1024 08:49:10.392562 32491 net.cpp:157] Top shape: 100 192 14 14 (3763200)
I1024 08:49:10.392573 32491 net.cpp:165] Memory required for data: 2553304800
I1024 08:49:10.392585 32491 layer_factory.hpp:77] Creating layer fire6/concat
I1024 08:49:10.392604 32491 net.cpp:100] Creating Layer fire6/concat
I1024 08:49:10.392617 32491 net.cpp:434] fire6/concat <- fire6/expand1x1
I1024 08:49:10.392632 32491 net.cpp:434] fire6/concat <- fire6/expand3x3
I1024 08:49:10.392647 32491 net.cpp:408] fire6/concat -> fire6/concat
I1024 08:49:10.392722 32491 net.cpp:150] Setting up fire6/concat
I1024 08:49:10.392741 32491 net.cpp:157] Top shape: 100 384 14 14 (7526400)
I1024 08:49:10.392751 32491 net.cpp:165] Memory required for data: 2583410400
I1024 08:49:10.392760 32491 layer_factory.hpp:77] Creating layer fire7/squeeze1x1
I1024 08:49:10.392779 32491 net.cpp:100] Creating Layer fire7/squeeze1x1
I1024 08:49:10.392793 32491 net.cpp:434] fire7/squeeze1x1 <- fire6/concat
I1024 08:49:10.392813 32491 net.cpp:408] fire7/squeeze1x1 -> fire7/squeeze1x1
I1024 08:49:10.395980 32491 net.cpp:150] Setting up fire7/squeeze1x1
I1024 08:49:10.396013 32491 net.cpp:157] Top shape: 100 48 14 14 (940800)
I1024 08:49:10.396023 32491 net.cpp:165] Memory required for data: 2587173600
I1024 08:49:10.396055 32491 layer_factory.hpp:77] Creating layer fire7/squeeze1x1_fire7/squeeze1x1_0_split
I1024 08:49:10.396072 32491 net.cpp:100] Creating Layer fire7/squeeze1x1_fire7/squeeze1x1_0_split
I1024 08:49:10.396085 32491 net.cpp:434] fire7/squeeze1x1_fire7/squeeze1x1_0_split <- fire7/squeeze1x1
I1024 08:49:10.396100 32491 net.cpp:408] fire7/squeeze1x1_fire7/squeeze1x1_0_split -> fire7/squeeze1x1_fire7/squeeze1x1_0_split_0
I1024 08:49:10.396126 32491 net.cpp:408] fire7/squeeze1x1_fire7/squeeze1x1_0_split -> fire7/squeeze1x1_fire7/squeeze1x1_0_split_1
I1024 08:49:10.396237 32491 net.cpp:150] Setting up fire7/squeeze1x1_fire7/squeeze1x1_0_split
I1024 08:49:10.396256 32491 net.cpp:157] Top shape: 100 48 14 14 (940800)
I1024 08:49:10.396270 32491 net.cpp:157] Top shape: 100 48 14 14 (940800)
I1024 08:49:10.396281 32491 net.cpp:165] Memory required for data: 2594700000
I1024 08:49:10.396291 32491 layer_factory.hpp:77] Creating layer fire7/expand1x1
I1024 08:49:10.396313 32491 net.cpp:100] Creating Layer fire7/expand1x1
I1024 08:49:10.396323 32491 net.cpp:434] fire7/expand1x1 <- fire7/squeeze1x1_fire7/squeeze1x1_0_split_0
I1024 08:49:10.396342 32491 net.cpp:408] fire7/expand1x1 -> fire7/expand1x1
I1024 08:49:10.399657 32491 net.cpp:150] Setting up fire7/expand1x1
I1024 08:49:10.399698 32491 net.cpp:157] Top shape: 100 192 14 14 (3763200)
I1024 08:49:10.399710 32491 net.cpp:165] Memory required for data: 2609752800
I1024 08:49:10.399740 32491 layer_factory.hpp:77] Creating layer fire7/relu_expand1x1
I1024 08:49:10.399777 32491 net.cpp:100] Creating Layer fire7/relu_expand1x1
I1024 08:49:10.399794 32491 net.cpp:434] fire7/relu_expand1x1 <- fire7/expand1x1
I1024 08:49:10.399811 32491 net.cpp:395] fire7/relu_expand1x1 -> fire7/expand1x1 (in-place)
I1024 08:49:10.400615 32491 net.cpp:150] Setting up fire7/relu_expand1x1
I1024 08:49:10.400642 32491 net.cpp:157] Top shape: 100 192 14 14 (3763200)
I1024 08:49:10.400653 32491 net.cpp:165] Memory required for data: 2624805600
I1024 08:49:10.400665 32491 layer_factory.hpp:77] Creating layer fire7/expand3x3
I1024 08:49:10.400688 32491 net.cpp:100] Creating Layer fire7/expand3x3
I1024 08:49:10.400701 32491 net.cpp:434] fire7/expand3x3 <- fire7/squeeze1x1_fire7/squeeze1x1_0_split_1
I1024 08:49:10.400720 32491 net.cpp:408] fire7/expand3x3 -> fire7/expand3x3
I1024 08:49:10.405079 32491 net.cpp:150] Setting up fire7/expand3x3
I1024 08:49:10.405123 32491 net.cpp:157] Top shape: 100 192 14 14 (3763200)
I1024 08:49:10.405136 32491 net.cpp:165] Memory required for data: 2639858400
I1024 08:49:10.405160 32491 layer_factory.hpp:77] Creating layer fire7/relu_expand3x3
I1024 08:49:10.405179 32491 net.cpp:100] Creating Layer fire7/relu_expand3x3
I1024 08:49:10.405194 32491 net.cpp:434] fire7/relu_expand3x3 <- fire7/expand3x3
I1024 08:49:10.405221 32491 net.cpp:395] fire7/relu_expand3x3 -> fire7/expand3x3 (in-place)
I1024 08:49:10.406049 32491 net.cpp:150] Setting up fire7/relu_expand3x3
I1024 08:49:10.406080 32491 net.cpp:157] Top shape: 100 192 14 14 (3763200)
I1024 08:49:10.406091 32491 net.cpp:165] Memory required for data: 2654911200
I1024 08:49:10.406102 32491 layer_factory.hpp:77] Creating layer fire7/concat
I1024 08:49:10.406118 32491 net.cpp:100] Creating Layer fire7/concat
I1024 08:49:10.406129 32491 net.cpp:434] fire7/concat <- fire7/expand1x1
I1024 08:49:10.406141 32491 net.cpp:434] fire7/concat <- fire7/expand3x3
I1024 08:49:10.406157 32491 net.cpp:408] fire7/concat -> fire7/concat
I1024 08:49:10.406236 32491 net.cpp:150] Setting up fire7/concat
I1024 08:49:10.406258 32491 net.cpp:157] Top shape: 100 384 14 14 (7526400)
I1024 08:49:10.406270 32491 net.cpp:165] Memory required for data: 2685016800
I1024 08:49:10.406283 32491 layer_factory.hpp:77] Creating layer fire8/squeeze1x1
I1024 08:49:10.406312 32491 net.cpp:100] Creating Layer fire8/squeeze1x1
I1024 08:49:10.406327 32491 net.cpp:434] fire8/squeeze1x1 <- fire7/concat
I1024 08:49:10.406345 32491 net.cpp:408] fire8/squeeze1x1 -> fire8/squeeze1x1
I1024 08:49:10.410856 32491 net.cpp:150] Setting up fire8/squeeze1x1
I1024 08:49:10.410900 32491 net.cpp:157] Top shape: 100 64 14 14 (1254400)
I1024 08:49:10.410914 32491 net.cpp:165] Memory required for data: 2690034400
I1024 08:49:10.410938 32491 layer_factory.hpp:77] Creating layer fire8/squeeze1x1_fire8/squeeze1x1_0_split
I1024 08:49:10.410959 32491 net.cpp:100] Creating Layer fire8/squeeze1x1_fire8/squeeze1x1_0_split
I1024 08:49:10.410974 32491 net.cpp:434] fire8/squeeze1x1_fire8/squeeze1x1_0_split <- fire8/squeeze1x1
I1024 08:49:10.410993 32491 net.cpp:408] fire8/squeeze1x1_fire8/squeeze1x1_0_split -> fire8/squeeze1x1_fire8/squeeze1x1_0_split_0
I1024 08:49:10.411020 32491 net.cpp:408] fire8/squeeze1x1_fire8/squeeze1x1_0_split -> fire8/squeeze1x1_fire8/squeeze1x1_0_split_1
I1024 08:49:10.411161 32491 net.cpp:150] Setting up fire8/squeeze1x1_fire8/squeeze1x1_0_split
I1024 08:49:10.411182 32491 net.cpp:157] Top shape: 100 64 14 14 (1254400)
I1024 08:49:10.411200 32491 net.cpp:157] Top shape: 100 64 14 14 (1254400)
I1024 08:49:10.411211 32491 net.cpp:165] Memory required for data: 2700069600
I1024 08:49:10.411221 32491 layer_factory.hpp:77] Creating layer fire8/expand1x1
I1024 08:49:10.411247 32491 net.cpp:100] Creating Layer fire8/expand1x1
I1024 08:49:10.411262 32491 net.cpp:434] fire8/expand1x1 <- fire8/squeeze1x1_fire8/squeeze1x1_0_split_0
I1024 08:49:10.411283 32491 net.cpp:408] fire8/expand1x1 -> fire8/expand1x1
I1024 08:49:10.415073 32491 net.cpp:150] Setting up fire8/expand1x1
I1024 08:49:10.415119 32491 net.cpp:157] Top shape: 100 256 14 14 (5017600)
I1024 08:49:10.415159 32491 net.cpp:165] Memory required for data: 2720140000
I1024 08:49:10.415182 32491 layer_factory.hpp:77] Creating layer fire8/relu_expand1x1
I1024 08:49:10.415204 32491 net.cpp:100] Creating Layer fire8/relu_expand1x1
I1024 08:49:10.415220 32491 net.cpp:434] fire8/relu_expand1x1 <- fire8/expand1x1
I1024 08:49:10.415238 32491 net.cpp:395] fire8/relu_expand1x1 -> fire8/expand1x1 (in-place)
I1024 08:49:10.415827 32491 net.cpp:150] Setting up fire8/relu_expand1x1
I1024 08:49:10.415856 32491 net.cpp:157] Top shape: 100 256 14 14 (5017600)
I1024 08:49:10.415871 32491 net.cpp:165] Memory required for data: 2740210400
I1024 08:49:10.415884 32491 layer_factory.hpp:77] Creating layer fire8/expand3x3
I1024 08:49:10.415912 32491 net.cpp:100] Creating Layer fire8/expand3x3
I1024 08:49:10.415927 32491 net.cpp:434] fire8/expand3x3 <- fire8/squeeze1x1_fire8/squeeze1x1_0_split_1
I1024 08:49:10.415946 32491 net.cpp:408] fire8/expand3x3 -> fire8/expand3x3
I1024 08:49:10.423677 32491 net.cpp:150] Setting up fire8/expand3x3
I1024 08:49:10.423699 32491 net.cpp:157] Top shape: 100 256 14 14 (5017600)
I1024 08:49:10.423719 32491 net.cpp:165] Memory required for data: 2760280800
I1024 08:49:10.423741 32491 layer_factory.hpp:77] Creating layer fire8/relu_expand3x3
I1024 08:49:10.423753 32491 net.cpp:100] Creating Layer fire8/relu_expand3x3
I1024 08:49:10.423760 32491 net.cpp:434] fire8/relu_expand3x3 <- fire8/expand3x3
I1024 08:49:10.423769 32491 net.cpp:395] fire8/relu_expand3x3 -> fire8/expand3x3 (in-place)
I1024 08:49:10.424088 32491 net.cpp:150] Setting up fire8/relu_expand3x3
I1024 08:49:10.424104 32491 net.cpp:157] Top shape: 100 256 14 14 (5017600)
I1024 08:49:10.424113 32491 net.cpp:165] Memory required for data: 2780351200
I1024 08:49:10.424118 32491 layer_factory.hpp:77] Creating layer fire8/concat
I1024 08:49:10.424129 32491 net.cpp:100] Creating Layer fire8/concat
I1024 08:49:10.424136 32491 net.cpp:434] fire8/concat <- fire8/expand1x1
I1024 08:49:10.424144 32491 net.cpp:434] fire8/concat <- fire8/expand3x3
I1024 08:49:10.424154 32491 net.cpp:408] fire8/concat -> fire8/concat
I1024 08:49:10.424204 32491 net.cpp:150] Setting up fire8/concat
I1024 08:49:10.424216 32491 net.cpp:157] Top shape: 100 512 14 14 (10035200)
I1024 08:49:10.424223 32491 net.cpp:165] Memory required for data: 2820492000
I1024 08:49:10.424228 32491 layer_factory.hpp:77] Creating layer fire9/squeeze1x1
I1024 08:49:10.424242 32491 net.cpp:100] Creating Layer fire9/squeeze1x1
I1024 08:49:10.424250 32491 net.cpp:434] fire9/squeeze1x1 <- fire8/concat
I1024 08:49:10.424262 32491 net.cpp:408] fire9/squeeze1x1 -> fire9/squeeze1x1
I1024 08:49:10.427927 32491 net.cpp:150] Setting up fire9/squeeze1x1
I1024 08:49:10.427973 32491 net.cpp:157] Top shape: 100 64 14 14 (1254400)
I1024 08:49:10.427987 32491 net.cpp:165] Memory required for data: 2825509600
I1024 08:49:10.428009 32491 layer_factory.hpp:77] Creating layer fire9/squeeze1x1_fire9/squeeze1x1_0_split
I1024 08:49:10.428035 32491 net.cpp:100] Creating Layer fire9/squeeze1x1_fire9/squeeze1x1_0_split
I1024 08:49:10.428056 32491 net.cpp:434] fire9/squeeze1x1_fire9/squeeze1x1_0_split <- fire9/squeeze1x1
I1024 08:49:10.428076 32491 net.cpp:408] fire9/squeeze1x1_fire9/squeeze1x1_0_split -> fire9/squeeze1x1_fire9/squeeze1x1_0_split_0
I1024 08:49:10.428098 32491 net.cpp:408] fire9/squeeze1x1_fire9/squeeze1x1_0_split -> fire9/squeeze1x1_fire9/squeeze1x1_0_split_1
I1024 08:49:10.428246 32491 net.cpp:150] Setting up fire9/squeeze1x1_fire9/squeeze1x1_0_split
I1024 08:49:10.428267 32491 net.cpp:157] Top shape: 100 64 14 14 (1254400)
I1024 08:49:10.428283 32491 net.cpp:157] Top shape: 100 64 14 14 (1254400)
I1024 08:49:10.428295 32491 net.cpp:165] Memory required for data: 2835544800
I1024 08:49:10.428308 32491 layer_factory.hpp:77] Creating layer fire9/expand1x1
I1024 08:49:10.428335 32491 net.cpp:100] Creating Layer fire9/expand1x1
I1024 08:49:10.428349 32491 net.cpp:434] fire9/expand1x1 <- fire9/squeeze1x1_fire9/squeeze1x1_0_split_0
I1024 08:49:10.428367 32491 net.cpp:408] fire9/expand1x1 -> fire9/expand1x1
I1024 08:49:10.431913 32491 net.cpp:150] Setting up fire9/expand1x1
I1024 08:49:10.431960 32491 net.cpp:157] Top shape: 100 256 14 14 (5017600)
I1024 08:49:10.431974 32491 net.cpp:165] Memory required for data: 2855615200
I1024 08:49:10.432003 32491 layer_factory.hpp:77] Creating layer fire9/relu_expand1x1
I1024 08:49:10.432026 32491 net.cpp:100] Creating Layer fire9/relu_expand1x1
I1024 08:49:10.432040 32491 net.cpp:434] fire9/relu_expand1x1 <- fire9/expand1x1
I1024 08:49:10.432060 32491 net.cpp:395] fire9/relu_expand1x1 -> fire9/expand1x1 (in-place)
I1024 08:49:10.433019 32491 net.cpp:150] Setting up fire9/relu_expand1x1
I1024 08:49:10.433054 32491 net.cpp:157] Top shape: 100 256 14 14 (5017600)
I1024 08:49:10.433068 32491 net.cpp:165] Memory required for data: 2875685600
I1024 08:49:10.433082 32491 layer_factory.hpp:77] Creating layer fire9/expand3x3
I1024 08:49:10.433111 32491 net.cpp:100] Creating Layer fire9/expand3x3
I1024 08:49:10.433128 32491 net.cpp:434] fire9/expand3x3 <- fire9/squeeze1x1_fire9/squeeze1x1_0_split_1
I1024 08:49:10.433153 32491 net.cpp:408] fire9/expand3x3 -> fire9/expand3x3
I1024 08:49:10.441356 32491 net.cpp:150] Setting up fire9/expand3x3
I1024 08:49:10.441406 32491 net.cpp:157] Top shape: 100 256 14 14 (5017600)
I1024 08:49:10.441421 32491 net.cpp:165] Memory required for data: 2895756000
I1024 08:49:10.441445 32491 layer_factory.hpp:77] Creating layer fire9/relu_expand3x3
I1024 08:49:10.441465 32491 net.cpp:100] Creating Layer fire9/relu_expand3x3
I1024 08:49:10.441480 32491 net.cpp:434] fire9/relu_expand3x3 <- fire9/expand3x3
I1024 08:49:10.441500 32491 net.cpp:395] fire9/relu_expand3x3 -> fire9/expand3x3 (in-place)
I1024 08:49:10.442412 32491 net.cpp:150] Setting up fire9/relu_expand3x3
I1024 08:49:10.442446 32491 net.cpp:157] Top shape: 100 256 14 14 (5017600)
I1024 08:49:10.442461 32491 net.cpp:165] Memory required for data: 2915826400
I1024 08:49:10.442474 32491 layer_factory.hpp:77] Creating layer fire9/concat
I1024 08:49:10.442494 32491 net.cpp:100] Creating Layer fire9/concat
I1024 08:49:10.442508 32491 net.cpp:434] fire9/concat <- fire9/expand1x1
I1024 08:49:10.442529 32491 net.cpp:434] fire9/concat <- fire9/expand3x3
I1024 08:49:10.442548 32491 net.cpp:408] fire9/concat -> fire9/concat
I1024 08:49:10.442652 32491 net.cpp:150] Setting up fire9/concat
I1024 08:49:10.442675 32491 net.cpp:157] Top shape: 100 512 14 14 (10035200)
I1024 08:49:10.442688 32491 net.cpp:165] Memory required for data: 2955967200
I1024 08:49:10.442701 32491 layer_factory.hpp:77] Creating layer drop9
I1024 08:49:10.442721 32491 net.cpp:100] Creating Layer drop9
I1024 08:49:10.442734 32491 net.cpp:434] drop9 <- fire9/concat
I1024 08:49:10.442754 32491 net.cpp:395] drop9 -> fire9/concat (in-place)
I1024 08:49:10.442837 32491 net.cpp:150] Setting up drop9
I1024 08:49:10.442858 32491 net.cpp:157] Top shape: 100 512 14 14 (10035200)
I1024 08:49:10.442875 32491 net.cpp:165] Memory required for data: 2996108000
I1024 08:49:10.442888 32491 layer_factory.hpp:77] Creating layer conv10_2626
I1024 08:49:10.442935 32491 net.cpp:100] Creating Layer conv10_2626
I1024 08:49:10.442950 32491 net.cpp:434] conv10_2626 <- fire9/concat
I1024 08:49:10.442972 32491 net.cpp:408] conv10_2626 -> conv10_2626
I1024 08:49:10.473186 32491 net.cpp:150] Setting up conv10_2626
I1024 08:49:10.473230 32491 net.cpp:157] Top shape: 100 2626 14 14 (51469600)
I1024 08:49:10.473237 32491 net.cpp:165] Memory required for data: 3201986400
I1024 08:49:10.473253 32491 layer_factory.hpp:77] Creating layer relu_conv10
I1024 08:49:10.473266 32491 net.cpp:100] Creating Layer relu_conv10
I1024 08:49:10.473274 32491 net.cpp:434] relu_conv10 <- conv10_2626
I1024 08:49:10.473289 32491 net.cpp:395] relu_conv10 -> conv10_2626 (in-place)
I1024 08:49:10.473570 32491 net.cpp:150] Setting up relu_conv10
I1024 08:49:10.473583 32491 net.cpp:157] Top shape: 100 2626 14 14 (51469600)
I1024 08:49:10.473589 32491 net.cpp:165] Memory required for data: 3407864800
I1024 08:49:10.473595 32491 layer_factory.hpp:77] Creating layer pool10
I1024 08:49:10.473606 32491 net.cpp:100] Creating Layer pool10
I1024 08:49:10.473636 32491 net.cpp:434] pool10 <- conv10_2626
I1024 08:49:10.473649 32491 net.cpp:408] pool10 -> pool10
I1024 08:49:10.474232 32491 net.cpp:150] Setting up pool10
I1024 08:49:10.474251 32491 net.cpp:157] Top shape: 100 2626 1 1 (262600)
I1024 08:49:10.474257 32491 net.cpp:165] Memory required for data: 3408915200
I1024 08:49:10.474263 32491 layer_factory.hpp:77] Creating layer pool10_pool10_0_split
I1024 08:49:10.474273 32491 net.cpp:100] Creating Layer pool10_pool10_0_split
I1024 08:49:10.474279 32491 net.cpp:434] pool10_pool10_0_split <- pool10
I1024 08:49:10.474290 32491 net.cpp:408] pool10_pool10_0_split -> pool10_pool10_0_split_0
I1024 08:49:10.474301 32491 net.cpp:408] pool10_pool10_0_split -> pool10_pool10_0_split_1
I1024 08:49:10.474373 32491 net.cpp:150] Setting up pool10_pool10_0_split
I1024 08:49:10.474385 32491 net.cpp:157] Top shape: 100 2626 1 1 (262600)
I1024 08:49:10.474392 32491 net.cpp:157] Top shape: 100 2626 1 1 (262600)
I1024 08:49:10.474398 32491 net.cpp:165] Memory required for data: 3411016000
I1024 08:49:10.474403 32491 layer_factory.hpp:77] Creating layer loss
I1024 08:49:10.474412 32491 net.cpp:100] Creating Layer loss
I1024 08:49:10.474418 32491 net.cpp:434] loss <- pool10_pool10_0_split_0
I1024 08:49:10.474426 32491 net.cpp:434] loss <- label_data_1_split_0
I1024 08:49:10.474436 32491 net.cpp:408] loss -> loss
…
