…
I1026 16:01:21.243057 47767 net.cpp:322] The NetState phase (0) differed from the phase (1) specified by a rule in layer data
I1026 16:01:21.243115 47767 net.cpp:322] The NetState phase (0) differed from the phase (1) specified by a rule in layer accuracy
I1026 16:01:21.243450 47767 net.cpp:58] Initializing net from parameters: 
state {
  phase: TRAIN
  level: 0
  stage: ""
}
layer {
  name: "data"
  type: "Data"
  top: "data"
  top: "label"
  include {
    phase: TRAIN
  }
  transform_param {
    crop_size: 227
    mean_file: "/share/zhh/mean.binaryproto"
  }
  data_param {
    source: "/share/front/train_lmdb"
    batch_size: 128
    backend: LMDB
  }
}
layer {
  name: "conv1"
  type: "Convolution"
  bottom: "data"
  top: "conv1"
  convolution_param {
    num_output: 64
    kernel_size: 3
    stride: 2
    weight_filler {
      type: "xavier"
    }
  }
}
layer {
  name: "relu_conv1"
  type: "ReLU"
  bottom: "conv1"
  top: "conv1"
}
layer {
  name: "pool1"
  type: "Pooling"
  bottom: "conv1"
  top: "pool1"
  pooling_param {
    pool: MAX
    kernel_size: 3
    stride: 2
  }
}
layer {
  name: "fire2/squeeze1x1"
  type: "Convolution"
  bottom: "pool1"
  top: "fire2/squeeze1x1"
  convolution_param {
    num_output: 16
    kernel_size: 1
    weight_filler {
      type: "xavier"
    }
  }
}
layer {
  name: "fire2/expand1x1"
  type: "Convolution"
  bottom: "fire2/squeeze1x1"
  top: "fire2/expand1x1"
  convolution_param {
    num_output: 64
    kernel_size: 1
    weight_filler {
      type: "xavier"
    }
  }
}
layer {
  name: "fire2/relu_expand1x1"
  type: "ReLU"
  bottom: "fire2/expand1x1"
  top: "fire2/expand1x1"
}
layer {
  name: "fire2/expand3x3"
  type: "Convolution"
  bottom: "fire2/squeeze1x1"
  top: "fire2/expand3x3"
  convolution_param {
    num_output: 64
    pad: 1
    kernel_size: 3
    weight_filler {
      type: "xavier"
    }
  }
}
layer {
  name: "fire2/relu_expand3x3"
  type: "ReLU"
  bottom: "fire2/expand3x3"
  top: "fire2/expand3x3"
}
layer {
  name: "fire2/concat"
  type: "Concat"
  bottom: "fire2/expand1x1"
  bottom: "fire2/expand3x3"
  top: "fire2/concat"
}
layer {
  name: "fire3/squeeze1x1"
  type: "Convolution"
  bottom: "fire2/concat"
  top: "fire3/squeeze1x1"
  convolution_param {
    num_output: 16
    kernel_size: 1
    weight_filler {
      type: "xavier"
    }
  }
}
layer {
  name: "fire3/expand1x1"
  type: "Convolution"
  bottom: "fire3/squeeze1x1"
  top: "fire3/expand1x1"
  convolution_param {
    num_output: 64
    kernel_size: 1
    weight_filler {
      type: "xavier"
    }
  }
}
layer {
  name: "fire3/relu_expand1x1"
  type: "ReLU"
  bottom: "fire3/expand1x1"
  top: "fire3/expand1x1"
}
layer {
  name: "fire3/expand3x3"
  type: "Convolution"
  bottom: "fire3/squeeze1x1"
  top: "fire3/expand3x3"
  convolution_param {
    num_output: 64
    pad: 1
    kernel_size: 3
    weight_filler {
      type: "xavier"
    }
  }
}
layer {
  name: "fire3/relu_expand3x3"
  type: "ReLU"
  bottom: "fire3/expand3x3"
  top: "fire3/expand3x3"
}
layer {
  name: "fire3/concat"
  type: "Concat"
  bottom: "fire3/expand1x1"
  bottom: "fire3/expand3x3"
  top: "fire3/concat"
}
layer {
  name: "pool3"
  type: "Pooling"
  bottom: "fire3/concat"
  top: "pool3"
  pooling_param {
    pool: MAX
    kernel_size: 3
    stride: 2
  }
}
layer {
  name: "fire4/squeeze1x1"
  type: "Convolution"
  bottom: "pool3"
  top: "fire4/squeeze1x1"
  convolution_param {
    num_output: 32
    kernel_size: 1
    weight_filler {
      type: "xavier"
    }
  }
}
layer {
  name: "fire4/expand1x1"
  type: "Convolution"
  bottom: "fire4/squeeze1x1"
  top: "fire4/expand1x1"
  convolution_param {
    num_output: 128
    kernel_size: 1
    weight_filler {
      type: "xavier"
    }
  }
}
layer {
  name: "fire4/relu_expand1x1"
  type: "ReLU"
  bottom: "fire4/expand1x1"
  top: "fire4/expand1x1"
}
layer {
  name: "fire4/expand3x3"
  type: "Convolution"
  bottom: "fire4/squeeze1x1"
  top: "fire4/expand3x3"
  convolution_param {
    num_output: 128
    pad: 1
    kernel_size: 3
    weight_filler {
      type: "xavier"
    }
  }
}
layer {
  name: "fire4/relu_expand3x3"
  type: "ReLU"
  bottom: "fire4/expand3x3"
  top: "fire4/expand3x3"
}
layer {
  name: "fire4/concat"
  type: "Concat"
  bottom: "fire4/expand1x1"
  bottom: "fire4/expand3x3"
  top: "fire4/concat"
}
layer {
  name: "fire5/squeeze1x1"
  type: "Convolution"
  bottom: "fire4/concat"
  top: "fire5/squeeze1x1"
  convolution_param {
    num_output: 32
    kernel_size: 1
    weight_filler {
      type: "xavier"
    }
  }
}
layer {
  name: "fire5/expand1x1"
  type: "Convolution"
  bottom: "fire5/squeeze1x1"
  top: "fire5/expand1x1"
  convolution_param {
    num_output: 128
    kernel_size: 1
    weight_filler {
      type: "xavier"
    }
  }
}
layer {
  name: "fire5/relu_expand1x1"
  type: "ReLU"
  bottom: "fire5/expand1x1"
  top: "fire5/expand1x1"
}
layer {
  name: "fire5/expand3x3"
  type: "Convolution"
  bottom: "fire5/squeeze1x1"
  top: "fire5/expand3x3"
  convolution_param {
    num_output: 128
    pad: 1
    kernel_size: 3
    weight_filler {
      type: "xavier"
    }
  }
}
layer {
  name: "fire5/relu_expand3x3"
  type: "ReLU"
  bottom: "fire5/expand3x3"
  top: "fire5/expand3x3"
}
layer {
  name: "fire5/concat"
  type: "Concat"
  bottom: "fire5/expand1x1"
  bottom: "fire5/expand3x3"
  top: "fire5/concat"
}
layer {
  name: "pool5"
  type: "Pooling"
  bottom: "fire5/concat"
  top: "pool5"
  pooling_param {
    pool: MAX
    kernel_size: 3
    stride: 2
  }
}
layer {
  name: "fire6/squeeze1x1"
  type: "Convolution"
  bottom: "pool5"
  top: "fire6/squeeze1x1"
  convolution_param {
    num_output: 48
    kernel_size: 1
    weight_filler {
      type: "xavier"
    }
  }
}
layer {
  name: "fire6/expand1x1"
  type: "Convolution"
  bottom: "fire6/squeeze1x1"
  top: "fire6/expand1x1"
  convolution_param {
    num_output: 192
    kernel_size: 1
    weight_filler {
      type: "xavier"
    }
  }
}
layer {
  name: "fire6/relu_expand1x1"
  type: "ReLU"
  bottom: "fire6/expand1x1"
  top: "fire6/expand1x1"
}
layer {
  name: "fire6/expand3x3"
  type: "Convolution"
  bottom: "fire6/squeeze1x1"
  top: "fire6/expand3x3"
  convolution_param {
    num_output: 192
    pad: 1
    kernel_size: 3
    weight_filler {
      type: "xavier"
    }
  }
}
layer {
  name: "fire6/relu_expand3x3"
  type: "ReLU"
  bottom: "fire6/expand3x3"
  top: "fire6/expand3x3"
}
layer {
  name: "fire6/concat"
  type: "Concat"
  bottom: "fire6/expand1x1"
  bottom: "fire6/expand3x3"
  top: "fire6/concat"
}
layer {
  name: "fire7/squeeze1x1"
  type: "Convolution"
  bottom: "fire6/concat"
  top: "fire7/squeeze1x1"
  convolution_param {
    num_output: 48
    kernel_size: 1
    weight_filler {
      type: "xavier"
    }
  }
}
layer {
  name: "fire7/expand1x1"
  type: "Convolution"
  bottom: "fire7/squeeze1x1"
  top: "fire7/expand1x1"
  convolution_param {
    num_output: 192
    kernel_size: 1
    weight_filler {
      type: "xavier"
    }
  }
}
layer {
  name: "fire7/relu_expand1x1"
  type: "ReLU"
  bottom: "fire7/expand1x1"
  top: "fire7/expand1x1"
}
layer {
  name: "fire7/expand3x3"
  type: "Convolution"
  bottom: "fire7/squeeze1x1"
  top: "fire7/expand3x3"
  convolution_param {
    num_output: 192
    pad: 1
    kernel_size: 3
    weight_filler {
      type: "xavier"
    }
  }
}
layer {
  name: "fire7/relu_expand3x3"
  type: "ReLU"
  bottom: "fire7/expand3x3"
  top: "fire7/expand3x3"
}
layer {
  name: "fire7/concat"
  type: "Concat"
  bottom: "fire7/expand1x1"
  bottom: "fire7/expand3x3"
  top: "fire7/concat"
}
layer {
  name: "fire8/squeeze1x1"
  type: "Convolution"
  bottom: "fire7/concat"
  top: "fire8/squeeze1x1"
  convolution_param {
    num_output: 64
    kernel_size: 1
    weight_filler {
      type: "xavier"
    }
  }
}
layer {
  name: "fire8/expand1x1"
  type: "Convolution"
  bottom: "fire8/squeeze1x1"
  top: "fire8/expand1x1"
  convolution_param {
    num_output: 256
    kernel_size: 1
    weight_filler {
      type: "xavier"
    }
  }
}
layer {
  name: "fire8/relu_expand1x1"
  type: "ReLU"
  bottom: "fire8/expand1x1"
  top: "fire8/expand1x1"
}
layer {
  name: "fire8/expand3x3"
  type: "Convolution"
  bottom: "fire8/squeeze1x1"
  top: "fire8/expand3x3"
  convolution_param {
    num_output: 256
    pad: 1
    kernel_size: 3
    weight_filler {
      type: "xavier"
    }
  }
}
layer {
  name: "fire8/relu_expand3x3"
  type: "ReLU"
  bottom: "fire8/expand3x3"
  top: "fire8/expand3x3"
}
layer {
  name: "fire8/concat"
  type: "Concat"
  bottom: "fire8/expand1x1"
  bottom: "fire8/expand3x3"
  top: "fire8/concat"
}
layer {
  name: "fire9/squeeze1x1"
  type: "Convolution"
  bottom: "fire8/concat"
  top: "fire9/squeeze1x1"
  convolution_param {
    num_output: 64
    kernel_size: 1
    weight_filler {
      type: "xavier"
    }
  }
}
layer {
  name: "fire9/expand1x1"
  type: "Convolution"
  bottom: "fire9/squeeze1x1"
  top: "fire9/expand1x1"
  convolution_param {
    num_output: 256
    kernel_size: 1
    weight_filler {
      type: "xavier"
    }
  }
}
layer {
  name: "fire9/relu_expand1x1"
  type: "ReLU"
  bottom: "fire9/expand1x1"
  top: "fire9/expand1x1"
}
layer {
  name: "fire9/expand3x3"
  type: "Convolution"
  bottom: "fire9/squeeze1x1"
  top: "fire9/expand3x3"
  convolution_param {
    num_output: 256
    pad: 1
    kernel_size: 3
    weight_filler {
      type: "xavier"
    }
  }
}
layer {
  name: "fire9/relu_expand3x3"
  type: "ReLU"
  bottom: "fire9/expand3x3"
  top: "fire9/expand3x3"
}
layer {
  name: "fire9/concat"
  type: "Concat"
  bottom: "fire9/expand1x1"
  bottom: "fire9/expand3x3"
  top: "fire9/concat"
}
layer {
  name: "drop9"
  type: "Dropout"
  bottom: "fire9/concat"
  top: "fire9/concat"
  dropout_param {
    dropout_ratio: 0.5
  }
}
layer {
  name: "conv10_2626"
  type: "Convolution"
  bottom: "fire9/concat"
  top: "conv10_2626"
  param {
    lr_mult: 10
    decay_mult: 1
  }
  convolution_param {
    num_output: 2626
    kernel_size: 1
    weight_filler {
      type: "gaussian"
      mean: 0
      std: 0.01
    }
  }
}
layer {
  name: "relu_conv10"
  type: "ReLU"
  bottom: "conv10_2626"
  top: "conv10_2626"
}
layer {
  name: "pool10"
  type: "Pooling"
  bottom: "conv10_2626"
  top: "pool10"
  pooling_param {
    pool: AVE
    global_pooling: true
  }
}
layer {
  name: "loss"
  type: "SoftmaxWithLoss"
  bottom: "pool10"
  bottom: "label"
  top: "loss"
}
layer {
  name: "accuracy"
  type: "Accuracy"
  bottom: "pool10"
  bottom: "label"
  top: "accuracy"
  include {
    phase: TRAIN
  }
}
I1026 16:01:21.243804 47767 layer_factory.hpp:77] Creating layer data
I1026 16:01:21.243999 47767 net.cpp:100] Creating Layer data
I1026 16:01:21.244027 47767 net.cpp:408] data -> data
I1026 16:01:21.244061 47767 net.cpp:408] data -> label
I1026 16:01:21.244072 47767 data_transformer.cpp:25] Loading mean file from: /share/zhh/mean.binaryproto
I1026 16:01:21.245067 47785 db_lmdb.cpp:35] Opened lmdb /share/front/train_lmdb
I1026 16:01:21.255172 47767 data_layer.cpp:41] output data size: 128,3,227,227
I1026 16:01:21.379935 47767 net.cpp:150] Setting up data
I1026 16:01:21.379981 47767 net.cpp:157] Top shape: 128 3 227 227 (19787136)
I1026 16:01:21.379987 47767 net.cpp:157] Top shape: 128 (128)
I1026 16:01:21.379992 47767 net.cpp:165] Memory required for data: 79149056
I1026 16:01:21.380002 47767 layer_factory.hpp:77] Creating layer label_data_1_split
I1026 16:01:21.380031 47767 net.cpp:100] Creating Layer label_data_1_split
I1026 16:01:21.380043 47767 net.cpp:434] label_data_1_split <- label
I1026 16:01:21.380056 47767 net.cpp:408] label_data_1_split -> label_data_1_split_0
I1026 16:01:21.380085 47767 net.cpp:408] label_data_1_split -> label_data_1_split_1
I1026 16:01:21.380125 47767 net.cpp:150] Setting up label_data_1_split
I1026 16:01:21.380132 47767 net.cpp:157] Top shape: 128 (128)
I1026 16:01:21.380136 47767 net.cpp:157] Top shape: 128 (128)
I1026 16:01:21.380139 47767 net.cpp:165] Memory required for data: 79150080
I1026 16:01:21.380142 47767 layer_factory.hpp:77] Creating layer conv1
I1026 16:01:21.380163 47767 net.cpp:100] Creating Layer conv1
I1026 16:01:21.380167 47767 net.cpp:434] conv1 <- data
I1026 16:01:21.380175 47767 net.cpp:408] conv1 -> conv1
I1026 16:01:21.394932 47786 blocking_queue.cpp:50] Waiting for data
I1026 16:01:21.536844 47767 net.cpp:150] Setting up conv1
I1026 16:01:21.536888 47767 net.cpp:157] Top shape: 128 64 113 113 (104603648)
I1026 16:01:21.536893 47767 net.cpp:165] Memory required for data: 497564672
I1026 16:01:21.536916 47767 layer_factory.hpp:77] Creating layer relu_conv1
I1026 16:01:21.536927 47767 net.cpp:100] Creating Layer relu_conv1
I1026 16:01:21.536945 47767 net.cpp:434] relu_conv1 <- conv1
I1026 16:01:21.536953 47767 net.cpp:395] relu_conv1 -> conv1 (in-place)
I1026 16:01:21.537348 47767 net.cpp:150] Setting up relu_conv1
I1026 16:01:21.537361 47767 net.cpp:157] Top shape: 128 64 113 113 (104603648)
I1026 16:01:21.537376 47767 net.cpp:165] Memory required for data: 915979264
I1026 16:01:21.537380 47767 layer_factory.hpp:77] Creating layer pool1
I1026 16:01:21.537391 47767 net.cpp:100] Creating Layer pool1
I1026 16:01:21.537395 47767 net.cpp:434] pool1 <- conv1
I1026 16:01:21.537401 47767 net.cpp:408] pool1 -> pool1
I1026 16:01:21.537448 47767 net.cpp:150] Setting up pool1
I1026 16:01:21.537456 47767 net.cpp:157] Top shape: 128 64 56 56 (25690112)
I1026 16:01:21.537459 47767 net.cpp:165] Memory required for data: 1018739712
I1026 16:01:21.537462 47767 layer_factory.hpp:77] Creating layer fire2/squeeze1x1
I1026 16:01:21.537473 47767 net.cpp:100] Creating Layer fire2/squeeze1x1
I1026 16:01:21.537477 47767 net.cpp:434] fire2/squeeze1x1 <- pool1
I1026 16:01:21.537482 47767 net.cpp:408] fire2/squeeze1x1 -> fire2/squeeze1x1
I1026 16:01:21.538887 47767 net.cpp:150] Setting up fire2/squeeze1x1
I1026 16:01:21.538902 47767 net.cpp:157] Top shape: 128 16 56 56 (6422528)
I1026 16:01:21.538918 47767 net.cpp:165] Memory required for data: 1044429824
I1026 16:01:21.538928 47767 layer_factory.hpp:77] Creating layer fire2/squeeze1x1_fire2/squeeze1x1_0_split
I1026 16:01:21.538934 47767 net.cpp:100] Creating Layer fire2/squeeze1x1_fire2/squeeze1x1_0_split
I1026 16:01:21.538938 47767 net.cpp:434] fire2/squeeze1x1_fire2/squeeze1x1_0_split <- fire2/squeeze1x1
I1026 16:01:21.538956 47767 net.cpp:408] fire2/squeeze1x1_fire2/squeeze1x1_0_split -> fire2/squeeze1x1_fire2/squeeze1x1_0_split_0
I1026 16:01:21.538964 47767 net.cpp:408] fire2/squeeze1x1_fire2/squeeze1x1_0_split -> fire2/squeeze1x1_fire2/squeeze1x1_0_split_1
I1026 16:01:21.539000 47767 net.cpp:150] Setting up fire2/squeeze1x1_fire2/squeeze1x1_0_split
I1026 16:01:21.539008 47767 net.cpp:157] Top shape: 128 16 56 56 (6422528)
I1026 16:01:21.539012 47767 net.cpp:157] Top shape: 128 16 56 56 (6422528)
I1026 16:01:21.539016 47767 net.cpp:165] Memory required for data: 1095810048
I1026 16:01:21.539018 47767 layer_factory.hpp:77] Creating layer fire2/expand1x1
I1026 16:01:21.539027 47767 net.cpp:100] Creating Layer fire2/expand1x1
I1026 16:01:21.539031 47767 net.cpp:434] fire2/expand1x1 <- fire2/squeeze1x1_fire2/squeeze1x1_0_split_0
I1026 16:01:21.539037 47767 net.cpp:408] fire2/expand1x1 -> fire2/expand1x1
I1026 16:01:21.540163 47767 net.cpp:150] Setting up fire2/expand1x1
I1026 16:01:21.540179 47767 net.cpp:157] Top shape: 128 64 56 56 (25690112)
I1026 16:01:21.540194 47767 net.cpp:165] Memory required for data: 1198570496
I1026 16:01:21.540216 47767 layer_factory.hpp:77] Creating layer fire2/relu_expand1x1
I1026 16:01:21.540235 47767 net.cpp:100] Creating Layer fire2/relu_expand1x1
I1026 16:01:21.540240 47767 net.cpp:434] fire2/relu_expand1x1 <- fire2/expand1x1
I1026 16:01:21.540274 47767 net.cpp:395] fire2/relu_expand1x1 -> fire2/expand1x1 (in-place)
I1026 16:01:21.540640 47767 net.cpp:150] Setting up fire2/relu_expand1x1
I1026 16:01:21.540654 47767 net.cpp:157] Top shape: 128 64 56 56 (25690112)
I1026 16:01:21.540669 47767 net.cpp:165] Memory required for data: 1301330944
I1026 16:01:21.540673 47767 layer_factory.hpp:77] Creating layer fire2/expand3x3
I1026 16:01:21.540683 47767 net.cpp:100] Creating Layer fire2/expand3x3
I1026 16:01:21.540686 47767 net.cpp:434] fire2/expand3x3 <- fire2/squeeze1x1_fire2/squeeze1x1_0_split_1
I1026 16:01:21.540693 47767 net.cpp:408] fire2/expand3x3 -> fire2/expand3x3
I1026 16:01:21.541903 47767 net.cpp:150] Setting up fire2/expand3x3
I1026 16:01:21.541918 47767 net.cpp:157] Top shape: 128 64 56 56 (25690112)
I1026 16:01:21.541932 47767 net.cpp:165] Memory required for data: 1404091392
I1026 16:01:21.541939 47767 layer_factory.hpp:77] Creating layer fire2/relu_expand3x3
I1026 16:01:21.541945 47767 net.cpp:100] Creating Layer fire2/relu_expand3x3
I1026 16:01:21.541949 47767 net.cpp:434] fire2/relu_expand3x3 <- fire2/expand3x3
I1026 16:01:21.541955 47767 net.cpp:395] fire2/relu_expand3x3 -> fire2/expand3x3 (in-place)
I1026 16:01:21.542138 47767 net.cpp:150] Setting up fire2/relu_expand3x3
I1026 16:01:21.542150 47767 net.cpp:157] Top shape: 128 64 56 56 (25690112)
I1026 16:01:21.542165 47767 net.cpp:165] Memory required for data: 1506851840
I1026 16:01:21.542167 47767 layer_factory.hpp:77] Creating layer fire2/concat
I1026 16:01:21.542179 47767 net.cpp:100] Creating Layer fire2/concat
I1026 16:01:21.542183 47767 net.cpp:434] fire2/concat <- fire2/expand1x1
I1026 16:01:21.542188 47767 net.cpp:434] fire2/concat <- fire2/expand3x3
I1026 16:01:21.542193 47767 net.cpp:408] fire2/concat -> fire2/concat
I1026 16:01:21.542222 47767 net.cpp:150] Setting up fire2/concat
I1026 16:01:21.542227 47767 net.cpp:157] Top shape: 128 128 56 56 (51380224)
I1026 16:01:21.542230 47767 net.cpp:165] Memory required for data: 1712372736
I1026 16:01:21.542233 47767 layer_factory.hpp:77] Creating layer fire3/squeeze1x1
I1026 16:01:21.542242 47767 net.cpp:100] Creating Layer fire3/squeeze1x1
I1026 16:01:21.542245 47767 net.cpp:434] fire3/squeeze1x1 <- fire2/concat
I1026 16:01:21.542250 47767 net.cpp:408] fire3/squeeze1x1 -> fire3/squeeze1x1
I1026 16:01:21.543406 47767 net.cpp:150] Setting up fire3/squeeze1x1
I1026 16:01:21.543421 47767 net.cpp:157] Top shape: 128 16 56 56 (6422528)
I1026 16:01:21.543434 47767 net.cpp:165] Memory required for data: 1738062848
I1026 16:01:21.543445 47767 layer_factory.hpp:77] Creating layer fire3/squeeze1x1_fire3/squeeze1x1_0_split
I1026 16:01:21.543452 47767 net.cpp:100] Creating Layer fire3/squeeze1x1_fire3/squeeze1x1_0_split
I1026 16:01:21.543455 47767 net.cpp:434] fire3/squeeze1x1_fire3/squeeze1x1_0_split <- fire3/squeeze1x1
I1026 16:01:21.543460 47767 net.cpp:408] fire3/squeeze1x1_fire3/squeeze1x1_0_split -> fire3/squeeze1x1_fire3/squeeze1x1_0_split_0
I1026 16:01:21.543478 47767 net.cpp:408] fire3/squeeze1x1_fire3/squeeze1x1_0_split -> fire3/squeeze1x1_fire3/squeeze1x1_0_split_1
I1026 16:01:21.543515 47767 net.cpp:150] Setting up fire3/squeeze1x1_fire3/squeeze1x1_0_split
I1026 16:01:21.543524 47767 net.cpp:157] Top shape: 128 16 56 56 (6422528)
I1026 16:01:21.543527 47767 net.cpp:157] Top shape: 128 16 56 56 (6422528)
I1026 16:01:21.543530 47767 net.cpp:165] Memory required for data: 1789443072
I1026 16:01:21.543534 47767 layer_factory.hpp:77] Creating layer fire3/expand1x1
I1026 16:01:21.543545 47767 net.cpp:100] Creating Layer fire3/expand1x1
I1026 16:01:21.543547 47767 net.cpp:434] fire3/expand1x1 <- fire3/squeeze1x1_fire3/squeeze1x1_0_split_0
I1026 16:01:21.543555 47767 net.cpp:408] fire3/expand1x1 -> fire3/expand1x1
I1026 16:01:21.544700 47767 net.cpp:150] Setting up fire3/expand1x1
I1026 16:01:21.544725 47767 net.cpp:157] Top shape: 128 64 56 56 (25690112)
I1026 16:01:21.544740 47767 net.cpp:165] Memory required for data: 1892203520
I1026 16:01:21.544747 47767 layer_factory.hpp:77] Creating layer fire3/relu_expand1x1
I1026 16:01:21.544754 47767 net.cpp:100] Creating Layer fire3/relu_expand1x1
I1026 16:01:21.544766 47767 net.cpp:434] fire3/relu_expand1x1 <- fire3/expand1x1
I1026 16:01:21.544786 47767 net.cpp:395] fire3/relu_expand1x1 -> fire3/expand1x1 (in-place)
I1026 16:01:21.544958 47767 net.cpp:150] Setting up fire3/relu_expand1x1
I1026 16:01:21.544970 47767 net.cpp:157] Top shape: 128 64 56 56 (25690112)
I1026 16:01:21.544984 47767 net.cpp:165] Memory required for data: 1994963968
I1026 16:01:21.544987 47767 layer_factory.hpp:77] Creating layer fire3/expand3x3
I1026 16:01:21.544998 47767 net.cpp:100] Creating Layer fire3/expand3x3
I1026 16:01:21.545002 47767 net.cpp:434] fire3/expand3x3 <- fire3/squeeze1x1_fire3/squeeze1x1_0_split_1
I1026 16:01:21.545009 47767 net.cpp:408] fire3/expand3x3 -> fire3/expand3x3
I1026 16:01:21.546244 47767 net.cpp:150] Setting up fire3/expand3x3
I1026 16:01:21.546258 47767 net.cpp:157] Top shape: 128 64 56 56 (25690112)
I1026 16:01:21.546273 47767 net.cpp:165] Memory required for data: 2097724416
I1026 16:01:21.546279 47767 layer_factory.hpp:77] Creating layer fire3/relu_expand3x3
I1026 16:01:21.546285 47767 net.cpp:100] Creating Layer fire3/relu_expand3x3
I1026 16:01:21.546289 47767 net.cpp:434] fire3/relu_expand3x3 <- fire3/expand3x3
I1026 16:01:21.546296 47767 net.cpp:395] fire3/relu_expand3x3 -> fire3/expand3x3 (in-place)
I1026 16:01:21.546669 47767 net.cpp:150] Setting up fire3/relu_expand3x3
I1026 16:01:21.546694 47767 net.cpp:157] Top shape: 128 64 56 56 (25690112)
I1026 16:01:21.546699 47767 net.cpp:165] Memory required for data: 2200484864
I1026 16:01:21.546713 47767 layer_factory.hpp:77] Creating layer fire3/concat
I1026 16:01:21.546720 47767 net.cpp:100] Creating Layer fire3/concat
I1026 16:01:21.546723 47767 net.cpp:434] fire3/concat <- fire3/expand1x1
I1026 16:01:21.546728 47767 net.cpp:434] fire3/concat <- fire3/expand3x3
I1026 16:01:21.546733 47767 net.cpp:408] fire3/concat -> fire3/concat
I1026 16:01:21.546762 47767 net.cpp:150] Setting up fire3/concat
I1026 16:01:21.546769 47767 net.cpp:157] Top shape: 128 128 56 56 (51380224)
I1026 16:01:21.546773 47767 net.cpp:165] Memory required for data: 2406005760
I1026 16:01:21.546777 47767 layer_factory.hpp:77] Creating layer pool3
I1026 16:01:21.546782 47767 net.cpp:100] Creating Layer pool3
I1026 16:01:21.546785 47767 net.cpp:434] pool3 <- fire3/concat
I1026 16:01:21.546790 47767 net.cpp:408] pool3 -> pool3
I1026 16:01:21.546825 47767 net.cpp:150] Setting up pool3
I1026 16:01:21.546833 47767 net.cpp:157] Top shape: 128 128 28 28 (12845056)
I1026 16:01:21.546836 47767 net.cpp:165] Memory required for data: 2457385984
I1026 16:01:21.546839 47767 layer_factory.hpp:77] Creating layer fire4/squeeze1x1
I1026 16:01:21.546847 47767 net.cpp:100] Creating Layer fire4/squeeze1x1
I1026 16:01:21.546851 47767 net.cpp:434] fire4/squeeze1x1 <- pool3
I1026 16:01:21.546859 47767 net.cpp:408] fire4/squeeze1x1 -> fire4/squeeze1x1
I1026 16:01:21.548573 47767 net.cpp:150] Setting up fire4/squeeze1x1
I1026 16:01:21.548589 47767 net.cpp:157] Top shape: 128 32 28 28 (3211264)
I1026 16:01:21.548605 47767 net.cpp:165] Memory required for data: 2470231040
I1026 16:01:21.548612 47767 layer_factory.hpp:77] Creating layer fire4/squeeze1x1_fire4/squeeze1x1_0_split
I1026 16:01:21.548620 47767 net.cpp:100] Creating Layer fire4/squeeze1x1_fire4/squeeze1x1_0_split
I1026 16:01:21.548624 47767 net.cpp:434] fire4/squeeze1x1_fire4/squeeze1x1_0_split <- fire4/squeeze1x1
I1026 16:01:21.548630 47767 net.cpp:408] fire4/squeeze1x1_fire4/squeeze1x1_0_split -> fire4/squeeze1x1_fire4/squeeze1x1_0_split_0
I1026 16:01:21.548637 47767 net.cpp:408] fire4/squeeze1x1_fire4/squeeze1x1_0_split -> fire4/squeeze1x1_fire4/squeeze1x1_0_split_1
I1026 16:01:21.548674 47767 net.cpp:150] Setting up fire4/squeeze1x1_fire4/squeeze1x1_0_split
I1026 16:01:21.548684 47767 net.cpp:157] Top shape: 128 32 28 28 (3211264)
I1026 16:01:21.548688 47767 net.cpp:157] Top shape: 128 32 28 28 (3211264)
I1026 16:01:21.548691 47767 net.cpp:165] Memory required for data: 2495921152
I1026 16:01:21.548694 47767 layer_factory.hpp:77] Creating layer fire4/expand1x1
I1026 16:01:21.548717 47767 net.cpp:100] Creating Layer fire4/expand1x1
I1026 16:01:21.548722 47767 net.cpp:434] fire4/expand1x1 <- fire4/squeeze1x1_fire4/squeeze1x1_0_split_0
I1026 16:01:21.548733 47767 net.cpp:408] fire4/expand1x1 -> fire4/expand1x1
I1026 16:01:21.550134 47767 net.cpp:150] Setting up fire4/expand1x1
I1026 16:01:21.550148 47767 net.cpp:157] Top shape: 128 128 28 28 (12845056)
I1026 16:01:21.550163 47767 net.cpp:165] Memory required for data: 2547301376
I1026 16:01:21.550174 47767 layer_factory.hpp:77] Creating layer fire4/relu_expand1x1
I1026 16:01:21.550181 47767 net.cpp:100] Creating Layer fire4/relu_expand1x1
I1026 16:01:21.550185 47767 net.cpp:434] fire4/relu_expand1x1 <- fire4/expand1x1
I1026 16:01:21.550190 47767 net.cpp:395] fire4/relu_expand1x1 -> fire4/expand1x1 (in-place)
I1026 16:01:21.550570 47767 net.cpp:150] Setting up fire4/relu_expand1x1
I1026 16:01:21.550585 47767 net.cpp:157] Top shape: 128 128 28 28 (12845056)
I1026 16:01:21.550600 47767 net.cpp:165] Memory required for data: 2598681600
I1026 16:01:21.550603 47767 layer_factory.hpp:77] Creating layer fire4/expand3x3
I1026 16:01:21.550616 47767 net.cpp:100] Creating Layer fire4/expand3x3
I1026 16:01:21.550621 47767 net.cpp:434] fire4/expand3x3 <- fire4/squeeze1x1_fire4/squeeze1x1_0_split_1
I1026 16:01:21.550626 47767 net.cpp:408] fire4/expand3x3 -> fire4/expand3x3
I1026 16:01:21.552542 47767 net.cpp:150] Setting up fire4/expand3x3
I1026 16:01:21.552557 47767 net.cpp:157] Top shape: 128 128 28 28 (12845056)
I1026 16:01:21.552572 47767 net.cpp:165] Memory required for data: 2650061824
I1026 16:01:21.552579 47767 layer_factory.hpp:77] Creating layer fire4/relu_expand3x3
I1026 16:01:21.552587 47767 net.cpp:100] Creating Layer fire4/relu_expand3x3
I1026 16:01:21.552590 47767 net.cpp:434] fire4/relu_expand3x3 <- fire4/expand3x3
I1026 16:01:21.552595 47767 net.cpp:395] fire4/relu_expand3x3 -> fire4/expand3x3 (in-place)
I1026 16:01:21.552963 47767 net.cpp:150] Setting up fire4/relu_expand3x3
I1026 16:01:21.552978 47767 net.cpp:157] Top shape: 128 128 28 28 (12845056)
I1026 16:01:21.552992 47767 net.cpp:165] Memory required for data: 2701442048
I1026 16:01:21.552996 47767 layer_factory.hpp:77] Creating layer fire4/concat
I1026 16:01:21.553004 47767 net.cpp:100] Creating Layer fire4/concat
I1026 16:01:21.553007 47767 net.cpp:434] fire4/concat <- fire4/expand1x1
I1026 16:01:21.553012 47767 net.cpp:434] fire4/concat <- fire4/expand3x3
I1026 16:01:21.553017 47767 net.cpp:408] fire4/concat -> fire4/concat
I1026 16:01:21.553058 47767 net.cpp:150] Setting up fire4/concat
I1026 16:01:21.553071 47767 net.cpp:157] Top shape: 128 256 28 28 (25690112)
I1026 16:01:21.553073 47767 net.cpp:165] Memory required for data: 2804202496
I1026 16:01:21.553076 47767 layer_factory.hpp:77] Creating layer fire5/squeeze1x1
I1026 16:01:21.553086 47767 net.cpp:100] Creating Layer fire5/squeeze1x1
I1026 16:01:21.553089 47767 net.cpp:434] fire5/squeeze1x1 <- fire4/concat
I1026 16:01:21.553095 47767 net.cpp:408] fire5/squeeze1x1 -> fire5/squeeze1x1
I1026 16:01:21.554273 47767 net.cpp:150] Setting up fire5/squeeze1x1
I1026 16:01:21.554287 47767 net.cpp:157] Top shape: 128 32 28 28 (3211264)
I1026 16:01:21.554303 47767 net.cpp:165] Memory required for data: 2817047552
I1026 16:01:21.554309 47767 layer_factory.hpp:77] Creating layer fire5/squeeze1x1_fire5/squeeze1x1_0_split
I1026 16:01:21.554316 47767 net.cpp:100] Creating Layer fire5/squeeze1x1_fire5/squeeze1x1_0_split
I1026 16:01:21.554321 47767 net.cpp:434] fire5/squeeze1x1_fire5/squeeze1x1_0_split <- fire5/squeeze1x1
I1026 16:01:21.554327 47767 net.cpp:408] fire5/squeeze1x1_fire5/squeeze1x1_0_split -> fire5/squeeze1x1_fire5/squeeze1x1_0_split_0
I1026 16:01:21.554333 47767 net.cpp:408] fire5/squeeze1x1_fire5/squeeze1x1_0_split -> fire5/squeeze1x1_fire5/squeeze1x1_0_split_1
I1026 16:01:21.554375 47767 net.cpp:150] Setting up fire5/squeeze1x1_fire5/squeeze1x1_0_split
I1026 16:01:21.554383 47767 net.cpp:157] Top shape: 128 32 28 28 (3211264)
I1026 16:01:21.554388 47767 net.cpp:157] Top shape: 128 32 28 28 (3211264)
I1026 16:01:21.554400 47767 net.cpp:165] Memory required for data: 2842737664
I1026 16:01:21.554404 47767 layer_factory.hpp:77] Creating layer fire5/expand1x1
I1026 16:01:21.554412 47767 net.cpp:100] Creating Layer fire5/expand1x1
I1026 16:01:21.554416 47767 net.cpp:434] fire5/expand1x1 <- fire5/squeeze1x1_fire5/squeeze1x1_0_split_0
I1026 16:01:21.554422 47767 net.cpp:408] fire5/expand1x1 -> fire5/expand1x1
I1026 16:01:21.555594 47767 net.cpp:150] Setting up fire5/expand1x1
I1026 16:01:21.555608 47767 net.cpp:157] Top shape: 128 128 28 28 (12845056)
I1026 16:01:21.555627 47767 net.cpp:165] Memory required for data: 2894117888
I1026 16:01:21.555635 47767 layer_factory.hpp:77] Creating layer fire5/relu_expand1x1
I1026 16:01:21.555641 47767 net.cpp:100] Creating Layer fire5/relu_expand1x1
I1026 16:01:21.555645 47767 net.cpp:434] fire5/relu_expand1x1 <- fire5/expand1x1
I1026 16:01:21.555652 47767 net.cpp:395] fire5/relu_expand1x1 -> fire5/expand1x1 (in-place)
I1026 16:01:21.555832 47767 net.cpp:150] Setting up fire5/relu_expand1x1
I1026 16:01:21.555843 47767 net.cpp:157] Top shape: 128 128 28 28 (12845056)
I1026 16:01:21.555857 47767 net.cpp:165] Memory required for data: 2945498112
I1026 16:01:21.555860 47767 layer_factory.hpp:77] Creating layer fire5/expand3x3
I1026 16:01:21.555869 47767 net.cpp:100] Creating Layer fire5/expand3x3
I1026 16:01:21.555873 47767 net.cpp:434] fire5/expand3x3 <- fire5/squeeze1x1_fire5/squeeze1x1_0_split_1
I1026 16:01:21.555881 47767 net.cpp:408] fire5/expand3x3 -> fire5/expand3x3
I1026 16:01:21.557358 47767 net.cpp:150] Setting up fire5/expand3x3
I1026 16:01:21.557371 47767 net.cpp:157] Top shape: 128 128 28 28 (12845056)
I1026 16:01:21.557376 47767 net.cpp:165] Memory required for data: 2996878336
I1026 16:01:21.557382 47767 layer_factory.hpp:77] Creating layer fire5/relu_expand3x3
I1026 16:01:21.557392 47767 net.cpp:100] Creating Layer fire5/relu_expand3x3
I1026 16:01:21.557407 47767 net.cpp:434] fire5/relu_expand3x3 <- fire5/expand3x3
I1026 16:01:21.557413 47767 net.cpp:395] fire5/relu_expand3x3 -> fire5/expand3x3 (in-place)
I1026 16:01:21.557579 47767 net.cpp:150] Setting up fire5/relu_expand3x3
I1026 16:01:21.557590 47767 net.cpp:157] Top shape: 128 128 28 28 (12845056)
I1026 16:01:21.557595 47767 net.cpp:165] Memory required for data: 3048258560
I1026 16:01:21.557598 47767 layer_factory.hpp:77] Creating layer fire5/concat
I1026 16:01:21.557603 47767 net.cpp:100] Creating Layer fire5/concat
I1026 16:01:21.557607 47767 net.cpp:434] fire5/concat <- fire5/expand1x1
I1026 16:01:21.557612 47767 net.cpp:434] fire5/concat <- fire5/expand3x3
I1026 16:01:21.557616 47767 net.cpp:408] fire5/concat -> fire5/concat
I1026 16:01:21.557646 47767 net.cpp:150] Setting up fire5/concat
I1026 16:01:21.557651 47767 net.cpp:157] Top shape: 128 256 28 28 (25690112)
I1026 16:01:21.557654 47767 net.cpp:165] Memory required for data: 3151019008
I1026 16:01:21.557657 47767 layer_factory.hpp:77] Creating layer pool5
I1026 16:01:21.557663 47767 net.cpp:100] Creating Layer pool5
I1026 16:01:21.557667 47767 net.cpp:434] pool5 <- fire5/concat
I1026 16:01:21.557672 47767 net.cpp:408] pool5 -> pool5
I1026 16:01:21.557709 47767 net.cpp:150] Setting up pool5
I1026 16:01:21.557715 47767 net.cpp:157] Top shape: 128 256 14 14 (6422528)
I1026 16:01:21.557718 47767 net.cpp:165] Memory required for data: 3176709120
I1026 16:01:21.557721 47767 layer_factory.hpp:77] Creating layer fire6/squeeze1x1
I1026 16:01:21.557729 47767 net.cpp:100] Creating Layer fire6/squeeze1x1
I1026 16:01:21.557731 47767 net.cpp:434] fire6/squeeze1x1 <- pool5
I1026 16:01:21.557737 47767 net.cpp:408] fire6/squeeze1x1 -> fire6/squeeze1x1
I1026 16:01:21.558953 47767 net.cpp:150] Setting up fire6/squeeze1x1
I1026 16:01:21.558967 47767 net.cpp:157] Top shape: 128 48 14 14 (1204224)
I1026 16:01:21.558971 47767 net.cpp:165] Memory required for data: 3181526016
I1026 16:01:21.558990 47767 layer_factory.hpp:77] Creating layer fire6/squeeze1x1_fire6/squeeze1x1_0_split
I1026 16:01:21.558995 47767 net.cpp:100] Creating Layer fire6/squeeze1x1_fire6/squeeze1x1_0_split
I1026 16:01:21.559010 47767 net.cpp:434] fire6/squeeze1x1_fire6/squeeze1x1_0_split <- fire6/squeeze1x1
I1026 16:01:21.559017 47767 net.cpp:408] fire6/squeeze1x1_fire6/squeeze1x1_0_split -> fire6/squeeze1x1_fire6/squeeze1x1_0_split_0
I1026 16:01:21.559026 47767 net.cpp:408] fire6/squeeze1x1_fire6/squeeze1x1_0_split -> fire6/squeeze1x1_fire6/squeeze1x1_0_split_1
I1026 16:01:21.559063 47767 net.cpp:150] Setting up fire6/squeeze1x1_fire6/squeeze1x1_0_split
I1026 16:01:21.559073 47767 net.cpp:157] Top shape: 128 48 14 14 (1204224)
I1026 16:01:21.559078 47767 net.cpp:157] Top shape: 128 48 14 14 (1204224)
I1026 16:01:21.559082 47767 net.cpp:165] Memory required for data: 3191159808
I1026 16:01:21.559084 47767 layer_factory.hpp:77] Creating layer fire6/expand1x1
I1026 16:01:21.559095 47767 net.cpp:100] Creating Layer fire6/expand1x1
I1026 16:01:21.559099 47767 net.cpp:434] fire6/expand1x1 <- fire6/squeeze1x1_fire6/squeeze1x1_0_split_0
I1026 16:01:21.559104 47767 net.cpp:408] fire6/expand1x1 -> fire6/expand1x1
I1026 16:01:21.560286 47767 net.cpp:150] Setting up fire6/expand1x1
I1026 16:01:21.560300 47767 net.cpp:157] Top shape: 128 192 14 14 (4816896)
I1026 16:01:21.560304 47767 net.cpp:165] Memory required for data: 3210427392
I1026 16:01:21.560310 47767 layer_factory.hpp:77] Creating layer fire6/relu_expand1x1
I1026 16:01:21.560329 47767 net.cpp:100] Creating Layer fire6/relu_expand1x1
I1026 16:01:21.560333 47767 net.cpp:434] fire6/relu_expand1x1 <- fire6/expand1x1
I1026 16:01:21.560338 47767 net.cpp:395] fire6/relu_expand1x1 -> fire6/expand1x1 (in-place)
I1026 16:01:21.560704 47767 net.cpp:150] Setting up fire6/relu_expand1x1
I1026 16:01:21.560716 47767 net.cpp:157] Top shape: 128 192 14 14 (4816896)
I1026 16:01:21.560730 47767 net.cpp:165] Memory required for data: 3229694976
I1026 16:01:21.560734 47767 layer_factory.hpp:77] Creating layer fire6/expand3x3
I1026 16:01:21.560745 47767 net.cpp:100] Creating Layer fire6/expand3x3
I1026 16:01:21.560750 47767 net.cpp:434] fire6/expand3x3 <- fire6/squeeze1x1_fire6/squeeze1x1_0_split_1
I1026 16:01:21.560755 47767 net.cpp:408] fire6/expand3x3 -> fire6/expand3x3
I1026 16:01:21.562943 47767 net.cpp:150] Setting up fire6/expand3x3
I1026 16:01:21.562957 47767 net.cpp:157] Top shape: 128 192 14 14 (4816896)
I1026 16:01:21.562971 47767 net.cpp:165] Memory required for data: 3248962560
I1026 16:01:21.562978 47767 layer_factory.hpp:77] Creating layer fire6/relu_expand3x3
I1026 16:01:21.562985 47767 net.cpp:100] Creating Layer fire6/relu_expand3x3
I1026 16:01:21.562989 47767 net.cpp:434] fire6/relu_expand3x3 <- fire6/expand3x3
I1026 16:01:21.562994 47767 net.cpp:395] fire6/relu_expand3x3 -> fire6/expand3x3 (in-place)
I1026 16:01:21.563364 47767 net.cpp:150] Setting up fire6/relu_expand3x3
I1026 16:01:21.563388 47767 net.cpp:157] Top shape: 128 192 14 14 (4816896)
I1026 16:01:21.563392 47767 net.cpp:165] Memory required for data: 3268230144
I1026 16:01:21.563395 47767 layer_factory.hpp:77] Creating layer fire6/concat
I1026 16:01:21.563401 47767 net.cpp:100] Creating Layer fire6/concat
I1026 16:01:21.563405 47767 net.cpp:434] fire6/concat <- fire6/expand1x1
I1026 16:01:21.563410 47767 net.cpp:434] fire6/concat <- fire6/expand3x3
I1026 16:01:21.563416 47767 net.cpp:408] fire6/concat -> fire6/concat
I1026 16:01:21.563444 47767 net.cpp:150] Setting up fire6/concat
I1026 16:01:21.563451 47767 net.cpp:157] Top shape: 128 384 14 14 (9633792)
I1026 16:01:21.563453 47767 net.cpp:165] Memory required for data: 3306765312
I1026 16:01:21.563457 47767 layer_factory.hpp:77] Creating layer fire7/squeeze1x1
I1026 16:01:21.563464 47767 net.cpp:100] Creating Layer fire7/squeeze1x1
I1026 16:01:21.563468 47767 net.cpp:434] fire7/squeeze1x1 <- fire6/concat
I1026 16:01:21.563473 47767 net.cpp:408] fire7/squeeze1x1 -> fire7/squeeze1x1
I1026 16:01:21.564899 47767 net.cpp:150] Setting up fire7/squeeze1x1
I1026 16:01:21.564913 47767 net.cpp:157] Top shape: 128 48 14 14 (1204224)
I1026 16:01:21.564927 47767 net.cpp:165] Memory required for data: 3311582208
I1026 16:01:21.564939 47767 layer_factory.hpp:77] Creating layer fire7/squeeze1x1_fire7/squeeze1x1_0_split
I1026 16:01:21.564954 47767 net.cpp:100] Creating Layer fire7/squeeze1x1_fire7/squeeze1x1_0_split
I1026 16:01:21.564959 47767 net.cpp:434] fire7/squeeze1x1_fire7/squeeze1x1_0_split <- fire7/squeeze1x1
I1026 16:01:21.564977 47767 net.cpp:408] fire7/squeeze1x1_fire7/squeeze1x1_0_split -> fire7/squeeze1x1_fire7/squeeze1x1_0_split_0
I1026 16:01:21.564985 47767 net.cpp:408] fire7/squeeze1x1_fire7/squeeze1x1_0_split -> fire7/squeeze1x1_fire7/squeeze1x1_0_split_1
I1026 16:01:21.565021 47767 net.cpp:150] Setting up fire7/squeeze1x1_fire7/squeeze1x1_0_split
I1026 16:01:21.565028 47767 net.cpp:157] Top shape: 128 48 14 14 (1204224)
I1026 16:01:21.565032 47767 net.cpp:157] Top shape: 128 48 14 14 (1204224)
I1026 16:01:21.565034 47767 net.cpp:165] Memory required for data: 3321216000
I1026 16:01:21.565037 47767 layer_factory.hpp:77] Creating layer fire7/expand1x1
I1026 16:01:21.565047 47767 net.cpp:100] Creating Layer fire7/expand1x1
I1026 16:01:21.565049 47767 net.cpp:434] fire7/expand1x1 <- fire7/squeeze1x1_fire7/squeeze1x1_0_split_0
I1026 16:01:21.565057 47767 net.cpp:408] fire7/expand1x1 -> fire7/expand1x1
I1026 16:01:21.566220 47767 net.cpp:150] Setting up fire7/expand1x1
I1026 16:01:21.566232 47767 net.cpp:157] Top shape: 128 192 14 14 (4816896)
I1026 16:01:21.566247 47767 net.cpp:165] Memory required for data: 3340483584
I1026 16:01:21.566253 47767 layer_factory.hpp:77] Creating layer fire7/relu_expand1x1
I1026 16:01:21.566259 47767 net.cpp:100] Creating Layer fire7/relu_expand1x1
I1026 16:01:21.566263 47767 net.cpp:434] fire7/relu_expand1x1 <- fire7/expand1x1
I1026 16:01:21.566269 47767 net.cpp:395] fire7/relu_expand1x1 -> fire7/expand1x1 (in-place)
I1026 16:01:21.566454 47767 net.cpp:150] Setting up fire7/relu_expand1x1
I1026 16:01:21.566465 47767 net.cpp:157] Top shape: 128 192 14 14 (4816896)
I1026 16:01:21.566479 47767 net.cpp:165] Memory required for data: 3359751168
I1026 16:01:21.566483 47767 layer_factory.hpp:77] Creating layer fire7/expand3x3
I1026 16:01:21.566491 47767 net.cpp:100] Creating Layer fire7/expand3x3
I1026 16:01:21.566496 47767 net.cpp:434] fire7/expand3x3 <- fire7/squeeze1x1_fire7/squeeze1x1_0_split_1
I1026 16:01:21.566504 47767 net.cpp:408] fire7/expand3x3 -> fire7/expand3x3
I1026 16:01:21.568266 47767 net.cpp:150] Setting up fire7/expand3x3
I1026 16:01:21.568291 47767 net.cpp:157] Top shape: 128 192 14 14 (4816896)
I1026 16:01:21.568295 47767 net.cpp:165] Memory required for data: 3379018752
I1026 16:01:21.568301 47767 layer_factory.hpp:77] Creating layer fire7/relu_expand3x3
I1026 16:01:21.568308 47767 net.cpp:100] Creating Layer fire7/relu_expand3x3
I1026 16:01:21.568312 47767 net.cpp:434] fire7/relu_expand3x3 <- fire7/expand3x3
I1026 16:01:21.568317 47767 net.cpp:395] fire7/relu_expand3x3 -> fire7/expand3x3 (in-place)
I1026 16:01:21.568500 47767 net.cpp:150] Setting up fire7/relu_expand3x3
I1026 16:01:21.568523 47767 net.cpp:157] Top shape: 128 192 14 14 (4816896)
I1026 16:01:21.568527 47767 net.cpp:165] Memory required for data: 3398286336
I1026 16:01:21.568531 47767 layer_factory.hpp:77] Creating layer fire7/concat
I1026 16:01:21.568536 47767 net.cpp:100] Creating Layer fire7/concat
I1026 16:01:21.568538 47767 net.cpp:434] fire7/concat <- fire7/expand1x1
I1026 16:01:21.568543 47767 net.cpp:434] fire7/concat <- fire7/expand3x3
I1026 16:01:21.568547 47767 net.cpp:408] fire7/concat -> fire7/concat
I1026 16:01:21.568577 47767 net.cpp:150] Setting up fire7/concat
I1026 16:01:21.568583 47767 net.cpp:157] Top shape: 128 384 14 14 (9633792)
I1026 16:01:21.568585 47767 net.cpp:165] Memory required for data: 3436821504
I1026 16:01:21.568588 47767 layer_factory.hpp:77] Creating layer fire8/squeeze1x1
I1026 16:01:21.568595 47767 net.cpp:100] Creating Layer fire8/squeeze1x1
I1026 16:01:21.568599 47767 net.cpp:434] fire8/squeeze1x1 <- fire7/concat
I1026 16:01:21.568604 47767 net.cpp:408] fire8/squeeze1x1 -> fire8/squeeze1x1
I1026 16:01:21.569887 47767 net.cpp:150] Setting up fire8/squeeze1x1
I1026 16:01:21.569900 47767 net.cpp:157] Top shape: 128 64 14 14 (1605632)
I1026 16:01:21.569924 47767 net.cpp:165] Memory required for data: 3443244032
I1026 16:01:21.569931 47767 layer_factory.hpp:77] Creating layer fire8/squeeze1x1_fire8/squeeze1x1_0_split
I1026 16:01:21.569936 47767 net.cpp:100] Creating Layer fire8/squeeze1x1_fire8/squeeze1x1_0_split
I1026 16:01:21.569941 47767 net.cpp:434] fire8/squeeze1x1_fire8/squeeze1x1_0_split <- fire8/squeeze1x1
I1026 16:01:21.569947 47767 net.cpp:408] fire8/squeeze1x1_fire8/squeeze1x1_0_split -> fire8/squeeze1x1_fire8/squeeze1x1_0_split_0
I1026 16:01:21.569965 47767 net.cpp:408] fire8/squeeze1x1_fire8/squeeze1x1_0_split -> fire8/squeeze1x1_fire8/squeeze1x1_0_split_1
I1026 16:01:21.570003 47767 net.cpp:150] Setting up fire8/squeeze1x1_fire8/squeeze1x1_0_split
I1026 16:01:21.570010 47767 net.cpp:157] Top shape: 128 64 14 14 (1605632)
I1026 16:01:21.570014 47767 net.cpp:157] Top shape: 128 64 14 14 (1605632)
I1026 16:01:21.570017 47767 net.cpp:165] Memory required for data: 3456089088
I1026 16:01:21.570020 47767 layer_factory.hpp:77] Creating layer fire8/expand1x1
I1026 16:01:21.570027 47767 net.cpp:100] Creating Layer fire8/expand1x1
I1026 16:01:21.570030 47767 net.cpp:434] fire8/expand1x1 <- fire8/squeeze1x1_fire8/squeeze1x1_0_split_0
I1026 16:01:21.570037 47767 net.cpp:408] fire8/expand1x1 -> fire8/expand1x1
I1026 16:01:21.571466 47767 net.cpp:150] Setting up fire8/expand1x1
I1026 16:01:21.571480 47767 net.cpp:157] Top shape: 128 256 14 14 (6422528)
I1026 16:01:21.571494 47767 net.cpp:165] Memory required for data: 3481779200
I1026 16:01:21.571501 47767 layer_factory.hpp:77] Creating layer fire8/relu_expand1x1
I1026 16:01:21.571506 47767 net.cpp:100] Creating Layer fire8/relu_expand1x1
I1026 16:01:21.571511 47767 net.cpp:434] fire8/relu_expand1x1 <- fire8/expand1x1
I1026 16:01:21.571517 47767 net.cpp:395] fire8/relu_expand1x1 -> fire8/expand1x1 (in-place)
I1026 16:01:21.571898 47767 net.cpp:150] Setting up fire8/relu_expand1x1
I1026 16:01:21.571912 47767 net.cpp:157] Top shape: 128 256 14 14 (6422528)
I1026 16:01:21.571926 47767 net.cpp:165] Memory required for data: 3507469312
I1026 16:01:21.571929 47767 layer_factory.hpp:77] Creating layer fire8/expand3x3
I1026 16:01:21.571939 47767 net.cpp:100] Creating Layer fire8/expand3x3
I1026 16:01:21.571943 47767 net.cpp:434] fire8/expand3x3 <- fire8/squeeze1x1_fire8/squeeze1x1_0_split_1
I1026 16:01:21.571949 47767 net.cpp:408] fire8/expand3x3 -> fire8/expand3x3
I1026 16:01:21.574517 47767 net.cpp:150] Setting up fire8/expand3x3
I1026 16:01:21.574532 47767 net.cpp:157] Top shape: 128 256 14 14 (6422528)
I1026 16:01:21.574546 47767 net.cpp:165] Memory required for data: 3533159424
I1026 16:01:21.574553 47767 layer_factory.hpp:77] Creating layer fire8/relu_expand3x3
I1026 16:01:21.574560 47767 net.cpp:100] Creating Layer fire8/relu_expand3x3
I1026 16:01:21.574564 47767 net.cpp:434] fire8/relu_expand3x3 <- fire8/expand3x3
I1026 16:01:21.574570 47767 net.cpp:395] fire8/relu_expand3x3 -> fire8/expand3x3 (in-place)
I1026 16:01:21.574956 47767 net.cpp:150] Setting up fire8/relu_expand3x3
I1026 16:01:21.574970 47767 net.cpp:157] Top shape: 128 256 14 14 (6422528)
I1026 16:01:21.574985 47767 net.cpp:165] Memory required for data: 3558849536
I1026 16:01:21.574987 47767 layer_factory.hpp:77] Creating layer fire8/concat
I1026 16:01:21.574995 47767 net.cpp:100] Creating Layer fire8/concat
I1026 16:01:21.575000 47767 net.cpp:434] fire8/concat <- fire8/expand1x1
I1026 16:01:21.575004 47767 net.cpp:434] fire8/concat <- fire8/expand3x3
I1026 16:01:21.575009 47767 net.cpp:408] fire8/concat -> fire8/concat
I1026 16:01:21.575040 47767 net.cpp:150] Setting up fire8/concat
I1026 16:01:21.575047 47767 net.cpp:157] Top shape: 128 512 14 14 (12845056)
I1026 16:01:21.575049 47767 net.cpp:165] Memory required for data: 3610229760
I1026 16:01:21.575052 47767 layer_factory.hpp:77] Creating layer fire9/squeeze1x1
I1026 16:01:21.575060 47767 net.cpp:100] Creating Layer fire9/squeeze1x1
I1026 16:01:21.575064 47767 net.cpp:434] fire9/squeeze1x1 <- fire8/concat
I1026 16:01:21.575070 47767 net.cpp:408] fire9/squeeze1x1 -> fire9/squeeze1x1
I1026 16:01:21.576485 47767 net.cpp:150] Setting up fire9/squeeze1x1
I1026 16:01:21.576511 47767 net.cpp:157] Top shape: 128 64 14 14 (1605632)
I1026 16:01:21.576514 47767 net.cpp:165] Memory required for data: 3616652288
I1026 16:01:21.576521 47767 layer_factory.hpp:77] Creating layer fire9/squeeze1x1_fire9/squeeze1x1_0_split
I1026 16:01:21.576529 47767 net.cpp:100] Creating Layer fire9/squeeze1x1_fire9/squeeze1x1_0_split
I1026 16:01:21.576532 47767 net.cpp:434] fire9/squeeze1x1_fire9/squeeze1x1_0_split <- fire9/squeeze1x1
I1026 16:01:21.576539 47767 net.cpp:408] fire9/squeeze1x1_fire9/squeeze1x1_0_split -> fire9/squeeze1x1_fire9/squeeze1x1_0_split_0
I1026 16:01:21.576545 47767 net.cpp:408] fire9/squeeze1x1_fire9/squeeze1x1_0_split -> fire9/squeeze1x1_fire9/squeeze1x1_0_split_1
I1026 16:01:21.576597 47767 net.cpp:150] Setting up fire9/squeeze1x1_fire9/squeeze1x1_0_split
I1026 16:01:21.576603 47767 net.cpp:157] Top shape: 128 64 14 14 (1605632)
I1026 16:01:21.576607 47767 net.cpp:157] Top shape: 128 64 14 14 (1605632)
I1026 16:01:21.576609 47767 net.cpp:165] Memory required for data: 3629497344
I1026 16:01:21.576612 47767 layer_factory.hpp:77] Creating layer fire9/expand1x1
I1026 16:01:21.576622 47767 net.cpp:100] Creating Layer fire9/expand1x1
I1026 16:01:21.576624 47767 net.cpp:434] fire9/expand1x1 <- fire9/squeeze1x1_fire9/squeeze1x1_0_split_0
I1026 16:01:21.576630 47767 net.cpp:408] fire9/expand1x1 -> fire9/expand1x1
I1026 16:01:21.577953 47767 net.cpp:150] Setting up fire9/expand1x1
I1026 16:01:21.577967 47767 net.cpp:157] Top shape: 128 256 14 14 (6422528)
I1026 16:01:21.577982 47767 net.cpp:165] Memory required for data: 3655187456
I1026 16:01:21.577989 47767 layer_factory.hpp:77] Creating layer fire9/relu_expand1x1
I1026 16:01:21.577996 47767 net.cpp:100] Creating Layer fire9/relu_expand1x1
I1026 16:01:21.578001 47767 net.cpp:434] fire9/relu_expand1x1 <- fire9/expand1x1
I1026 16:01:21.578006 47767 net.cpp:395] fire9/relu_expand1x1 -> fire9/expand1x1 (in-place)
I1026 16:01:21.578363 47767 net.cpp:150] Setting up fire9/relu_expand1x1
I1026 16:01:21.578377 47767 net.cpp:157] Top shape: 128 256 14 14 (6422528)
I1026 16:01:21.578392 47767 net.cpp:165] Memory required for data: 3680877568
I1026 16:01:21.578394 47767 layer_factory.hpp:77] Creating layer fire9/expand3x3
I1026 16:01:21.578403 47767 net.cpp:100] Creating Layer fire9/expand3x3
I1026 16:01:21.578408 47767 net.cpp:434] fire9/expand3x3 <- fire9/squeeze1x1_fire9/squeeze1x1_0_split_1
I1026 16:01:21.578414 47767 net.cpp:408] fire9/expand3x3 -> fire9/expand3x3
I1026 16:01:21.581068 47767 net.cpp:150] Setting up fire9/expand3x3
I1026 16:01:21.581081 47767 net.cpp:157] Top shape: 128 256 14 14 (6422528)
I1026 16:01:21.581096 47767 net.cpp:165] Memory required for data: 3706567680
I1026 16:01:21.581102 47767 layer_factory.hpp:77] Creating layer fire9/relu_expand3x3
I1026 16:01:21.581110 47767 net.cpp:100] Creating Layer fire9/relu_expand3x3
I1026 16:01:21.581115 47767 net.cpp:434] fire9/relu_expand3x3 <- fire9/expand3x3
I1026 16:01:21.581120 47767 net.cpp:395] fire9/relu_expand3x3 -> fire9/expand3x3 (in-place)
I1026 16:01:21.581307 47767 net.cpp:150] Setting up fire9/relu_expand3x3
I1026 16:01:21.581317 47767 net.cpp:157] Top shape: 128 256 14 14 (6422528)
I1026 16:01:21.581332 47767 net.cpp:165] Memory required for data: 3732257792
I1026 16:01:21.581336 47767 layer_factory.hpp:77] Creating layer fire9/concat
I1026 16:01:21.581341 47767 net.cpp:100] Creating Layer fire9/concat
I1026 16:01:21.581346 47767 net.cpp:434] fire9/concat <- fire9/expand1x1
I1026 16:01:21.581351 47767 net.cpp:434] fire9/concat <- fire9/expand3x3
I1026 16:01:21.581356 47767 net.cpp:408] fire9/concat -> fire9/concat
I1026 16:01:21.581384 47767 net.cpp:150] Setting up fire9/concat
I1026 16:01:21.581390 47767 net.cpp:157] Top shape: 128 512 14 14 (12845056)
I1026 16:01:21.581393 47767 net.cpp:165] Memory required for data: 3783638016
I1026 16:01:21.581396 47767 layer_factory.hpp:77] Creating layer drop9
I1026 16:01:21.581403 47767 net.cpp:100] Creating Layer drop9
I1026 16:01:21.581406 47767 net.cpp:434] drop9 <- fire9/concat
I1026 16:01:21.581420 47767 net.cpp:395] drop9 -> fire9/concat (in-place)
I1026 16:01:21.581450 47767 net.cpp:150] Setting up drop9
I1026 16:01:21.581455 47767 net.cpp:157] Top shape: 128 512 14 14 (12845056)
I1026 16:01:21.581459 47767 net.cpp:165] Memory required for data: 3835018240
I1026 16:01:21.581461 47767 layer_factory.hpp:77] Creating layer conv10_2626
I1026 16:01:21.581475 47767 net.cpp:100] Creating Layer conv10_2626
I1026 16:01:21.581478 47767 net.cpp:434] conv10_2626 <- fire9/concat
I1026 16:01:21.581485 47767 net.cpp:408] conv10_2626 -> conv10_2626
I1026 16:01:21.602432 47767 net.cpp:150] Setting up conv10_2626
I1026 16:01:21.602447 47767 net.cpp:157] Top shape: 128 2626 14 14 (65881088)
I1026 16:01:21.602461 47767 net.cpp:165] Memory required for data: 4098542592
I1026 16:01:21.602468 47767 layer_factory.hpp:77] Creating layer relu_conv10
I1026 16:01:21.602473 47767 net.cpp:100] Creating Layer relu_conv10
I1026 16:01:21.602480 47767 net.cpp:434] relu_conv10 <- conv10_2626
I1026 16:01:21.602485 47767 net.cpp:395] relu_conv10 -> conv10_2626 (in-place)
I1026 16:01:21.602879 47767 net.cpp:150] Setting up relu_conv10
I1026 16:01:21.602891 47767 net.cpp:157] Top shape: 128 2626 14 14 (65881088)
I1026 16:01:21.602906 47767 net.cpp:165] Memory required for data: 4362066944
I1026 16:01:21.602910 47767 layer_factory.hpp:77] Creating layer pool10
I1026 16:01:21.602917 47767 net.cpp:100] Creating Layer pool10
I1026 16:01:21.602922 47767 net.cpp:434] pool10 <- conv10_2626
I1026 16:01:21.602929 47767 net.cpp:408] pool10 -> pool10
I1026 16:01:21.603129 47767 net.cpp:150] Setting up pool10
I1026 16:01:21.603140 47767 net.cpp:157] Top shape: 128 2626 1 1 (336128)
I1026 16:01:21.603154 47767 net.cpp:165] Memory required for data: 4363411456
I1026 16:01:21.603157 47767 layer_factory.hpp:77] Creating layer pool10_pool10_0_split
I1026 16:01:21.603163 47767 net.cpp:100] Creating Layer pool10_pool10_0_split
I1026 16:01:21.603168 47767 net.cpp:434] pool10_pool10_0_split <- pool10
I1026 16:01:21.603173 47767 net.cpp:408] pool10_pool10_0_split -> pool10_pool10_0_split_0
I1026 16:01:21.603178 47767 net.cpp:408] pool10_pool10_0_split -> pool10_pool10_0_split_1
I1026 16:01:21.603217 47767 net.cpp:150] Setting up pool10_pool10_0_split
I1026 16:01:21.603222 47767 net.cpp:157] Top shape: 128 2626 1 1 (336128)
I1026 16:01:21.603226 47767 net.cpp:157] Top shape: 128 2626 1 1 (336128)
I1026 16:01:21.603229 47767 net.cpp:165] Memory required for data: 4366100480
I1026 16:01:21.603232 47767 layer_factory.hpp:77] Creating layer loss
I1026 16:01:21.603237 47767 net.cpp:100] Creating Layer loss
I1026 16:01:21.603240 47767 net.cpp:434] loss <- pool10_pool10_0_split_0
I1026 16:01:21.603245 47767 net.cpp:434] loss <- label_data_1_split_0
I1026 16:01:21.603251 47767 net.cpp:408] loss -> loss
…
I1026 16:01:21.605934 47767 net.cpp:322] The NetState phase (1) differed from the phase (0) specified by a rule in layer data
I1026 16:01:21.606003 47767 net.cpp:322] The NetState phase (1) differed from the phase (0) specified by a rule in layer accuracy
I1026 16:01:21.606310 47767 net.cpp:58] Initializing net from parameters: 
state {
  phase: TEST
}
layer {
  name: "data"
  type: "Data"
  top: "data"
  top: "label"
  include {
    phase: TEST
  }
  transform_param {
    crop_size: 227
    mean_file: "/share/zhh/mean.binaryproto"
  }
  data_param {
    source: "/share/front/test_lmdb"
    batch_size: 100
    backend: LMDB
  }
}
layer {
  name: "conv1"
  type: "Convolution"
  bottom: "data"
  top: "conv1"
  convolution_param {
    num_output: 64
    kernel_size: 3
    stride: 2
    weight_filler {
      type: "xavier"
    }
  }
}
layer {
  name: "relu_conv1"
  type: "ReLU"
  bottom: "conv1"
  top: "conv1"
}
layer {
  name: "pool1"
  type: "Pooling"
  bottom: "conv1"
  top: "pool1"
  pooling_param {
    pool: MAX
    kernel_size: 3
    stride: 2
  }
}
layer {
  name: "fire2/squeeze1x1"
  type: "Convolution"
  bottom: "pool1"
  top: "fire2/squeeze1x1"
  convolution_param {
    num_output: 16
    kernel_size: 1
    weight_filler {
      type: "xavier"
    }
  }
}
layer {
  name: "fire2/expand1x1"
  type: "Convolution"
  bottom: "fire2/squeeze1x1"
  top: "fire2/expand1x1"
  convolution_param {
    num_output: 64
    kernel_size: 1
    weight_filler {
      type: "xavier"
    }
  }
}
layer {
  name: "fire2/relu_expand1x1"
  type: "ReLU"
  bottom: "fire2/expand1x1"
  top: "fire2/expand1x1"
}
layer {
  name: "fire2/expand3x3"
  type: "Convolution"
  bottom: "fire2/squeeze1x1"
  top: "fire2/expand3x3"
  convolution_param {
    num_output: 64
    pad: 1
    kernel_size: 3
    weight_filler {
      type: "xavier"
    }
  }
}
layer {
  name: "fire2/relu_expand3x3"
  type: "ReLU"
  bottom: "fire2/expand3x3"
  top: "fire2/expand3x3"
}
layer {
  name: "fire2/concat"
  type: "Concat"
  bottom: "fire2/expand1x1"
  bottom: "fire2/expand3x3"
  top: "fire2/concat"
}
layer {
  name: "fire3/squeeze1x1"
  type: "Convolution"
  bottom: "fire2/concat"
  top: "fire3/squeeze1x1"
  convolution_param {
    num_output: 16
    kernel_size: 1
    weight_filler {
      type: "xavier"
    }
  }
}
layer {
  name: "fire3/expand1x1"
  type: "Convolution"
  bottom: "fire3/squeeze1x1"
  top: "fire3/expand1x1"
  convolution_param {
    num_output: 64
    kernel_size: 1
    weight_filler {
      type: "xavier"
    }
  }
}
layer {
  name: "fire3/relu_expand1x1"
  type: "ReLU"
  bottom: "fire3/expand1x1"
  top: "fire3/expand1x1"
}
layer {
  name: "fire3/expand3x3"
  type: "Convolution"
  bottom: "fire3/squeeze1x1"
  top: "fire3/expand3x3"
  convolution_param {
    num_output: 64
    pad: 1
    kernel_size: 3
    weight_filler {
      type: "xavier"
    }
  }
}
layer {
  name: "fire3/relu_expand3x3"
  type: "ReLU"
  bottom: "fire3/expand3x3"
  top: "fire3/expand3x3"
}
layer {
  name: "fire3/concat"
  type: "Concat"
  bottom: "fire3/expand1x1"
  bottom: "fire3/expand3x3"
  top: "fire3/concat"
}
layer {
  name: "pool3"
  type: "Pooling"
  bottom: "fire3/concat"
  top: "pool3"
  pooling_param {
    pool: MAX
    kernel_size: 3
    stride: 2
  }
}
layer {
  name: "fire4/squeeze1x1"
  type: "Convolution"
  bottom: "pool3"
  top: "fire4/squeeze1x1"
  convolution_param {
    num_output: 32
    kernel_size: 1
    weight_filler {
      type: "xavier"
    }
  }
}
layer {
  name: "fire4/expand1x1"
  type: "Convolution"
  bottom: "fire4/squeeze1x1"
  top: "fire4/expand1x1"
  convolution_param {
    num_output: 128
    kernel_size: 1
    weight_filler {
      type: "xavier"
    }
  }
}
layer {
  name: "fire4/relu_expand1x1"
  type: "ReLU"
  bottom: "fire4/expand1x1"
  top: "fire4/expand1x1"
}
layer {
  name: "fire4/expand3x3"
  type: "Convolution"
  bottom: "fire4/squeeze1x1"
  top: "fire4/expand3x3"
  convolution_param {
    num_output: 128
    pad: 1
    kernel_size: 3
    weight_filler {
      type: "xavier"
    }
  }
}
layer {
  name: "fire4/relu_expand3x3"
  type: "ReLU"
  bottom: "fire4/expand3x3"
  top: "fire4/expand3x3"
}
layer {
  name: "fire4/concat"
  type: "Concat"
  bottom: "fire4/expand1x1"
  bottom: "fire4/expand3x3"
  top: "fire4/concat"
}
layer {
  name: "fire5/squeeze1x1"
  type: "Convolution"
  bottom: "fire4/concat"
  top: "fire5/squeeze1x1"
  convolution_param {
    num_output: 32
    kernel_size: 1
    weight_filler {
      type: "xavier"
    }
  }
}
layer {
  name: "fire5/expand1x1"
  type: "Convolution"
  bottom: "fire5/squeeze1x1"
  top: "fire5/expand1x1"
  convolution_param {
    num_output: 128
    kernel_size: 1
    weight_filler {
      type: "xavier"
    }
  }
}
layer {
  name: "fire5/relu_expand1x1"
  type: "ReLU"
  bottom: "fire5/expand1x1"
  top: "fire5/expand1x1"
}
layer {
  name: "fire5/expand3x3"
  type: "Convolution"
  bottom: "fire5/squeeze1x1"
  top: "fire5/expand3x3"
  convolution_param {
    num_output: 128
    pad: 1
    kernel_size: 3
    weight_filler {
      type: "xavier"
    }
  }
}
layer {
  name: "fire5/relu_expand3x3"
  type: "ReLU"
  bottom: "fire5/expand3x3"
  top: "fire5/expand3x3"
}
layer {
  name: "fire5/concat"
  type: "Concat"
  bottom: "fire5/expand1x1"
  bottom: "fire5/expand3x3"
  top: "fire5/concat"
}
layer {
  name: "pool5"
  type: "Pooling"
  bottom: "fire5/concat"
  top: "pool5"
  pooling_param {
    pool: MAX
    kernel_size: 3
    stride: 2
  }
}
layer {
  name: "fire6/squeeze1x1"
  type: "Convolution"
  bottom: "pool5"
  top: "fire6/squeeze1x1"
  convolution_param {
    num_output: 48
    kernel_size: 1
    weight_filler {
      type: "xavier"
    }
  }
}
layer {
  name: "fire6/expand1x1"
  type: "Convolution"
  bottom: "fire6/squeeze1x1"
  top: "fire6/expand1x1"
  convolution_param {
    num_output: 192
    kernel_size: 1
    weight_filler {
      type: "xavier"
    }
  }
}
layer {
  name: "fire6/relu_expand1x1"
  type: "ReLU"
  bottom: "fire6/expand1x1"
  top: "fire6/expand1x1"
}
layer {
  name: "fire6/expand3x3"
  type: "Convolution"
  bottom: "fire6/squeeze1x1"
  top: "fire6/expand3x3"
  convolution_param {
    num_output: 192
    pad: 1
    kernel_size: 3
    weight_filler {
      type: "xavier"
    }
  }
}
layer {
  name: "fire6/relu_expand3x3"
  type: "ReLU"
  bottom: "fire6/expand3x3"
  top: "fire6/expand3x3"
}
layer {
  name: "fire6/concat"
  type: "Concat"
  bottom: "fire6/expand1x1"
  bottom: "fire6/expand3x3"
  top: "fire6/concat"
}
layer {
  name: "fire7/squeeze1x1"
  type: "Convolution"
  bottom: "fire6/concat"
  top: "fire7/squeeze1x1"
  convolution_param {
    num_output: 48
    kernel_size: 1
    weight_filler {
      type: "xavier"
    }
  }
}
layer {
  name: "fire7/expand1x1"
  type: "Convolution"
  bottom: "fire7/squeeze1x1"
  top: "fire7/expand1x1"
  convolution_param {
    num_output: 192
    kernel_size: 1
    weight_filler {
      type: "xavier"
    }
  }
}
layer {
  name: "fire7/relu_expand1x1"
  type: "ReLU"
  bottom: "fire7/expand1x1"
  top: "fire7/expand1x1"
}
layer {
  name: "fire7/expand3x3"
  type: "Convolution"
  bottom: "fire7/squeeze1x1"
  top: "fire7/expand3x3"
  convolution_param {
    num_output: 192
    pad: 1
    kernel_size: 3
    weight_filler {
      type: "xavier"
    }
  }
}
layer {
  name: "fire7/relu_expand3x3"
  type: "ReLU"
  bottom: "fire7/expand3x3"
  top: "fire7/expand3x3"
}
layer {
  name: "fire7/concat"
  type: "Concat"
  bottom: "fire7/expand1x1"
  bottom: "fire7/expand3x3"
  top: "fire7/concat"
}
layer {
  name: "fire8/squeeze1x1"
  type: "Convolution"
  bottom: "fire7/concat"
  top: "fire8/squeeze1x1"
  convolution_param {
    num_output: 64
    kernel_size: 1
    weight_filler {
      type: "xavier"
    }
  }
}
layer {
  name: "fire8/expand1x1"
  type: "Convolution"
  bottom: "fire8/squeeze1x1"
  top: "fire8/expand1x1"
  convolution_param {
    num_output: 256
    kernel_size: 1
    weight_filler {
      type: "xavier"
    }
  }
}
layer {
  name: "fire8/relu_expand1x1"
  type: "ReLU"
  bottom: "fire8/expand1x1"
  top: "fire8/expand1x1"
}
layer {
  name: "fire8/expand3x3"
  type: "Convolution"
  bottom: "fire8/squeeze1x1"
  top: "fire8/expand3x3"
  convolution_param {
    num_output: 256
    pad: 1
    kernel_size: 3
    weight_filler {
      type: "xavier"
    }
  }
}
layer {
  name: "fire8/relu_expand3x3"
  type: "ReLU"
  bottom: "fire8/expand3x3"
  top: "fire8/expand3x3"
}
layer {
  name: "fire8/concat"
  type: "Concat"
  bottom: "fire8/expand1x1"
  bottom: "fire8/expand3x3"
  top: "fire8/concat"
}
layer {
  name: "fire9/squeeze1x1"
  type: "Convolution"
  bottom: "fire8/concat"
  top: "fire9/squeeze1x1"
  convolution_param {
    num_output: 64
    kernel_size: 1
    weight_filler {
      type: "xavier"
    }
  }
}
layer {
  name: "fire9/expand1x1"
  type: "Convolution"
  bottom: "fire9/squeeze1x1"
  top: "fire9/expand1x1"
  convolution_param {
    num_output: 256
    kernel_size: 1
    weight_filler {
      type: "xavier"
    }
  }
}
layer {
  name: "fire9/relu_expand1x1"
  type: "ReLU"
  bottom: "fire9/expand1x1"
  top: "fire9/expand1x1"
}
layer {
  name: "fire9/expand3x3"
  type: "Convolution"
  bottom: "fire9/squeeze1x1"
  top: "fire9/expand3x3"
  convolution_param {
    num_output: 256
    pad: 1
    kernel_size: 3
    weight_filler {
      type: "xavier"
    }
  }
}
layer {
  name: "fire9/relu_expand3x3"
  type: "ReLU"
  bottom: "fire9/expand3x3"
  top: "fire9/expand3x3"
}
layer {
  name: "fire9/concat"
  type: "Concat"
  bottom: "fire9/expand1x1"
  bottom: "fire9/expand3x3"
  top: "fire9/concat"
}
layer {
  name: "drop9"
  type: "Dropout"
  bottom: "fire9/concat"
  top: "fire9/concat"
  dropout_param {
    dropout_ratio: 0.5
  }
}
layer {
  name: "conv10_2626"
  type: "Convolution"
  bottom: "fire9/concat"
  top: "conv10_2626"
  param {
    lr_mult: 10
    decay_mult: 1
  }
  convolution_param {
    num_output: 2626
    kernel_size: 1
    weight_filler {
      type: "gaussian"
      mean: 0
      std: 0.01
    }
  }
}
layer {
  name: "relu_conv10"
  type: "ReLU"
  bottom: "conv10_2626"
  top: "conv10_2626"
}
layer {
  name: "pool10"
  type: "Pooling"
  bottom: "conv10_2626"
  top: "pool10"
  pooling_param {
    pool: AVE
    global_pooling: true
  }
}
layer {
  name: "loss"
  type: "SoftmaxWithLoss"
  bottom: "pool10"
  bottom: "label"
  top: "loss"
}
layer {
  name: "accuracy"
  type: "Accuracy"
  bottom: "pool10"
  bottom: "label"
  top: "accuracy"
  include {
    phase: TEST
  }
}
I1026 16:01:21.606555 47767 layer_factory.hpp:77] Creating layer data
I1026 16:01:21.612612 47767 net.cpp:100] Creating Layer data
I1026 16:01:21.612637 47767 net.cpp:408] data -> data
I1026 16:01:21.612648 47767 net.cpp:408] data -> label
I1026 16:01:21.612656 47767 data_transformer.cpp:25] Loading mean file from: /share/zhh/mean.binaryproto
I1026 16:01:21.614568 47787 db_lmdb.cpp:35] Opened lmdb /share/front/test_lmdb
I1026 16:01:21.615083 47767 data_layer.cpp:41] output data size: 100,3,227,227
I1026 16:01:21.730201 47767 net.cpp:150] Setting up data
I1026 16:01:21.730247 47767 net.cpp:157] Top shape: 100 3 227 227 (15458700)
I1026 16:01:21.730253 47767 net.cpp:157] Top shape: 100 (100)
I1026 16:01:21.730257 47767 net.cpp:165] Memory required for data: 61835200
I1026 16:01:21.730264 47767 layer_factory.hpp:77] Creating layer label_data_1_split
I1026 16:01:21.730288 47767 net.cpp:100] Creating Layer label_data_1_split
I1026 16:01:21.730294 47767 net.cpp:434] label_data_1_split <- label
I1026 16:01:21.730303 47767 net.cpp:408] label_data_1_split -> label_data_1_split_0
I1026 16:01:21.730314 47767 net.cpp:408] label_data_1_split -> label_data_1_split_1
I1026 16:01:21.730413 47767 net.cpp:150] Setting up label_data_1_split
I1026 16:01:21.730422 47767 net.cpp:157] Top shape: 100 (100)
I1026 16:01:21.730438 47767 net.cpp:157] Top shape: 100 (100)
I1026 16:01:21.730442 47767 net.cpp:165] Memory required for data: 61836000
I1026 16:01:21.730445 47767 layer_factory.hpp:77] Creating layer conv1
I1026 16:01:21.730458 47767 net.cpp:100] Creating Layer conv1
I1026 16:01:21.730461 47767 net.cpp:434] conv1 <- data
I1026 16:01:21.730468 47767 net.cpp:408] conv1 -> conv1
I1026 16:01:21.732280 47767 net.cpp:150] Setting up conv1
I1026 16:01:21.732307 47767 net.cpp:157] Top shape: 100 64 113 113 (81721600)
I1026 16:01:21.732312 47767 net.cpp:165] Memory required for data: 388722400
I1026 16:01:21.732326 47767 layer_factory.hpp:77] Creating layer relu_conv1
I1026 16:01:21.732345 47767 net.cpp:100] Creating Layer relu_conv1
I1026 16:01:21.732349 47767 net.cpp:434] relu_conv1 <- conv1
I1026 16:01:21.732354 47767 net.cpp:395] relu_conv1 -> conv1 (in-place)
I1026 16:01:21.740584 47767 net.cpp:150] Setting up relu_conv1
I1026 16:01:21.740618 47767 net.cpp:157] Top shape: 100 64 113 113 (81721600)
I1026 16:01:21.740622 47767 net.cpp:165] Memory required for data: 715608800
I1026 16:01:21.740628 47767 layer_factory.hpp:77] Creating layer pool1
I1026 16:01:21.740639 47767 net.cpp:100] Creating Layer pool1
I1026 16:01:21.740644 47767 net.cpp:434] pool1 <- conv1
I1026 16:01:21.740664 47767 net.cpp:408] pool1 -> pool1
I1026 16:01:21.740730 47767 net.cpp:150] Setting up pool1
I1026 16:01:21.740748 47767 net.cpp:157] Top shape: 100 64 56 56 (20070400)
I1026 16:01:21.740752 47767 net.cpp:165] Memory required for data: 795890400
I1026 16:01:21.740767 47767 layer_factory.hpp:77] Creating layer fire2/squeeze1x1
I1026 16:01:21.740777 47767 net.cpp:100] Creating Layer fire2/squeeze1x1
I1026 16:01:21.740780 47767 net.cpp:434] fire2/squeeze1x1 <- pool1
I1026 16:01:21.740787 47767 net.cpp:408] fire2/squeeze1x1 -> fire2/squeeze1x1
I1026 16:01:21.742089 47767 net.cpp:150] Setting up fire2/squeeze1x1
I1026 16:01:21.742115 47767 net.cpp:157] Top shape: 100 16 56 56 (5017600)
I1026 16:01:21.742118 47767 net.cpp:165] Memory required for data: 815960800
I1026 16:01:21.742130 47767 layer_factory.hpp:77] Creating layer fire2/squeeze1x1_fire2/squeeze1x1_0_split
I1026 16:01:21.742136 47767 net.cpp:100] Creating Layer fire2/squeeze1x1_fire2/squeeze1x1_0_split
I1026 16:01:21.742152 47767 net.cpp:434] fire2/squeeze1x1_fire2/squeeze1x1_0_split <- fire2/squeeze1x1
I1026 16:01:21.742158 47767 net.cpp:408] fire2/squeeze1x1_fire2/squeeze1x1_0_split -> fire2/squeeze1x1_fire2/squeeze1x1_0_split_0
I1026 16:01:21.742166 47767 net.cpp:408] fire2/squeeze1x1_fire2/squeeze1x1_0_split -> fire2/squeeze1x1_fire2/squeeze1x1_0_split_1
I1026 16:01:21.742234 47767 net.cpp:150] Setting up fire2/squeeze1x1_fire2/squeeze1x1_0_split
I1026 16:01:21.742244 47767 net.cpp:157] Top shape: 100 16 56 56 (5017600)
I1026 16:01:21.742249 47767 net.cpp:157] Top shape: 100 16 56 56 (5017600)
I1026 16:01:21.742251 47767 net.cpp:165] Memory required for data: 856101600
I1026 16:01:21.742255 47767 layer_factory.hpp:77] Creating layer fire2/expand1x1
I1026 16:01:21.742264 47767 net.cpp:100] Creating Layer fire2/expand1x1
I1026 16:01:21.742266 47767 net.cpp:434] fire2/expand1x1 <- fire2/squeeze1x1_fire2/squeeze1x1_0_split_0
I1026 16:01:21.742274 47767 net.cpp:408] fire2/expand1x1 -> fire2/expand1x1
I1026 16:01:21.743477 47767 net.cpp:150] Setting up fire2/expand1x1
I1026 16:01:21.743505 47767 net.cpp:157] Top shape: 100 64 56 56 (20070400)
I1026 16:01:21.743508 47767 net.cpp:165] Memory required for data: 936383200
I1026 16:01:21.743517 47767 layer_factory.hpp:77] Creating layer fire2/relu_expand1x1
I1026 16:01:21.743526 47767 net.cpp:100] Creating Layer fire2/relu_expand1x1
I1026 16:01:21.743541 47767 net.cpp:434] fire2/relu_expand1x1 <- fire2/expand1x1
I1026 16:01:21.743547 47767 net.cpp:395] fire2/relu_expand1x1 -> fire2/expand1x1 (in-place)
I1026 16:01:21.743748 47767 net.cpp:150] Setting up fire2/relu_expand1x1
I1026 16:01:21.743760 47767 net.cpp:157] Top shape: 100 64 56 56 (20070400)
I1026 16:01:21.743775 47767 net.cpp:165] Memory required for data: 1016664800
I1026 16:01:21.743779 47767 layer_factory.hpp:77] Creating layer fire2/expand3x3
I1026 16:01:21.743788 47767 net.cpp:100] Creating Layer fire2/expand3x3
I1026 16:01:21.743791 47767 net.cpp:434] fire2/expand3x3 <- fire2/squeeze1x1_fire2/squeeze1x1_0_split_1
I1026 16:01:21.743798 47767 net.cpp:408] fire2/expand3x3 -> fire2/expand3x3
I1026 16:01:21.745097 47767 net.cpp:150] Setting up fire2/expand3x3
I1026 16:01:21.745112 47767 net.cpp:157] Top shape: 100 64 56 56 (20070400)
I1026 16:01:21.745127 47767 net.cpp:165] Memory required for data: 1096946400
I1026 16:01:21.745134 47767 layer_factory.hpp:77] Creating layer fire2/relu_expand3x3
I1026 16:01:21.745141 47767 net.cpp:100] Creating Layer fire2/relu_expand3x3
I1026 16:01:21.745144 47767 net.cpp:434] fire2/relu_expand3x3 <- fire2/expand3x3
I1026 16:01:21.745162 47767 net.cpp:395] fire2/relu_expand3x3 -> fire2/expand3x3 (in-place)
I1026 16:01:21.745564 47767 net.cpp:150] Setting up fire2/relu_expand3x3
I1026 16:01:21.745578 47767 net.cpp:157] Top shape: 100 64 56 56 (20070400)
I1026 16:01:21.745592 47767 net.cpp:165] Memory required for data: 1177228000
I1026 16:01:21.745596 47767 layer_factory.hpp:77] Creating layer fire2/concat
I1026 16:01:21.745604 47767 net.cpp:100] Creating Layer fire2/concat
I1026 16:01:21.745606 47767 net.cpp:434] fire2/concat <- fire2/expand1x1
I1026 16:01:21.745611 47767 net.cpp:434] fire2/concat <- fire2/expand3x3
I1026 16:01:21.745616 47767 net.cpp:408] fire2/concat -> fire2/concat
I1026 16:01:21.745651 47767 net.cpp:150] Setting up fire2/concat
I1026 16:01:21.745658 47767 net.cpp:157] Top shape: 100 128 56 56 (40140800)
I1026 16:01:21.745661 47767 net.cpp:165] Memory required for data: 1337791200
I1026 16:01:21.745664 47767 layer_factory.hpp:77] Creating layer fire3/squeeze1x1
I1026 16:01:21.745672 47767 net.cpp:100] Creating Layer fire3/squeeze1x1
I1026 16:01:21.745676 47767 net.cpp:434] fire3/squeeze1x1 <- fire2/concat
I1026 16:01:21.745682 47767 net.cpp:408] fire3/squeeze1x1 -> fire3/squeeze1x1
I1026 16:01:21.746722 47767 net.cpp:150] Setting up fire3/squeeze1x1
I1026 16:01:21.746737 47767 net.cpp:157] Top shape: 100 16 56 56 (5017600)
I1026 16:01:21.746752 47767 net.cpp:165] Memory required for data: 1357861600
I1026 16:01:21.746760 47767 layer_factory.hpp:77] Creating layer fire3/squeeze1x1_fire3/squeeze1x1_0_split
I1026 16:01:21.746767 47767 net.cpp:100] Creating Layer fire3/squeeze1x1_fire3/squeeze1x1_0_split
I1026 16:01:21.746770 47767 net.cpp:434] fire3/squeeze1x1_fire3/squeeze1x1_0_split <- fire3/squeeze1x1
I1026 16:01:21.746776 47767 net.cpp:408] fire3/squeeze1x1_fire3/squeeze1x1_0_split -> fire3/squeeze1x1_fire3/squeeze1x1_0_split_0
I1026 16:01:21.746806 47767 net.cpp:408] fire3/squeeze1x1_fire3/squeeze1x1_0_split -> fire3/squeeze1x1_fire3/squeeze1x1_0_split_1
I1026 16:01:21.746850 47767 net.cpp:150] Setting up fire3/squeeze1x1_fire3/squeeze1x1_0_split
I1026 16:01:21.746858 47767 net.cpp:157] Top shape: 100 16 56 56 (5017600)
I1026 16:01:21.746863 47767 net.cpp:157] Top shape: 100 16 56 56 (5017600)
I1026 16:01:21.746866 47767 net.cpp:165] Memory required for data: 1398002400
I1026 16:01:21.746870 47767 layer_factory.hpp:77] Creating layer fire3/expand1x1
I1026 16:01:21.746877 47767 net.cpp:100] Creating Layer fire3/expand1x1
I1026 16:01:21.746881 47767 net.cpp:434] fire3/expand1x1 <- fire3/squeeze1x1_fire3/squeeze1x1_0_split_0
I1026 16:01:21.746887 47767 net.cpp:408] fire3/expand1x1 -> fire3/expand1x1
I1026 16:01:21.748098 47767 net.cpp:150] Setting up fire3/expand1x1
I1026 16:01:21.748113 47767 net.cpp:157] Top shape: 100 64 56 56 (20070400)
I1026 16:01:21.748128 47767 net.cpp:165] Memory required for data: 1478284000
I1026 16:01:21.748136 47767 layer_factory.hpp:77] Creating layer fire3/relu_expand1x1
I1026 16:01:21.748142 47767 net.cpp:100] Creating Layer fire3/relu_expand1x1
I1026 16:01:21.748147 47767 net.cpp:434] fire3/relu_expand1x1 <- fire3/expand1x1
I1026 16:01:21.748152 47767 net.cpp:395] fire3/relu_expand1x1 -> fire3/expand1x1 (in-place)
I1026 16:01:21.748538 47767 net.cpp:150] Setting up fire3/relu_expand1x1
I1026 16:01:21.748551 47767 net.cpp:157] Top shape: 100 64 56 56 (20070400)
I1026 16:01:21.748566 47767 net.cpp:165] Memory required for data: 1558565600
I1026 16:01:21.748569 47767 layer_factory.hpp:77] Creating layer fire3/expand3x3
I1026 16:01:21.748580 47767 net.cpp:100] Creating Layer fire3/expand3x3
I1026 16:01:21.748585 47767 net.cpp:434] fire3/expand3x3 <- fire3/squeeze1x1_fire3/squeeze1x1_0_split_1
I1026 16:01:21.748591 47767 net.cpp:408] fire3/expand3x3 -> fire3/expand3x3
I1026 16:01:21.749876 47767 net.cpp:150] Setting up fire3/expand3x3
I1026 16:01:21.749902 47767 net.cpp:157] Top shape: 100 64 56 56 (20070400)
I1026 16:01:21.749907 47767 net.cpp:165] Memory required for data: 1638847200
I1026 16:01:21.749912 47767 layer_factory.hpp:77] Creating layer fire3/relu_expand3x3
I1026 16:01:21.749919 47767 net.cpp:100] Creating Layer fire3/relu_expand3x3
I1026 16:01:21.749923 47767 net.cpp:434] fire3/relu_expand3x3 <- fire3/expand3x3
I1026 16:01:21.749940 47767 net.cpp:395] fire3/relu_expand3x3 -> fire3/expand3x3 (in-place)
I1026 16:01:21.750391 47767 net.cpp:150] Setting up fire3/relu_expand3x3
I1026 16:01:21.750403 47767 net.cpp:157] Top shape: 100 64 56 56 (20070400)
I1026 16:01:21.750418 47767 net.cpp:165] Memory required for data: 1719128800
I1026 16:01:21.750422 47767 layer_factory.hpp:77] Creating layer fire3/concat
I1026 16:01:21.750427 47767 net.cpp:100] Creating Layer fire3/concat
I1026 16:01:21.750432 47767 net.cpp:434] fire3/concat <- fire3/expand1x1
I1026 16:01:21.750437 47767 net.cpp:434] fire3/concat <- fire3/expand3x3
I1026 16:01:21.750452 47767 net.cpp:408] fire3/concat -> fire3/concat
I1026 16:01:21.750486 47767 net.cpp:150] Setting up fire3/concat
I1026 16:01:21.750495 47767 net.cpp:157] Top shape: 100 128 56 56 (40140800)
I1026 16:01:21.750499 47767 net.cpp:165] Memory required for data: 1879692000
I1026 16:01:21.750501 47767 layer_factory.hpp:77] Creating layer pool3
I1026 16:01:21.750509 47767 net.cpp:100] Creating Layer pool3
I1026 16:01:21.750511 47767 net.cpp:434] pool3 <- fire3/concat
I1026 16:01:21.750516 47767 net.cpp:408] pool3 -> pool3
I1026 16:01:21.750557 47767 net.cpp:150] Setting up pool3
I1026 16:01:21.750565 47767 net.cpp:157] Top shape: 100 128 28 28 (10035200)
I1026 16:01:21.750567 47767 net.cpp:165] Memory required for data: 1919832800
I1026 16:01:21.750571 47767 layer_factory.hpp:77] Creating layer fire4/squeeze1x1
I1026 16:01:21.750578 47767 net.cpp:100] Creating Layer fire4/squeeze1x1
I1026 16:01:21.750581 47767 net.cpp:434] fire4/squeeze1x1 <- pool3
I1026 16:01:21.750587 47767 net.cpp:408] fire4/squeeze1x1 -> fire4/squeeze1x1
I1026 16:01:21.751837 47767 net.cpp:150] Setting up fire4/squeeze1x1
I1026 16:01:21.751850 47767 net.cpp:157] Top shape: 100 32 28 28 (2508800)
I1026 16:01:21.751865 47767 net.cpp:165] Memory required for data: 1929868000
I1026 16:01:21.751873 47767 layer_factory.hpp:77] Creating layer fire4/squeeze1x1_fire4/squeeze1x1_0_split
I1026 16:01:21.751878 47767 net.cpp:100] Creating Layer fire4/squeeze1x1_fire4/squeeze1x1_0_split
I1026 16:01:21.751883 47767 net.cpp:434] fire4/squeeze1x1_fire4/squeeze1x1_0_split <- fire4/squeeze1x1
I1026 16:01:21.751888 47767 net.cpp:408] fire4/squeeze1x1_fire4/squeeze1x1_0_split -> fire4/squeeze1x1_fire4/squeeze1x1_0_split_0
I1026 16:01:21.751906 47767 net.cpp:408] fire4/squeeze1x1_fire4/squeeze1x1_0_split -> fire4/squeeze1x1_fire4/squeeze1x1_0_split_1
I1026 16:01:21.751950 47767 net.cpp:150] Setting up fire4/squeeze1x1_fire4/squeeze1x1_0_split
I1026 16:01:21.751961 47767 net.cpp:157] Top shape: 100 32 28 28 (2508800)
I1026 16:01:21.751965 47767 net.cpp:157] Top shape: 100 32 28 28 (2508800)
I1026 16:01:21.751968 47767 net.cpp:165] Memory required for data: 1949938400
I1026 16:01:21.751971 47767 layer_factory.hpp:77] Creating layer fire4/expand1x1
I1026 16:01:21.751979 47767 net.cpp:100] Creating Layer fire4/expand1x1
I1026 16:01:21.751983 47767 net.cpp:434] fire4/expand1x1 <- fire4/squeeze1x1_fire4/squeeze1x1_0_split_0
I1026 16:01:21.751988 47767 net.cpp:408] fire4/expand1x1 -> fire4/expand1x1
I1026 16:01:21.753211 47767 net.cpp:150] Setting up fire4/expand1x1
I1026 16:01:21.753226 47767 net.cpp:157] Top shape: 100 128 28 28 (10035200)
I1026 16:01:21.753242 47767 net.cpp:165] Memory required for data: 1990079200
I1026 16:01:21.753250 47767 layer_factory.hpp:77] Creating layer fire4/relu_expand1x1
I1026 16:01:21.753257 47767 net.cpp:100] Creating Layer fire4/relu_expand1x1
I1026 16:01:21.753260 47767 net.cpp:434] fire4/relu_expand1x1 <- fire4/expand1x1
I1026 16:01:21.753267 47767 net.cpp:395] fire4/relu_expand1x1 -> fire4/expand1x1 (in-place)
I1026 16:01:21.753445 47767 net.cpp:150] Setting up fire4/relu_expand1x1
I1026 16:01:21.753456 47767 net.cpp:157] Top shape: 100 128 28 28 (10035200)
I1026 16:01:21.753470 47767 net.cpp:165] Memory required for data: 2030220000
I1026 16:01:21.753473 47767 layer_factory.hpp:77] Creating layer fire4/expand3x3
I1026 16:01:21.753481 47767 net.cpp:100] Creating Layer fire4/expand3x3
I1026 16:01:21.753485 47767 net.cpp:434] fire4/expand3x3 <- fire4/squeeze1x1_fire4/squeeze1x1_0_split_1
I1026 16:01:21.753491 47767 net.cpp:408] fire4/expand3x3 -> fire4/expand3x3
I1026 16:01:21.754994 47767 net.cpp:150] Setting up fire4/expand3x3
I1026 16:01:21.755008 47767 net.cpp:157] Top shape: 100 128 28 28 (10035200)
I1026 16:01:21.755023 47767 net.cpp:165] Memory required for data: 2070360800
I1026 16:01:21.755029 47767 layer_factory.hpp:77] Creating layer fire4/relu_expand3x3
I1026 16:01:21.755036 47767 net.cpp:100] Creating Layer fire4/relu_expand3x3
I1026 16:01:21.755039 47767 net.cpp:434] fire4/relu_expand3x3 <- fire4/expand3x3
I1026 16:01:21.755045 47767 net.cpp:395] fire4/relu_expand3x3 -> fire4/expand3x3 (in-place)
I1026 16:01:21.755447 47767 net.cpp:150] Setting up fire4/relu_expand3x3
I1026 16:01:21.755473 47767 net.cpp:157] Top shape: 100 128 28 28 (10035200)
I1026 16:01:21.755476 47767 net.cpp:165] Memory required for data: 2110501600
I1026 16:01:21.755491 47767 layer_factory.hpp:77] Creating layer fire4/concat
I1026 16:01:21.755496 47767 net.cpp:100] Creating Layer fire4/concat
I1026 16:01:21.755501 47767 net.cpp:434] fire4/concat <- fire4/expand1x1
I1026 16:01:21.755506 47767 net.cpp:434] fire4/concat <- fire4/expand3x3
I1026 16:01:21.755511 47767 net.cpp:408] fire4/concat -> fire4/concat
I1026 16:01:21.755543 47767 net.cpp:150] Setting up fire4/concat
I1026 16:01:21.755549 47767 net.cpp:157] Top shape: 100 256 28 28 (20070400)
I1026 16:01:21.755553 47767 net.cpp:165] Memory required for data: 2190783200
I1026 16:01:21.755555 47767 layer_factory.hpp:77] Creating layer fire5/squeeze1x1
I1026 16:01:21.755563 47767 net.cpp:100] Creating Layer fire5/squeeze1x1
I1026 16:01:21.755583 47767 net.cpp:434] fire5/squeeze1x1 <- fire4/concat
I1026 16:01:21.755589 47767 net.cpp:408] fire5/squeeze1x1 -> fire5/squeeze1x1
I1026 16:01:21.756634 47767 net.cpp:150] Setting up fire5/squeeze1x1
I1026 16:01:21.756649 47767 net.cpp:157] Top shape: 100 32 28 28 (2508800)
I1026 16:01:21.756664 47767 net.cpp:165] Memory required for data: 2200818400
I1026 16:01:21.756671 47767 layer_factory.hpp:77] Creating layer fire5/squeeze1x1_fire5/squeeze1x1_0_split
I1026 16:01:21.756681 47767 net.cpp:100] Creating Layer fire5/squeeze1x1_fire5/squeeze1x1_0_split
I1026 16:01:21.756697 47767 net.cpp:434] fire5/squeeze1x1_fire5/squeeze1x1_0_split <- fire5/squeeze1x1
I1026 16:01:21.756703 47767 net.cpp:408] fire5/squeeze1x1_fire5/squeeze1x1_0_split -> fire5/squeeze1x1_fire5/squeeze1x1_0_split_0
I1026 16:01:21.756711 47767 net.cpp:408] fire5/squeeze1x1_fire5/squeeze1x1_0_split -> fire5/squeeze1x1_fire5/squeeze1x1_0_split_1
I1026 16:01:21.756757 47767 net.cpp:150] Setting up fire5/squeeze1x1_fire5/squeeze1x1_0_split
I1026 16:01:21.756765 47767 net.cpp:157] Top shape: 100 32 28 28 (2508800)
I1026 16:01:21.756770 47767 net.cpp:157] Top shape: 100 32 28 28 (2508800)
I1026 16:01:21.756773 47767 net.cpp:165] Memory required for data: 2220888800
I1026 16:01:21.756777 47767 layer_factory.hpp:77] Creating layer fire5/expand1x1
I1026 16:01:21.756795 47767 net.cpp:100] Creating Layer fire5/expand1x1
I1026 16:01:21.756799 47767 net.cpp:434] fire5/expand1x1 <- fire5/squeeze1x1_fire5/squeeze1x1_0_split_0
I1026 16:01:21.756804 47767 net.cpp:408] fire5/expand1x1 -> fire5/expand1x1
I1026 16:01:21.758054 47767 net.cpp:150] Setting up fire5/expand1x1
I1026 16:01:21.758079 47767 net.cpp:157] Top shape: 100 128 28 28 (10035200)
I1026 16:01:21.758093 47767 net.cpp:165] Memory required for data: 2261029600
I1026 16:01:21.758100 47767 layer_factory.hpp:77] Creating layer fire5/relu_expand1x1
I1026 16:01:21.758107 47767 net.cpp:100] Creating Layer fire5/relu_expand1x1
I1026 16:01:21.758111 47767 net.cpp:434] fire5/relu_expand1x1 <- fire5/expand1x1
I1026 16:01:21.758116 47767 net.cpp:395] fire5/relu_expand1x1 -> fire5/expand1x1 (in-place)
I1026 16:01:21.758522 47767 net.cpp:150] Setting up fire5/relu_expand1x1
I1026 16:01:21.758534 47767 net.cpp:157] Top shape: 100 128 28 28 (10035200)
I1026 16:01:21.758549 47767 net.cpp:165] Memory required for data: 2301170400
I1026 16:01:21.758553 47767 layer_factory.hpp:77] Creating layer fire5/expand3x3
I1026 16:01:21.758563 47767 net.cpp:100] Creating Layer fire5/expand3x3
I1026 16:01:21.758568 47767 net.cpp:434] fire5/expand3x3 <- fire5/squeeze1x1_fire5/squeeze1x1_0_split_1
I1026 16:01:21.758574 47767 net.cpp:408] fire5/expand3x3 -> fire5/expand3x3
I1026 16:01:21.759930 47767 net.cpp:150] Setting up fire5/expand3x3
I1026 16:01:21.759944 47767 net.cpp:157] Top shape: 100 128 28 28 (10035200)
I1026 16:01:21.759959 47767 net.cpp:165] Memory required for data: 2341311200
I1026 16:01:21.759965 47767 layer_factory.hpp:77] Creating layer fire5/relu_expand3x3
I1026 16:01:21.759975 47767 net.cpp:100] Creating Layer fire5/relu_expand3x3
I1026 16:01:21.759979 47767 net.cpp:434] fire5/relu_expand3x3 <- fire5/expand3x3
I1026 16:01:21.759996 47767 net.cpp:395] fire5/relu_expand3x3 -> fire5/expand3x3 (in-place)
I1026 16:01:21.760403 47767 net.cpp:150] Setting up fire5/relu_expand3x3
I1026 16:01:21.760429 47767 net.cpp:157] Top shape: 100 128 28 28 (10035200)
I1026 16:01:21.760433 47767 net.cpp:165] Memory required for data: 2381452000
I1026 16:01:21.760437 47767 layer_factory.hpp:77] Creating layer fire5/concat
I1026 16:01:21.760443 47767 net.cpp:100] Creating Layer fire5/concat
I1026 16:01:21.760447 47767 net.cpp:434] fire5/concat <- fire5/expand1x1
I1026 16:01:21.760452 47767 net.cpp:434] fire5/concat <- fire5/expand3x3
I1026 16:01:21.760457 47767 net.cpp:408] fire5/concat -> fire5/concat
I1026 16:01:21.760509 47767 net.cpp:150] Setting up fire5/concat
I1026 16:01:21.760514 47767 net.cpp:157] Top shape: 100 256 28 28 (20070400)
I1026 16:01:21.760517 47767 net.cpp:165] Memory required for data: 2461733600
I1026 16:01:21.760520 47767 layer_factory.hpp:77] Creating layer pool5
I1026 16:01:21.760538 47767 net.cpp:100] Creating Layer pool5
I1026 16:01:21.760543 47767 net.cpp:434] pool5 <- fire5/concat
I1026 16:01:21.760548 47767 net.cpp:408] pool5 -> pool5
I1026 16:01:21.760594 47767 net.cpp:150] Setting up pool5
I1026 16:01:21.760603 47767 net.cpp:157] Top shape: 100 256 14 14 (5017600)
I1026 16:01:21.760607 47767 net.cpp:165] Memory required for data: 2481804000
I1026 16:01:21.760609 47767 layer_factory.hpp:77] Creating layer fire6/squeeze1x1
I1026 16:01:21.760617 47767 net.cpp:100] Creating Layer fire6/squeeze1x1
I1026 16:01:21.760620 47767 net.cpp:434] fire6/squeeze1x1 <- pool5
I1026 16:01:21.760627 47767 net.cpp:408] fire6/squeeze1x1 -> fire6/squeeze1x1
I1026 16:01:21.761978 47767 net.cpp:150] Setting up fire6/squeeze1x1
I1026 16:01:21.762004 47767 net.cpp:157] Top shape: 100 48 14 14 (940800)
I1026 16:01:21.762008 47767 net.cpp:165] Memory required for data: 2485567200
I1026 16:01:21.762014 47767 layer_factory.hpp:77] Creating layer fire6/squeeze1x1_fire6/squeeze1x1_0_split
I1026 16:01:21.762020 47767 net.cpp:100] Creating Layer fire6/squeeze1x1_fire6/squeeze1x1_0_split
I1026 16:01:21.762024 47767 net.cpp:434] fire6/squeeze1x1_fire6/squeeze1x1_0_split <- fire6/squeeze1x1
I1026 16:01:21.762042 47767 net.cpp:408] fire6/squeeze1x1_fire6/squeeze1x1_0_split -> fire6/squeeze1x1_fire6/squeeze1x1_0_split_0
I1026 16:01:21.762049 47767 net.cpp:408] fire6/squeeze1x1_fire6/squeeze1x1_0_split -> fire6/squeeze1x1_fire6/squeeze1x1_0_split_1
I1026 16:01:21.762101 47767 net.cpp:150] Setting up fire6/squeeze1x1_fire6/squeeze1x1_0_split
I1026 16:01:21.762110 47767 net.cpp:157] Top shape: 100 48 14 14 (940800)
I1026 16:01:21.762115 47767 net.cpp:157] Top shape: 100 48 14 14 (940800)
I1026 16:01:21.762118 47767 net.cpp:165] Memory required for data: 2493093600
I1026 16:01:21.762121 47767 layer_factory.hpp:77] Creating layer fire6/expand1x1
I1026 16:01:21.762128 47767 net.cpp:100] Creating Layer fire6/expand1x1
I1026 16:01:21.762132 47767 net.cpp:434] fire6/expand1x1 <- fire6/squeeze1x1_fire6/squeeze1x1_0_split_0
I1026 16:01:21.762140 47767 net.cpp:408] fire6/expand1x1 -> fire6/expand1x1
I1026 16:01:21.763474 47767 net.cpp:150] Setting up fire6/expand1x1
I1026 16:01:21.763489 47767 net.cpp:157] Top shape: 100 192 14 14 (3763200)
I1026 16:01:21.763492 47767 net.cpp:165] Memory required for data: 2508146400
I1026 16:01:21.763499 47767 layer_factory.hpp:77] Creating layer fire6/relu_expand1x1
I1026 16:01:21.763516 47767 net.cpp:100] Creating Layer fire6/relu_expand1x1
I1026 16:01:21.763520 47767 net.cpp:434] fire6/relu_expand1x1 <- fire6/expand1x1
I1026 16:01:21.763527 47767 net.cpp:395] fire6/relu_expand1x1 -> fire6/expand1x1 (in-place)
I1026 16:01:21.763775 47767 net.cpp:150] Setting up fire6/relu_expand1x1
I1026 16:01:21.763787 47767 net.cpp:157] Top shape: 100 192 14 14 (3763200)
I1026 16:01:21.763803 47767 net.cpp:165] Memory required for data: 2523199200
I1026 16:01:21.763805 47767 layer_factory.hpp:77] Creating layer fire6/expand3x3
I1026 16:01:21.763815 47767 net.cpp:100] Creating Layer fire6/expand3x3
I1026 16:01:21.763819 47767 net.cpp:434] fire6/expand3x3 <- fire6/squeeze1x1_fire6/squeeze1x1_0_split_1
I1026 16:01:21.763828 47767 net.cpp:408] fire6/expand3x3 -> fire6/expand3x3
I1026 16:01:21.766062 47767 net.cpp:150] Setting up fire6/expand3x3
I1026 16:01:21.766075 47767 net.cpp:157] Top shape: 100 192 14 14 (3763200)
I1026 16:01:21.766091 47767 net.cpp:165] Memory required for data: 2538252000
I1026 16:01:21.766098 47767 layer_factory.hpp:77] Creating layer fire6/relu_expand3x3
I1026 16:01:21.766103 47767 net.cpp:100] Creating Layer fire6/relu_expand3x3
I1026 16:01:21.766108 47767 net.cpp:434] fire6/relu_expand3x3 <- fire6/expand3x3
I1026 16:01:21.766125 47767 net.cpp:395] fire6/relu_expand3x3 -> fire6/expand3x3 (in-place)
I1026 16:01:21.766337 47767 net.cpp:150] Setting up fire6/relu_expand3x3
I1026 16:01:21.766348 47767 net.cpp:157] Top shape: 100 192 14 14 (3763200)
I1026 16:01:21.766362 47767 net.cpp:165] Memory required for data: 2553304800
I1026 16:01:21.766376 47767 layer_factory.hpp:77] Creating layer fire6/concat
I1026 16:01:21.766381 47767 net.cpp:100] Creating Layer fire6/concat
I1026 16:01:21.766391 47767 net.cpp:434] fire6/concat <- fire6/expand1x1
I1026 16:01:21.766396 47767 net.cpp:434] fire6/concat <- fire6/expand3x3
I1026 16:01:21.766413 47767 net.cpp:408] fire6/concat -> fire6/concat
I1026 16:01:21.766448 47767 net.cpp:150] Setting up fire6/concat
I1026 16:01:21.766455 47767 net.cpp:157] Top shape: 100 384 14 14 (7526400)
I1026 16:01:21.766458 47767 net.cpp:165] Memory required for data: 2583410400
I1026 16:01:21.766461 47767 layer_factory.hpp:77] Creating layer fire7/squeeze1x1
I1026 16:01:21.766469 47767 net.cpp:100] Creating Layer fire7/squeeze1x1
I1026 16:01:21.766474 47767 net.cpp:434] fire7/squeeze1x1 <- fire6/concat
I1026 16:01:21.766479 47767 net.cpp:408] fire7/squeeze1x1 -> fire7/squeeze1x1
I1026 16:01:21.767910 47767 net.cpp:150] Setting up fire7/squeeze1x1
I1026 16:01:21.767925 47767 net.cpp:157] Top shape: 100 48 14 14 (940800)
I1026 16:01:21.767940 47767 net.cpp:165] Memory required for data: 2587173600
I1026 16:01:21.767953 47767 layer_factory.hpp:77] Creating layer fire7/squeeze1x1_fire7/squeeze1x1_0_split
I1026 16:01:21.767961 47767 net.cpp:100] Creating Layer fire7/squeeze1x1_fire7/squeeze1x1_0_split
I1026 16:01:21.767976 47767 net.cpp:434] fire7/squeeze1x1_fire7/squeeze1x1_0_split <- fire7/squeeze1x1
I1026 16:01:21.767982 47767 net.cpp:408] fire7/squeeze1x1_fire7/squeeze1x1_0_split -> fire7/squeeze1x1_fire7/squeeze1x1_0_split_0
I1026 16:01:21.767989 47767 net.cpp:408] fire7/squeeze1x1_fire7/squeeze1x1_0_split -> fire7/squeeze1x1_fire7/squeeze1x1_0_split_1
I1026 16:01:21.768054 47767 net.cpp:150] Setting up fire7/squeeze1x1_fire7/squeeze1x1_0_split
I1026 16:01:21.768061 47767 net.cpp:157] Top shape: 100 48 14 14 (940800)
I1026 16:01:21.768065 47767 net.cpp:157] Top shape: 100 48 14 14 (940800)
I1026 16:01:21.768069 47767 net.cpp:165] Memory required for data: 2594700000
I1026 16:01:21.768072 47767 layer_factory.hpp:77] Creating layer fire7/expand1x1
I1026 16:01:21.768080 47767 net.cpp:100] Creating Layer fire7/expand1x1
I1026 16:01:21.768085 47767 net.cpp:434] fire7/expand1x1 <- fire7/squeeze1x1_fire7/squeeze1x1_0_split_0
I1026 16:01:21.768090 47767 net.cpp:408] fire7/expand1x1 -> fire7/expand1x1
I1026 16:01:21.769423 47767 net.cpp:150] Setting up fire7/expand1x1
I1026 16:01:21.769436 47767 net.cpp:157] Top shape: 100 192 14 14 (3763200)
I1026 16:01:21.769451 47767 net.cpp:165] Memory required for data: 2609752800
I1026 16:01:21.769457 47767 layer_factory.hpp:77] Creating layer fire7/relu_expand1x1
I1026 16:01:21.769465 47767 net.cpp:100] Creating Layer fire7/relu_expand1x1
I1026 16:01:21.769469 47767 net.cpp:434] fire7/relu_expand1x1 <- fire7/expand1x1
I1026 16:01:21.769485 47767 net.cpp:395] fire7/relu_expand1x1 -> fire7/expand1x1 (in-place)
I1026 16:01:21.769886 47767 net.cpp:150] Setting up fire7/relu_expand1x1
I1026 16:01:21.769912 47767 net.cpp:157] Top shape: 100 192 14 14 (3763200)
I1026 16:01:21.769917 47767 net.cpp:165] Memory required for data: 2624805600
I1026 16:01:21.769919 47767 layer_factory.hpp:77] Creating layer fire7/expand3x3
I1026 16:01:21.769928 47767 net.cpp:100] Creating Layer fire7/expand3x3
I1026 16:01:21.769932 47767 net.cpp:434] fire7/expand3x3 <- fire7/squeeze1x1_fire7/squeeze1x1_0_split_1
I1026 16:01:21.769939 47767 net.cpp:408] fire7/expand3x3 -> fire7/expand3x3
I1026 16:01:21.771725 47767 net.cpp:150] Setting up fire7/expand3x3
I1026 16:01:21.771751 47767 net.cpp:157] Top shape: 100 192 14 14 (3763200)
I1026 16:01:21.771755 47767 net.cpp:165] Memory required for data: 2639858400
I1026 16:01:21.771761 47767 layer_factory.hpp:77] Creating layer fire7/relu_expand3x3
I1026 16:01:21.771767 47767 net.cpp:100] Creating Layer fire7/relu_expand3x3
I1026 16:01:21.771771 47767 net.cpp:434] fire7/relu_expand3x3 <- fire7/expand3x3
I1026 16:01:21.771788 47767 net.cpp:395] fire7/relu_expand3x3 -> fire7/expand3x3 (in-place)
I1026 16:01:21.772186 47767 net.cpp:150] Setting up fire7/relu_expand3x3
I1026 16:01:21.772200 47767 net.cpp:157] Top shape: 100 192 14 14 (3763200)
I1026 16:01:21.772225 47767 net.cpp:165] Memory required for data: 2654911200
I1026 16:01:21.772229 47767 layer_factory.hpp:77] Creating layer fire7/concat
I1026 16:01:21.772236 47767 net.cpp:100] Creating Layer fire7/concat
I1026 16:01:21.772240 47767 net.cpp:434] fire7/concat <- fire7/expand1x1
I1026 16:01:21.772245 47767 net.cpp:434] fire7/concat <- fire7/expand3x3
I1026 16:01:21.772250 47767 net.cpp:408] fire7/concat -> fire7/concat
I1026 16:01:21.772287 47767 net.cpp:150] Setting up fire7/concat
I1026 16:01:21.772295 47767 net.cpp:157] Top shape: 100 384 14 14 (7526400)
I1026 16:01:21.772300 47767 net.cpp:165] Memory required for data: 2685016800
I1026 16:01:21.772302 47767 layer_factory.hpp:77] Creating layer fire8/squeeze1x1
I1026 16:01:21.772310 47767 net.cpp:100] Creating Layer fire8/squeeze1x1
I1026 16:01:21.772315 47767 net.cpp:434] fire8/squeeze1x1 <- fire7/concat
I1026 16:01:21.772321 47767 net.cpp:408] fire8/squeeze1x1 -> fire8/squeeze1x1
I1026 16:01:21.775503 47767 net.cpp:150] Setting up fire8/squeeze1x1
I1026 16:01:21.775532 47767 net.cpp:157] Top shape: 100 64 14 14 (1254400)
I1026 16:01:21.775535 47767 net.cpp:165] Memory required for data: 2690034400
I1026 16:01:21.775542 47767 layer_factory.hpp:77] Creating layer fire8/squeeze1x1_fire8/squeeze1x1_0_split
I1026 16:01:21.775549 47767 net.cpp:100] Creating Layer fire8/squeeze1x1_fire8/squeeze1x1_0_split
I1026 16:01:21.775553 47767 net.cpp:434] fire8/squeeze1x1_fire8/squeeze1x1_0_split <- fire8/squeeze1x1
I1026 16:01:21.775571 47767 net.cpp:408] fire8/squeeze1x1_fire8/squeeze1x1_0_split -> fire8/squeeze1x1_fire8/squeeze1x1_0_split_0
I1026 16:01:21.775578 47767 net.cpp:408] fire8/squeeze1x1_fire8/squeeze1x1_0_split -> fire8/squeeze1x1_fire8/squeeze1x1_0_split_1
I1026 16:01:21.775635 47767 net.cpp:150] Setting up fire8/squeeze1x1_fire8/squeeze1x1_0_split
I1026 16:01:21.775643 47767 net.cpp:157] Top shape: 100 64 14 14 (1254400)
I1026 16:01:21.775660 47767 net.cpp:157] Top shape: 100 64 14 14 (1254400)
I1026 16:01:21.775662 47767 net.cpp:165] Memory required for data: 2700069600
I1026 16:01:21.775677 47767 layer_factory.hpp:77] Creating layer fire8/expand1x1
I1026 16:01:21.775686 47767 net.cpp:100] Creating Layer fire8/expand1x1
I1026 16:01:21.775691 47767 net.cpp:434] fire8/expand1x1 <- fire8/squeeze1x1_fire8/squeeze1x1_0_split_0
I1026 16:01:21.775696 47767 net.cpp:408] fire8/expand1x1 -> fire8/expand1x1
I1026 16:01:21.777369 47767 net.cpp:150] Setting up fire8/expand1x1
I1026 16:01:21.777395 47767 net.cpp:157] Top shape: 100 256 14 14 (5017600)
I1026 16:01:21.777400 47767 net.cpp:165] Memory required for data: 2720140000
I1026 16:01:21.777406 47767 layer_factory.hpp:77] Creating layer fire8/relu_expand1x1
I1026 16:01:21.777415 47767 net.cpp:100] Creating Layer fire8/relu_expand1x1
I1026 16:01:21.777418 47767 net.cpp:434] fire8/relu_expand1x1 <- fire8/expand1x1
I1026 16:01:21.777436 47767 net.cpp:395] fire8/relu_expand1x1 -> fire8/expand1x1 (in-place)
I1026 16:01:21.777637 47767 net.cpp:150] Setting up fire8/relu_expand1x1
I1026 16:01:21.777648 47767 net.cpp:157] Top shape: 100 256 14 14 (5017600)
I1026 16:01:21.777662 47767 net.cpp:165] Memory required for data: 2740210400
I1026 16:01:21.777667 47767 layer_factory.hpp:77] Creating layer fire8/expand3x3
I1026 16:01:21.777676 47767 net.cpp:100] Creating Layer fire8/expand3x3
I1026 16:01:21.777681 47767 net.cpp:434] fire8/expand3x3 <- fire8/squeeze1x1_fire8/squeeze1x1_0_split_1
I1026 16:01:21.777688 47767 net.cpp:408] fire8/expand3x3 -> fire8/expand3x3
I1026 16:01:21.780669 47767 net.cpp:150] Setting up fire8/expand3x3
I1026 16:01:21.780695 47767 net.cpp:157] Top shape: 100 256 14 14 (5017600)
I1026 16:01:21.780699 47767 net.cpp:165] Memory required for data: 2760280800
I1026 16:01:21.780705 47767 layer_factory.hpp:77] Creating layer fire8/relu_expand3x3
I1026 16:01:21.780714 47767 net.cpp:100] Creating Layer fire8/relu_expand3x3
I1026 16:01:21.780717 47767 net.cpp:434] fire8/relu_expand3x3 <- fire8/expand3x3
I1026 16:01:21.780735 47767 net.cpp:395] fire8/relu_expand3x3 -> fire8/expand3x3 (in-place)
I1026 16:01:21.780937 47767 net.cpp:150] Setting up fire8/relu_expand3x3
I1026 16:01:21.780949 47767 net.cpp:157] Top shape: 100 256 14 14 (5017600)
I1026 16:01:21.780963 47767 net.cpp:165] Memory required for data: 2780351200
I1026 16:01:21.780967 47767 layer_factory.hpp:77] Creating layer fire8/concat
I1026 16:01:21.780973 47767 net.cpp:100] Creating Layer fire8/concat
I1026 16:01:21.780977 47767 net.cpp:434] fire8/concat <- fire8/expand1x1
I1026 16:01:21.780982 47767 net.cpp:434] fire8/concat <- fire8/expand3x3
I1026 16:01:21.780987 47767 net.cpp:408] fire8/concat -> fire8/concat
I1026 16:01:21.781023 47767 net.cpp:150] Setting up fire8/concat
I1026 16:01:21.781030 47767 net.cpp:157] Top shape: 100 512 14 14 (10035200)
I1026 16:01:21.781033 47767 net.cpp:165] Memory required for data: 2820492000
I1026 16:01:21.781036 47767 layer_factory.hpp:77] Creating layer fire9/squeeze1x1
I1026 16:01:21.781045 47767 net.cpp:100] Creating Layer fire9/squeeze1x1
I1026 16:01:21.781049 47767 net.cpp:434] fire9/squeeze1x1 <- fire8/concat
I1026 16:01:21.781054 47767 net.cpp:408] fire9/squeeze1x1 -> fire9/squeeze1x1
I1026 16:01:21.782598 47767 net.cpp:150] Setting up fire9/squeeze1x1
I1026 16:01:21.782611 47767 net.cpp:157] Top shape: 100 64 14 14 (1254400)
I1026 16:01:21.782626 47767 net.cpp:165] Memory required for data: 2825509600
I1026 16:01:21.782637 47767 layer_factory.hpp:77] Creating layer fire9/squeeze1x1_fire9/squeeze1x1_0_split
I1026 16:01:21.782644 47767 net.cpp:100] Creating Layer fire9/squeeze1x1_fire9/squeeze1x1_0_split
I1026 16:01:21.782660 47767 net.cpp:434] fire9/squeeze1x1_fire9/squeeze1x1_0_split <- fire9/squeeze1x1
I1026 16:01:21.782666 47767 net.cpp:408] fire9/squeeze1x1_fire9/squeeze1x1_0_split -> fire9/squeeze1x1_fire9/squeeze1x1_0_split_0
I1026 16:01:21.782675 47767 net.cpp:408] fire9/squeeze1x1_fire9/squeeze1x1_0_split -> fire9/squeeze1x1_fire9/squeeze1x1_0_split_1
I1026 16:01:21.782722 47767 net.cpp:150] Setting up fire9/squeeze1x1_fire9/squeeze1x1_0_split
I1026 16:01:21.782730 47767 net.cpp:157] Top shape: 100 64 14 14 (1254400)
I1026 16:01:21.782737 47767 net.cpp:157] Top shape: 100 64 14 14 (1254400)
I1026 16:01:21.782739 47767 net.cpp:165] Memory required for data: 2835544800
I1026 16:01:21.782742 47767 layer_factory.hpp:77] Creating layer fire9/expand1x1
I1026 16:01:21.782750 47767 net.cpp:100] Creating Layer fire9/expand1x1
I1026 16:01:21.782754 47767 net.cpp:434] fire9/expand1x1 <- fire9/squeeze1x1_fire9/squeeze1x1_0_split_0
I1026 16:01:21.782771 47767 net.cpp:408] fire9/expand1x1 -> fire9/expand1x1
I1026 16:01:21.784396 47767 net.cpp:150] Setting up fire9/expand1x1
I1026 16:01:21.784423 47767 net.cpp:157] Top shape: 100 256 14 14 (5017600)
I1026 16:01:21.784427 47767 net.cpp:165] Memory required for data: 2855615200
I1026 16:01:21.784433 47767 layer_factory.hpp:77] Creating layer fire9/relu_expand1x1
I1026 16:01:21.784440 47767 net.cpp:100] Creating Layer fire9/relu_expand1x1
I1026 16:01:21.784443 47767 net.cpp:434] fire9/relu_expand1x1 <- fire9/expand1x1
I1026 16:01:21.784461 47767 net.cpp:395] fire9/relu_expand1x1 -> fire9/expand1x1 (in-place)
I1026 16:01:21.784900 47767 net.cpp:150] Setting up fire9/relu_expand1x1
I1026 16:01:21.784914 47767 net.cpp:157] Top shape: 100 256 14 14 (5017600)
I1026 16:01:21.784919 47767 net.cpp:165] Memory required for data: 2875685600
I1026 16:01:21.784921 47767 layer_factory.hpp:77] Creating layer fire9/expand3x3
I1026 16:01:21.784950 47767 net.cpp:100] Creating Layer fire9/expand3x3
I1026 16:01:21.784955 47767 net.cpp:434] fire9/expand3x3 <- fire9/squeeze1x1_fire9/squeeze1x1_0_split_1
I1026 16:01:21.784961 47767 net.cpp:408] fire9/expand3x3 -> fire9/expand3x3
I1026 16:01:21.787997 47767 net.cpp:150] Setting up fire9/expand3x3
I1026 16:01:21.788022 47767 net.cpp:157] Top shape: 100 256 14 14 (5017600)
I1026 16:01:21.788027 47767 net.cpp:165] Memory required for data: 2895756000
I1026 16:01:21.788033 47767 layer_factory.hpp:77] Creating layer fire9/relu_expand3x3
I1026 16:01:21.788040 47767 net.cpp:100] Creating Layer fire9/relu_expand3x3
I1026 16:01:21.788066 47767 net.cpp:434] fire9/relu_expand3x3 <- fire9/expand3x3
I1026 16:01:21.788072 47767 net.cpp:395] fire9/relu_expand3x3 -> fire9/expand3x3 (in-place)
I1026 16:01:21.788496 47767 net.cpp:150] Setting up fire9/relu_expand3x3
I1026 16:01:21.788522 47767 net.cpp:157] Top shape: 100 256 14 14 (5017600)
I1026 16:01:21.788525 47767 net.cpp:165] Memory required for data: 2915826400
I1026 16:01:21.788529 47767 layer_factory.hpp:77] Creating layer fire9/concat
I1026 16:01:21.788535 47767 net.cpp:100] Creating Layer fire9/concat
I1026 16:01:21.788539 47767 net.cpp:434] fire9/concat <- fire9/expand1x1
I1026 16:01:21.788544 47767 net.cpp:434] fire9/concat <- fire9/expand3x3
I1026 16:01:21.788552 47767 net.cpp:408] fire9/concat -> fire9/concat
I1026 16:01:21.788590 47767 net.cpp:150] Setting up fire9/concat
I1026 16:01:21.788597 47767 net.cpp:157] Top shape: 100 512 14 14 (10035200)
I1026 16:01:21.788600 47767 net.cpp:165] Memory required for data: 2955967200
I1026 16:01:21.788604 47767 layer_factory.hpp:77] Creating layer drop9
I1026 16:01:21.788609 47767 net.cpp:100] Creating Layer drop9
I1026 16:01:21.788614 47767 net.cpp:434] drop9 <- fire9/concat
I1026 16:01:21.788628 47767 net.cpp:395] drop9 -> fire9/concat (in-place)
I1026 16:01:21.788658 47767 net.cpp:150] Setting up drop9
I1026 16:01:21.788664 47767 net.cpp:157] Top shape: 100 512 14 14 (10035200)
I1026 16:01:21.788667 47767 net.cpp:165] Memory required for data: 2996108000
I1026 16:01:21.788671 47767 layer_factory.hpp:77] Creating layer conv10_2626
I1026 16:01:21.788687 47767 net.cpp:100] Creating Layer conv10_2626
I1026 16:01:21.788691 47767 net.cpp:434] conv10_2626 <- fire9/concat
I1026 16:01:21.788697 47767 net.cpp:408] conv10_2626 -> conv10_2626
I1026 16:01:21.811357 47767 net.cpp:150] Setting up conv10_2626
I1026 16:01:21.811396 47767 net.cpp:157] Top shape: 100 2626 14 14 (51469600)
I1026 16:01:21.811401 47767 net.cpp:165] Memory required for data: 3201986400
I1026 16:01:21.811411 47767 layer_factory.hpp:77] Creating layer relu_conv10
I1026 16:01:21.811420 47767 net.cpp:100] Creating Layer relu_conv10
I1026 16:01:21.811437 47767 net.cpp:434] relu_conv10 <- conv10_2626
I1026 16:01:21.811444 47767 net.cpp:395] relu_conv10 -> conv10_2626 (in-place)
I1026 16:01:21.811650 47767 net.cpp:150] Setting up relu_conv10
I1026 16:01:21.811662 47767 net.cpp:157] Top shape: 100 2626 14 14 (51469600)
I1026 16:01:21.811677 47767 net.cpp:165] Memory required for data: 3407864800
I1026 16:01:21.811681 47767 layer_factory.hpp:77] Creating layer pool10
I1026 16:01:21.811688 47767 net.cpp:100] Creating Layer pool10
I1026 16:01:21.811692 47767 net.cpp:434] pool10 <- conv10_2626
I1026 16:01:21.811698 47767 net.cpp:408] pool10 -> pool10
I1026 16:01:21.812150 47767 net.cpp:150] Setting up pool10
I1026 16:01:21.812176 47767 net.cpp:157] Top shape: 100 2626 1 1 (262600)
I1026 16:01:21.812180 47767 net.cpp:165] Memory required for data: 3408915200
I1026 16:01:21.812185 47767 layer_factory.hpp:77] Creating layer pool10_pool10_0_split
I1026 16:01:21.812191 47767 net.cpp:100] Creating Layer pool10_pool10_0_split
I1026 16:01:21.812194 47767 net.cpp:434] pool10_pool10_0_split <- pool10
I1026 16:01:21.812201 47767 net.cpp:408] pool10_pool10_0_split -> pool10_pool10_0_split_0
I1026 16:01:21.812219 47767 net.cpp:408] pool10_pool10_0_split -> pool10_pool10_0_split_1
I1026 16:01:21.812268 47767 net.cpp:150] Setting up pool10_pool10_0_split
I1026 16:01:21.812275 47767 net.cpp:157] Top shape: 100 2626 1 1 (262600)
I1026 16:01:21.812280 47767 net.cpp:157] Top shape: 100 2626 1 1 (262600)
I1026 16:01:21.812283 47767 net.cpp:165] Memory required for data: 3411016000
I1026 16:01:21.812286 47767 layer_factory.hpp:77] Creating layer loss
I1026 16:01:21.812294 47767 net.cpp:100] Creating Layer loss
I1026 16:01:21.812297 47767 net.cpp:434] loss <- pool10_pool10_0_split_0
I1026 16:01:21.812301 47767 net.cpp:434] loss <- label_data_1_split_0
I1026 16:01:21.812306 47767 net.cpp:408] loss -> loss
…
