…
I1020 16:00:11.102365  4871 net.cpp:322] The NetState phase (0) differed from the phase (1) specified by a rule in layer data
I1020 16:00:11.102434  4871 net.cpp:322] The NetState phase (0) differed from the phase (1) specified by a rule in layer accuracy
I1020 16:00:11.102805  4871 net.cpp:58] Initializing net from parameters: 
state {
  phase: TRAIN
  level: 0
  stage: ""
}
layer {
  name: "data"
  type: "Data"
  top: "data"
  top: "label"
  include {
    phase: TRAIN
  }
  transform_param {
    crop_size: 227
    mean_file: "/share/zhh/mean.binaryproto"
  }
  data_param {
    source: "/share/front/train_lmdb"
    batch_size: 128
    backend: LMDB
  }
}
layer {
  name: "conv1"
  type: "Convolution"
  bottom: "data"
  top: "conv1"
  convolution_param {
    num_output: 64
    kernel_size: 3
    stride: 2
    weight_filler {
      type: "xavier"
    }
  }
}
layer {
  name: "relu_conv1"
  type: "ReLU"
  bottom: "conv1"
  top: "conv1"
}
layer {
  name: "pool1"
  type: "Pooling"
  bottom: "conv1"
  top: "pool1"
  pooling_param {
    pool: MAX
    kernel_size: 3
    stride: 2
  }
}
layer {
  name: "fire2/squeeze1x1"
  type: "Convolution"
  bottom: "pool1"
  top: "fire2/squeeze1x1"
  convolution_param {
    num_output: 16
    kernel_size: 1
    weight_filler {
      type: "xavier"
    }
  }
}
layer {
  name: "fire2/relu_squeeze1x1"
  type: "ReLU"
  bottom: "fire2/squeeze1x1"
  top: "fire2/squeeze1x1"
}
layer {
  name: "fire2/expand1x1"
  type: "Convolution"
  bottom: "fire2/squeeze1x1"
  top: "fire2/expand1x1"
  convolution_param {
    num_output: 64
    kernel_size: 1
    weight_filler {
      type: "xavier"
    }
  }
}
layer {
  name: "fire2/relu_expand1x1"
  type: "ReLU"
  bottom: "fire2/expand1x1"
  top: "fire2/expand1x1"
}
layer {
  name: "fire2/expand3x3"
  type: "Convolution"
  bottom: "fire2/squeeze1x1"
  top: "fire2/expand3x3"
  convolution_param {
    num_output: 64
    pad: 1
    kernel_size: 3
    weight_filler {
      type: "xavier"
    }
  }
}
layer {
  name: "fire2/relu_expand3x3"
  type: "ReLU"
  bottom: "fire2/expand3x3"
  top: "fire2/expand3x3"
}
layer {
  name: "fire2/concat"
  type: "Concat"
  bottom: "fire2/expand1x1"
  bottom: "fire2/expand3x3"
  top: "fire2/concat"
}
layer {
  name: "fire3/squeeze1x1"
  type: "Convolution"
  bottom: "fire2/concat"
  top: "fire3/squeeze1x1"
  convolution_param {
    num_output: 16
    kernel_size: 1
    weight_filler {
      type: "xavier"
    }
  }
}
layer {
  name: "fire3/relu_squeeze1x1"
  type: "ReLU"
  bottom: "fire3/squeeze1x1"
  top: "fire3/squeeze1x1"
}
layer {
  name: "fire3/expand1x1"
  type: "Convolution"
  bottom: "fire3/squeeze1x1"
  top: "fire3/expand1x1"
  convolution_param {
    num_output: 64
    kernel_size: 1
    weight_filler {
      type: "xavier"
    }
  }
}
layer {
  name: "fire3/relu_expand1x1"
  type: "ReLU"
  bottom: "fire3/expand1x1"
  top: "fire3/expand1x1"
}
layer {
  name: "fire3/expand3x3"
  type: "Convolution"
  bottom: "fire3/squeeze1x1"
  top: "fire3/expand3x3"
  convolution_param {
    num_output: 64
    pad: 1
    kernel_size: 3
    weight_filler {
      type: "xavier"
    }
  }
}
layer {
  name: "fire3/relu_expand3x3"
  type: "ReLU"
  bottom: "fire3/expand3x3"
  top: "fire3/expand3x3"
}
layer {
  name: "fire3/concat"
  type: "Concat"
  bottom: "fire3/expand1x1"
  bottom: "fire3/expand3x3"
  top: "fire3/concat"
}
layer {
  name: "pool3"
  type: "Pooling"
  bottom: "fire3/concat"
  top: "pool3"
  pooling_param {
    pool: MAX
    kernel_size: 3
    stride: 2
  }
}
layer {
  name: "fire4/squeeze1x1"
  type: "Convolution"
  bottom: "pool3"
  top: "fire4/squeeze1x1"
  convolution_param {
    num_output: 32
    kernel_size: 1
    weight_filler {
      type: "xavier"
    }
  }
}
layer {
  name: "fire4/relu_squeeze1x1"
  type: "ReLU"
  bottom: "fire4/squeeze1x1"
  top: "fire4/squeeze1x1"
}
layer {
  name: "fire4/expand1x1"
  type: "Convolution"
  bottom: "fire4/squeeze1x1"
  top: "fire4/expand1x1"
  convolution_param {
    num_output: 128
    kernel_size: 1
    weight_filler {
      type: "xavier"
    }
  }
}
layer {
  name: "fire4/relu_expand1x1"
  type: "ReLU"
  bottom: "fire4/expand1x1"
  top: "fire4/expand1x1"
}
layer {
  name: "fire4/expand3x3"
  type: "Convolution"
  bottom: "fire4/squeeze1x1"
  top: "fire4/expand3x3"
  convolution_param {
    num_output: 128
    pad: 1
    kernel_size: 3
    weight_filler {
      type: "xavier"
    }
  }
}
layer {
  name: "fire4/relu_expand3x3"
  type: "ReLU"
  bottom: "fire4/expand3x3"
  top: "fire4/expand3x3"
}
layer {
  name: "fire4/concat"
  type: "Concat"
  bottom: "fire4/expand1x1"
  bottom: "fire4/expand3x3"
  top: "fire4/concat"
}
layer {
  name: "fire5/squeeze1x1"
  type: "Convolution"
  bottom: "fire4/concat"
  top: "fire5/squeeze1x1"
  convolution_param {
    num_output: 32
    kernel_size: 1
    weight_filler {
      type: "xavier"
    }
  }
}
layer {
  name: "fire5/relu_squeeze1x1"
  type: "ReLU"
  bottom: "fire5/squeeze1x1"
  top: "fire5/squeeze1x1"
}
layer {
  name: "fire5/expand1x1"
  type: "Convolution"
  bottom: "fire5/squeeze1x1"
  top: "fire5/expand1x1"
  convolution_param {
    num_output: 128
    kernel_size: 1
    weight_filler {
      type: "xavier"
    }
  }
}
layer {
  name: "fire5/relu_expand1x1"
  type: "ReLU"
  bottom: "fire5/expand1x1"
  top: "fire5/expand1x1"
}
layer {
  name: "fire5/expand3x3"
  type: "Convolution"
  bottom: "fire5/squeeze1x1"
  top: "fire5/expand3x3"
  convolution_param {
    num_output: 128
    pad: 1
    kernel_size: 3
    weight_filler {
      type: "xavier"
    }
  }
}
layer {
  name: "fire5/relu_expand3x3"
  type: "ReLU"
  bottom: "fire5/expand3x3"
  top: "fire5/expand3x3"
}
layer {
  name: "fire5/concat"
  type: "Concat"
  bottom: "fire5/expand1x1"
  bottom: "fire5/expand3x3"
  top: "fire5/concat"
}
layer {
  name: "pool5"
  type: "Pooling"
  bottom: "fire5/concat"
  top: "pool5"
  pooling_param {
    pool: MAX
    kernel_size: 3
    stride: 2
  }
}
layer {
  name: "fire6/squeeze1x1"
  type: "Convolution"
  bottom: "pool5"
  top: "fire6/squeeze1x1"
  convolution_param {
    num_output: 48
    kernel_size: 1
    weight_filler {
      type: "xavier"
    }
  }
}
layer {
  name: "fire6/relu_squeeze1x1"
  type: "ReLU"
  bottom: "fire6/squeeze1x1"
  top: "fire6/squeeze1x1"
}
layer {
  name: "fire6/expand1x1"
  type: "Convolution"
  bottom: "fire6/squeeze1x1"
  top: "fire6/expand1x1"
  convolution_param {
    num_output: 192
    kernel_size: 1
    weight_filler {
      type: "xavier"
    }
  }
}
layer {
  name: "fire6/relu_expand1x1"
  type: "ReLU"
  bottom: "fire6/expand1x1"
  top: "fire6/expand1x1"
}
layer {
  name: "fire6/expand3x3"
  type: "Convolution"
  bottom: "fire6/squeeze1x1"
  top: "fire6/expand3x3"
  convolution_param {
    num_output: 192
    pad: 1
    kernel_size: 3
    weight_filler {
      type: "xavier"
    }
  }
}
layer {
  name: "fire6/relu_expand3x3"
  type: "ReLU"
  bottom: "fire6/expand3x3"
  top: "fire6/expand3x3"
}
layer {
  name: "fire6/concat"
  type: "Concat"
  bottom: "fire6/expand1x1"
  bottom: "fire6/expand3x3"
  top: "fire6/concat"
}
layer {
  name: "fire7/squeeze1x1"
  type: "Convolution"
  bottom: "fire6/concat"
  top: "fire7/squeeze1x1"
  convolution_param {
    num_output: 48
    kernel_size: 1
    weight_filler {
      type: "xavier"
    }
  }
}
layer {
  name: "fire7/relu_squeeze1x1"
  type: "ReLU"
  bottom: "fire7/squeeze1x1"
  top: "fire7/squeeze1x1"
}
layer {
  name: "fire7/expand1x1"
  type: "Convolution"
  bottom: "fire7/squeeze1x1"
  top: "fire7/expand1x1"
  convolution_param {
    num_output: 192
    kernel_size: 1
    weight_filler {
      type: "xavier"
    }
  }
}
layer {
  name: "fire7/relu_expand1x1"
  type: "ReLU"
  bottom: "fire7/expand1x1"
  top: "fire7/expand1x1"
}
layer {
  name: "fire7/expand3x3"
  type: "Convolution"
  bottom: "fire7/squeeze1x1"
  top: "fire7/expand3x3"
  convolution_param {
    num_output: 192
    pad: 1
    kernel_size: 3
    weight_filler {
      type: "xavier"
    }
  }
}
layer {
  name: "fire7/relu_expand3x3"
  type: "ReLU"
  bottom: "fire7/expand3x3"
  top: "fire7/expand3x3"
}
layer {
  name: "fire7/concat"
  type: "Concat"
  bottom: "fire7/expand1x1"
  bottom: "fire7/expand3x3"
  top: "fire7/concat"
}
layer {
  name: "fire8/squeeze1x1"
  type: "Convolution"
  bottom: "fire7/concat"
  top: "fire8/squeeze1x1"
  convolution_param {
    num_output: 64
    kernel_size: 1
    weight_filler {
      type: "xavier"
    }
  }
}
layer {
  name: "fire8/relu_squeeze1x1"
  type: "ReLU"
  bottom: "fire8/squeeze1x1"
  top: "fire8/squeeze1x1"
}
layer {
  name: "fire8/expand1x1"
  type: "Convolution"
  bottom: "fire8/squeeze1x1"
  top: "fire8/expand1x1"
  convolution_param {
    num_output: 256
    kernel_size: 1
    weight_filler {
      type: "xavier"
    }
  }
}
layer {
  name: "fire8/relu_expand1x1"
  type: "ReLU"
  bottom: "fire8/expand1x1"
  top: "fire8/expand1x1"
}
layer {
  name: "fire8/expand3x3"
  type: "Convolution"
  bottom: "fire8/squeeze1x1"
  top: "fire8/expand3x3"
  convolution_param {
    num_output: 256
    pad: 1
    kernel_size: 3
    weight_filler {
      type: "xavier"
    }
  }
}
layer {
  name: "fire8/relu_expand3x3"
  type: "ReLU"
  bottom: "fire8/expand3x3"
  top: "fire8/expand3x3"
}
layer {
  name: "fire8/concat"
  type: "Concat"
  bottom: "fire8/expand1x1"
  bottom: "fire8/expand3x3"
  top: "fire8/concat"
}
layer {
  name: "fire9/squeeze1x1"
  type: "Convolution"
  bottom: "fire8/concat"
  top: "fire9/squeeze1x1"
  convolution_param {
    num_output: 64
    kernel_size: 1
    weight_filler {
      type: "xavier"
    }
  }
}
layer {
  name: "fire9/relu_squeeze1x1"
  type: "ReLU"
  bottom: "fire9/squeeze1x1"
  top: "fire9/squeeze1x1"
}
layer {
  name: "fire9/expand1x1"
  type: "Convolution"
  bottom: "fire9/squeeze1x1"
  top: "fire9/expand1x1"
  convolution_param {
    num_output: 256
    kernel_size: 1
    weight_filler {
      type: "xavier"
    }
  }
}
layer {
  name: "fire9/relu_expand1x1"
  type: "ReLU"
  bottom: "fire9/expand1x1"
  top: "fire9/expand1x1"
}
layer {
  name: "fire9/expand3x3"
  type: "Convolution"
  bottom: "fire9/squeeze1x1"
  top: "fire9/expand3x3"
  convolution_param {
    num_output: 256
    pad: 1
    kernel_size: 3
    weight_filler {
      type: "xavier"
    }
  }
}
layer {
  name: "fire9/relu_expand3x3"
  type: "ReLU"
  bottom: "fire9/expand3x3"
  top: "fire9/expand3x3"
}
layer {
  name: "fire9/concat"
  type: "Concat"
  bottom: "fire9/expand1x1"
  bottom: "fire9/expand3x3"
  top: "fire9/concat"
}
layer {
  name: "drop9"
  type: "Dropout"
  bottom: "fire9/concat"
  top: "fire9/concat"
  dropout_param {
    dropout_ratio: 0.5
  }
}
layer {
  name: "conv10_2626"
  type: "Convolution"
  bottom: "fire9/concat"
  top: "conv10_2626"
  param {
    lr_mult: 10
    decay_mult: 1
  }
  convolution_param {
    num_output: 2626
    kernel_size: 1
    weight_filler {
      type: "gaussian"
      mean: 0
      std: 0.01
    }
  }
}
layer {
  name: "relu_conv10"
  type: "ReLU"
  bottom: "conv10_2626"
  top: "conv10_2626"
}
layer {
  name: "pool10"
  type: "Pooling"
  bottom: "conv10_2626"
  top: "pool10"
  pooling_param {
    pool: AVE
    global_pooling: true
  }
}
layer {
  name: "loss"
  type: "SoftmaxWithLoss"
  bottom: "pool10"
  bottom: "label"
  top: "loss"
}
I1020 16:00:11.103078  4871 layer_factory.hpp:77] Creating layer data
I1020 16:00:11.110677  4871 net.cpp:100] Creating Layer data
I1020 16:00:11.110710  4871 net.cpp:408] data -> data
I1020 16:00:11.111012  4871 net.cpp:408] data -> label
I1020 16:00:11.111029  4871 data_transformer.cpp:25] Loading mean file from: /share/zhh/mean.binaryproto
I1020 16:00:11.167251  4889 db_lmdb.cpp:35] Opened lmdb /share/front/train_lmdb
I1020 16:00:11.238603  4871 data_layer.cpp:41] output data size: 128,3,227,227
I1020 16:00:11.420011  4871 net.cpp:150] Setting up data
I1020 16:00:11.420052  4871 net.cpp:157] Top shape: 128 3 227 227 (19787136)
I1020 16:00:11.420058  4871 net.cpp:157] Top shape: 128 (128)
I1020 16:00:11.420061  4871 net.cpp:165] Memory required for data: 79149056
I1020 16:00:11.420083  4871 layer_factory.hpp:77] Creating layer conv1
I1020 16:00:11.420107  4871 net.cpp:100] Creating Layer conv1
I1020 16:00:11.420114  4871 net.cpp:434] conv1 <- data
I1020 16:00:11.420128  4871 net.cpp:408] conv1 -> conv1
I1020 16:00:11.433035  4890 blocking_queue.cpp:50] Waiting for data
I1020 16:00:11.587646  4871 net.cpp:150] Setting up conv1
I1020 16:00:11.587689  4871 net.cpp:157] Top shape: 128 64 113 113 (104603648)
I1020 16:00:11.587694  4871 net.cpp:165] Memory required for data: 497563648
I1020 16:00:11.587716  4871 layer_factory.hpp:77] Creating layer relu_conv1
I1020 16:00:11.587746  4871 net.cpp:100] Creating Layer relu_conv1
I1020 16:00:11.587751  4871 net.cpp:434] relu_conv1 <- conv1
I1020 16:00:11.587759  4871 net.cpp:395] relu_conv1 -> conv1 (in-place)
I1020 16:00:11.588467  4871 net.cpp:150] Setting up relu_conv1
I1020 16:00:11.588481  4871 net.cpp:157] Top shape: 128 64 113 113 (104603648)
I1020 16:00:11.588497  4871 net.cpp:165] Memory required for data: 915978240
I1020 16:00:11.588501  4871 layer_factory.hpp:77] Creating layer pool1
I1020 16:00:11.588510  4871 net.cpp:100] Creating Layer pool1
I1020 16:00:11.588515  4871 net.cpp:434] pool1 <- conv1
I1020 16:00:11.588521  4871 net.cpp:408] pool1 -> pool1
I1020 16:00:11.588578  4871 net.cpp:150] Setting up pool1
I1020 16:00:11.588585  4871 net.cpp:157] Top shape: 128 64 56 56 (25690112)
I1020 16:00:11.588588  4871 net.cpp:165] Memory required for data: 1018738688
I1020 16:00:11.588591  4871 layer_factory.hpp:77] Creating layer fire2/squeeze1x1
I1020 16:00:11.588603  4871 net.cpp:100] Creating Layer fire2/squeeze1x1
I1020 16:00:11.588608  4871 net.cpp:434] fire2/squeeze1x1 <- pool1
I1020 16:00:11.588613  4871 net.cpp:408] fire2/squeeze1x1 -> fire2/squeeze1x1
I1020 16:00:11.589937  4871 net.cpp:150] Setting up fire2/squeeze1x1
I1020 16:00:11.589952  4871 net.cpp:157] Top shape: 128 16 56 56 (6422528)
I1020 16:00:11.589968  4871 net.cpp:165] Memory required for data: 1044428800
I1020 16:00:11.589977  4871 layer_factory.hpp:77] Creating layer fire2/relu_squeeze1x1
I1020 16:00:11.589984  4871 net.cpp:100] Creating Layer fire2/relu_squeeze1x1
I1020 16:00:11.589988  4871 net.cpp:434] fire2/relu_squeeze1x1 <- fire2/squeeze1x1
I1020 16:00:11.589994  4871 net.cpp:395] fire2/relu_squeeze1x1 -> fire2/squeeze1x1 (in-place)
I1020 16:00:11.591655  4871 net.cpp:150] Setting up fire2/relu_squeeze1x1
I1020 16:00:11.591670  4871 net.cpp:157] Top shape: 128 16 56 56 (6422528)
I1020 16:00:11.591686  4871 net.cpp:165] Memory required for data: 1070118912
I1020 16:00:11.591691  4871 layer_factory.hpp:77] Creating layer fire2/squeeze1x1_fire2/relu_squeeze1x1_0_split
I1020 16:00:11.592027  4871 net.cpp:100] Creating Layer fire2/squeeze1x1_fire2/relu_squeeze1x1_0_split
I1020 16:00:11.592052  4871 net.cpp:434] fire2/squeeze1x1_fire2/relu_squeeze1x1_0_split <- fire2/squeeze1x1
I1020 16:00:11.592067  4871 net.cpp:408] fire2/squeeze1x1_fire2/relu_squeeze1x1_0_split -> fire2/squeeze1x1_fire2/relu_squeeze1x1_0_split_0
I1020 16:00:11.592083  4871 net.cpp:408] fire2/squeeze1x1_fire2/relu_squeeze1x1_0_split -> fire2/squeeze1x1_fire2/relu_squeeze1x1_0_split_1
I1020 16:00:11.592170  4871 net.cpp:150] Setting up fire2/squeeze1x1_fire2/relu_squeeze1x1_0_split
I1020 16:00:11.592187  4871 net.cpp:157] Top shape: 128 16 56 56 (6422528)
I1020 16:00:11.592197  4871 net.cpp:157] Top shape: 128 16 56 56 (6422528)
I1020 16:00:11.592206  4871 net.cpp:165] Memory required for data: 1121499136
I1020 16:00:11.592212  4871 layer_factory.hpp:77] Creating layer fire2/expand1x1
I1020 16:00:11.592231  4871 net.cpp:100] Creating Layer fire2/expand1x1
I1020 16:00:11.592267  4871 net.cpp:434] fire2/expand1x1 <- fire2/squeeze1x1_fire2/relu_squeeze1x1_0_split_0
I1020 16:00:11.592283  4871 net.cpp:408] fire2/expand1x1 -> fire2/expand1x1
I1020 16:00:11.594658  4871 net.cpp:150] Setting up fire2/expand1x1
I1020 16:00:11.594674  4871 net.cpp:157] Top shape: 128 64 56 56 (25690112)
I1020 16:00:11.594689  4871 net.cpp:165] Memory required for data: 1224259584
I1020 16:00:11.594699  4871 layer_factory.hpp:77] Creating layer fire2/relu_expand1x1
I1020 16:00:11.594708  4871 net.cpp:100] Creating Layer fire2/relu_expand1x1
I1020 16:00:11.594712  4871 net.cpp:434] fire2/relu_expand1x1 <- fire2/expand1x1
I1020 16:00:11.594718  4871 net.cpp:395] fire2/relu_expand1x1 -> fire2/expand1x1 (in-place)
I1020 16:00:11.594894  4871 net.cpp:150] Setting up fire2/relu_expand1x1
I1020 16:00:11.594905  4871 net.cpp:157] Top shape: 128 64 56 56 (25690112)
I1020 16:00:11.594920  4871 net.cpp:165] Memory required for data: 1327020032
I1020 16:00:11.594923  4871 layer_factory.hpp:77] Creating layer fire2/expand3x3
I1020 16:00:11.594933  4871 net.cpp:100] Creating Layer fire2/expand3x3
I1020 16:00:11.594936  4871 net.cpp:434] fire2/expand3x3 <- fire2/squeeze1x1_fire2/relu_squeeze1x1_0_split_1
I1020 16:00:11.594944  4871 net.cpp:408] fire2/expand3x3 -> fire2/expand3x3
I1020 16:00:11.596184  4871 net.cpp:150] Setting up fire2/expand3x3
I1020 16:00:11.596199  4871 net.cpp:157] Top shape: 128 64 56 56 (25690112)
I1020 16:00:11.596215  4871 net.cpp:165] Memory required for data: 1429780480
I1020 16:00:11.596221  4871 layer_factory.hpp:77] Creating layer fire2/relu_expand3x3
I1020 16:00:11.596227  4871 net.cpp:100] Creating Layer fire2/relu_expand3x3
I1020 16:00:11.596231  4871 net.cpp:434] fire2/relu_expand3x3 <- fire2/expand3x3
I1020 16:00:11.596238  4871 net.cpp:395] fire2/relu_expand3x3 -> fire2/expand3x3 (in-place)
I1020 16:00:11.596629  4871 net.cpp:150] Setting up fire2/relu_expand3x3
I1020 16:00:11.596642  4871 net.cpp:157] Top shape: 128 64 56 56 (25690112)
I1020 16:00:11.596657  4871 net.cpp:165] Memory required for data: 1532540928
I1020 16:00:11.596660  4871 layer_factory.hpp:77] Creating layer fire2/concat
I1020 16:00:11.596917  4871 net.cpp:100] Creating Layer fire2/concat
I1020 16:00:11.596927  4871 net.cpp:434] fire2/concat <- fire2/expand1x1
I1020 16:00:11.596945  4871 net.cpp:434] fire2/concat <- fire2/expand3x3
I1020 16:00:11.596953  4871 net.cpp:408] fire2/concat -> fire2/concat
I1020 16:00:11.596985  4871 net.cpp:150] Setting up fire2/concat
I1020 16:00:11.596994  4871 net.cpp:157] Top shape: 128 128 56 56 (51380224)
I1020 16:00:11.596997  4871 net.cpp:165] Memory required for data: 1738061824
I1020 16:00:11.597002  4871 layer_factory.hpp:77] Creating layer fire3/squeeze1x1
I1020 16:00:11.597009  4871 net.cpp:100] Creating Layer fire3/squeeze1x1
I1020 16:00:11.597012  4871 net.cpp:434] fire3/squeeze1x1 <- fire2/concat
I1020 16:00:11.597019  4871 net.cpp:408] fire3/squeeze1x1 -> fire3/squeeze1x1
I1020 16:00:11.597952  4871 net.cpp:150] Setting up fire3/squeeze1x1
I1020 16:00:11.597966  4871 net.cpp:157] Top shape: 128 16 56 56 (6422528)
I1020 16:00:11.597981  4871 net.cpp:165] Memory required for data: 1763751936
I1020 16:00:11.597991  4871 layer_factory.hpp:77] Creating layer fire3/relu_squeeze1x1
I1020 16:00:11.597998  4871 net.cpp:100] Creating Layer fire3/relu_squeeze1x1
I1020 16:00:11.598002  4871 net.cpp:434] fire3/relu_squeeze1x1 <- fire3/squeeze1x1
I1020 16:00:11.598008  4871 net.cpp:395] fire3/relu_squeeze1x1 -> fire3/squeeze1x1 (in-place)
I1020 16:00:11.598402  4871 net.cpp:150] Setting up fire3/relu_squeeze1x1
I1020 16:00:11.598414  4871 net.cpp:157] Top shape: 128 16 56 56 (6422528)
I1020 16:00:11.598429  4871 net.cpp:165] Memory required for data: 1789442048
I1020 16:00:11.598433  4871 layer_factory.hpp:77] Creating layer fire3/squeeze1x1_fire3/relu_squeeze1x1_0_split
I1020 16:00:11.598438  4871 net.cpp:100] Creating Layer fire3/squeeze1x1_fire3/relu_squeeze1x1_0_split
I1020 16:00:11.598443  4871 net.cpp:434] fire3/squeeze1x1_fire3/relu_squeeze1x1_0_split <- fire3/squeeze1x1
I1020 16:00:11.598460  4871 net.cpp:408] fire3/squeeze1x1_fire3/relu_squeeze1x1_0_split -> fire3/squeeze1x1_fire3/relu_squeeze1x1_0_split_0
I1020 16:00:11.598479  4871 net.cpp:408] fire3/squeeze1x1_fire3/relu_squeeze1x1_0_split -> fire3/squeeze1x1_fire3/relu_squeeze1x1_0_split_1
I1020 16:00:11.598520  4871 net.cpp:150] Setting up fire3/squeeze1x1_fire3/relu_squeeze1x1_0_split
I1020 16:00:11.598528  4871 net.cpp:157] Top shape: 128 16 56 56 (6422528)
I1020 16:00:11.598532  4871 net.cpp:157] Top shape: 128 16 56 56 (6422528)
I1020 16:00:11.598536  4871 net.cpp:165] Memory required for data: 1840822272
I1020 16:00:11.598539  4871 layer_factory.hpp:77] Creating layer fire3/expand1x1
I1020 16:00:11.598547  4871 net.cpp:100] Creating Layer fire3/expand1x1
I1020 16:00:11.598551  4871 net.cpp:434] fire3/expand1x1 <- fire3/squeeze1x1_fire3/relu_squeeze1x1_0_split_0
I1020 16:00:11.598557  4871 net.cpp:408] fire3/expand1x1 -> fire3/expand1x1
I1020 16:00:11.599743  4871 net.cpp:150] Setting up fire3/expand1x1
I1020 16:00:11.599757  4871 net.cpp:157] Top shape: 128 64 56 56 (25690112)
I1020 16:00:11.599773  4871 net.cpp:165] Memory required for data: 1943582720
I1020 16:00:11.599779  4871 layer_factory.hpp:77] Creating layer fire3/relu_expand1x1
I1020 16:00:11.599788  4871 net.cpp:100] Creating Layer fire3/relu_expand1x1
I1020 16:00:11.599794  4871 net.cpp:434] fire3/relu_expand1x1 <- fire3/expand1x1
I1020 16:00:11.599799  4871 net.cpp:395] fire3/relu_expand1x1 -> fire3/expand1x1 (in-place)
I1020 16:00:11.599988  4871 net.cpp:150] Setting up fire3/relu_expand1x1
I1020 16:00:11.599998  4871 net.cpp:157] Top shape: 128 64 56 56 (25690112)
I1020 16:00:11.600013  4871 net.cpp:165] Memory required for data: 2046343168
I1020 16:00:11.600018  4871 layer_factory.hpp:77] Creating layer fire3/expand3x3
I1020 16:00:11.600026  4871 net.cpp:100] Creating Layer fire3/expand3x3
I1020 16:00:11.600030  4871 net.cpp:434] fire3/expand3x3 <- fire3/squeeze1x1_fire3/relu_squeeze1x1_0_split_1
I1020 16:00:11.600038  4871 net.cpp:408] fire3/expand3x3 -> fire3/expand3x3
I1020 16:00:11.601212  4871 net.cpp:150] Setting up fire3/expand3x3
I1020 16:00:11.601225  4871 net.cpp:157] Top shape: 128 64 56 56 (25690112)
I1020 16:00:11.601243  4871 net.cpp:165] Memory required for data: 2149103616
I1020 16:00:11.601249  4871 layer_factory.hpp:77] Creating layer fire3/relu_expand3x3
I1020 16:00:11.601255  4871 net.cpp:100] Creating Layer fire3/relu_expand3x3
I1020 16:00:11.601260  4871 net.cpp:434] fire3/relu_expand3x3 <- fire3/expand3x3
I1020 16:00:11.601265  4871 net.cpp:395] fire3/relu_expand3x3 -> fire3/expand3x3 (in-place)
I1020 16:00:11.601658  4871 net.cpp:150] Setting up fire3/relu_expand3x3
I1020 16:00:11.601671  4871 net.cpp:157] Top shape: 128 64 56 56 (25690112)
I1020 16:00:11.601686  4871 net.cpp:165] Memory required for data: 2251864064
I1020 16:00:11.601689  4871 layer_factory.hpp:77] Creating layer fire3/concat
I1020 16:00:11.601696  4871 net.cpp:100] Creating Layer fire3/concat
I1020 16:00:11.601701  4871 net.cpp:434] fire3/concat <- fire3/expand1x1
I1020 16:00:11.601706  4871 net.cpp:434] fire3/concat <- fire3/expand3x3
I1020 16:00:11.601711  4871 net.cpp:408] fire3/concat -> fire3/concat
I1020 16:00:11.601750  4871 net.cpp:150] Setting up fire3/concat
I1020 16:00:11.601758  4871 net.cpp:157] Top shape: 128 128 56 56 (51380224)
I1020 16:00:11.601760  4871 net.cpp:165] Memory required for data: 2457384960
I1020 16:00:11.601763  4871 layer_factory.hpp:77] Creating layer pool3
I1020 16:00:11.601769  4871 net.cpp:100] Creating Layer pool3
I1020 16:00:11.601773  4871 net.cpp:434] pool3 <- fire3/concat
I1020 16:00:11.601779  4871 net.cpp:408] pool3 -> pool3
I1020 16:00:11.601817  4871 net.cpp:150] Setting up pool3
I1020 16:00:11.601824  4871 net.cpp:157] Top shape: 128 128 28 28 (12845056)
I1020 16:00:11.601827  4871 net.cpp:165] Memory required for data: 2508765184
I1020 16:00:11.601830  4871 layer_factory.hpp:77] Creating layer fire4/squeeze1x1
I1020 16:00:11.601838  4871 net.cpp:100] Creating Layer fire4/squeeze1x1
I1020 16:00:11.601852  4871 net.cpp:434] fire4/squeeze1x1 <- pool3
I1020 16:00:11.601860  4871 net.cpp:408] fire4/squeeze1x1 -> fire4/squeeze1x1
I1020 16:00:11.603014  4871 net.cpp:150] Setting up fire4/squeeze1x1
I1020 16:00:11.603027  4871 net.cpp:157] Top shape: 128 32 28 28 (3211264)
I1020 16:00:11.603042  4871 net.cpp:165] Memory required for data: 2521610240
I1020 16:00:11.603049  4871 layer_factory.hpp:77] Creating layer fire4/relu_squeeze1x1
I1020 16:00:11.603055  4871 net.cpp:100] Creating Layer fire4/relu_squeeze1x1
I1020 16:00:11.603060  4871 net.cpp:434] fire4/relu_squeeze1x1 <- fire4/squeeze1x1
I1020 16:00:11.603065  4871 net.cpp:395] fire4/relu_squeeze1x1 -> fire4/squeeze1x1 (in-place)
I1020 16:00:11.603446  4871 net.cpp:150] Setting up fire4/relu_squeeze1x1
I1020 16:00:11.603458  4871 net.cpp:157] Top shape: 128 32 28 28 (3211264)
I1020 16:00:11.603473  4871 net.cpp:165] Memory required for data: 2534455296
I1020 16:00:11.603477  4871 layer_factory.hpp:77] Creating layer fire4/squeeze1x1_fire4/relu_squeeze1x1_0_split
I1020 16:00:11.603483  4871 net.cpp:100] Creating Layer fire4/squeeze1x1_fire4/relu_squeeze1x1_0_split
I1020 16:00:11.603487  4871 net.cpp:434] fire4/squeeze1x1_fire4/relu_squeeze1x1_0_split <- fire4/squeeze1x1
I1020 16:00:11.603493  4871 net.cpp:408] fire4/squeeze1x1_fire4/relu_squeeze1x1_0_split -> fire4/squeeze1x1_fire4/relu_squeeze1x1_0_split_0
I1020 16:00:11.603500  4871 net.cpp:408] fire4/squeeze1x1_fire4/relu_squeeze1x1_0_split -> fire4/squeeze1x1_fire4/relu_squeeze1x1_0_split_1
I1020 16:00:11.603540  4871 net.cpp:150] Setting up fire4/squeeze1x1_fire4/relu_squeeze1x1_0_split
I1020 16:00:11.603546  4871 net.cpp:157] Top shape: 128 32 28 28 (3211264)
I1020 16:00:11.603550  4871 net.cpp:157] Top shape: 128 32 28 28 (3211264)
I1020 16:00:11.603554  4871 net.cpp:165] Memory required for data: 2560145408
I1020 16:00:11.603556  4871 layer_factory.hpp:77] Creating layer fire4/expand1x1
I1020 16:00:11.603565  4871 net.cpp:100] Creating Layer fire4/expand1x1
I1020 16:00:11.603569  4871 net.cpp:434] fire4/expand1x1 <- fire4/squeeze1x1_fire4/relu_squeeze1x1_0_split_0
I1020 16:00:11.603574  4871 net.cpp:408] fire4/expand1x1 -> fire4/expand1x1
I1020 16:00:11.604743  4871 net.cpp:150] Setting up fire4/expand1x1
I1020 16:00:11.604758  4871 net.cpp:157] Top shape: 128 128 28 28 (12845056)
I1020 16:00:11.604773  4871 net.cpp:165] Memory required for data: 2611525632
I1020 16:00:11.604784  4871 layer_factory.hpp:77] Creating layer fire4/relu_expand1x1
I1020 16:00:11.604791  4871 net.cpp:100] Creating Layer fire4/relu_expand1x1
I1020 16:00:11.604795  4871 net.cpp:434] fire4/relu_expand1x1 <- fire4/expand1x1
I1020 16:00:11.604800  4871 net.cpp:395] fire4/relu_expand1x1 -> fire4/expand1x1 (in-place)
I1020 16:00:11.604986  4871 net.cpp:150] Setting up fire4/relu_expand1x1
I1020 16:00:11.604998  4871 net.cpp:157] Top shape: 128 128 28 28 (12845056)
I1020 16:00:11.605001  4871 net.cpp:165] Memory required for data: 2662905856
I1020 16:00:11.605005  4871 layer_factory.hpp:77] Creating layer fire4/expand3x3
I1020 16:00:11.605012  4871 net.cpp:100] Creating Layer fire4/expand3x3
I1020 16:00:11.605027  4871 net.cpp:434] fire4/expand3x3 <- fire4/squeeze1x1_fire4/relu_squeeze1x1_0_split_1
I1020 16:00:11.605034  4871 net.cpp:408] fire4/expand3x3 -> fire4/expand3x3
I1020 16:00:11.607045  4871 net.cpp:150] Setting up fire4/expand3x3
I1020 16:00:11.607059  4871 net.cpp:157] Top shape: 128 128 28 28 (12845056)
I1020 16:00:11.607074  4871 net.cpp:165] Memory required for data: 2714286080
I1020 16:00:11.607081  4871 layer_factory.hpp:77] Creating layer fire4/relu_expand3x3
I1020 16:00:11.607087  4871 net.cpp:100] Creating Layer fire4/relu_expand3x3
I1020 16:00:11.607091  4871 net.cpp:434] fire4/relu_expand3x3 <- fire4/expand3x3
I1020 16:00:11.607098  4871 net.cpp:395] fire4/relu_expand3x3 -> fire4/expand3x3 (in-place)
I1020 16:00:11.607481  4871 net.cpp:150] Setting up fire4/relu_expand3x3
I1020 16:00:11.607492  4871 net.cpp:157] Top shape: 128 128 28 28 (12845056)
I1020 16:00:11.607508  4871 net.cpp:165] Memory required for data: 2765666304
I1020 16:00:11.607522  4871 layer_factory.hpp:77] Creating layer fire4/concat
I1020 16:00:11.607527  4871 net.cpp:100] Creating Layer fire4/concat
I1020 16:00:11.607532  4871 net.cpp:434] fire4/concat <- fire4/expand1x1
I1020 16:00:11.607537  4871 net.cpp:434] fire4/concat <- fire4/expand3x3
I1020 16:00:11.607542  4871 net.cpp:408] fire4/concat -> fire4/concat
I1020 16:00:11.607571  4871 net.cpp:150] Setting up fire4/concat
I1020 16:00:11.607578  4871 net.cpp:157] Top shape: 128 256 28 28 (25690112)
I1020 16:00:11.607580  4871 net.cpp:165] Memory required for data: 2868426752
I1020 16:00:11.607583  4871 layer_factory.hpp:77] Creating layer fire5/squeeze1x1
I1020 16:00:11.607592  4871 net.cpp:100] Creating Layer fire5/squeeze1x1
I1020 16:00:11.607596  4871 net.cpp:434] fire5/squeeze1x1 <- fire4/concat
I1020 16:00:11.607601  4871 net.cpp:408] fire5/squeeze1x1 -> fire5/squeeze1x1
I1020 16:00:11.608603  4871 net.cpp:150] Setting up fire5/squeeze1x1
I1020 16:00:11.608618  4871 net.cpp:157] Top shape: 128 32 28 28 (3211264)
I1020 16:00:11.608633  4871 net.cpp:165] Memory required for data: 2881271808
I1020 16:00:11.608639  4871 layer_factory.hpp:77] Creating layer fire5/relu_squeeze1x1
I1020 16:00:11.608644  4871 net.cpp:100] Creating Layer fire5/relu_squeeze1x1
I1020 16:00:11.608649  4871 net.cpp:434] fire5/relu_squeeze1x1 <- fire5/squeeze1x1
I1020 16:00:11.608655  4871 net.cpp:395] fire5/relu_squeeze1x1 -> fire5/squeeze1x1 (in-place)
I1020 16:00:11.609040  4871 net.cpp:150] Setting up fire5/relu_squeeze1x1
I1020 16:00:11.609052  4871 net.cpp:157] Top shape: 128 32 28 28 (3211264)
I1020 16:00:11.609067  4871 net.cpp:165] Memory required for data: 2894116864
I1020 16:00:11.609071  4871 layer_factory.hpp:77] Creating layer fire5/squeeze1x1_fire5/relu_squeeze1x1_0_split
I1020 16:00:11.609076  4871 net.cpp:100] Creating Layer fire5/squeeze1x1_fire5/relu_squeeze1x1_0_split
I1020 16:00:11.609079  4871 net.cpp:434] fire5/squeeze1x1_fire5/relu_squeeze1x1_0_split <- fire5/squeeze1x1
I1020 16:00:11.609086  4871 net.cpp:408] fire5/squeeze1x1_fire5/relu_squeeze1x1_0_split -> fire5/squeeze1x1_fire5/relu_squeeze1x1_0_split_0
I1020 16:00:11.609093  4871 net.cpp:408] fire5/squeeze1x1_fire5/relu_squeeze1x1_0_split -> fire5/squeeze1x1_fire5/relu_squeeze1x1_0_split_1
I1020 16:00:11.609145  4871 net.cpp:150] Setting up fire5/squeeze1x1_fire5/relu_squeeze1x1_0_split
I1020 16:00:11.609153  4871 net.cpp:157] Top shape: 128 32 28 28 (3211264)
I1020 16:00:11.609156  4871 net.cpp:157] Top shape: 128 32 28 28 (3211264)
I1020 16:00:11.609159  4871 net.cpp:165] Memory required for data: 2919806976
I1020 16:00:11.609163  4871 layer_factory.hpp:77] Creating layer fire5/expand1x1
I1020 16:00:11.609172  4871 net.cpp:100] Creating Layer fire5/expand1x1
I1020 16:00:11.609176  4871 net.cpp:434] fire5/expand1x1 <- fire5/squeeze1x1_fire5/relu_squeeze1x1_0_split_0
I1020 16:00:11.609184  4871 net.cpp:408] fire5/expand1x1 -> fire5/expand1x1
I1020 16:00:11.610311  4871 net.cpp:150] Setting up fire5/expand1x1
I1020 16:00:11.610324  4871 net.cpp:157] Top shape: 128 128 28 28 (12845056)
I1020 16:00:11.610339  4871 net.cpp:165] Memory required for data: 2971187200
I1020 16:00:11.610345  4871 layer_factory.hpp:77] Creating layer fire5/relu_expand1x1
I1020 16:00:11.610352  4871 net.cpp:100] Creating Layer fire5/relu_expand1x1
I1020 16:00:11.610357  4871 net.cpp:434] fire5/relu_expand1x1 <- fire5/expand1x1
I1020 16:00:11.610363  4871 net.cpp:395] fire5/relu_expand1x1 -> fire5/expand1x1 (in-place)
I1020 16:00:11.610554  4871 net.cpp:150] Setting up fire5/relu_expand1x1
I1020 16:00:11.610564  4871 net.cpp:157] Top shape: 128 128 28 28 (12845056)
I1020 16:00:11.610579  4871 net.cpp:165] Memory required for data: 3022567424
I1020 16:00:11.610584  4871 layer_factory.hpp:77] Creating layer fire5/expand3x3
I1020 16:00:11.610594  4871 net.cpp:100] Creating Layer fire5/expand3x3
I1020 16:00:11.610597  4871 net.cpp:434] fire5/expand3x3 <- fire5/squeeze1x1_fire5/relu_squeeze1x1_0_split_1
I1020 16:00:11.610604  4871 net.cpp:408] fire5/expand3x3 -> fire5/expand3x3
I1020 16:00:11.612016  4871 net.cpp:150] Setting up fire5/expand3x3
I1020 16:00:11.612030  4871 net.cpp:157] Top shape: 128 128 28 28 (12845056)
I1020 16:00:11.612046  4871 net.cpp:165] Memory required for data: 3073947648
I1020 16:00:11.612051  4871 layer_factory.hpp:77] Creating layer fire5/relu_expand3x3
I1020 16:00:11.612058  4871 net.cpp:100] Creating Layer fire5/relu_expand3x3
I1020 16:00:11.612062  4871 net.cpp:434] fire5/relu_expand3x3 <- fire5/expand3x3
I1020 16:00:11.612068  4871 net.cpp:395] fire5/relu_expand3x3 -> fire5/expand3x3 (in-place)
I1020 16:00:11.612448  4871 net.cpp:150] Setting up fire5/relu_expand3x3
I1020 16:00:11.612462  4871 net.cpp:157] Top shape: 128 128 28 28 (12845056)
I1020 16:00:11.612476  4871 net.cpp:165] Memory required for data: 3125327872
I1020 16:00:11.612479  4871 layer_factory.hpp:77] Creating layer fire5/concat
I1020 16:00:11.612485  4871 net.cpp:100] Creating Layer fire5/concat
I1020 16:00:11.612489  4871 net.cpp:434] fire5/concat <- fire5/expand1x1
I1020 16:00:11.612494  4871 net.cpp:434] fire5/concat <- fire5/expand3x3
I1020 16:00:11.612500  4871 net.cpp:408] fire5/concat -> fire5/concat
I1020 16:00:11.612529  4871 net.cpp:150] Setting up fire5/concat
I1020 16:00:11.612536  4871 net.cpp:157] Top shape: 128 256 28 28 (25690112)
I1020 16:00:11.612540  4871 net.cpp:165] Memory required for data: 3228088320
I1020 16:00:11.612542  4871 layer_factory.hpp:77] Creating layer pool5
I1020 16:00:11.612548  4871 net.cpp:100] Creating Layer pool5
I1020 16:00:11.612551  4871 net.cpp:434] pool5 <- fire5/concat
I1020 16:00:11.612556  4871 net.cpp:408] pool5 -> pool5
I1020 16:00:11.612592  4871 net.cpp:150] Setting up pool5
I1020 16:00:11.612597  4871 net.cpp:157] Top shape: 128 256 14 14 (6422528)
I1020 16:00:11.612601  4871 net.cpp:165] Memory required for data: 3253778432
I1020 16:00:11.612603  4871 layer_factory.hpp:77] Creating layer fire6/squeeze1x1
I1020 16:00:11.612612  4871 net.cpp:100] Creating Layer fire6/squeeze1x1
I1020 16:00:11.612615  4871 net.cpp:434] fire6/squeeze1x1 <- pool5
I1020 16:00:11.612622  4871 net.cpp:408] fire6/squeeze1x1 -> fire6/squeeze1x1
I1020 16:00:11.613659  4871 net.cpp:150] Setting up fire6/squeeze1x1
I1020 16:00:11.613684  4871 net.cpp:157] Top shape: 128 48 14 14 (1204224)
I1020 16:00:11.613688  4871 net.cpp:165] Memory required for data: 3258595328
I1020 16:00:11.613694  4871 layer_factory.hpp:77] Creating layer fire6/relu_squeeze1x1
I1020 16:00:11.613700  4871 net.cpp:100] Creating Layer fire6/relu_squeeze1x1
I1020 16:00:11.613704  4871 net.cpp:434] fire6/relu_squeeze1x1 <- fire6/squeeze1x1
I1020 16:00:11.613709  4871 net.cpp:395] fire6/relu_squeeze1x1 -> fire6/squeeze1x1 (in-place)
I1020 16:00:11.614099  4871 net.cpp:150] Setting up fire6/relu_squeeze1x1
I1020 16:00:11.614110  4871 net.cpp:157] Top shape: 128 48 14 14 (1204224)
I1020 16:00:11.614125  4871 net.cpp:165] Memory required for data: 3263412224
I1020 16:00:11.614130  4871 layer_factory.hpp:77] Creating layer fire6/squeeze1x1_fire6/relu_squeeze1x1_0_split
I1020 16:00:11.614135  4871 net.cpp:100] Creating Layer fire6/squeeze1x1_fire6/relu_squeeze1x1_0_split
I1020 16:00:11.614140  4871 net.cpp:434] fire6/squeeze1x1_fire6/relu_squeeze1x1_0_split <- fire6/squeeze1x1
I1020 16:00:11.614145  4871 net.cpp:408] fire6/squeeze1x1_fire6/relu_squeeze1x1_0_split -> fire6/squeeze1x1_fire6/relu_squeeze1x1_0_split_0
I1020 16:00:11.614151  4871 net.cpp:408] fire6/squeeze1x1_fire6/relu_squeeze1x1_0_split -> fire6/squeeze1x1_fire6/relu_squeeze1x1_0_split_1
I1020 16:00:11.614209  4871 net.cpp:150] Setting up fire6/squeeze1x1_fire6/relu_squeeze1x1_0_split
I1020 16:00:11.614217  4871 net.cpp:157] Top shape: 128 48 14 14 (1204224)
I1020 16:00:11.614222  4871 net.cpp:157] Top shape: 128 48 14 14 (1204224)
I1020 16:00:11.614224  4871 net.cpp:165] Memory required for data: 3273046016
I1020 16:00:11.614228  4871 layer_factory.hpp:77] Creating layer fire6/expand1x1
I1020 16:00:11.614235  4871 net.cpp:100] Creating Layer fire6/expand1x1
I1020 16:00:11.614239  4871 net.cpp:434] fire6/expand1x1 <- fire6/squeeze1x1_fire6/relu_squeeze1x1_0_split_0
I1020 16:00:11.614256  4871 net.cpp:408] fire6/expand1x1 -> fire6/expand1x1
I1020 16:00:11.615447  4871 net.cpp:150] Setting up fire6/expand1x1
I1020 16:00:11.615460  4871 net.cpp:157] Top shape: 128 192 14 14 (4816896)
I1020 16:00:11.615475  4871 net.cpp:165] Memory required for data: 3292313600
I1020 16:00:11.615483  4871 layer_factory.hpp:77] Creating layer fire6/relu_expand1x1
I1020 16:00:11.615489  4871 net.cpp:100] Creating Layer fire6/relu_expand1x1
I1020 16:00:11.615492  4871 net.cpp:434] fire6/relu_expand1x1 <- fire6/expand1x1
I1020 16:00:11.615499  4871 net.cpp:395] fire6/relu_expand1x1 -> fire6/expand1x1 (in-place)
I1020 16:00:11.615697  4871 net.cpp:150] Setting up fire6/relu_expand1x1
I1020 16:00:11.615708  4871 net.cpp:157] Top shape: 128 192 14 14 (4816896)
I1020 16:00:11.615722  4871 net.cpp:165] Memory required for data: 3311581184
I1020 16:00:11.615725  4871 layer_factory.hpp:77] Creating layer fire6/expand3x3
I1020 16:00:11.615746  4871 net.cpp:100] Creating Layer fire6/expand3x3
I1020 16:00:11.615751  4871 net.cpp:434] fire6/expand3x3 <- fire6/squeeze1x1_fire6/relu_squeeze1x1_0_split_1
I1020 16:00:11.615756  4871 net.cpp:408] fire6/expand3x3 -> fire6/expand3x3
I1020 16:00:11.618445  4871 net.cpp:150] Setting up fire6/expand3x3
I1020 16:00:11.618459  4871 net.cpp:157] Top shape: 128 192 14 14 (4816896)
I1020 16:00:11.618474  4871 net.cpp:165] Memory required for data: 3330848768
I1020 16:00:11.618481  4871 layer_factory.hpp:77] Creating layer fire6/relu_expand3x3
I1020 16:00:11.618486  4871 net.cpp:100] Creating Layer fire6/relu_expand3x3
I1020 16:00:11.618490  4871 net.cpp:434] fire6/relu_expand3x3 <- fire6/expand3x3
I1020 16:00:11.618497  4871 net.cpp:395] fire6/relu_expand3x3 -> fire6/expand3x3 (in-place)
I1020 16:00:11.618892  4871 net.cpp:150] Setting up fire6/relu_expand3x3
I1020 16:00:11.618906  4871 net.cpp:157] Top shape: 128 192 14 14 (4816896)
I1020 16:00:11.618921  4871 net.cpp:165] Memory required for data: 3350116352
I1020 16:00:11.618923  4871 layer_factory.hpp:77] Creating layer fire6/concat
I1020 16:00:11.618929  4871 net.cpp:100] Creating Layer fire6/concat
I1020 16:00:11.618933  4871 net.cpp:434] fire6/concat <- fire6/expand1x1
I1020 16:00:11.618937  4871 net.cpp:434] fire6/concat <- fire6/expand3x3
I1020 16:00:11.618944  4871 net.cpp:408] fire6/concat -> fire6/concat
I1020 16:00:11.618984  4871 net.cpp:150] Setting up fire6/concat
I1020 16:00:11.618990  4871 net.cpp:157] Top shape: 128 384 14 14 (9633792)
I1020 16:00:11.618993  4871 net.cpp:165] Memory required for data: 3388651520
I1020 16:00:11.618996  4871 layer_factory.hpp:77] Creating layer fire7/squeeze1x1
I1020 16:00:11.619006  4871 net.cpp:100] Creating Layer fire7/squeeze1x1
I1020 16:00:11.619010  4871 net.cpp:434] fire7/squeeze1x1 <- fire6/concat
I1020 16:00:11.619015  4871 net.cpp:408] fire7/squeeze1x1 -> fire7/squeeze1x1
I1020 16:00:11.620085  4871 net.cpp:150] Setting up fire7/squeeze1x1
I1020 16:00:11.620098  4871 net.cpp:157] Top shape: 128 48 14 14 (1204224)
I1020 16:00:11.620112  4871 net.cpp:165] Memory required for data: 3393468416
I1020 16:00:11.620124  4871 layer_factory.hpp:77] Creating layer fire7/relu_squeeze1x1
I1020 16:00:11.620131  4871 net.cpp:100] Creating Layer fire7/relu_squeeze1x1
I1020 16:00:11.620136  4871 net.cpp:434] fire7/relu_squeeze1x1 <- fire7/squeeze1x1
I1020 16:00:11.620142  4871 net.cpp:395] fire7/relu_squeeze1x1 -> fire7/squeeze1x1 (in-place)
I1020 16:00:11.620532  4871 net.cpp:150] Setting up fire7/relu_squeeze1x1
I1020 16:00:11.620544  4871 net.cpp:157] Top shape: 128 48 14 14 (1204224)
I1020 16:00:11.620559  4871 net.cpp:165] Memory required for data: 3398285312
I1020 16:00:11.620563  4871 layer_factory.hpp:77] Creating layer fire7/squeeze1x1_fire7/relu_squeeze1x1_0_split
I1020 16:00:11.620568  4871 net.cpp:100] Creating Layer fire7/squeeze1x1_fire7/relu_squeeze1x1_0_split
I1020 16:00:11.620573  4871 net.cpp:434] fire7/squeeze1x1_fire7/relu_squeeze1x1_0_split <- fire7/squeeze1x1
I1020 16:00:11.620578  4871 net.cpp:408] fire7/squeeze1x1_fire7/relu_squeeze1x1_0_split -> fire7/squeeze1x1_fire7/relu_squeeze1x1_0_split_0
I1020 16:00:11.620594  4871 net.cpp:408] fire7/squeeze1x1_fire7/relu_squeeze1x1_0_split -> fire7/squeeze1x1_fire7/relu_squeeze1x1_0_split_1
I1020 16:00:11.620651  4871 net.cpp:150] Setting up fire7/squeeze1x1_fire7/relu_squeeze1x1_0_split
I1020 16:00:11.620657  4871 net.cpp:157] Top shape: 128 48 14 14 (1204224)
I1020 16:00:11.620661  4871 net.cpp:157] Top shape: 128 48 14 14 (1204224)
I1020 16:00:11.620664  4871 net.cpp:165] Memory required for data: 3407919104
I1020 16:00:11.620667  4871 layer_factory.hpp:77] Creating layer fire7/expand1x1
I1020 16:00:11.620676  4871 net.cpp:100] Creating Layer fire7/expand1x1
I1020 16:00:11.620681  4871 net.cpp:434] fire7/expand1x1 <- fire7/squeeze1x1_fire7/relu_squeeze1x1_0_split_0
I1020 16:00:11.620687  4871 net.cpp:408] fire7/expand1x1 -> fire7/expand1x1
I1020 16:00:11.621884  4871 net.cpp:150] Setting up fire7/expand1x1
I1020 16:00:11.621898  4871 net.cpp:157] Top shape: 128 192 14 14 (4816896)
I1020 16:00:11.621913  4871 net.cpp:165] Memory required for data: 3427186688
I1020 16:00:11.621932  4871 layer_factory.hpp:77] Creating layer fire7/relu_expand1x1
I1020 16:00:11.621939  4871 net.cpp:100] Creating Layer fire7/relu_expand1x1
I1020 16:00:11.621943  4871 net.cpp:434] fire7/relu_expand1x1 <- fire7/expand1x1
I1020 16:00:11.621949  4871 net.cpp:395] fire7/relu_expand1x1 -> fire7/expand1x1 (in-place)
I1020 16:00:11.622141  4871 net.cpp:150] Setting up fire7/relu_expand1x1
I1020 16:00:11.622150  4871 net.cpp:157] Top shape: 128 192 14 14 (4816896)
I1020 16:00:11.622153  4871 net.cpp:165] Memory required for data: 3446454272
I1020 16:00:11.622169  4871 layer_factory.hpp:77] Creating layer fire7/expand3x3
I1020 16:00:11.622177  4871 net.cpp:100] Creating Layer fire7/expand3x3
I1020 16:00:11.622181  4871 net.cpp:434] fire7/expand3x3 <- fire7/squeeze1x1_fire7/relu_squeeze1x1_0_split_1
I1020 16:00:11.622189  4871 net.cpp:408] fire7/expand3x3 -> fire7/expand3x3
I1020 16:00:11.624047  4871 net.cpp:150] Setting up fire7/expand3x3
I1020 16:00:11.624060  4871 net.cpp:157] Top shape: 128 192 14 14 (4816896)
I1020 16:00:11.624075  4871 net.cpp:165] Memory required for data: 3465721856
I1020 16:00:11.624083  4871 layer_factory.hpp:77] Creating layer fire7/relu_expand3x3
I1020 16:00:11.624089  4871 net.cpp:100] Creating Layer fire7/relu_expand3x3
I1020 16:00:11.624094  4871 net.cpp:434] fire7/relu_expand3x3 <- fire7/expand3x3
I1020 16:00:11.624099  4871 net.cpp:395] fire7/relu_expand3x3 -> fire7/expand3x3 (in-place)
I1020 16:00:11.624493  4871 net.cpp:150] Setting up fire7/relu_expand3x3
I1020 16:00:11.624505  4871 net.cpp:157] Top shape: 128 192 14 14 (4816896)
I1020 16:00:11.624521  4871 net.cpp:165] Memory required for data: 3484989440
I1020 16:00:11.624523  4871 layer_factory.hpp:77] Creating layer fire7/concat
I1020 16:00:11.624531  4871 net.cpp:100] Creating Layer fire7/concat
I1020 16:00:11.624534  4871 net.cpp:434] fire7/concat <- fire7/expand1x1
I1020 16:00:11.624539  4871 net.cpp:434] fire7/concat <- fire7/expand3x3
I1020 16:00:11.624544  4871 net.cpp:408] fire7/concat -> fire7/concat
I1020 16:00:11.624586  4871 net.cpp:150] Setting up fire7/concat
I1020 16:00:11.624593  4871 net.cpp:157] Top shape: 128 384 14 14 (9633792)
I1020 16:00:11.624595  4871 net.cpp:165] Memory required for data: 3523524608
I1020 16:00:11.624598  4871 layer_factory.hpp:77] Creating layer fire8/squeeze1x1
I1020 16:00:11.624606  4871 net.cpp:100] Creating Layer fire8/squeeze1x1
I1020 16:00:11.624610  4871 net.cpp:434] fire8/squeeze1x1 <- fire7/concat
I1020 16:00:11.624615  4871 net.cpp:408] fire8/squeeze1x1 -> fire8/squeeze1x1
I1020 16:00:11.625741  4871 net.cpp:150] Setting up fire8/squeeze1x1
I1020 16:00:11.625754  4871 net.cpp:157] Top shape: 128 64 14 14 (1605632)
I1020 16:00:11.625769  4871 net.cpp:165] Memory required for data: 3529947136
I1020 16:00:11.625787  4871 layer_factory.hpp:77] Creating layer fire8/relu_squeeze1x1
I1020 16:00:11.625793  4871 net.cpp:100] Creating Layer fire8/relu_squeeze1x1
I1020 16:00:11.625797  4871 net.cpp:434] fire8/relu_squeeze1x1 <- fire8/squeeze1x1
I1020 16:00:11.625815  4871 net.cpp:395] fire8/relu_squeeze1x1 -> fire8/squeeze1x1 (in-place)
I1020 16:00:11.626200  4871 net.cpp:150] Setting up fire8/relu_squeeze1x1
I1020 16:00:11.626214  4871 net.cpp:157] Top shape: 128 64 14 14 (1605632)
I1020 16:00:11.626229  4871 net.cpp:165] Memory required for data: 3536369664
I1020 16:00:11.626232  4871 layer_factory.hpp:77] Creating layer fire8/squeeze1x1_fire8/relu_squeeze1x1_0_split
I1020 16:00:11.626237  4871 net.cpp:100] Creating Layer fire8/squeeze1x1_fire8/relu_squeeze1x1_0_split
I1020 16:00:11.626241  4871 net.cpp:434] fire8/squeeze1x1_fire8/relu_squeeze1x1_0_split <- fire8/squeeze1x1
I1020 16:00:11.626248  4871 net.cpp:408] fire8/squeeze1x1_fire8/relu_squeeze1x1_0_split -> fire8/squeeze1x1_fire8/relu_squeeze1x1_0_split_0
I1020 16:00:11.626255  4871 net.cpp:408] fire8/squeeze1x1_fire8/relu_squeeze1x1_0_split -> fire8/squeeze1x1_fire8/relu_squeeze1x1_0_split_1
I1020 16:00:11.626312  4871 net.cpp:150] Setting up fire8/squeeze1x1_fire8/relu_squeeze1x1_0_split
I1020 16:00:11.626320  4871 net.cpp:157] Top shape: 128 64 14 14 (1605632)
I1020 16:00:11.626324  4871 net.cpp:157] Top shape: 128 64 14 14 (1605632)
I1020 16:00:11.626327  4871 net.cpp:165] Memory required for data: 3549214720
I1020 16:00:11.626330  4871 layer_factory.hpp:77] Creating layer fire8/expand1x1
I1020 16:00:11.626338  4871 net.cpp:100] Creating Layer fire8/expand1x1
I1020 16:00:11.626341  4871 net.cpp:434] fire8/expand1x1 <- fire8/squeeze1x1_fire8/relu_squeeze1x1_0_split_0
I1020 16:00:11.626348  4871 net.cpp:408] fire8/expand1x1 -> fire8/expand1x1
I1020 16:00:11.627845  4871 net.cpp:150] Setting up fire8/expand1x1
I1020 16:00:11.627858  4871 net.cpp:157] Top shape: 128 256 14 14 (6422528)
I1020 16:00:11.627872  4871 net.cpp:165] Memory required for data: 3574904832
I1020 16:00:11.627879  4871 layer_factory.hpp:77] Creating layer fire8/relu_expand1x1
I1020 16:00:11.627885  4871 net.cpp:100] Creating Layer fire8/relu_expand1x1
I1020 16:00:11.627889  4871 net.cpp:434] fire8/relu_expand1x1 <- fire8/expand1x1
I1020 16:00:11.627897  4871 net.cpp:395] fire8/relu_expand1x1 -> fire8/expand1x1 (in-place)
I1020 16:00:11.628096  4871 net.cpp:150] Setting up fire8/relu_expand1x1
I1020 16:00:11.628106  4871 net.cpp:157] Top shape: 128 256 14 14 (6422528)
I1020 16:00:11.628110  4871 net.cpp:165] Memory required for data: 3600594944
I1020 16:00:11.628125  4871 layer_factory.hpp:77] Creating layer fire8/expand3x3
I1020 16:00:11.628134  4871 net.cpp:100] Creating Layer fire8/expand3x3
I1020 16:00:11.628139  4871 net.cpp:434] fire8/expand3x3 <- fire8/squeeze1x1_fire8/relu_squeeze1x1_0_split_1
I1020 16:00:11.628144  4871 net.cpp:408] fire8/expand3x3 -> fire8/expand3x3
I1020 16:00:11.630911  4871 net.cpp:150] Setting up fire8/expand3x3
I1020 16:00:11.630925  4871 net.cpp:157] Top shape: 128 256 14 14 (6422528)
I1020 16:00:11.630940  4871 net.cpp:165] Memory required for data: 3626285056
I1020 16:00:11.630946  4871 layer_factory.hpp:77] Creating layer fire8/relu_expand3x3
I1020 16:00:11.630954  4871 net.cpp:100] Creating Layer fire8/relu_expand3x3
I1020 16:00:11.630959  4871 net.cpp:434] fire8/relu_expand3x3 <- fire8/expand3x3
I1020 16:00:11.630964  4871 net.cpp:395] fire8/relu_expand3x3 -> fire8/expand3x3 (in-place)
I1020 16:00:11.631387  4871 net.cpp:150] Setting up fire8/relu_expand3x3
I1020 16:00:11.631400  4871 net.cpp:157] Top shape: 128 256 14 14 (6422528)
I1020 16:00:11.631415  4871 net.cpp:165] Memory required for data: 3651975168
I1020 16:00:11.631418  4871 layer_factory.hpp:77] Creating layer fire8/concat
I1020 16:00:11.631425  4871 net.cpp:100] Creating Layer fire8/concat
I1020 16:00:11.631429  4871 net.cpp:434] fire8/concat <- fire8/expand1x1
I1020 16:00:11.631434  4871 net.cpp:434] fire8/concat <- fire8/expand3x3
I1020 16:00:11.631438  4871 net.cpp:408] fire8/concat -> fire8/concat
I1020 16:00:11.631481  4871 net.cpp:150] Setting up fire8/concat
I1020 16:00:11.631487  4871 net.cpp:157] Top shape: 128 512 14 14 (12845056)
I1020 16:00:11.631490  4871 net.cpp:165] Memory required for data: 3703355392
I1020 16:00:11.631503  4871 layer_factory.hpp:77] Creating layer fire9/squeeze1x1
I1020 16:00:11.631512  4871 net.cpp:100] Creating Layer fire9/squeeze1x1
I1020 16:00:11.631516  4871 net.cpp:434] fire9/squeeze1x1 <- fire8/concat
I1020 16:00:11.631522  4871 net.cpp:408] fire9/squeeze1x1 -> fire9/squeeze1x1
I1020 16:00:11.632719  4871 net.cpp:150] Setting up fire9/squeeze1x1
I1020 16:00:11.632732  4871 net.cpp:157] Top shape: 128 64 14 14 (1605632)
I1020 16:00:11.632748  4871 net.cpp:165] Memory required for data: 3709777920
I1020 16:00:11.632755  4871 layer_factory.hpp:77] Creating layer fire9/relu_squeeze1x1
I1020 16:00:11.632762  4871 net.cpp:100] Creating Layer fire9/relu_squeeze1x1
I1020 16:00:11.632766  4871 net.cpp:434] fire9/relu_squeeze1x1 <- fire9/squeeze1x1
I1020 16:00:11.632783  4871 net.cpp:395] fire9/relu_squeeze1x1 -> fire9/squeeze1x1 (in-place)
I1020 16:00:11.633185  4871 net.cpp:150] Setting up fire9/relu_squeeze1x1
I1020 16:00:11.633198  4871 net.cpp:157] Top shape: 128 64 14 14 (1605632)
I1020 16:00:11.633213  4871 net.cpp:165] Memory required for data: 3716200448
I1020 16:00:11.633216  4871 layer_factory.hpp:77] Creating layer fire9/squeeze1x1_fire9/relu_squeeze1x1_0_split
I1020 16:00:11.633227  4871 net.cpp:100] Creating Layer fire9/squeeze1x1_fire9/relu_squeeze1x1_0_split
I1020 16:00:11.633231  4871 net.cpp:434] fire9/squeeze1x1_fire9/relu_squeeze1x1_0_split <- fire9/squeeze1x1
I1020 16:00:11.633239  4871 net.cpp:408] fire9/squeeze1x1_fire9/relu_squeeze1x1_0_split -> fire9/squeeze1x1_fire9/relu_squeeze1x1_0_split_0
I1020 16:00:11.633245  4871 net.cpp:408] fire9/squeeze1x1_fire9/relu_squeeze1x1_0_split -> fire9/squeeze1x1_fire9/relu_squeeze1x1_0_split_1
I1020 16:00:11.633301  4871 net.cpp:150] Setting up fire9/squeeze1x1_fire9/relu_squeeze1x1_0_split
I1020 16:00:11.633306  4871 net.cpp:157] Top shape: 128 64 14 14 (1605632)
I1020 16:00:11.633311  4871 net.cpp:157] Top shape: 128 64 14 14 (1605632)
I1020 16:00:11.633313  4871 net.cpp:165] Memory required for data: 3729045504
I1020 16:00:11.633317  4871 layer_factory.hpp:77] Creating layer fire9/expand1x1
I1020 16:00:11.633327  4871 net.cpp:100] Creating Layer fire9/expand1x1
I1020 16:00:11.633332  4871 net.cpp:434] fire9/expand1x1 <- fire9/squeeze1x1_fire9/relu_squeeze1x1_0_split_0
I1020 16:00:11.633337  4871 net.cpp:408] fire9/expand1x1 -> fire9/expand1x1
I1020 16:00:11.635053  4871 net.cpp:150] Setting up fire9/expand1x1
I1020 16:00:11.635067  4871 net.cpp:157] Top shape: 128 256 14 14 (6422528)
I1020 16:00:11.635082  4871 net.cpp:165] Memory required for data: 3754735616
I1020 16:00:11.635089  4871 layer_factory.hpp:77] Creating layer fire9/relu_expand1x1
I1020 16:00:11.635097  4871 net.cpp:100] Creating Layer fire9/relu_expand1x1
I1020 16:00:11.635100  4871 net.cpp:434] fire9/relu_expand1x1 <- fire9/expand1x1
I1020 16:00:11.635107  4871 net.cpp:395] fire9/relu_expand1x1 -> fire9/expand1x1 (in-place)
I1020 16:00:11.635308  4871 net.cpp:150] Setting up fire9/relu_expand1x1
I1020 16:00:11.635318  4871 net.cpp:157] Top shape: 128 256 14 14 (6422528)
I1020 16:00:11.635332  4871 net.cpp:165] Memory required for data: 3780425728
I1020 16:00:11.635336  4871 layer_factory.hpp:77] Creating layer fire9/expand3x3
I1020 16:00:11.635345  4871 net.cpp:100] Creating Layer fire9/expand3x3
I1020 16:00:11.635349  4871 net.cpp:434] fire9/expand3x3 <- fire9/squeeze1x1_fire9/relu_squeeze1x1_0_split_1
I1020 16:00:11.635355  4871 net.cpp:408] fire9/expand3x3 -> fire9/expand3x3
I1020 16:00:11.638128  4871 net.cpp:150] Setting up fire9/expand3x3
I1020 16:00:11.638144  4871 net.cpp:157] Top shape: 128 256 14 14 (6422528)
I1020 16:00:11.638159  4871 net.cpp:165] Memory required for data: 3806115840
I1020 16:00:11.638164  4871 layer_factory.hpp:77] Creating layer fire9/relu_expand3x3
I1020 16:00:11.638170  4871 net.cpp:100] Creating Layer fire9/relu_expand3x3
I1020 16:00:11.638175  4871 net.cpp:434] fire9/relu_expand3x3 <- fire9/expand3x3
I1020 16:00:11.638181  4871 net.cpp:395] fire9/relu_expand3x3 -> fire9/expand3x3 (in-place)
I1020 16:00:11.638581  4871 net.cpp:150] Setting up fire9/relu_expand3x3
I1020 16:00:11.638602  4871 net.cpp:157] Top shape: 128 256 14 14 (6422528)
I1020 16:00:11.638618  4871 net.cpp:165] Memory required for data: 3831805952
I1020 16:00:11.638622  4871 layer_factory.hpp:77] Creating layer fire9/concat
I1020 16:00:11.638628  4871 net.cpp:100] Creating Layer fire9/concat
I1020 16:00:11.638631  4871 net.cpp:434] fire9/concat <- fire9/expand1x1
I1020 16:00:11.638636  4871 net.cpp:434] fire9/concat <- fire9/expand3x3
I1020 16:00:11.638643  4871 net.cpp:408] fire9/concat -> fire9/concat
I1020 16:00:11.638685  4871 net.cpp:150] Setting up fire9/concat
I1020 16:00:11.638691  4871 net.cpp:157] Top shape: 128 512 14 14 (12845056)
I1020 16:00:11.638695  4871 net.cpp:165] Memory required for data: 3883186176
I1020 16:00:11.638698  4871 layer_factory.hpp:77] Creating layer drop9
I1020 16:00:11.638705  4871 net.cpp:100] Creating Layer drop9
I1020 16:00:11.638708  4871 net.cpp:434] drop9 <- fire9/concat
I1020 16:00:11.638715  4871 net.cpp:395] drop9 -> fire9/concat (in-place)
I1020 16:00:11.638746  4871 net.cpp:150] Setting up drop9
I1020 16:00:11.638751  4871 net.cpp:157] Top shape: 128 512 14 14 (12845056)
I1020 16:00:11.638754  4871 net.cpp:165] Memory required for data: 3934566400
I1020 16:00:11.638757  4871 layer_factory.hpp:77] Creating layer conv10_2626
I1020 16:00:11.638767  4871 net.cpp:100] Creating Layer conv10_2626
I1020 16:00:11.638770  4871 net.cpp:434] conv10_2626 <- fire9/concat
I1020 16:00:11.638777  4871 net.cpp:408] conv10_2626 -> conv10_2626
I1020 16:00:11.660234  4871 net.cpp:150] Setting up conv10_2626
I1020 16:00:11.660248  4871 net.cpp:157] Top shape: 128 2626 14 14 (65881088)
I1020 16:00:11.660264  4871 net.cpp:165] Memory required for data: 4198090752
I1020 16:00:11.660270  4871 layer_factory.hpp:77] Creating layer relu_conv10
I1020 16:00:11.660277  4871 net.cpp:100] Creating Layer relu_conv10
I1020 16:00:11.660281  4871 net.cpp:434] relu_conv10 <- conv10_2626
I1020 16:00:11.660287  4871 net.cpp:395] relu_conv10 -> conv10_2626 (in-place)
I1020 16:00:11.660691  4871 net.cpp:150] Setting up relu_conv10
I1020 16:00:11.660703  4871 net.cpp:157] Top shape: 128 2626 14 14 (65881088)
I1020 16:00:11.660717  4871 net.cpp:165] Memory required for data: 4461615104
I1020 16:00:11.660722  4871 layer_factory.hpp:77] Creating layer pool10
I1020 16:00:11.660729  4871 net.cpp:100] Creating Layer pool10
I1020 16:00:11.660735  4871 net.cpp:434] pool10 <- conv10_2626
I1020 16:00:11.660742  4871 net.cpp:408] pool10 -> pool10
I1020 16:00:11.660958  4871 net.cpp:150] Setting up pool10
I1020 16:00:11.660969  4871 net.cpp:157] Top shape: 128 2626 1 1 (336128)
I1020 16:00:11.660984  4871 net.cpp:165] Memory required for data: 4462959616
I1020 16:00:11.660987  4871 layer_factory.hpp:77] Creating layer loss
I1020 16:00:11.660993  4871 net.cpp:100] Creating Layer loss
I1020 16:00:11.660997  4871 net.cpp:434] loss <- pool10
I1020 16:00:11.661002  4871 net.cpp:434] loss <- label
I1020 16:00:11.661008  4871 net.cpp:408] loss -> loss
I1020 16:00:11.661278  4871 layer_factory.hpp:77] Creating layer loss
…
I1020 16:00:11.664043  4871 solver.cpp:181] Creating test net (#0) specified by net file: /home/zhh/DL/models/SqueezeNet/train_val.prototxt
I1020 16:00:11.664139  4871 net.cpp:322] The NetState phase (1) differed from the phase (0) specified by a rule in layer data
I1020 16:00:11.664504  4871 net.cpp:58] Initializing net from parameters: 
state {
  phase: TEST
}
layer {
  name: "data"
  type: "Data"
  top: "data"
  top: "label"
  include {
    phase: TEST
  }
  transform_param {
    crop_size: 227
    mean_file: "/share/zhh/mean.binaryproto"
  }
  data_param {
    source: "/share/front/test_lmdb"
    batch_size: 100
    backend: LMDB
  }
}
layer {
  name: "conv1"
  type: "Convolution"
  bottom: "data"
  top: "conv1"
  convolution_param {
    num_output: 64
    kernel_size: 3
    stride: 2
    weight_filler {
      type: "xavier"
    }
  }
}
layer {
  name: "relu_conv1"
  type: "ReLU"
  bottom: "conv1"
  top: "conv1"
}
layer {
  name: "pool1"
  type: "Pooling"
  bottom: "conv1"
  top: "pool1"
  pooling_param {
    pool: MAX
    kernel_size: 3
    stride: 2
  }
}
layer {
  name: "fire2/squeeze1x1"
  type: "Convolution"
  bottom: "pool1"
  top: "fire2/squeeze1x1"
  convolution_param {
    num_output: 16
    kernel_size: 1
    weight_filler {
      type: "xavier"
    }
  }
}
layer {
  name: "fire2/relu_squeeze1x1"
  type: "ReLU"
  bottom: "fire2/squeeze1x1"
  top: "fire2/squeeze1x1"
}
layer {
  name: "fire2/expand1x1"
  type: "Convolution"
  bottom: "fire2/squeeze1x1"
  top: "fire2/expand1x1"
  convolution_param {
    num_output: 64
    kernel_size: 1
    weight_filler {
      type: "xavier"
    }
  }
}
layer {
  name: "fire2/relu_expand1x1"
  type: "ReLU"
  bottom: "fire2/expand1x1"
  top: "fire2/expand1x1"
}
layer {
  name: "fire2/expand3x3"
  type: "Convolution"
  bottom: "fire2/squeeze1x1"
  top: "fire2/expand3x3"
  convolution_param {
    num_output: 64
    pad: 1
    kernel_size: 3
    weight_filler {
      type: "xavier"
    }
  }
}
layer {
  name: "fire2/relu_expand3x3"
  type: "ReLU"
  bottom: "fire2/expand3x3"
  top: "fire2/expand3x3"
}
layer {
  name: "fire2/concat"
  type: "Concat"
  bottom: "fire2/expand1x1"
  bottom: "fire2/expand3x3"
  top: "fire2/concat"
}
layer {
  name: "fire3/squeeze1x1"
  type: "Convolution"
  bottom: "fire2/concat"
  top: "fire3/squeeze1x1"
  convolution_param {
    num_output: 16
    kernel_size: 1
    weight_filler {
      type: "xavier"
    }
  }
}
layer {
  name: "fire3/relu_squeeze1x1"
  type: "ReLU"
  bottom: "fire3/squeeze1x1"
  top: "fire3/squeeze1x1"
}
layer {
  name: "fire3/expand1x1"
  type: "Convolution"
  bottom: "fire3/squeeze1x1"
  top: "fire3/expand1x1"
  convolution_param {
    num_output: 64
    kernel_size: 1
    weight_filler {
      type: "xavier"
    }
  }
}
layer {
  name: "fire3/relu_expand1x1"
  type: "ReLU"
  bottom: "fire3/expand1x1"
  top: "fire3/expand1x1"
}
layer {
  name: "fire3/expand3x3"
  type: "Convolution"
  bottom: "fire3/squeeze1x1"
  top: "fire3/expand3x3"
  convolution_param {
    num_output: 64
    pad: 1
    kernel_size: 3
    weight_filler {
      type: "xavier"
    }
  }
}
layer {
  name: "fire3/relu_expand3x3"
  type: "ReLU"
  bottom: "fire3/expand3x3"
  top: "fire3/expand3x3"
}
layer {
  name: "fire3/concat"
  type: "Concat"
  bottom: "fire3/expand1x1"
  bottom: "fire3/expand3x3"
  top: "fire3/concat"
}
layer {
  name: "pool3"
  type: "Pooling"
  bottom: "fire3/concat"
  top: "pool3"
  pooling_param {
    pool: MAX
    kernel_size: 3
    stride: 2
  }
}
layer {
  name: "fire4/squeeze1x1"
  type: "Convolution"
  bottom: "pool3"
  top: "fire4/squeeze1x1"
  convolution_param {
    num_output: 32
    kernel_size: 1
    weight_filler {
      type: "xavier"
    }
  }
}
layer {
  name: "fire4/relu_squeeze1x1"
  type: "ReLU"
  bottom: "fire4/squeeze1x1"
  top: "fire4/squeeze1x1"
}
layer {
  name: "fire4/expand1x1"
  type: "Convolution"
  bottom: "fire4/squeeze1x1"
  top: "fire4/expand1x1"
  convolution_param {
    num_output: 128
    kernel_size: 1
    weight_filler {
      type: "xavier"
    }
  }
}
layer {
  name: "fire4/relu_expand1x1"
  type: "ReLU"
  bottom: "fire4/expand1x1"
  top: "fire4/expand1x1"
}
layer {
  name: "fire4/expand3x3"
  type: "Convolution"
  bottom: "fire4/squeeze1x1"
  top: "fire4/expand3x3"
  convolution_param {
    num_output: 128
    pad: 1
    kernel_size: 3
    weight_filler {
      type: "xavier"
    }
  }
}
layer {
  name: "fire4/relu_expand3x3"
  type: "ReLU"
  bottom: "fire4/expand3x3"
  top: "fire4/expand3x3"
}
layer {
  name: "fire4/concat"
  type: "Concat"
  bottom: "fire4/expand1x1"
  bottom: "fire4/expand3x3"
  top: "fire4/concat"
}
layer {
  name: "fire5/squeeze1x1"
  type: "Convolution"
  bottom: "fire4/concat"
  top: "fire5/squeeze1x1"
  convolution_param {
    num_output: 32
    kernel_size: 1
    weight_filler {
      type: "xavier"
    }
  }
}
layer {
  name: "fire5/relu_squeeze1x1"
  type: "ReLU"
  bottom: "fire5/squeeze1x1"
  top: "fire5/squeeze1x1"
}
layer {
  name: "fire5/expand1x1"
  type: "Convolution"
  bottom: "fire5/squeeze1x1"
  top: "fire5/expand1x1"
  convolution_param {
    num_output: 128
    kernel_size: 1
    weight_filler {
      type: "xavier"
    }
  }
}
layer {
  name: "fire5/relu_expand1x1"
  type: "ReLU"
  bottom: "fire5/expand1x1"
  top: "fire5/expand1x1"
}
layer {
  name: "fire5/expand3x3"
  type: "Convolution"
  bottom: "fire5/squeeze1x1"
  top: "fire5/expand3x3"
  convolution_param {
    num_output: 128
    pad: 1
    kernel_size: 3
    weight_filler {
      type: "xavier"
    }
  }
}
layer {
  name: "fire5/relu_expand3x3"
  type: "ReLU"
  bottom: "fire5/expand3x3"
  top: "fire5/expand3x3"
}
layer {
  name: "fire5/concat"
  type: "Concat"
  bottom: "fire5/expand1x1"
  bottom: "fire5/expand3x3"
  top: "fire5/concat"
}
layer {
  name: "pool5"
  type: "Pooling"
  bottom: "fire5/concat"
  top: "pool5"
  pooling_param {
    pool: MAX
    kernel_size: 3
    stride: 2
  }
}
layer {
  name: "fire6/squeeze1x1"
  type: "Convolution"
  bottom: "pool5"
  top: "fire6/squeeze1x1"
  convolution_param {
    num_output: 48
    kernel_size: 1
    weight_filler {
      type: "xavier"
    }
  }
}
layer {
  name: "fire6/relu_squeeze1x1"
  type: "ReLU"
  bottom: "fire6/squeeze1x1"
  top: "fire6/squeeze1x1"
}
layer {
  name: "fire6/expand1x1"
  type: "Convolution"
  bottom: "fire6/squeeze1x1"
  top: "fire6/expand1x1"
  convolution_param {
    num_output: 192
    kernel_size: 1
    weight_filler {
      type: "xavier"
    }
  }
}
layer {
  name: "fire6/relu_expand1x1"
  type: "ReLU"
  bottom: "fire6/expand1x1"
  top: "fire6/expand1x1"
}
layer {
  name: "fire6/expand3x3"
  type: "Convolution"
  bottom: "fire6/squeeze1x1"
  top: "fire6/expand3x3"
  convolution_param {
    num_output: 192
    pad: 1
    kernel_size: 3
    weight_filler {
      type: "xavier"
    }
  }
}
layer {
  name: "fire6/relu_expand3x3"
  type: "ReLU"
  bottom: "fire6/expand3x3"
  top: "fire6/expand3x3"
}
layer {
  name: "fire6/concat"
  type: "Concat"
  bottom: "fire6/expand1x1"
  bottom: "fire6/expand3x3"
  top: "fire6/concat"
}
layer {
  name: "fire7/squeeze1x1"
  type: "Convolution"
  bottom: "fire6/concat"
  top: "fire7/squeeze1x1"
  convolution_param {
    num_output: 48
    kernel_size: 1
    weight_filler {
      type: "xavier"
    }
  }
}
layer {
  name: "fire7/relu_squeeze1x1"
  type: "ReLU"
  bottom: "fire7/squeeze1x1"
  top: "fire7/squeeze1x1"
}
layer {
  name: "fire7/expand1x1"
  type: "Convolution"
  bottom: "fire7/squeeze1x1"
  top: "fire7/expand1x1"
  convolution_param {
    num_output: 192
    kernel_size: 1
    weight_filler {
      type: "xavier"
    }
  }
}
layer {
  name: "fire7/relu_expand1x1"
  type: "ReLU"
  bottom: "fire7/expand1x1"
  top: "fire7/expand1x1"
}
layer {
  name: "fire7/expand3x3"
  type: "Convolution"
  bottom: "fire7/squeeze1x1"
  top: "fire7/expand3x3"
  convolution_param {
    num_output: 192
    pad: 1
    kernel_size: 3
    weight_filler {
      type: "xavier"
    }
  }
}
layer {
  name: "fire7/relu_expand3x3"
  type: "ReLU"
  bottom: "fire7/expand3x3"
  top: "fire7/expand3x3"
}
layer {
  name: "fire7/concat"
  type: "Concat"
  bottom: "fire7/expand1x1"
  bottom: "fire7/expand3x3"
  top: "fire7/concat"
}
layer {
  name: "fire8/squeeze1x1"
  type: "Convolution"
  bottom: "fire7/concat"
  top: "fire8/squeeze1x1"
  convolution_param {
    num_output: 64
    kernel_size: 1
    weight_filler {
      type: "xavier"
    }
  }
}
layer {
  name: "fire8/relu_squeeze1x1"
  type: "ReLU"
  bottom: "fire8/squeeze1x1"
  top: "fire8/squeeze1x1"
}
layer {
  name: "fire8/expand1x1"
  type: "Convolution"
  bottom: "fire8/squeeze1x1"
  top: "fire8/expand1x1"
  convolution_param {
    num_output: 256
    kernel_size: 1
    weight_filler {
      type: "xavier"
    }
  }
}
layer {
  name: "fire8/relu_expand1x1"
  type: "ReLU"
  bottom: "fire8/expand1x1"
  top: "fire8/expand1x1"
}
layer {
  name: "fire8/expand3x3"
  type: "Convolution"
  bottom: "fire8/squeeze1x1"
  top: "fire8/expand3x3"
  convolution_param {
    num_output: 256
    pad: 1
    kernel_size: 3
    weight_filler {
      type: "xavier"
    }
  }
}
layer {
  name: "fire8/relu_expand3x3"
  type: "ReLU"
  bottom: "fire8/expand3x3"
  top: "fire8/expand3x3"
}
layer {
  name: "fire8/concat"
  type: "Concat"
  bottom: "fire8/expand1x1"
  bottom: "fire8/expand3x3"
  top: "fire8/concat"
}
layer {
  name: "fire9/squeeze1x1"
  type: "Convolution"
  bottom: "fire8/concat"
  top: "fire9/squeeze1x1"
  convolution_param {
    num_output: 64
    kernel_size: 1
    weight_filler {
      type: "xavier"
    }
  }
}
layer {
  name: "fire9/relu_squeeze1x1"
  type: "ReLU"
  bottom: "fire9/squeeze1x1"
  top: "fire9/squeeze1x1"
}
layer {
  name: "fire9/expand1x1"
  type: "Convolution"
  bottom: "fire9/squeeze1x1"
  top: "fire9/expand1x1"
  convolution_param {
    num_output: 256
    kernel_size: 1
    weight_filler {
      type: "xavier"
    }
  }
}
layer {
  name: "fire9/relu_expand1x1"
  type: "ReLU"
  bottom: "fire9/expand1x1"
  top: "fire9/expand1x1"
}
layer {
  name: "fire9/expand3x3"
  type: "Convolution"
  bottom: "fire9/squeeze1x1"
  top: "fire9/expand3x3"
  convolution_param {
    num_output: 256
    pad: 1
    kernel_size: 3
    weight_filler {
      type: "xavier"
    }
  }
}
layer {
  name: "fire9/relu_expand3x3"
  type: "ReLU"
  bottom: "fire9/expand3x3"
  top: "fire9/expand3x3"
}
layer {
  name: "fire9/concat"
  type: "Concat"
  bottom: "fire9/expand1x1"
  bottom: "fire9/expand3x3"
  top: "fire9/concat"
}
layer {
  name: "drop9"
  type: "Dropout"
  bottom: "fire9/concat"
  top: "fire9/concat"
  dropout_param {
    dropout_ratio: 0.5
  }
}
layer {
  name: "conv10_2626"
  type: "Convolution"
  bottom: "fire9/concat"
  top: "conv10_2626"
  param {
    lr_mult: 10
    decay_mult: 1
  }
  convolution_param {
    num_output: 2626
    kernel_size: 1
    weight_filler {
      type: "gaussian"
      mean: 0
      std: 0.01
    }
  }
}
layer {
  name: "relu_conv10"
  type: "ReLU"
  bottom: "conv10_2626"
  top: "conv10_2626"
}
layer {
  name: "pool10"
  type: "Pooling"
  bottom: "conv10_2626"
  top: "pool10"
  pooling_param {
    pool: AVE
    global_pooling: true
  }
}
layer {
  name: "loss"
  type: "SoftmaxWithLoss"
  bottom: "pool10"
  bottom: "label"
  top: "loss"
}
layer {
  name: "accuracy"
  type: "Accuracy"
  bottom: "pool10"
  bottom: "label"
  top: "accuracy"
  include {
    phase: TEST
  }
}
I1020 16:00:11.664769  4871 layer_factory.hpp:77] Creating layer data
I1020 16:00:11.664886  4871 net.cpp:100] Creating Layer data
I1020 16:00:11.664897  4871 net.cpp:408] data -> data
I1020 16:00:11.664906  4871 net.cpp:408] data -> label
I1020 16:00:11.664914  4871 data_transformer.cpp:25] Loading mean file from: /share/zhh/mean.binaryproto
I1020 16:00:11.686415  4891 db_lmdb.cpp:35] Opened lmdb /share/front/test_lmdb
I1020 16:00:11.717744  4871 data_layer.cpp:41] output data size: 100,3,227,227
I1020 16:00:11.872257  4871 net.cpp:150] Setting up data
I1020 16:00:11.872290  4871 net.cpp:157] Top shape: 100 3 227 227 (15458700)
I1020 16:00:11.872298  4871 net.cpp:157] Top shape: 100 (100)
I1020 16:00:11.872301  4871 net.cpp:165] Memory required for data: 61835200
I1020 16:00:11.872308  4871 layer_factory.hpp:77] Creating layer label_data_1_split
I1020 16:00:11.872323  4871 net.cpp:100] Creating Layer label_data_1_split
I1020 16:00:11.872328  4871 net.cpp:434] label_data_1_split <- label
I1020 16:00:11.872336  4871 net.cpp:408] label_data_1_split -> label_data_1_split_0
I1020 16:00:11.872354  4871 net.cpp:408] label_data_1_split -> label_data_1_split_1
I1020 16:00:11.872460  4871 net.cpp:150] Setting up label_data_1_split
I1020 16:00:11.872472  4871 net.cpp:157] Top shape: 100 (100)
I1020 16:00:11.872476  4871 net.cpp:157] Top shape: 100 (100)
I1020 16:00:11.872480  4871 net.cpp:165] Memory required for data: 61836000
I1020 16:00:11.872483  4871 layer_factory.hpp:77] Creating layer conv1
I1020 16:00:11.872496  4871 net.cpp:100] Creating Layer conv1
I1020 16:00:11.872501  4871 net.cpp:434] conv1 <- data
I1020 16:00:11.872508  4871 net.cpp:408] conv1 -> conv1
I1020 16:00:11.874231  4871 net.cpp:150] Setting up conv1
I1020 16:00:11.874250  4871 net.cpp:157] Top shape: 100 64 113 113 (81721600)
I1020 16:00:11.874255  4871 net.cpp:165] Memory required for data: 388722400
I1020 16:00:11.874269  4871 layer_factory.hpp:77] Creating layer relu_conv1
I1020 16:00:11.874277  4871 net.cpp:100] Creating Layer relu_conv1
I1020 16:00:11.874282  4871 net.cpp:434] relu_conv1 <- conv1
I1020 16:00:11.874289  4871 net.cpp:395] relu_conv1 -> conv1 (in-place)
I1020 16:00:11.882499  4871 net.cpp:150] Setting up relu_conv1
I1020 16:00:11.882519  4871 net.cpp:157] Top shape: 100 64 113 113 (81721600)
I1020 16:00:11.882524  4871 net.cpp:165] Memory required for data: 715608800
I1020 16:00:11.882529  4871 layer_factory.hpp:77] Creating layer pool1
I1020 16:00:11.882540  4871 net.cpp:100] Creating Layer pool1
I1020 16:00:11.882545  4871 net.cpp:434] pool1 <- conv1
I1020 16:00:11.882552  4871 net.cpp:408] pool1 -> pool1
I1020 16:00:11.882617  4871 net.cpp:150] Setting up pool1
I1020 16:00:11.882627  4871 net.cpp:157] Top shape: 100 64 56 56 (20070400)
I1020 16:00:11.882630  4871 net.cpp:165] Memory required for data: 795890400
I1020 16:00:11.882633  4871 layer_factory.hpp:77] Creating layer fire2/squeeze1x1
I1020 16:00:11.882642  4871 net.cpp:100] Creating Layer fire2/squeeze1x1
I1020 16:00:11.882647  4871 net.cpp:434] fire2/squeeze1x1 <- pool1
I1020 16:00:11.882671  4871 net.cpp:408] fire2/squeeze1x1 -> fire2/squeeze1x1
I1020 16:00:11.884018  4871 net.cpp:150] Setting up fire2/squeeze1x1
I1020 16:00:11.884035  4871 net.cpp:157] Top shape: 100 16 56 56 (5017600)
I1020 16:00:11.884040  4871 net.cpp:165] Memory required for data: 815960800
I1020 16:00:11.884052  4871 layer_factory.hpp:77] Creating layer fire2/relu_squeeze1x1
I1020 16:00:11.884059  4871 net.cpp:100] Creating Layer fire2/relu_squeeze1x1
I1020 16:00:11.884064  4871 net.cpp:434] fire2/relu_squeeze1x1 <- fire2/squeeze1x1
I1020 16:00:11.884070  4871 net.cpp:395] fire2/relu_squeeze1x1 -> fire2/squeeze1x1 (in-place)
I1020 16:00:11.885586  4871 net.cpp:150] Setting up fire2/relu_squeeze1x1
I1020 16:00:11.885607  4871 net.cpp:157] Top shape: 100 16 56 56 (5017600)
I1020 16:00:11.885612  4871 net.cpp:165] Memory required for data: 836031200
I1020 16:00:11.885617  4871 layer_factory.hpp:77] Creating layer fire2/squeeze1x1_fire2/relu_squeeze1x1_0_split
I1020 16:00:11.885623  4871 net.cpp:100] Creating Layer fire2/squeeze1x1_fire2/relu_squeeze1x1_0_split
I1020 16:00:11.885627  4871 net.cpp:434] fire2/squeeze1x1_fire2/relu_squeeze1x1_0_split <- fire2/squeeze1x1
I1020 16:00:11.885634  4871 net.cpp:408] fire2/squeeze1x1_fire2/relu_squeeze1x1_0_split -> fire2/squeeze1x1_fire2/relu_squeeze1x1_0_split_0
I1020 16:00:11.885643  4871 net.cpp:408] fire2/squeeze1x1_fire2/relu_squeeze1x1_0_split -> fire2/squeeze1x1_fire2/relu_squeeze1x1_0_split_1
I1020 16:00:11.885702  4871 net.cpp:150] Setting up fire2/squeeze1x1_fire2/relu_squeeze1x1_0_split
I1020 16:00:11.885712  4871 net.cpp:157] Top shape: 100 16 56 56 (5017600)
I1020 16:00:11.885717  4871 net.cpp:157] Top shape: 100 16 56 56 (5017600)
I1020 16:00:11.885721  4871 net.cpp:165] Memory required for data: 876172000
I1020 16:00:11.885725  4871 layer_factory.hpp:77] Creating layer fire2/expand1x1
I1020 16:00:11.885735  4871 net.cpp:100] Creating Layer fire2/expand1x1
I1020 16:00:11.885746  4871 net.cpp:434] fire2/expand1x1 <- fire2/squeeze1x1_fire2/relu_squeeze1x1_0_split_0
I1020 16:00:11.885753  4871 net.cpp:408] fire2/expand1x1 -> fire2/expand1x1
I1020 16:00:11.887090  4871 net.cpp:150] Setting up fire2/expand1x1
I1020 16:00:11.887107  4871 net.cpp:157] Top shape: 100 64 56 56 (20070400)
I1020 16:00:11.887111  4871 net.cpp:165] Memory required for data: 956453600
I1020 16:00:11.887123  4871 layer_factory.hpp:77] Creating layer fire2/relu_expand1x1
I1020 16:00:11.887130  4871 net.cpp:100] Creating Layer fire2/relu_expand1x1
I1020 16:00:11.887135  4871 net.cpp:434] fire2/relu_expand1x1 <- fire2/expand1x1
I1020 16:00:11.887141  4871 net.cpp:395] fire2/relu_expand1x1 -> fire2/expand1x1 (in-place)
I1020 16:00:11.887332  4871 net.cpp:150] Setting up fire2/relu_expand1x1
I1020 16:00:11.887344  4871 net.cpp:157] Top shape: 100 64 56 56 (20070400)
I1020 16:00:11.887348  4871 net.cpp:165] Memory required for data: 1036735200
I1020 16:00:11.887352  4871 layer_factory.hpp:77] Creating layer fire2/expand3x3
I1020 16:00:11.887362  4871 net.cpp:100] Creating Layer fire2/expand3x3
I1020 16:00:11.887365  4871 net.cpp:434] fire2/expand3x3 <- fire2/squeeze1x1_fire2/relu_squeeze1x1_0_split_1
I1020 16:00:11.887372  4871 net.cpp:408] fire2/expand3x3 -> fire2/expand3x3
I1020 16:00:11.888795  4871 net.cpp:150] Setting up fire2/expand3x3
I1020 16:00:11.888813  4871 net.cpp:157] Top shape: 100 64 56 56 (20070400)
I1020 16:00:11.888818  4871 net.cpp:165] Memory required for data: 1117016800
I1020 16:00:11.888824  4871 layer_factory.hpp:77] Creating layer fire2/relu_expand3x3
I1020 16:00:11.888831  4871 net.cpp:100] Creating Layer fire2/relu_expand3x3
I1020 16:00:11.888836  4871 net.cpp:434] fire2/relu_expand3x3 <- fire2/expand3x3
I1020 16:00:11.888842  4871 net.cpp:395] fire2/relu_expand3x3 -> fire2/expand3x3 (in-place)
I1020 16:00:11.889034  4871 net.cpp:150] Setting up fire2/relu_expand3x3
I1020 16:00:11.889045  4871 net.cpp:157] Top shape: 100 64 56 56 (20070400)
I1020 16:00:11.889050  4871 net.cpp:165] Memory required for data: 1197298400
I1020 16:00:11.889052  4871 layer_factory.hpp:77] Creating layer fire2/concat
I1020 16:00:11.889071  4871 net.cpp:100] Creating Layer fire2/concat
I1020 16:00:11.889076  4871 net.cpp:434] fire2/concat <- fire2/expand1x1
I1020 16:00:11.889081  4871 net.cpp:434] fire2/concat <- fire2/expand3x3
I1020 16:00:11.889087  4871 net.cpp:408] fire2/concat -> fire2/concat
I1020 16:00:11.889127  4871 net.cpp:150] Setting up fire2/concat
I1020 16:00:11.889134  4871 net.cpp:157] Top shape: 100 128 56 56 (40140800)
I1020 16:00:11.889140  4871 net.cpp:165] Memory required for data: 1357861600
I1020 16:00:11.889144  4871 layer_factory.hpp:77] Creating layer fire3/squeeze1x1
I1020 16:00:11.889153  4871 net.cpp:100] Creating Layer fire3/squeeze1x1
I1020 16:00:11.889156  4871 net.cpp:434] fire3/squeeze1x1 <- fire2/concat
I1020 16:00:11.889166  4871 net.cpp:408] fire3/squeeze1x1 -> fire3/squeeze1x1
I1020 16:00:11.890738  4871 net.cpp:150] Setting up fire3/squeeze1x1
I1020 16:00:11.890753  4871 net.cpp:157] Top shape: 100 16 56 56 (5017600)
I1020 16:00:11.890763  4871 net.cpp:165] Memory required for data: 1377932000
I1020 16:00:11.890774  4871 layer_factory.hpp:77] Creating layer fire3/relu_squeeze1x1
I1020 16:00:11.890781  4871 net.cpp:100] Creating Layer fire3/relu_squeeze1x1
I1020 16:00:11.890786  4871 net.cpp:434] fire3/relu_squeeze1x1 <- fire3/squeeze1x1
I1020 16:00:11.890792  4871 net.cpp:395] fire3/relu_squeeze1x1 -> fire3/squeeze1x1 (in-place)
I1020 16:00:11.891223  4871 net.cpp:150] Setting up fire3/relu_squeeze1x1
I1020 16:00:11.891238  4871 net.cpp:157] Top shape: 100 16 56 56 (5017600)
I1020 16:00:11.891242  4871 net.cpp:165] Memory required for data: 1398002400
I1020 16:00:11.891247  4871 layer_factory.hpp:77] Creating layer fire3/squeeze1x1_fire3/relu_squeeze1x1_0_split
I1020 16:00:11.891252  4871 net.cpp:100] Creating Layer fire3/squeeze1x1_fire3/relu_squeeze1x1_0_split
I1020 16:00:11.891257  4871 net.cpp:434] fire3/squeeze1x1_fire3/relu_squeeze1x1_0_split <- fire3/squeeze1x1
I1020 16:00:11.891263  4871 net.cpp:408] fire3/squeeze1x1_fire3/relu_squeeze1x1_0_split -> fire3/squeeze1x1_fire3/relu_squeeze1x1_0_split_0
I1020 16:00:11.891271  4871 net.cpp:408] fire3/squeeze1x1_fire3/relu_squeeze1x1_0_split -> fire3/squeeze1x1_fire3/relu_squeeze1x1_0_split_1
I1020 16:00:11.891330  4871 net.cpp:150] Setting up fire3/squeeze1x1_fire3/relu_squeeze1x1_0_split
I1020 16:00:11.891338  4871 net.cpp:157] Top shape: 100 16 56 56 (5017600)
I1020 16:00:11.891343  4871 net.cpp:157] Top shape: 100 16 56 56 (5017600)
I1020 16:00:11.891347  4871 net.cpp:165] Memory required for data: 1438143200
I1020 16:00:11.891353  4871 layer_factory.hpp:77] Creating layer fire3/expand1x1
I1020 16:00:11.891365  4871 net.cpp:100] Creating Layer fire3/expand1x1
I1020 16:00:11.891368  4871 net.cpp:434] fire3/expand1x1 <- fire3/squeeze1x1_fire3/relu_squeeze1x1_0_split_0
I1020 16:00:11.891374  4871 net.cpp:408] fire3/expand1x1 -> fire3/expand1x1
I1020 16:00:11.892684  4871 net.cpp:150] Setting up fire3/expand1x1
I1020 16:00:11.892700  4871 net.cpp:157] Top shape: 100 64 56 56 (20070400)
I1020 16:00:11.892704  4871 net.cpp:165] Memory required for data: 1518424800
I1020 16:00:11.892712  4871 layer_factory.hpp:77] Creating layer fire3/relu_expand1x1
I1020 16:00:11.892719  4871 net.cpp:100] Creating Layer fire3/relu_expand1x1
I1020 16:00:11.892724  4871 net.cpp:434] fire3/relu_expand1x1 <- fire3/expand1x1
I1020 16:00:11.892730  4871 net.cpp:395] fire3/relu_expand1x1 -> fire3/expand1x1 (in-place)
I1020 16:00:11.892920  4871 net.cpp:150] Setting up fire3/relu_expand1x1
I1020 16:00:11.892930  4871 net.cpp:157] Top shape: 100 64 56 56 (20070400)
I1020 16:00:11.892935  4871 net.cpp:165] Memory required for data: 1598706400
I1020 16:00:11.892938  4871 layer_factory.hpp:77] Creating layer fire3/expand3x3
I1020 16:00:11.892947  4871 net.cpp:100] Creating Layer fire3/expand3x3
I1020 16:00:11.892951  4871 net.cpp:434] fire3/expand3x3 <- fire3/squeeze1x1_fire3/relu_squeeze1x1_0_split_1
I1020 16:00:11.892958  4871 net.cpp:408] fire3/expand3x3 -> fire3/expand3x3
I1020 16:00:11.894351  4871 net.cpp:150] Setting up fire3/expand3x3
I1020 16:00:11.894381  4871 net.cpp:157] Top shape: 100 64 56 56 (20070400)
I1020 16:00:11.894387  4871 net.cpp:165] Memory required for data: 1678988000
I1020 16:00:11.894394  4871 layer_factory.hpp:77] Creating layer fire3/relu_expand3x3
I1020 16:00:11.894402  4871 net.cpp:100] Creating Layer fire3/relu_expand3x3
I1020 16:00:11.894407  4871 net.cpp:434] fire3/relu_expand3x3 <- fire3/expand3x3
I1020 16:00:11.894412  4871 net.cpp:395] fire3/relu_expand3x3 -> fire3/expand3x3 (in-place)
I1020 16:00:11.894608  4871 net.cpp:150] Setting up fire3/relu_expand3x3
I1020 16:00:11.894619  4871 net.cpp:157] Top shape: 100 64 56 56 (20070400)
I1020 16:00:11.894623  4871 net.cpp:165] Memory required for data: 1759269600
I1020 16:00:11.894626  4871 layer_factory.hpp:77] Creating layer fire3/concat
I1020 16:00:11.894634  4871 net.cpp:100] Creating Layer fire3/concat
I1020 16:00:11.894639  4871 net.cpp:434] fire3/concat <- fire3/expand1x1
I1020 16:00:11.894644  4871 net.cpp:434] fire3/concat <- fire3/expand3x3
I1020 16:00:11.894649  4871 net.cpp:408] fire3/concat -> fire3/concat
I1020 16:00:11.894685  4871 net.cpp:150] Setting up fire3/concat
I1020 16:00:11.894693  4871 net.cpp:157] Top shape: 100 128 56 56 (40140800)
I1020 16:00:11.894697  4871 net.cpp:165] Memory required for data: 1919832800
I1020 16:00:11.894701  4871 layer_factory.hpp:77] Creating layer pool3
I1020 16:00:11.894708  4871 net.cpp:100] Creating Layer pool3
I1020 16:00:11.894712  4871 net.cpp:434] pool3 <- fire3/concat
I1020 16:00:11.894722  4871 net.cpp:408] pool3 -> pool3
I1020 16:00:11.894771  4871 net.cpp:150] Setting up pool3
I1020 16:00:11.894779  4871 net.cpp:157] Top shape: 100 128 28 28 (10035200)
I1020 16:00:11.894783  4871 net.cpp:165] Memory required for data: 1959973600
I1020 16:00:11.894786  4871 layer_factory.hpp:77] Creating layer fire4/squeeze1x1
I1020 16:00:11.894794  4871 net.cpp:100] Creating Layer fire4/squeeze1x1
I1020 16:00:11.894800  4871 net.cpp:434] fire4/squeeze1x1 <- pool3
I1020 16:00:11.894806  4871 net.cpp:408] fire4/squeeze1x1 -> fire4/squeeze1x1
I1020 16:00:11.896103  4871 net.cpp:150] Setting up fire4/squeeze1x1
I1020 16:00:11.896118  4871 net.cpp:157] Top shape: 100 32 28 28 (2508800)
I1020 16:00:11.896133  4871 net.cpp:165] Memory required for data: 1970008800
I1020 16:00:11.896141  4871 layer_factory.hpp:77] Creating layer fire4/relu_squeeze1x1
I1020 16:00:11.896147  4871 net.cpp:100] Creating Layer fire4/relu_squeeze1x1
I1020 16:00:11.896150  4871 net.cpp:434] fire4/relu_squeeze1x1 <- fire4/squeeze1x1
I1020 16:00:11.896157  4871 net.cpp:395] fire4/relu_squeeze1x1 -> fire4/squeeze1x1 (in-place)
I1020 16:00:11.896559  4871 net.cpp:150] Setting up fire4/relu_squeeze1x1
I1020 16:00:11.896571  4871 net.cpp:157] Top shape: 100 32 28 28 (2508800)
I1020 16:00:11.896585  4871 net.cpp:165] Memory required for data: 1980044000
I1020 16:00:11.896589  4871 layer_factory.hpp:77] Creating layer fire4/squeeze1x1_fire4/relu_squeeze1x1_0_split
I1020 16:00:11.896595  4871 net.cpp:100] Creating Layer fire4/squeeze1x1_fire4/relu_squeeze1x1_0_split
I1020 16:00:11.896600  4871 net.cpp:434] fire4/squeeze1x1_fire4/relu_squeeze1x1_0_split <- fire4/squeeze1x1
I1020 16:00:11.896605  4871 net.cpp:408] fire4/squeeze1x1_fire4/relu_squeeze1x1_0_split -> fire4/squeeze1x1_fire4/relu_squeeze1x1_0_split_0
I1020 16:00:11.896612  4871 net.cpp:408] fire4/squeeze1x1_fire4/relu_squeeze1x1_0_split -> fire4/squeeze1x1_fire4/relu_squeeze1x1_0_split_1
I1020 16:00:11.896683  4871 net.cpp:150] Setting up fire4/squeeze1x1_fire4/relu_squeeze1x1_0_split
I1020 16:00:11.896692  4871 net.cpp:157] Top shape: 100 32 28 28 (2508800)
I1020 16:00:11.896708  4871 net.cpp:157] Top shape: 100 32 28 28 (2508800)
I1020 16:00:11.896710  4871 net.cpp:165] Memory required for data: 2000114400
I1020 16:00:11.896725  4871 layer_factory.hpp:77] Creating layer fire4/expand1x1
I1020 16:00:11.896733  4871 net.cpp:100] Creating Layer fire4/expand1x1
I1020 16:00:11.896738  4871 net.cpp:434] fire4/expand1x1 <- fire4/squeeze1x1_fire4/relu_squeeze1x1_0_split_0
I1020 16:00:11.896744  4871 net.cpp:408] fire4/expand1x1 -> fire4/expand1x1
I1020 16:00:11.898021  4871 net.cpp:150] Setting up fire4/expand1x1
I1020 16:00:11.898036  4871 net.cpp:157] Top shape: 100 128 28 28 (10035200)
I1020 16:00:11.898049  4871 net.cpp:165] Memory required for data: 2040255200
I1020 16:00:11.898059  4871 layer_factory.hpp:77] Creating layer fire4/relu_expand1x1
I1020 16:00:11.898066  4871 net.cpp:100] Creating Layer fire4/relu_expand1x1
I1020 16:00:11.898069  4871 net.cpp:434] fire4/relu_expand1x1 <- fire4/expand1x1
I1020 16:00:11.898075  4871 net.cpp:395] fire4/relu_expand1x1 -> fire4/expand1x1 (in-place)
I1020 16:00:11.898267  4871 net.cpp:150] Setting up fire4/relu_expand1x1
I1020 16:00:11.898277  4871 net.cpp:157] Top shape: 100 128 28 28 (10035200)
I1020 16:00:11.898291  4871 net.cpp:165] Memory required for data: 2080396000
I1020 16:00:11.898294  4871 layer_factory.hpp:77] Creating layer fire4/expand3x3
I1020 16:00:11.898303  4871 net.cpp:100] Creating Layer fire4/expand3x3
I1020 16:00:11.898306  4871 net.cpp:434] fire4/expand3x3 <- fire4/squeeze1x1_fire4/relu_squeeze1x1_0_split_1
I1020 16:00:11.898313  4871 net.cpp:408] fire4/expand3x3 -> fire4/expand3x3
I1020 16:00:11.899811  4871 net.cpp:150] Setting up fire4/expand3x3
I1020 16:00:11.899826  4871 net.cpp:157] Top shape: 100 128 28 28 (10035200)
I1020 16:00:11.899840  4871 net.cpp:165] Memory required for data: 2120536800
I1020 16:00:11.899847  4871 layer_factory.hpp:77] Creating layer fire4/relu_expand3x3
I1020 16:00:11.899852  4871 net.cpp:100] Creating Layer fire4/relu_expand3x3
I1020 16:00:11.899857  4871 net.cpp:434] fire4/relu_expand3x3 <- fire4/expand3x3
I1020 16:00:11.899863  4871 net.cpp:395] fire4/relu_expand3x3 -> fire4/expand3x3 (in-place)
I1020 16:00:11.900050  4871 net.cpp:150] Setting up fire4/relu_expand3x3
I1020 16:00:11.900060  4871 net.cpp:157] Top shape: 100 128 28 28 (10035200)
I1020 16:00:11.900074  4871 net.cpp:165] Memory required for data: 2160677600
I1020 16:00:11.900079  4871 layer_factory.hpp:77] Creating layer fire4/concat
I1020 16:00:11.900084  4871 net.cpp:100] Creating Layer fire4/concat
I1020 16:00:11.900087  4871 net.cpp:434] fire4/concat <- fire4/expand1x1
I1020 16:00:11.900091  4871 net.cpp:434] fire4/concat <- fire4/expand3x3
I1020 16:00:11.900096  4871 net.cpp:408] fire4/concat -> fire4/concat
I1020 16:00:11.900128  4871 net.cpp:150] Setting up fire4/concat
I1020 16:00:11.900136  4871 net.cpp:157] Top shape: 100 256 28 28 (20070400)
I1020 16:00:11.900151  4871 net.cpp:165] Memory required for data: 2240959200
I1020 16:00:11.900154  4871 layer_factory.hpp:77] Creating layer fire5/squeeze1x1
I1020 16:00:11.900161  4871 net.cpp:100] Creating Layer fire5/squeeze1x1
I1020 16:00:11.900164  4871 net.cpp:434] fire5/squeeze1x1 <- fire4/concat
I1020 16:00:11.900171  4871 net.cpp:408] fire5/squeeze1x1 -> fire5/squeeze1x1
I1020 16:00:11.901495  4871 net.cpp:150] Setting up fire5/squeeze1x1
I1020 16:00:11.901509  4871 net.cpp:157] Top shape: 100 32 28 28 (2508800)
I1020 16:00:11.901523  4871 net.cpp:165] Memory required for data: 2250994400
I1020 16:00:11.901530  4871 layer_factory.hpp:77] Creating layer fire5/relu_squeeze1x1
I1020 16:00:11.901537  4871 net.cpp:100] Creating Layer fire5/relu_squeeze1x1
I1020 16:00:11.901542  4871 net.cpp:434] fire5/relu_squeeze1x1 <- fire5/squeeze1x1
I1020 16:00:11.901548  4871 net.cpp:395] fire5/relu_squeeze1x1 -> fire5/squeeze1x1 (in-place)
I1020 16:00:11.902026  4871 net.cpp:150] Setting up fire5/relu_squeeze1x1
I1020 16:00:11.902052  4871 net.cpp:157] Top shape: 100 32 28 28 (2508800)
I1020 16:00:11.902068  4871 net.cpp:165] Memory required for data: 2261029600
I1020 16:00:11.902071  4871 layer_factory.hpp:77] Creating layer fire5/squeeze1x1_fire5/relu_squeeze1x1_0_split
I1020 16:00:11.902081  4871 net.cpp:100] Creating Layer fire5/squeeze1x1_fire5/relu_squeeze1x1_0_split
I1020 16:00:11.902084  4871 net.cpp:434] fire5/squeeze1x1_fire5/relu_squeeze1x1_0_split <- fire5/squeeze1x1
I1020 16:00:11.902091  4871 net.cpp:408] fire5/squeeze1x1_fire5/relu_squeeze1x1_0_split -> fire5/squeeze1x1_fire5/relu_squeeze1x1_0_split_0
I1020 16:00:11.902098  4871 net.cpp:408] fire5/squeeze1x1_fire5/relu_squeeze1x1_0_split -> fire5/squeeze1x1_fire5/relu_squeeze1x1_0_split_1
I1020 16:00:11.902173  4871 net.cpp:150] Setting up fire5/squeeze1x1_fire5/relu_squeeze1x1_0_split
I1020 16:00:11.902181  4871 net.cpp:157] Top shape: 100 32 28 28 (2508800)
I1020 16:00:11.902186  4871 net.cpp:157] Top shape: 100 32 28 28 (2508800)
I1020 16:00:11.902189  4871 net.cpp:165] Memory required for data: 2281100000
I1020 16:00:11.902192  4871 layer_factory.hpp:77] Creating layer fire5/expand1x1
I1020 16:00:11.902202  4871 net.cpp:100] Creating Layer fire5/expand1x1
I1020 16:00:11.902209  4871 net.cpp:434] fire5/expand1x1 <- fire5/squeeze1x1_fire5/relu_squeeze1x1_0_split_0
I1020 16:00:11.902227  4871 net.cpp:408] fire5/expand1x1 -> fire5/expand1x1
I1020 16:00:11.903544  4871 net.cpp:150] Setting up fire5/expand1x1
I1020 16:00:11.903558  4871 net.cpp:157] Top shape: 100 128 28 28 (10035200)
I1020 16:00:11.903573  4871 net.cpp:165] Memory required for data: 2321240800
I1020 16:00:11.903580  4871 layer_factory.hpp:77] Creating layer fire5/relu_expand1x1
I1020 16:00:11.903587  4871 net.cpp:100] Creating Layer fire5/relu_expand1x1
I1020 16:00:11.903592  4871 net.cpp:434] fire5/relu_expand1x1 <- fire5/expand1x1
I1020 16:00:11.903599  4871 net.cpp:395] fire5/relu_expand1x1 -> fire5/expand1x1 (in-place)
I1020 16:00:11.903803  4871 net.cpp:150] Setting up fire5/relu_expand1x1
I1020 16:00:11.903815  4871 net.cpp:157] Top shape: 100 128 28 28 (10035200)
I1020 16:00:11.903830  4871 net.cpp:165] Memory required for data: 2361381600
I1020 16:00:11.903832  4871 layer_factory.hpp:77] Creating layer fire5/expand3x3
I1020 16:00:11.903842  4871 net.cpp:100] Creating Layer fire5/expand3x3
I1020 16:00:11.903846  4871 net.cpp:434] fire5/expand3x3 <- fire5/squeeze1x1_fire5/relu_squeeze1x1_0_split_1
I1020 16:00:11.903852  4871 net.cpp:408] fire5/expand3x3 -> fire5/expand3x3
I1020 16:00:11.905622  4871 net.cpp:150] Setting up fire5/expand3x3
I1020 16:00:11.905635  4871 net.cpp:157] Top shape: 100 128 28 28 (10035200)
I1020 16:00:11.905650  4871 net.cpp:165] Memory required for data: 2401522400
I1020 16:00:11.905656  4871 layer_factory.hpp:77] Creating layer fire5/relu_expand3x3
I1020 16:00:11.905663  4871 net.cpp:100] Creating Layer fire5/relu_expand3x3
I1020 16:00:11.905668  4871 net.cpp:434] fire5/relu_expand3x3 <- fire5/expand3x3
I1020 16:00:11.905673  4871 net.cpp:395] fire5/relu_expand3x3 -> fire5/expand3x3 (in-place)
I1020 16:00:11.905874  4871 net.cpp:150] Setting up fire5/relu_expand3x3
I1020 16:00:11.905884  4871 net.cpp:157] Top shape: 100 128 28 28 (10035200)
I1020 16:00:11.905899  4871 net.cpp:165] Memory required for data: 2441663200
I1020 16:00:11.905901  4871 layer_factory.hpp:77] Creating layer fire5/concat
I1020 16:00:11.905908  4871 net.cpp:100] Creating Layer fire5/concat
I1020 16:00:11.905912  4871 net.cpp:434] fire5/concat <- fire5/expand1x1
I1020 16:00:11.905917  4871 net.cpp:434] fire5/concat <- fire5/expand3x3
I1020 16:00:11.905922  4871 net.cpp:408] fire5/concat -> fire5/concat
I1020 16:00:11.905967  4871 net.cpp:150] Setting up fire5/concat
I1020 16:00:11.905973  4871 net.cpp:157] Top shape: 100 256 28 28 (20070400)
I1020 16:00:11.905977  4871 net.cpp:165] Memory required for data: 2521944800
I1020 16:00:11.905979  4871 layer_factory.hpp:77] Creating layer pool5
I1020 16:00:11.905987  4871 net.cpp:100] Creating Layer pool5
I1020 16:00:11.905990  4871 net.cpp:434] pool5 <- fire5/concat
I1020 16:00:11.905997  4871 net.cpp:408] pool5 -> pool5
I1020 16:00:11.906051  4871 net.cpp:150] Setting up pool5
I1020 16:00:11.906062  4871 net.cpp:157] Top shape: 100 256 14 14 (5017600)
I1020 16:00:11.906066  4871 net.cpp:165] Memory required for data: 2542015200
I1020 16:00:11.906069  4871 layer_factory.hpp:77] Creating layer fire6/squeeze1x1
I1020 16:00:11.906077  4871 net.cpp:100] Creating Layer fire6/squeeze1x1
I1020 16:00:11.906081  4871 net.cpp:434] fire6/squeeze1x1 <- pool5
I1020 16:00:11.906086  4871 net.cpp:408] fire6/squeeze1x1 -> fire6/squeeze1x1
I1020 16:00:11.907480  4871 net.cpp:150] Setting up fire6/squeeze1x1
I1020 16:00:11.907516  4871 net.cpp:157] Top shape: 100 48 14 14 (940800)
I1020 16:00:11.907519  4871 net.cpp:165] Memory required for data: 2545778400
I1020 16:00:11.907526  4871 layer_factory.hpp:77] Creating layer fire6/relu_squeeze1x1
I1020 16:00:11.907532  4871 net.cpp:100] Creating Layer fire6/relu_squeeze1x1
I1020 16:00:11.907536  4871 net.cpp:434] fire6/relu_squeeze1x1 <- fire6/squeeze1x1
I1020 16:00:11.907542  4871 net.cpp:395] fire6/relu_squeeze1x1 -> fire6/squeeze1x1 (in-place)
I1020 16:00:11.908005  4871 net.cpp:150] Setting up fire6/relu_squeeze1x1
I1020 16:00:11.908041  4871 net.cpp:157] Top shape: 100 48 14 14 (940800)
I1020 16:00:11.908044  4871 net.cpp:165] Memory required for data: 2549541600
I1020 16:00:11.908048  4871 layer_factory.hpp:77] Creating layer fire6/squeeze1x1_fire6/relu_squeeze1x1_0_split
I1020 16:00:11.908053  4871 net.cpp:100] Creating Layer fire6/squeeze1x1_fire6/relu_squeeze1x1_0_split
I1020 16:00:11.908061  4871 net.cpp:434] fire6/squeeze1x1_fire6/relu_squeeze1x1_0_split <- fire6/squeeze1x1
I1020 16:00:11.908066  4871 net.cpp:408] fire6/squeeze1x1_fire6/relu_squeeze1x1_0_split -> fire6/squeeze1x1_fire6/relu_squeeze1x1_0_split_0
I1020 16:00:11.908073  4871 net.cpp:408] fire6/squeeze1x1_fire6/relu_squeeze1x1_0_split -> fire6/squeeze1x1_fire6/relu_squeeze1x1_0_split_1
I1020 16:00:11.908145  4871 net.cpp:150] Setting up fire6/squeeze1x1_fire6/relu_squeeze1x1_0_split
I1020 16:00:11.908152  4871 net.cpp:157] Top shape: 100 48 14 14 (940800)
I1020 16:00:11.908157  4871 net.cpp:157] Top shape: 100 48 14 14 (940800)
I1020 16:00:11.908160  4871 net.cpp:165] Memory required for data: 2557068000
I1020 16:00:11.908164  4871 layer_factory.hpp:77] Creating layer fire6/expand1x1
I1020 16:00:11.908172  4871 net.cpp:100] Creating Layer fire6/expand1x1
I1020 16:00:11.908176  4871 net.cpp:434] fire6/expand1x1 <- fire6/squeeze1x1_fire6/relu_squeeze1x1_0_split_0
I1020 16:00:11.908182  4871 net.cpp:408] fire6/expand1x1 -> fire6/expand1x1
I1020 16:00:11.909559  4871 net.cpp:150] Setting up fire6/expand1x1
I1020 16:00:11.909574  4871 net.cpp:157] Top shape: 100 192 14 14 (3763200)
I1020 16:00:11.909589  4871 net.cpp:165] Memory required for data: 2572120800
I1020 16:00:11.909595  4871 layer_factory.hpp:77] Creating layer fire6/relu_expand1x1
I1020 16:00:11.909600  4871 net.cpp:100] Creating Layer fire6/relu_expand1x1
I1020 16:00:11.909605  4871 net.cpp:434] fire6/relu_expand1x1 <- fire6/expand1x1
I1020 16:00:11.909611  4871 net.cpp:395] fire6/relu_expand1x1 -> fire6/expand1x1 (in-place)
I1020 16:00:11.909826  4871 net.cpp:150] Setting up fire6/relu_expand1x1
I1020 16:00:11.909835  4871 net.cpp:157] Top shape: 100 192 14 14 (3763200)
I1020 16:00:11.909850  4871 net.cpp:165] Memory required for data: 2587173600
I1020 16:00:11.909854  4871 layer_factory.hpp:77] Creating layer fire6/expand3x3
I1020 16:00:11.909863  4871 net.cpp:100] Creating Layer fire6/expand3x3
I1020 16:00:11.909880  4871 net.cpp:434] fire6/expand3x3 <- fire6/squeeze1x1_fire6/relu_squeeze1x1_0_split_1
I1020 16:00:11.909888  4871 net.cpp:408] fire6/expand3x3 -> fire6/expand3x3
I1020 16:00:11.911999  4871 net.cpp:150] Setting up fire6/expand3x3
I1020 16:00:11.912014  4871 net.cpp:157] Top shape: 100 192 14 14 (3763200)
I1020 16:00:11.912029  4871 net.cpp:165] Memory required for data: 2602226400
I1020 16:00:11.912036  4871 layer_factory.hpp:77] Creating layer fire6/relu_expand3x3
I1020 16:00:11.912045  4871 net.cpp:100] Creating Layer fire6/relu_expand3x3
I1020 16:00:11.912048  4871 net.cpp:434] fire6/relu_expand3x3 <- fire6/expand3x3
I1020 16:00:11.912065  4871 net.cpp:395] fire6/relu_expand3x3 -> fire6/expand3x3 (in-place)
I1020 16:00:11.912266  4871 net.cpp:150] Setting up fire6/relu_expand3x3
I1020 16:00:11.912287  4871 net.cpp:157] Top shape: 100 192 14 14 (3763200)
I1020 16:00:11.912302  4871 net.cpp:165] Memory required for data: 2617279200
I1020 16:00:11.912305  4871 layer_factory.hpp:77] Creating layer fire6/concat
I1020 16:00:11.912312  4871 net.cpp:100] Creating Layer fire6/concat
I1020 16:00:11.912317  4871 net.cpp:434] fire6/concat <- fire6/expand1x1
I1020 16:00:11.912331  4871 net.cpp:434] fire6/concat <- fire6/expand3x3
I1020 16:00:11.912338  4871 net.cpp:408] fire6/concat -> fire6/concat
I1020 16:00:11.912403  4871 net.cpp:150] Setting up fire6/concat
I1020 16:00:11.912410  4871 net.cpp:157] Top shape: 100 384 14 14 (7526400)
I1020 16:00:11.912413  4871 net.cpp:165] Memory required for data: 2647384800
I1020 16:00:11.912416  4871 layer_factory.hpp:77] Creating layer fire7/squeeze1x1
I1020 16:00:11.912425  4871 net.cpp:100] Creating Layer fire7/squeeze1x1
I1020 16:00:11.912430  4871 net.cpp:434] fire7/squeeze1x1 <- fire6/concat
I1020 16:00:11.912434  4871 net.cpp:408] fire7/squeeze1x1 -> fire7/squeeze1x1
I1020 16:00:11.914069  4871 net.cpp:150] Setting up fire7/squeeze1x1
I1020 16:00:11.914095  4871 net.cpp:157] Top shape: 100 48 14 14 (940800)
I1020 16:00:11.914099  4871 net.cpp:165] Memory required for data: 2651148000
I1020 16:00:11.914125  4871 layer_factory.hpp:77] Creating layer fire7/relu_squeeze1x1
I1020 16:00:11.914134  4871 net.cpp:100] Creating Layer fire7/relu_squeeze1x1
I1020 16:00:11.914137  4871 net.cpp:434] fire7/relu_squeeze1x1 <- fire7/squeeze1x1
I1020 16:00:11.914144  4871 net.cpp:395] fire7/relu_squeeze1x1 -> fire7/squeeze1x1 (in-place)
I1020 16:00:11.914618  4871 net.cpp:150] Setting up fire7/relu_squeeze1x1
I1020 16:00:11.914631  4871 net.cpp:157] Top shape: 100 48 14 14 (940800)
I1020 16:00:11.914646  4871 net.cpp:165] Memory required for data: 2654911200
I1020 16:00:11.914650  4871 layer_factory.hpp:77] Creating layer fire7/squeeze1x1_fire7/relu_squeeze1x1_0_split
I1020 16:00:11.914656  4871 net.cpp:100] Creating Layer fire7/squeeze1x1_fire7/relu_squeeze1x1_0_split
I1020 16:00:11.914662  4871 net.cpp:434] fire7/squeeze1x1_fire7/relu_squeeze1x1_0_split <- fire7/squeeze1x1
I1020 16:00:11.914669  4871 net.cpp:408] fire7/squeeze1x1_fire7/relu_squeeze1x1_0_split -> fire7/squeeze1x1_fire7/relu_squeeze1x1_0_split_0
I1020 16:00:11.914675  4871 net.cpp:408] fire7/squeeze1x1_fire7/relu_squeeze1x1_0_split -> fire7/squeeze1x1_fire7/relu_squeeze1x1_0_split_1
I1020 16:00:11.914741  4871 net.cpp:150] Setting up fire7/squeeze1x1_fire7/relu_squeeze1x1_0_split
I1020 16:00:11.914748  4871 net.cpp:157] Top shape: 100 48 14 14 (940800)
I1020 16:00:11.914752  4871 net.cpp:157] Top shape: 100 48 14 14 (940800)
I1020 16:00:11.914755  4871 net.cpp:165] Memory required for data: 2662437600
I1020 16:00:11.914758  4871 layer_factory.hpp:77] Creating layer fire7/expand1x1
I1020 16:00:11.914777  4871 net.cpp:100] Creating Layer fire7/expand1x1
I1020 16:00:11.914782  4871 net.cpp:434] fire7/expand1x1 <- fire7/squeeze1x1_fire7/relu_squeeze1x1_0_split_0
I1020 16:00:11.914786  4871 net.cpp:408] fire7/expand1x1 -> fire7/expand1x1
I1020 16:00:11.916209  4871 net.cpp:150] Setting up fire7/expand1x1
I1020 16:00:11.916235  4871 net.cpp:157] Top shape: 100 192 14 14 (3763200)
I1020 16:00:11.916240  4871 net.cpp:165] Memory required for data: 2677490400
I1020 16:00:11.916246  4871 layer_factory.hpp:77] Creating layer fire7/relu_expand1x1
I1020 16:00:11.916254  4871 net.cpp:100] Creating Layer fire7/relu_expand1x1
I1020 16:00:11.916260  4871 net.cpp:434] fire7/relu_expand1x1 <- fire7/expand1x1
I1020 16:00:11.916265  4871 net.cpp:395] fire7/relu_expand1x1 -> fire7/expand1x1 (in-place)
I1020 16:00:11.916494  4871 net.cpp:150] Setting up fire7/relu_expand1x1
I1020 16:00:11.916507  4871 net.cpp:157] Top shape: 100 192 14 14 (3763200)
I1020 16:00:11.916520  4871 net.cpp:165] Memory required for data: 2692543200
I1020 16:00:11.916524  4871 layer_factory.hpp:77] Creating layer fire7/expand3x3
I1020 16:00:11.916543  4871 net.cpp:100] Creating Layer fire7/expand3x3
I1020 16:00:11.916548  4871 net.cpp:434] fire7/expand3x3 <- fire7/squeeze1x1_fire7/relu_squeeze1x1_0_split_1
I1020 16:00:11.916554  4871 net.cpp:408] fire7/expand3x3 -> fire7/expand3x3
I1020 16:00:11.918643  4871 net.cpp:150] Setting up fire7/expand3x3
I1020 16:00:11.918670  4871 net.cpp:157] Top shape: 100 192 14 14 (3763200)
I1020 16:00:11.918674  4871 net.cpp:165] Memory required for data: 2707596000
I1020 16:00:11.918692  4871 layer_factory.hpp:77] Creating layer fire7/relu_expand3x3
I1020 16:00:11.918699  4871 net.cpp:100] Creating Layer fire7/relu_expand3x3
I1020 16:00:11.918704  4871 net.cpp:434] fire7/relu_expand3x3 <- fire7/expand3x3
I1020 16:00:11.918720  4871 net.cpp:395] fire7/relu_expand3x3 -> fire7/expand3x3 (in-place)
I1020 16:00:11.918922  4871 net.cpp:150] Setting up fire7/relu_expand3x3
I1020 16:00:11.918933  4871 net.cpp:157] Top shape: 100 192 14 14 (3763200)
I1020 16:00:11.918948  4871 net.cpp:165] Memory required for data: 2722648800
I1020 16:00:11.918952  4871 layer_factory.hpp:77] Creating layer fire7/concat
I1020 16:00:11.918957  4871 net.cpp:100] Creating Layer fire7/concat
I1020 16:00:11.918962  4871 net.cpp:434] fire7/concat <- fire7/expand1x1
I1020 16:00:11.918967  4871 net.cpp:434] fire7/concat <- fire7/expand3x3
I1020 16:00:11.918972  4871 net.cpp:408] fire7/concat -> fire7/concat
I1020 16:00:11.919008  4871 net.cpp:150] Setting up fire7/concat
I1020 16:00:11.919014  4871 net.cpp:157] Top shape: 100 384 14 14 (7526400)
I1020 16:00:11.919018  4871 net.cpp:165] Memory required for data: 2752754400
I1020 16:00:11.919020  4871 layer_factory.hpp:77] Creating layer fire8/squeeze1x1
I1020 16:00:11.919029  4871 net.cpp:100] Creating Layer fire8/squeeze1x1
I1020 16:00:11.919034  4871 net.cpp:434] fire8/squeeze1x1 <- fire7/concat
I1020 16:00:11.919040  4871 net.cpp:408] fire8/squeeze1x1 -> fire8/squeeze1x1
I1020 16:00:11.921104  4871 net.cpp:150] Setting up fire8/squeeze1x1
I1020 16:00:11.921133  4871 net.cpp:157] Top shape: 100 64 14 14 (1254400)
I1020 16:00:11.921136  4871 net.cpp:165] Memory required for data: 2757772000
I1020 16:00:11.921144  4871 layer_factory.hpp:77] Creating layer fire8/relu_squeeze1x1
I1020 16:00:11.921151  4871 net.cpp:100] Creating Layer fire8/relu_squeeze1x1
I1020 16:00:11.921156  4871 net.cpp:434] fire8/relu_squeeze1x1 <- fire8/squeeze1x1
I1020 16:00:11.921162  4871 net.cpp:395] fire8/relu_squeeze1x1 -> fire8/squeeze1x1 (in-place)
I1020 16:00:11.921658  4871 net.cpp:150] Setting up fire8/relu_squeeze1x1
I1020 16:00:11.921671  4871 net.cpp:157] Top shape: 100 64 14 14 (1254400)
I1020 16:00:11.921686  4871 net.cpp:165] Memory required for data: 2762789600
I1020 16:00:11.921690  4871 layer_factory.hpp:77] Creating layer fire8/squeeze1x1_fire8/relu_squeeze1x1_0_split
I1020 16:00:11.921699  4871 net.cpp:100] Creating Layer fire8/squeeze1x1_fire8/relu_squeeze1x1_0_split
I1020 16:00:11.921702  4871 net.cpp:434] fire8/squeeze1x1_fire8/relu_squeeze1x1_0_split <- fire8/squeeze1x1
I1020 16:00:11.921708  4871 net.cpp:408] fire8/squeeze1x1_fire8/relu_squeeze1x1_0_split -> fire8/squeeze1x1_fire8/relu_squeeze1x1_0_split_0
I1020 16:00:11.921715  4871 net.cpp:408] fire8/squeeze1x1_fire8/relu_squeeze1x1_0_split -> fire8/squeeze1x1_fire8/relu_squeeze1x1_0_split_1
I1020 16:00:11.921782  4871 net.cpp:150] Setting up fire8/squeeze1x1_fire8/relu_squeeze1x1_0_split
I1020 16:00:11.921789  4871 net.cpp:157] Top shape: 100 64 14 14 (1254400)
I1020 16:00:11.921794  4871 net.cpp:157] Top shape: 100 64 14 14 (1254400)
I1020 16:00:11.921797  4871 net.cpp:165] Memory required for data: 2772824800
I1020 16:00:11.921802  4871 layer_factory.hpp:77] Creating layer fire8/expand1x1
I1020 16:00:11.921810  4871 net.cpp:100] Creating Layer fire8/expand1x1
I1020 16:00:11.921814  4871 net.cpp:434] fire8/expand1x1 <- fire8/squeeze1x1_fire8/relu_squeeze1x1_0_split_0
I1020 16:00:11.921820  4871 net.cpp:408] fire8/expand1x1 -> fire8/expand1x1
I1020 16:00:11.923821  4871 net.cpp:150] Setting up fire8/expand1x1
I1020 16:00:11.923847  4871 net.cpp:157] Top shape: 100 256 14 14 (5017600)
I1020 16:00:11.923851  4871 net.cpp:165] Memory required for data: 2792895200
I1020 16:00:11.923858  4871 layer_factory.hpp:77] Creating layer fire8/relu_expand1x1
I1020 16:00:11.923864  4871 net.cpp:100] Creating Layer fire8/relu_expand1x1
I1020 16:00:11.923869  4871 net.cpp:434] fire8/relu_expand1x1 <- fire8/expand1x1
I1020 16:00:11.923877  4871 net.cpp:395] fire8/relu_expand1x1 -> fire8/expand1x1 (in-place)
I1020 16:00:11.924093  4871 net.cpp:150] Setting up fire8/relu_expand1x1
I1020 16:00:11.924113  4871 net.cpp:157] Top shape: 100 256 14 14 (5017600)
I1020 16:00:11.924129  4871 net.cpp:165] Memory required for data: 2812965600
I1020 16:00:11.924132  4871 layer_factory.hpp:77] Creating layer fire8/expand3x3
I1020 16:00:11.924142  4871 net.cpp:100] Creating Layer fire8/expand3x3
I1020 16:00:11.924147  4871 net.cpp:434] fire8/expand3x3 <- fire8/squeeze1x1_fire8/relu_squeeze1x1_0_split_1
I1020 16:00:11.924154  4871 net.cpp:408] fire8/expand3x3 -> fire8/expand3x3
I1020 16:00:11.927165  4871 net.cpp:150] Setting up fire8/expand3x3
I1020 16:00:11.927181  4871 net.cpp:157] Top shape: 100 256 14 14 (5017600)
I1020 16:00:11.927196  4871 net.cpp:165] Memory required for data: 2833036000
I1020 16:00:11.927201  4871 layer_factory.hpp:77] Creating layer fire8/relu_expand3x3
I1020 16:00:11.927207  4871 net.cpp:100] Creating Layer fire8/relu_expand3x3
I1020 16:00:11.927212  4871 net.cpp:434] fire8/relu_expand3x3 <- fire8/expand3x3
I1020 16:00:11.927218  4871 net.cpp:395] fire8/relu_expand3x3 -> fire8/expand3x3 (in-place)
I1020 16:00:11.927422  4871 net.cpp:150] Setting up fire8/relu_expand3x3
I1020 16:00:11.927431  4871 net.cpp:157] Top shape: 100 256 14 14 (5017600)
I1020 16:00:11.927446  4871 net.cpp:165] Memory required for data: 2853106400
I1020 16:00:11.927449  4871 layer_factory.hpp:77] Creating layer fire8/concat
I1020 16:00:11.927455  4871 net.cpp:100] Creating Layer fire8/concat
I1020 16:00:11.927459  4871 net.cpp:434] fire8/concat <- fire8/expand1x1
I1020 16:00:11.927464  4871 net.cpp:434] fire8/concat <- fire8/expand3x3
I1020 16:00:11.927475  4871 net.cpp:408] fire8/concat -> fire8/concat
I1020 16:00:11.927510  4871 net.cpp:150] Setting up fire8/concat
I1020 16:00:11.927517  4871 net.cpp:157] Top shape: 100 512 14 14 (10035200)
I1020 16:00:11.927520  4871 net.cpp:165] Memory required for data: 2893247200
I1020 16:00:11.927523  4871 layer_factory.hpp:77] Creating layer fire9/squeeze1x1
I1020 16:00:11.927532  4871 net.cpp:100] Creating Layer fire9/squeeze1x1
I1020 16:00:11.927536  4871 net.cpp:434] fire9/squeeze1x1 <- fire8/concat
I1020 16:00:11.927552  4871 net.cpp:408] fire9/squeeze1x1 -> fire9/squeeze1x1
I1020 16:00:11.929144  4871 net.cpp:150] Setting up fire9/squeeze1x1
I1020 16:00:11.929169  4871 net.cpp:157] Top shape: 100 64 14 14 (1254400)
I1020 16:00:11.929173  4871 net.cpp:165] Memory required for data: 2898264800
I1020 16:00:11.929180  4871 layer_factory.hpp:77] Creating layer fire9/relu_squeeze1x1
I1020 16:00:11.929194  4871 net.cpp:100] Creating Layer fire9/relu_squeeze1x1
I1020 16:00:11.929199  4871 net.cpp:434] fire9/relu_squeeze1x1 <- fire9/squeeze1x1
I1020 16:00:11.929204  4871 net.cpp:395] fire9/relu_squeeze1x1 -> fire9/squeeze1x1 (in-place)
I1020 16:00:11.929675  4871 net.cpp:150] Setting up fire9/relu_squeeze1x1
I1020 16:00:11.929688  4871 net.cpp:157] Top shape: 100 64 14 14 (1254400)
I1020 16:00:11.929704  4871 net.cpp:165] Memory required for data: 2903282400
I1020 16:00:11.929708  4871 layer_factory.hpp:77] Creating layer fire9/squeeze1x1_fire9/relu_squeeze1x1_0_split
I1020 16:00:11.929713  4871 net.cpp:100] Creating Layer fire9/squeeze1x1_fire9/relu_squeeze1x1_0_split
I1020 16:00:11.929718  4871 net.cpp:434] fire9/squeeze1x1_fire9/relu_squeeze1x1_0_split <- fire9/squeeze1x1
I1020 16:00:11.929723  4871 net.cpp:408] fire9/squeeze1x1_fire9/relu_squeeze1x1_0_split -> fire9/squeeze1x1_fire9/relu_squeeze1x1_0_split_0
I1020 16:00:11.929729  4871 net.cpp:408] fire9/squeeze1x1_fire9/relu_squeeze1x1_0_split -> fire9/squeeze1x1_fire9/relu_squeeze1x1_0_split_1
I1020 16:00:11.929795  4871 net.cpp:150] Setting up fire9/squeeze1x1_fire9/relu_squeeze1x1_0_split
I1020 16:00:11.929800  4871 net.cpp:157] Top shape: 100 64 14 14 (1254400)
I1020 16:00:11.929805  4871 net.cpp:157] Top shape: 100 64 14 14 (1254400)
I1020 16:00:11.929807  4871 net.cpp:165] Memory required for data: 2913317600
I1020 16:00:11.929811  4871 layer_factory.hpp:77] Creating layer fire9/expand1x1
I1020 16:00:11.929819  4871 net.cpp:100] Creating Layer fire9/expand1x1
I1020 16:00:11.929833  4871 net.cpp:434] fire9/expand1x1 <- fire9/squeeze1x1_fire9/relu_squeeze1x1_0_split_0
I1020 16:00:11.929841  4871 net.cpp:408] fire9/expand1x1 -> fire9/expand1x1
I1020 16:00:11.931511  4871 net.cpp:150] Setting up fire9/expand1x1
I1020 16:00:11.931525  4871 net.cpp:157] Top shape: 100 256 14 14 (5017600)
I1020 16:00:11.931541  4871 net.cpp:165] Memory required for data: 2933388000
I1020 16:00:11.931548  4871 layer_factory.hpp:77] Creating layer fire9/relu_expand1x1
I1020 16:00:11.931555  4871 net.cpp:100] Creating Layer fire9/relu_expand1x1
I1020 16:00:11.931558  4871 net.cpp:434] fire9/relu_expand1x1 <- fire9/expand1x1
I1020 16:00:11.931563  4871 net.cpp:395] fire9/relu_expand1x1 -> fire9/expand1x1 (in-place)
I1020 16:00:11.931797  4871 net.cpp:150] Setting up fire9/relu_expand1x1
I1020 16:00:11.931809  4871 net.cpp:157] Top shape: 100 256 14 14 (5017600)
I1020 16:00:11.931824  4871 net.cpp:165] Memory required for data: 2953458400
I1020 16:00:11.931828  4871 layer_factory.hpp:77] Creating layer fire9/expand3x3
I1020 16:00:11.931836  4871 net.cpp:100] Creating Layer fire9/expand3x3
I1020 16:00:11.931846  4871 net.cpp:434] fire9/expand3x3 <- fire9/squeeze1x1_fire9/relu_squeeze1x1_0_split_1
I1020 16:00:11.931855  4871 net.cpp:408] fire9/expand3x3 -> fire9/expand3x3
I1020 16:00:11.934829  4871 net.cpp:150] Setting up fire9/expand3x3
I1020 16:00:11.934844  4871 net.cpp:157] Top shape: 100 256 14 14 (5017600)
I1020 16:00:11.934859  4871 net.cpp:165] Memory required for data: 2973528800
I1020 16:00:11.934865  4871 layer_factory.hpp:77] Creating layer fire9/relu_expand3x3
I1020 16:00:11.934873  4871 net.cpp:100] Creating Layer fire9/relu_expand3x3
I1020 16:00:11.934877  4871 net.cpp:434] fire9/relu_expand3x3 <- fire9/expand3x3
I1020 16:00:11.934883  4871 net.cpp:395] fire9/relu_expand3x3 -> fire9/expand3x3 (in-place)
I1020 16:00:11.935087  4871 net.cpp:150] Setting up fire9/relu_expand3x3
I1020 16:00:11.935097  4871 net.cpp:157] Top shape: 100 256 14 14 (5017600)
I1020 16:00:11.935112  4871 net.cpp:165] Memory required for data: 2993599200
I1020 16:00:11.935115  4871 layer_factory.hpp:77] Creating layer fire9/concat
I1020 16:00:11.935122  4871 net.cpp:100] Creating Layer fire9/concat
I1020 16:00:11.935127  4871 net.cpp:434] fire9/concat <- fire9/expand1x1
I1020 16:00:11.935132  4871 net.cpp:434] fire9/concat <- fire9/expand3x3
I1020 16:00:11.935137  4871 net.cpp:408] fire9/concat -> fire9/concat
I1020 16:00:11.935173  4871 net.cpp:150] Setting up fire9/concat
I1020 16:00:11.935179  4871 net.cpp:157] Top shape: 100 512 14 14 (10035200)
I1020 16:00:11.935183  4871 net.cpp:165] Memory required for data: 3033740000
I1020 16:00:11.935197  4871 layer_factory.hpp:77] Creating layer drop9
I1020 16:00:11.935204  4871 net.cpp:100] Creating Layer drop9
I1020 16:00:11.935207  4871 net.cpp:434] drop9 <- fire9/concat
I1020 16:00:11.935214  4871 net.cpp:395] drop9 -> fire9/concat (in-place)
I1020 16:00:11.935246  4871 net.cpp:150] Setting up drop9
I1020 16:00:11.935252  4871 net.cpp:157] Top shape: 100 512 14 14 (10035200)
I1020 16:00:11.935256  4871 net.cpp:165] Memory required for data: 3073880800
I1020 16:00:11.935258  4871 layer_factory.hpp:77] Creating layer conv10_2626
I1020 16:00:11.935267  4871 net.cpp:100] Creating Layer conv10_2626
I1020 16:00:11.935271  4871 net.cpp:434] conv10_2626 <- fire9/concat
I1020 16:00:11.935278  4871 net.cpp:408] conv10_2626 -> conv10_2626
I1020 16:00:11.958021  4871 net.cpp:150] Setting up conv10_2626
I1020 16:00:11.958056  4871 net.cpp:157] Top shape: 100 2626 14 14 (51469600)
I1020 16:00:11.958060  4871 net.cpp:165] Memory required for data: 3279759200
I1020 16:00:11.958068  4871 layer_factory.hpp:77] Creating layer relu_conv10
I1020 16:00:11.958077  4871 net.cpp:100] Creating Layer relu_conv10
I1020 16:00:11.958081  4871 net.cpp:434] relu_conv10 <- conv10_2626
I1020 16:00:11.958088  4871 net.cpp:395] relu_conv10 -> conv10_2626 (in-place)
I1020 16:00:11.958535  4871 net.cpp:150] Setting up relu_conv10
I1020 16:00:11.958559  4871 net.cpp:157] Top shape: 100 2626 14 14 (51469600)
I1020 16:00:11.958586  4871 net.cpp:165] Memory required for data: 3485637600
I1020 16:00:11.958590  4871 layer_factory.hpp:77] Creating layer pool10
I1020 16:00:11.958600  4871 net.cpp:100] Creating Layer pool10
I1020 16:00:11.958603  4871 net.cpp:434] pool10 <- conv10_2626
I1020 16:00:11.958611  4871 net.cpp:408] pool10 -> pool10
I1020 16:00:11.958842  4871 net.cpp:150] Setting up pool10
I1020 16:00:11.958853  4871 net.cpp:157] Top shape: 100 2626 1 1 (262600)
I1020 16:00:11.958868  4871 net.cpp:165] Memory required for data: 3486688000
I1020 16:00:11.958871  4871 layer_factory.hpp:77] Creating layer pool10_pool10_0_split
I1020 16:00:11.958878  4871 net.cpp:100] Creating Layer pool10_pool10_0_split
I1020 16:00:11.958880  4871 net.cpp:434] pool10_pool10_0_split <- pool10
I1020 16:00:11.958887  4871 net.cpp:408] pool10_pool10_0_split -> pool10_pool10_0_split_0
I1020 16:00:11.958894  4871 net.cpp:408] pool10_pool10_0_split -> pool10_pool10_0_split_1
I1020 16:00:11.958956  4871 net.cpp:150] Setting up pool10_pool10_0_split
I1020 16:00:11.958963  4871 net.cpp:157] Top shape: 100 2626 1 1 (262600)
I1020 16:00:11.958967  4871 net.cpp:157] Top shape: 100 2626 1 1 (262600)
I1020 16:00:11.958971  4871 net.cpp:165] Memory required for data: 3488788800
I1020 16:00:11.958973  4871 layer_factory.hpp:77] Creating layer loss
I1020 16:00:11.958981  4871 net.cpp:100] Creating Layer loss
I1020 16:00:11.958984  4871 net.cpp:434] loss <- pool10_pool10_0_split_0
I1020 16:00:11.959000  4871 net.cpp:434] loss <- label_data_1_split_0
I1020 16:00:11.959008  4871 net.cpp:408] loss -> loss
…
