…
I1021 10:30:50.425757 11321 net.cpp:322] The NetState phase (0) differed from the phase (1) specified by a rule in layer data
I1021 10:30:50.425920 11321 net.cpp:322] The NetState phase (0) differed from the phase (1) specified by a rule in layer accuracy
I1021 10:30:50.426738 11321 net.cpp:58] Initializing net from parameters: 
state {
  phase: TRAIN
  level: 0
  stage: ""
}
layer {
  name: "data"
  type: "Data"
  top: "data"
  top: "label"
  include {
    phase: TRAIN
  }
  transform_param {
    crop_size: 227
    mean_file: "/share/zhh/mean.binaryproto"
  }
  data_param {
    source: "/share/front/train_lmdb"
    batch_size: 128
    backend: LMDB
  }
}
layer {
  name: "conv1"
  type: "Convolution"
  bottom: "data"
  top: "conv1"
  convolution_param {
    num_output: 64
    kernel_size: 3
    stride: 2
    weight_filler {
      type: "xavier"
    }
  }
}
layer {
  name: "relu_conv1"
  type: "ReLU"
  bottom: "conv1"
  top: "conv1"
}
layer {
  name: "pool1"
  type: "Pooling"
  bottom: "conv1"
  top: "pool1"
  pooling_param {
    pool: MAX
    kernel_size: 3
    stride: 2
  }
}
layer {
  name: "fire2/squeeze1x1"
  type: "Convolution"
  bottom: "pool1"
  top: "fire2/squeeze1x1"
  convolution_param {
    num_output: 16
    kernel_size: 1
    weight_filler {
      type: "xavier"
    }
  }
}
layer {
  name: "fire2/relu_squeeze1x1"
  type: "ReLU"
  bottom: "fire2/squeeze1x1"
  top: "fire2/squeeze1x1"
}
layer {
  name: "fire2/expand1x1"
  type: "Convolution"
  bottom: "fire2/squeeze1x1"
  top: "fire2/expand1x1"
  convolution_param {
    num_output: 64
    kernel_size: 1
    weight_filler {
      type: "xavier"
    }
  }
}
layer {
  name: "fire2/relu_expand1x1"
  type: "ReLU"
  bottom: "fire2/expand1x1"
  top: "fire2/expand1x1"
}
layer {
  name: "fire2/expand3x3"
  type: "Convolution"
  bottom: "fire2/squeeze1x1"
  top: "fire2/expand3x3"
  convolution_param {
    num_output: 64
    pad: 1
    kernel_size: 3
    weight_filler {
      type: "xavier"
    }
  }
}
layer {
  name: "fire2/relu_expand3x3"
  type: "ReLU"
  bottom: "fire2/expand3x3"
  top: "fire2/expand3x3"
}
layer {
  name: "fire2/concat"
  type: "Concat"
  bottom: "fire2/expand1x1"
  bottom: "fire2/expand3x3"
  top: "fire2/concat"
}
layer {
  name: "fire3/squeeze1x1"
  type: "Convolution"
  bottom: "fire2/concat"
  top: "fire3/squeeze1x1"
  convolution_param {
    num_output: 16
    kernel_size: 1
    weight_filler {
      type: "xavier"
    }
  }
}
layer {
  name: "fire3/relu_squeeze1x1"
  type: "ReLU"
  bottom: "fire3/squeeze1x1"
  top: "fire3/squeeze1x1"
}
layer {
  name: "fire3/expand1x1"
  type: "Convolution"
  bottom: "fire3/squeeze1x1"
  top: "fire3/expand1x1"
  convolution_param {
    num_output: 64
    kernel_size: 1
    weight_filler {
      type: "xavier"
    }
  }
}
layer {
  name: "fire3/relu_expand1x1"
  type: "ReLU"
  bottom: "fire3/expand1x1"
  top: "fire3/expand1x1"
}
layer {
  name: "fire3/expand3x3"
  type: "Convolution"
  bottom: "fire3/squeeze1x1"
  top: "fire3/expand3x3"
  convolution_param {
    num_output: 64
    pad: 1
    kernel_size: 3
    weight_filler {
      type: "xavier"
    }
  }
}
layer {
  name: "fire3/relu_expand3x3"
  type: "ReLU"
  bottom: "fire3/expand3x3"
  top: "fire3/expand3x3"
}
layer {
  name: "fire3/concat"
  type: "Concat"
  bottom: "fire3/expand1x1"
  bottom: "fire3/expand3x3"
  top: "fire3/concat"
}
layer {
  name: "pool3"
  type: "Pooling"
  bottom: "fire3/concat"
  top: "pool3"
  pooling_param {
    pool: MAX
    kernel_size: 3
    stride: 2
  }
}
layer {
  name: "fire4/squeeze1x1"
  type: "Convolution"
  bottom: "pool3"
  top: "fire4/squeeze1x1"
  convolution_param {
    num_output: 32
    kernel_size: 1
    weight_filler {
      type: "xavier"
    }
  }
}
layer {
  name: "fire4/relu_squeeze1x1"
  type: "ReLU"
  bottom: "fire4/squeeze1x1"
  top: "fire4/squeeze1x1"
}
layer {
  name: "fire4/expand1x1"
  type: "Convolution"
  bottom: "fire4/squeeze1x1"
  top: "fire4/expand1x1"
  convolution_param {
    num_output: 128
    kernel_size: 1
    weight_filler {
      type: "xavier"
    }
  }
}
layer {
  name: "fire4/relu_expand1x1"
  type: "ReLU"
  bottom: "fire4/expand1x1"
  top: "fire4/expand1x1"
}
layer {
  name: "fire4/expand3x3"
  type: "Convolution"
  bottom: "fire4/squeeze1x1"
  top: "fire4/expand3x3"
  convolution_param {
    num_output: 128
    pad: 1
    kernel_size: 3
    weight_filler {
      type: "xavier"
    }
  }
}
layer {
  name: "fire4/relu_expand3x3"
  type: "ReLU"
  bottom: "fire4/expand3x3"
  top: "fire4/expand3x3"
}
layer {
  name: "fire4/concat"
  type: "Concat"
  bottom: "fire4/expand1x1"
  bottom: "fire4/expand3x3"
  top: "fire4/concat"
}
layer {
  name: "fire5/squeeze1x1"
  type: "Convolution"
  bottom: "fire4/concat"
  top: "fire5/squeeze1x1"
  convolution_param {
    num_output: 32
    kernel_size: 1
    weight_filler {
      type: "xavier"
    }
  }
}
layer {
  name: "fire5/relu_squeeze1x1"
  type: "ReLU"
  bottom: "fire5/squeeze1x1"
  top: "fire5/squeeze1x1"
}
layer {
  name: "fire5/expand1x1"
  type: "Convolution"
  bottom: "fire5/squeeze1x1"
  top: "fire5/expand1x1"
  convolution_param {
    num_output: 128
    kernel_size: 1
    weight_filler {
      type: "xavier"
    }
  }
}
layer {
  name: "fire5/relu_expand1x1"
  type: "ReLU"
  bottom: "fire5/expand1x1"
  top: "fire5/expand1x1"
}
layer {
  name: "fire5/expand3x3"
  type: "Convolution"
  bottom: "fire5/squeeze1x1"
  top: "fire5/expand3x3"
  convolution_param {
    num_output: 128
    pad: 1
    kernel_size: 3
    weight_filler {
      type: "xavier"
    }
  }
}
layer {
  name: "fire5/relu_expand3x3"
  type: "ReLU"
  bottom: "fire5/expand3x3"
  top: "fire5/expand3x3"
}
layer {
  name: "fire5/concat"
  type: "Concat"
  bottom: "fire5/expand1x1"
  bottom: "fire5/expand3x3"
  top: "fire5/concat"
}
layer {
  name: "pool5"
  type: "Pooling"
  bottom: "fire5/concat"
  top: "pool5"
  pooling_param {
    pool: MAX
    kernel_size: 3
    stride: 2
  }
}
layer {
  name: "fire6/squeeze1x1"
  type: "Convolution"
  bottom: "pool5"
  top: "fire6/squeeze1x1"
  convolution_param {
    num_output: 48
    kernel_size: 1
    weight_filler {
      type: "xavier"
    }
  }
}
layer {
  name: "fire6/relu_squeeze1x1"
  type: "ReLU"
  bottom: "fire6/squeeze1x1"
  top: "fire6/squeeze1x1"
}
layer {
  name: "fire6/expand1x1"
  type: "Convolution"
  bottom: "fire6/squeeze1x1"
  top: "fire6/expand1x1"
  convolution_param {
    num_output: 192
    kernel_size: 1
    weight_filler {
      type: "xavier"
    }
  }
}
layer {
  name: "fire6/relu_expand1x1"
  type: "ReLU"
  bottom: "fire6/expand1x1"
  top: "fire6/expand1x1"
}
layer {
  name: "fire6/expand3x3"
  type: "Convolution"
  bottom: "fire6/squeeze1x1"
  top: "fire6/expand3x3"
  convolution_param {
    num_output: 192
    pad: 1
    kernel_size: 3
    weight_filler {
      type: "xavier"
    }
  }
}
layer {
  name: "fire6/relu_expand3x3"
  type: "ReLU"
  bottom: "fire6/expand3x3"
  top: "fire6/expand3x3"
}
layer {
  name: "fire6/concat"
  type: "Concat"
  bottom: "fire6/expand1x1"
  bottom: "fire6/expand3x3"
  top: "fire6/concat"
}
layer {
  name: "fire7/squeeze1x1"
  type: "Convolution"
  bottom: "fire6/concat"
  top: "fire7/squeeze1x1"
  convolution_param {
    num_output: 48
    kernel_size: 1
    weight_filler {
      type: "xavier"
    }
  }
}
layer {
  name: "fire7/relu_squeeze1x1"
  type: "ReLU"
  bottom: "fire7/squeeze1x1"
  top: "fire7/squeeze1x1"
}
layer {
  name: "fire7/expand1x1"
  type: "Convolution"
  bottom: "fire7/squeeze1x1"
  top: "fire7/expand1x1"
  convolution_param {
    num_output: 192
    kernel_size: 1
    weight_filler {
      type: "xavier"
    }
  }
}
layer {
  name: "fire7/relu_expand1x1"
  type: "ReLU"
  bottom: "fire7/expand1x1"
  top: "fire7/expand1x1"
}
layer {
  name: "fire7/expand3x3"
  type: "Convolution"
  bottom: "fire7/squeeze1x1"
  top: "fire7/expand3x3"
  convolution_param {
    num_output: 192
    pad: 1
    kernel_size: 3
    weight_filler {
      type: "xavier"
    }
  }
}
layer {
  name: "fire7/relu_expand3x3"
  type: "ReLU"
  bottom: "fire7/expand3x3"
  top: "fire7/expand3x3"
}
layer {
  name: "fire7/concat"
  type: "Concat"
  bottom: "fire7/expand1x1"
  bottom: "fire7/expand3x3"
  top: "fire7/concat"
}
layer {
  name: "fire8/squeeze1x1"
  type: "Convolution"
  bottom: "fire7/concat"
  top: "fire8/squeeze1x1"
  convolution_param {
    num_output: 64
    kernel_size: 1
    weight_filler {
      type: "xavier"
    }
  }
}
layer {
  name: "fire8/relu_squeeze1x1"
  type: "ReLU"
  bottom: "fire8/squeeze1x1"
  top: "fire8/squeeze1x1"
}
layer {
  name: "fire8/expand1x1"
  type: "Convolution"
  bottom: "fire8/squeeze1x1"
  top: "fire8/expand1x1"
  convolution_param {
    num_output: 256
    kernel_size: 1
    weight_filler {
      type: "xavier"
    }
  }
}
layer {
  name: "fire8/relu_expand1x1"
  type: "ReLU"
  bottom: "fire8/expand1x1"
  top: "fire8/expand1x1"
}
layer {
  name: "fire8/expand3x3"
  type: "Convolution"
  bottom: "fire8/squeeze1x1"
  top: "fire8/expand3x3"
  convolution_param {
    num_output: 256
    pad: 1
    kernel_size: 3
    weight_filler {
      type: "xavier"
    }
  }
}
layer {
  name: "fire8/relu_expand3x3"
  type: "ReLU"
  bottom: "fire8/expand3x3"
  top: "fire8/expand3x3"
}
layer {
  name: "fire8/concat"
  type: "Concat"
  bottom: "fire8/expand1x1"
  bottom: "fire8/expand3x3"
  top: "fire8/concat"
}
layer {
  name: "fire9/squeeze1x1"
  type: "Convolution"
  bottom: "fire8/concat"
  top: "fire9/squeeze1x1"
  convolution_param {
    num_output: 64
    kernel_size: 1
    weight_filler {
      type: "xavier"
    }
  }
}
layer {
  name: "fire9/relu_squeeze1x1"
  type: "ReLU"
  bottom: "fire9/squeeze1x1"
  top: "fire9/squeeze1x1"
}
layer {
  name: "fire9/expand1x1"
  type: "Convolution"
  bottom: "fire9/squeeze1x1"
  top: "fire9/expand1x1"
  convolution_param {
    num_output: 256
    kernel_size: 1
    weight_filler {
      type: "xavier"
    }
  }
}
layer {
  name: "fire9/relu_expand1x1"
  type: "ReLU"
  bottom: "fire9/expand1x1"
  top: "fire9/expand1x1"
}
layer {
  name: "fire9/expand3x3"
  type: "Convolution"
  bottom: "fire9/squeeze1x1"
  top: "fire9/expand3x3"
  convolution_param {
    num_output: 256
    pad: 1
    kernel_size: 3
    weight_filler {
      type: "xavier"
    }
  }
}
layer {
  name: "fire9/relu_expand3x3"
  type: "ReLU"
  bottom: "fire9/expand3x3"
  top: "fire9/expand3x3"
}
layer {
  name: "fire9/concat"
  type: "Concat"
  bottom: "fire9/expand1x1"
  bottom: "fire9/expand3x3"
  top: "fire9/concat"
}
layer {
  name: "drop9"
  type: "Dropout"
  bottom: "fire9/concat"
  top: "fire9/concat"
  dropout_param {
    dropout_ratio: 0.5
  }
}
layer {
  name: "conv10_2626"
  type: "Convolution"
  bottom: "fire9/concat"
  top: "conv10_2626"
  param {
    lr_mult: 10
    decay_mult: 1
  }
  convolution_param {
    num_output: 2626
    kernel_size: 1
    weight_filler {
      type: "gaussian"
      mean: 0
      std: 0.01
    }
  }
}
layer {
  name: "relu_conv10"
  type: "ReLU"
  bottom: "conv10_2626"
  top: "conv10_2626"
}
layer {
  name: "pool10"
  type: "Pooling"
  bottom: "conv10_2626"
  top: "pool10"
  pooling_param {
    pool: AVE
    global_pooling: true
  }
}
layer {
  name: "loss"
  type: "SoftmaxWithLoss"
  bottom: "pool10"
  bottom: "label"
  top: "loss"
}
I1021 10:30:50.427376 11321 layer_factory.hpp:77] Creating layer data
I1021 10:30:50.436162 11321 net.cpp:100] Creating Layer data
I1021 10:30:50.436203 11321 net.cpp:408] data -> data
I1021 10:30:50.441539 11321 net.cpp:408] data -> label
I1021 10:30:50.441591 11321 data_transformer.cpp:25] Loading mean file from: /share/zhh/mean.binaryproto
I1021 10:30:50.464208 11339 db_lmdb.cpp:35] Opened lmdb /share/front/train_lmdb
I1021 10:30:50.574592 11321 data_layer.cpp:41] output data size: 128,3,227,227
I1021 10:30:50.720296 11321 net.cpp:150] Setting up data
I1021 10:30:50.720335 11321 net.cpp:157] Top shape: 128 3 227 227 (19787136)
I1021 10:30:50.720340 11321 net.cpp:157] Top shape: 128 (128)
I1021 10:30:50.720345 11321 net.cpp:165] Memory required for data: 79149056
I1021 10:30:50.720355 11321 layer_factory.hpp:77] Creating layer conv1
I1021 10:30:50.720381 11321 net.cpp:100] Creating Layer conv1
I1021 10:30:50.720386 11321 net.cpp:434] conv1 <- data
I1021 10:30:50.720401 11321 net.cpp:408] conv1 -> conv1
I1021 10:30:50.735530 11340 blocking_queue.cpp:50] Waiting for data
I1021 10:30:52.078678 11321 net.cpp:150] Setting up conv1
I1021 10:30:52.078734 11321 net.cpp:157] Top shape: 128 64 113 113 (104603648)
I1021 10:30:52.078743 11321 net.cpp:165] Memory required for data: 497563648
I1021 10:30:52.078780 11321 layer_factory.hpp:77] Creating layer relu_conv1
I1021 10:30:52.078809 11321 net.cpp:100] Creating Layer relu_conv1
I1021 10:30:52.078827 11321 net.cpp:434] relu_conv1 <- conv1
I1021 10:30:52.078841 11321 net.cpp:395] relu_conv1 -> conv1 (in-place)
I1021 10:30:52.089308 11321 net.cpp:150] Setting up relu_conv1
I1021 10:30:52.089365 11321 net.cpp:157] Top shape: 128 64 113 113 (104603648)
I1021 10:30:52.089375 11321 net.cpp:165] Memory required for data: 915978240
I1021 10:30:52.089385 11321 layer_factory.hpp:77] Creating layer pool1
I1021 10:30:52.089411 11321 net.cpp:100] Creating Layer pool1
I1021 10:30:52.089422 11321 net.cpp:434] pool1 <- conv1
I1021 10:30:52.089438 11321 net.cpp:408] pool1 -> pool1
I1021 10:30:52.089570 11321 net.cpp:150] Setting up pool1
I1021 10:30:52.089586 11321 net.cpp:157] Top shape: 128 64 56 56 (25690112)
I1021 10:30:52.089593 11321 net.cpp:165] Memory required for data: 1018738688
I1021 10:30:52.089599 11321 layer_factory.hpp:77] Creating layer fire2/squeeze1x1
I1021 10:30:52.089627 11321 net.cpp:100] Creating Layer fire2/squeeze1x1
I1021 10:30:52.089635 11321 net.cpp:434] fire2/squeeze1x1 <- pool1
I1021 10:30:52.089646 11321 net.cpp:408] fire2/squeeze1x1 -> fire2/squeeze1x1
I1021 10:30:52.092339 11321 net.cpp:150] Setting up fire2/squeeze1x1
I1021 10:30:52.092381 11321 net.cpp:157] Top shape: 128 16 56 56 (6422528)
I1021 10:30:52.092391 11321 net.cpp:165] Memory required for data: 1044428800
I1021 10:30:52.092414 11321 layer_factory.hpp:77] Creating layer fire2/relu_squeeze1x1
I1021 10:30:52.092430 11321 net.cpp:100] Creating Layer fire2/relu_squeeze1x1
I1021 10:30:52.092438 11321 net.cpp:434] fire2/relu_squeeze1x1 <- fire2/squeeze1x1
I1021 10:30:52.092450 11321 net.cpp:395] fire2/relu_squeeze1x1 -> fire2/squeeze1x1 (in-place)
I1021 10:30:52.093078 11321 net.cpp:150] Setting up fire2/relu_squeeze1x1
I1021 10:30:52.093102 11321 net.cpp:157] Top shape: 128 16 56 56 (6422528)
I1021 10:30:52.093109 11321 net.cpp:165] Memory required for data: 1070118912
I1021 10:30:52.093116 11321 layer_factory.hpp:77] Creating layer fire2/squeeze1x1_fire2/relu_squeeze1x1_0_split
I1021 10:30:52.118729 11321 net.cpp:100] Creating Layer fire2/squeeze1x1_fire2/relu_squeeze1x1_0_split
I1021 10:30:52.118791 11321 net.cpp:434] fire2/squeeze1x1_fire2/relu_squeeze1x1_0_split <- fire2/squeeze1x1
I1021 10:30:52.118810 11321 net.cpp:408] fire2/squeeze1x1_fire2/relu_squeeze1x1_0_split -> fire2/squeeze1x1_fire2/relu_squeeze1x1_0_split_0
I1021 10:30:52.118834 11321 net.cpp:408] fire2/squeeze1x1_fire2/relu_squeeze1x1_0_split -> fire2/squeeze1x1_fire2/relu_squeeze1x1_0_split_1
I1021 10:30:52.118980 11321 net.cpp:150] Setting up fire2/squeeze1x1_fire2/relu_squeeze1x1_0_split
I1021 10:30:52.118999 11321 net.cpp:157] Top shape: 128 16 56 56 (6422528)
I1021 10:30:52.119007 11321 net.cpp:157] Top shape: 128 16 56 56 (6422528)
I1021 10:30:52.119014 11321 net.cpp:165] Memory required for data: 1121499136
I1021 10:30:52.119021 11321 layer_factory.hpp:77] Creating layer fire2/expand1x1
I1021 10:30:52.119045 11321 net.cpp:100] Creating Layer fire2/expand1x1
I1021 10:30:52.119081 11321 net.cpp:434] fire2/expand1x1 <- fire2/squeeze1x1_fire2/relu_squeeze1x1_0_split_0
I1021 10:30:52.119094 11321 net.cpp:408] fire2/expand1x1 -> fire2/expand1x1
I1021 10:30:52.121253 11321 net.cpp:150] Setting up fire2/expand1x1
I1021 10:30:52.121290 11321 net.cpp:157] Top shape: 128 64 56 56 (25690112)
I1021 10:30:52.121299 11321 net.cpp:165] Memory required for data: 1224259584
I1021 10:30:52.121325 11321 layer_factory.hpp:77] Creating layer fire2/relu_expand1x1
I1021 10:30:52.121345 11321 net.cpp:100] Creating Layer fire2/relu_expand1x1
I1021 10:30:52.121356 11321 net.cpp:434] fire2/relu_expand1x1 <- fire2/expand1x1
I1021 10:30:52.121368 11321 net.cpp:395] fire2/relu_expand1x1 -> fire2/expand1x1 (in-place)
I1021 10:30:52.121687 11321 net.cpp:150] Setting up fire2/relu_expand1x1
I1021 10:30:52.121706 11321 net.cpp:157] Top shape: 128 64 56 56 (25690112)
I1021 10:30:52.121711 11321 net.cpp:165] Memory required for data: 1327020032
I1021 10:30:52.121718 11321 layer_factory.hpp:77] Creating layer fire2/expand3x3
I1021 10:30:52.121737 11321 net.cpp:100] Creating Layer fire2/expand3x3
I1021 10:30:52.121743 11321 net.cpp:434] fire2/expand3x3 <- fire2/squeeze1x1_fire2/relu_squeeze1x1_0_split_1
I1021 10:30:52.121755 11321 net.cpp:408] fire2/expand3x3 -> fire2/expand3x3
I1021 10:30:52.123903 11321 net.cpp:150] Setting up fire2/expand3x3
I1021 10:30:52.123939 11321 net.cpp:157] Top shape: 128 64 56 56 (25690112)
I1021 10:30:52.123946 11321 net.cpp:165] Memory required for data: 1429780480
I1021 10:30:52.123960 11321 layer_factory.hpp:77] Creating layer fire2/relu_expand3x3
I1021 10:30:52.123975 11321 net.cpp:100] Creating Layer fire2/relu_expand3x3
I1021 10:30:52.123982 11321 net.cpp:434] fire2/relu_expand3x3 <- fire2/expand3x3
I1021 10:30:52.123996 11321 net.cpp:395] fire2/relu_expand3x3 -> fire2/expand3x3 (in-place)
I1021 10:30:52.124606 11321 net.cpp:150] Setting up fire2/relu_expand3x3
I1021 10:30:52.124630 11321 net.cpp:157] Top shape: 128 64 56 56 (25690112)
I1021 10:30:52.124637 11321 net.cpp:165] Memory required for data: 1532540928
I1021 10:30:52.124644 11321 layer_factory.hpp:77] Creating layer fire2/concat
I1021 10:30:52.130790 11321 net.cpp:100] Creating Layer fire2/concat
I1021 10:30:52.130847 11321 net.cpp:434] fire2/concat <- fire2/expand1x1
I1021 10:30:52.130867 11321 net.cpp:434] fire2/concat <- fire2/expand3x3
I1021 10:30:52.130887 11321 net.cpp:408] fire2/concat -> fire2/concat
I1021 10:30:52.131021 11321 net.cpp:150] Setting up fire2/concat
I1021 10:30:52.131042 11321 net.cpp:157] Top shape: 128 128 56 56 (51380224)
I1021 10:30:52.131050 11321 net.cpp:165] Memory required for data: 1738061824
I1021 10:30:52.131059 11321 layer_factory.hpp:77] Creating layer fire3/squeeze1x1
I1021 10:30:52.131091 11321 net.cpp:100] Creating Layer fire3/squeeze1x1
I1021 10:30:52.131104 11321 net.cpp:434] fire3/squeeze1x1 <- fire2/concat
I1021 10:30:52.131116 11321 net.cpp:408] fire3/squeeze1x1 -> fire3/squeeze1x1
I1021 10:30:52.134464 11321 net.cpp:150] Setting up fire3/squeeze1x1
I1021 10:30:52.134507 11321 net.cpp:157] Top shape: 128 16 56 56 (6422528)
I1021 10:30:52.134516 11321 net.cpp:165] Memory required for data: 1763751936
I1021 10:30:52.134541 11321 layer_factory.hpp:77] Creating layer fire3/relu_squeeze1x1
I1021 10:30:52.134558 11321 net.cpp:100] Creating Layer fire3/relu_squeeze1x1
I1021 10:30:52.134574 11321 net.cpp:434] fire3/relu_squeeze1x1 <- fire3/squeeze1x1
I1021 10:30:52.134596 11321 net.cpp:395] fire3/relu_squeeze1x1 -> fire3/squeeze1x1 (in-place)
I1021 10:30:52.135241 11321 net.cpp:150] Setting up fire3/relu_squeeze1x1
I1021 10:30:52.135267 11321 net.cpp:157] Top shape: 128 16 56 56 (6422528)
I1021 10:30:52.135275 11321 net.cpp:165] Memory required for data: 1789442048
I1021 10:30:52.135282 11321 layer_factory.hpp:77] Creating layer fire3/squeeze1x1_fire3/relu_squeeze1x1_0_split
I1021 10:30:52.135295 11321 net.cpp:100] Creating Layer fire3/squeeze1x1_fire3/relu_squeeze1x1_0_split
I1021 10:30:52.135303 11321 net.cpp:434] fire3/squeeze1x1_fire3/relu_squeeze1x1_0_split <- fire3/squeeze1x1
I1021 10:30:52.135339 11321 net.cpp:408] fire3/squeeze1x1_fire3/relu_squeeze1x1_0_split -> fire3/squeeze1x1_fire3/relu_squeeze1x1_0_split_0
I1021 10:30:52.135360 11321 net.cpp:408] fire3/squeeze1x1_fire3/relu_squeeze1x1_0_split -> fire3/squeeze1x1_fire3/relu_squeeze1x1_0_split_1
I1021 10:30:52.135438 11321 net.cpp:150] Setting up fire3/squeeze1x1_fire3/relu_squeeze1x1_0_split
I1021 10:30:52.135452 11321 net.cpp:157] Top shape: 128 16 56 56 (6422528)
I1021 10:30:52.135460 11321 net.cpp:157] Top shape: 128 16 56 56 (6422528)
I1021 10:30:52.135468 11321 net.cpp:165] Memory required for data: 1840822272
I1021 10:30:52.135475 11321 layer_factory.hpp:77] Creating layer fire3/expand1x1
I1021 10:30:52.135494 11321 net.cpp:100] Creating Layer fire3/expand1x1
I1021 10:30:52.135501 11321 net.cpp:434] fire3/expand1x1 <- fire3/squeeze1x1_fire3/relu_squeeze1x1_0_split_0
I1021 10:30:52.135512 11321 net.cpp:408] fire3/expand1x1 -> fire3/expand1x1
I1021 10:30:52.137552 11321 net.cpp:150] Setting up fire3/expand1x1
I1021 10:30:52.137584 11321 net.cpp:157] Top shape: 128 64 56 56 (25690112)
I1021 10:30:52.137591 11321 net.cpp:165] Memory required for data: 1943582720
I1021 10:30:52.137606 11321 layer_factory.hpp:77] Creating layer fire3/relu_expand1x1
I1021 10:30:52.137624 11321 net.cpp:100] Creating Layer fire3/relu_expand1x1
I1021 10:30:52.137632 11321 net.cpp:434] fire3/relu_expand1x1 <- fire3/expand1x1
I1021 10:30:52.137645 11321 net.cpp:395] fire3/relu_expand1x1 -> fire3/expand1x1 (in-place)
I1021 10:30:52.137974 11321 net.cpp:150] Setting up fire3/relu_expand1x1
I1021 10:30:52.137992 11321 net.cpp:157] Top shape: 128 64 56 56 (25690112)
I1021 10:30:52.137998 11321 net.cpp:165] Memory required for data: 2046343168
I1021 10:30:52.138005 11321 layer_factory.hpp:77] Creating layer fire3/expand3x3
I1021 10:30:52.138025 11321 net.cpp:100] Creating Layer fire3/expand3x3
I1021 10:30:52.138033 11321 net.cpp:434] fire3/expand3x3 <- fire3/squeeze1x1_fire3/relu_squeeze1x1_0_split_1
I1021 10:30:52.138046 11321 net.cpp:408] fire3/expand3x3 -> fire3/expand3x3
I1021 10:30:52.140190 11321 net.cpp:150] Setting up fire3/expand3x3
I1021 10:30:52.140223 11321 net.cpp:157] Top shape: 128 64 56 56 (25690112)
I1021 10:30:52.140230 11321 net.cpp:165] Memory required for data: 2149103616
I1021 10:30:52.140244 11321 layer_factory.hpp:77] Creating layer fire3/relu_expand3x3
I1021 10:30:52.140260 11321 net.cpp:100] Creating Layer fire3/relu_expand3x3
I1021 10:30:52.140269 11321 net.cpp:434] fire3/relu_expand3x3 <- fire3/expand3x3
I1021 10:30:52.140280 11321 net.cpp:395] fire3/relu_expand3x3 -> fire3/expand3x3 (in-place)
I1021 10:30:52.140894 11321 net.cpp:150] Setting up fire3/relu_expand3x3
I1021 10:30:52.140920 11321 net.cpp:157] Top shape: 128 64 56 56 (25690112)
I1021 10:30:52.140926 11321 net.cpp:165] Memory required for data: 2251864064
I1021 10:30:52.140933 11321 layer_factory.hpp:77] Creating layer fire3/concat
I1021 10:30:52.140944 11321 net.cpp:100] Creating Layer fire3/concat
I1021 10:30:52.140952 11321 net.cpp:434] fire3/concat <- fire3/expand1x1
I1021 10:30:52.140961 11321 net.cpp:434] fire3/concat <- fire3/expand3x3
I1021 10:30:52.140971 11321 net.cpp:408] fire3/concat -> fire3/concat
I1021 10:30:52.141032 11321 net.cpp:150] Setting up fire3/concat
I1021 10:30:52.141047 11321 net.cpp:157] Top shape: 128 128 56 56 (51380224)
I1021 10:30:52.141052 11321 net.cpp:165] Memory required for data: 2457384960
I1021 10:30:52.141058 11321 layer_factory.hpp:77] Creating layer pool3
I1021 10:30:52.141072 11321 net.cpp:100] Creating Layer pool3
I1021 10:30:52.141082 11321 net.cpp:434] pool3 <- fire3/concat
I1021 10:30:52.141091 11321 net.cpp:408] pool3 -> pool3
I1021 10:30:52.141166 11321 net.cpp:150] Setting up pool3
I1021 10:30:52.141180 11321 net.cpp:157] Top shape: 128 128 28 28 (12845056)
I1021 10:30:52.141186 11321 net.cpp:165] Memory required for data: 2508765184
I1021 10:30:52.141191 11321 layer_factory.hpp:77] Creating layer fire4/squeeze1x1
I1021 10:30:52.141211 11321 net.cpp:100] Creating Layer fire4/squeeze1x1
I1021 10:30:52.141242 11321 net.cpp:434] fire4/squeeze1x1 <- pool3
I1021 10:30:52.141253 11321 net.cpp:408] fire4/squeeze1x1 -> fire4/squeeze1x1
I1021 10:30:52.143369 11321 net.cpp:150] Setting up fire4/squeeze1x1
I1021 10:30:52.143399 11321 net.cpp:157] Top shape: 128 32 28 28 (3211264)
I1021 10:30:52.143405 11321 net.cpp:165] Memory required for data: 2521610240
I1021 10:30:52.143420 11321 layer_factory.hpp:77] Creating layer fire4/relu_squeeze1x1
I1021 10:30:52.143434 11321 net.cpp:100] Creating Layer fire4/relu_squeeze1x1
I1021 10:30:52.143440 11321 net.cpp:434] fire4/relu_squeeze1x1 <- fire4/squeeze1x1
I1021 10:30:52.143453 11321 net.cpp:395] fire4/relu_squeeze1x1 -> fire4/squeeze1x1 (in-place)
I1021 10:30:52.144086 11321 net.cpp:150] Setting up fire4/relu_squeeze1x1
I1021 10:30:52.144112 11321 net.cpp:157] Top shape: 128 32 28 28 (3211264)
I1021 10:30:52.144122 11321 net.cpp:165] Memory required for data: 2534455296
I1021 10:30:52.144129 11321 layer_factory.hpp:77] Creating layer fire4/squeeze1x1_fire4/relu_squeeze1x1_0_split
I1021 10:30:52.144151 11321 net.cpp:100] Creating Layer fire4/squeeze1x1_fire4/relu_squeeze1x1_0_split
I1021 10:30:52.144161 11321 net.cpp:434] fire4/squeeze1x1_fire4/relu_squeeze1x1_0_split <- fire4/squeeze1x1
I1021 10:30:52.144179 11321 net.cpp:408] fire4/squeeze1x1_fire4/relu_squeeze1x1_0_split -> fire4/squeeze1x1_fire4/relu_squeeze1x1_0_split_0
I1021 10:30:52.144193 11321 net.cpp:408] fire4/squeeze1x1_fire4/relu_squeeze1x1_0_split -> fire4/squeeze1x1_fire4/relu_squeeze1x1_0_split_1
I1021 10:30:52.144269 11321 net.cpp:150] Setting up fire4/squeeze1x1_fire4/relu_squeeze1x1_0_split
I1021 10:30:52.144282 11321 net.cpp:157] Top shape: 128 32 28 28 (3211264)
I1021 10:30:52.144290 11321 net.cpp:157] Top shape: 128 32 28 28 (3211264)
I1021 10:30:52.144295 11321 net.cpp:165] Memory required for data: 2560145408
I1021 10:30:52.144301 11321 layer_factory.hpp:77] Creating layer fire4/expand1x1
I1021 10:30:52.144317 11321 net.cpp:100] Creating Layer fire4/expand1x1
I1021 10:30:52.144327 11321 net.cpp:434] fire4/expand1x1 <- fire4/squeeze1x1_fire4/relu_squeeze1x1_0_split_0
I1021 10:30:52.144337 11321 net.cpp:408] fire4/expand1x1 -> fire4/expand1x1
I1021 10:30:52.146271 11321 net.cpp:150] Setting up fire4/expand1x1
I1021 10:30:52.146297 11321 net.cpp:157] Top shape: 128 128 28 28 (12845056)
I1021 10:30:52.146304 11321 net.cpp:165] Memory required for data: 2611525632
I1021 10:30:52.146327 11321 layer_factory.hpp:77] Creating layer fire4/relu_expand1x1
I1021 10:30:52.146340 11321 net.cpp:100] Creating Layer fire4/relu_expand1x1
I1021 10:30:52.146347 11321 net.cpp:434] fire4/relu_expand1x1 <- fire4/expand1x1
I1021 10:30:52.146358 11321 net.cpp:395] fire4/relu_expand1x1 -> fire4/expand1x1 (in-place)
I1021 10:30:52.146674 11321 net.cpp:150] Setting up fire4/relu_expand1x1
I1021 10:30:52.146692 11321 net.cpp:157] Top shape: 128 128 28 28 (12845056)
I1021 10:30:52.146697 11321 net.cpp:165] Memory required for data: 2662905856
I1021 10:30:52.146703 11321 layer_factory.hpp:77] Creating layer fire4/expand3x3
I1021 10:30:52.146723 11321 net.cpp:100] Creating Layer fire4/expand3x3
I1021 10:30:52.146729 11321 net.cpp:434] fire4/expand3x3 <- fire4/squeeze1x1_fire4/relu_squeeze1x1_0_split_1
I1021 10:30:52.146740 11321 net.cpp:408] fire4/expand3x3 -> fire4/expand3x3
I1021 10:30:52.150243 11321 net.cpp:150] Setting up fire4/expand3x3
I1021 10:30:52.150284 11321 net.cpp:157] Top shape: 128 128 28 28 (12845056)
I1021 10:30:52.150290 11321 net.cpp:165] Memory required for data: 2714286080
I1021 10:30:52.150307 11321 layer_factory.hpp:77] Creating layer fire4/relu_expand3x3
I1021 10:30:52.150326 11321 net.cpp:100] Creating Layer fire4/relu_expand3x3
I1021 10:30:52.150334 11321 net.cpp:434] fire4/relu_expand3x3 <- fire4/expand3x3
I1021 10:30:52.150347 11321 net.cpp:395] fire4/relu_expand3x3 -> fire4/expand3x3 (in-place)
I1021 10:30:52.150940 11321 net.cpp:150] Setting up fire4/relu_expand3x3
I1021 10:30:52.150964 11321 net.cpp:157] Top shape: 128 128 28 28 (12845056)
I1021 10:30:52.150970 11321 net.cpp:165] Memory required for data: 2765666304
I1021 10:30:52.151000 11321 layer_factory.hpp:77] Creating layer fire4/concat
I1021 10:30:52.151011 11321 net.cpp:100] Creating Layer fire4/concat
I1021 10:30:52.151018 11321 net.cpp:434] fire4/concat <- fire4/expand1x1
I1021 10:30:52.151028 11321 net.cpp:434] fire4/concat <- fire4/expand3x3
I1021 10:30:52.151054 11321 net.cpp:408] fire4/concat -> fire4/concat
I1021 10:30:52.151110 11321 net.cpp:150] Setting up fire4/concat
I1021 10:30:52.151126 11321 net.cpp:157] Top shape: 128 256 28 28 (25690112)
I1021 10:30:52.151132 11321 net.cpp:165] Memory required for data: 2868426752
I1021 10:30:52.151139 11321 layer_factory.hpp:77] Creating layer fire5/squeeze1x1
I1021 10:30:52.151156 11321 net.cpp:100] Creating Layer fire5/squeeze1x1
I1021 10:30:52.151165 11321 net.cpp:434] fire5/squeeze1x1 <- fire4/concat
I1021 10:30:52.151175 11321 net.cpp:408] fire5/squeeze1x1 -> fire5/squeeze1x1
I1021 10:30:52.153126 11321 net.cpp:150] Setting up fire5/squeeze1x1
I1021 10:30:52.153162 11321 net.cpp:157] Top shape: 128 32 28 28 (3211264)
I1021 10:30:52.153172 11321 net.cpp:165] Memory required for data: 2881271808
I1021 10:30:52.153193 11321 layer_factory.hpp:77] Creating layer fire5/relu_squeeze1x1
I1021 10:30:52.153213 11321 net.cpp:100] Creating Layer fire5/relu_squeeze1x1
I1021 10:30:52.153224 11321 net.cpp:434] fire5/relu_squeeze1x1 <- fire5/squeeze1x1
I1021 10:30:52.153239 11321 net.cpp:395] fire5/relu_squeeze1x1 -> fire5/squeeze1x1 (in-place)
I1021 10:30:52.153847 11321 net.cpp:150] Setting up fire5/relu_squeeze1x1
I1021 10:30:52.153870 11321 net.cpp:157] Top shape: 128 32 28 28 (3211264)
I1021 10:30:52.153877 11321 net.cpp:165] Memory required for data: 2894116864
I1021 10:30:52.153882 11321 layer_factory.hpp:77] Creating layer fire5/squeeze1x1_fire5/relu_squeeze1x1_0_split
I1021 10:30:52.153892 11321 net.cpp:100] Creating Layer fire5/squeeze1x1_fire5/relu_squeeze1x1_0_split
I1021 10:30:52.153899 11321 net.cpp:434] fire5/squeeze1x1_fire5/relu_squeeze1x1_0_split <- fire5/squeeze1x1
I1021 10:30:52.153911 11321 net.cpp:408] fire5/squeeze1x1_fire5/relu_squeeze1x1_0_split -> fire5/squeeze1x1_fire5/relu_squeeze1x1_0_split_0
I1021 10:30:52.153924 11321 net.cpp:408] fire5/squeeze1x1_fire5/relu_squeeze1x1_0_split -> fire5/squeeze1x1_fire5/relu_squeeze1x1_0_split_1
I1021 10:30:52.154006 11321 net.cpp:150] Setting up fire5/squeeze1x1_fire5/relu_squeeze1x1_0_split
I1021 10:30:52.154019 11321 net.cpp:157] Top shape: 128 32 28 28 (3211264)
I1021 10:30:52.154026 11321 net.cpp:157] Top shape: 128 32 28 28 (3211264)
I1021 10:30:52.154032 11321 net.cpp:165] Memory required for data: 2919806976
I1021 10:30:52.154037 11321 layer_factory.hpp:77] Creating layer fire5/expand1x1
I1021 10:30:52.154068 11321 net.cpp:100] Creating Layer fire5/expand1x1
I1021 10:30:52.154078 11321 net.cpp:434] fire5/expand1x1 <- fire5/squeeze1x1_fire5/relu_squeeze1x1_0_split_0
I1021 10:30:52.154088 11321 net.cpp:408] fire5/expand1x1 -> fire5/expand1x1
I1021 10:30:52.156450 11321 net.cpp:150] Setting up fire5/expand1x1
I1021 10:30:52.156481 11321 net.cpp:157] Top shape: 128 128 28 28 (12845056)
I1021 10:30:52.156486 11321 net.cpp:165] Memory required for data: 2971187200
I1021 10:30:52.156498 11321 layer_factory.hpp:77] Creating layer fire5/relu_expand1x1
I1021 10:30:52.156512 11321 net.cpp:100] Creating Layer fire5/relu_expand1x1
I1021 10:30:52.156518 11321 net.cpp:434] fire5/relu_expand1x1 <- fire5/expand1x1
I1021 10:30:52.156527 11321 net.cpp:395] fire5/relu_expand1x1 -> fire5/expand1x1 (in-place)
I1021 10:30:52.156836 11321 net.cpp:150] Setting up fire5/relu_expand1x1
I1021 10:30:52.156853 11321 net.cpp:157] Top shape: 128 128 28 28 (12845056)
I1021 10:30:52.156859 11321 net.cpp:165] Memory required for data: 3022567424
I1021 10:30:52.156864 11321 layer_factory.hpp:77] Creating layer fire5/expand3x3
I1021 10:30:52.156877 11321 net.cpp:100] Creating Layer fire5/expand3x3
I1021 10:30:52.156884 11321 net.cpp:434] fire5/expand3x3 <- fire5/squeeze1x1_fire5/relu_squeeze1x1_0_split_1
I1021 10:30:52.156895 11321 net.cpp:408] fire5/expand3x3 -> fire5/expand3x3
I1021 10:30:52.159286 11321 net.cpp:150] Setting up fire5/expand3x3
I1021 10:30:52.159317 11321 net.cpp:157] Top shape: 128 128 28 28 (12845056)
I1021 10:30:52.159322 11321 net.cpp:165] Memory required for data: 3073947648
I1021 10:30:52.159333 11321 layer_factory.hpp:77] Creating layer fire5/relu_expand3x3
I1021 10:30:52.159346 11321 net.cpp:100] Creating Layer fire5/relu_expand3x3
I1021 10:30:52.159353 11321 net.cpp:434] fire5/relu_expand3x3 <- fire5/expand3x3
I1021 10:30:52.159363 11321 net.cpp:395] fire5/relu_expand3x3 -> fire5/expand3x3 (in-place)
I1021 10:30:52.159952 11321 net.cpp:150] Setting up fire5/relu_expand3x3
I1021 10:30:52.159975 11321 net.cpp:157] Top shape: 128 128 28 28 (12845056)
I1021 10:30:52.159986 11321 net.cpp:165] Memory required for data: 3125327872
I1021 10:30:52.159992 11321 layer_factory.hpp:77] Creating layer fire5/concat
I1021 10:30:52.160003 11321 net.cpp:100] Creating Layer fire5/concat
I1021 10:30:52.160010 11321 net.cpp:434] fire5/concat <- fire5/expand1x1
I1021 10:30:52.160018 11321 net.cpp:434] fire5/concat <- fire5/expand3x3
I1021 10:30:52.160027 11321 net.cpp:408] fire5/concat -> fire5/concat
I1021 10:30:52.160075 11321 net.cpp:150] Setting up fire5/concat
I1021 10:30:52.160089 11321 net.cpp:157] Top shape: 128 256 28 28 (25690112)
I1021 10:30:52.160095 11321 net.cpp:165] Memory required for data: 3228088320
I1021 10:30:52.160100 11321 layer_factory.hpp:77] Creating layer pool5
I1021 10:30:52.160110 11321 net.cpp:100] Creating Layer pool5
I1021 10:30:52.160120 11321 net.cpp:434] pool5 <- fire5/concat
I1021 10:30:52.160136 11321 net.cpp:408] pool5 -> pool5
I1021 10:30:52.160207 11321 net.cpp:150] Setting up pool5
I1021 10:30:52.160218 11321 net.cpp:157] Top shape: 128 256 14 14 (6422528)
I1021 10:30:52.160224 11321 net.cpp:165] Memory required for data: 3253778432
I1021 10:30:52.160229 11321 layer_factory.hpp:77] Creating layer fire6/squeeze1x1
I1021 10:30:52.160243 11321 net.cpp:100] Creating Layer fire6/squeeze1x1
I1021 10:30:52.160251 11321 net.cpp:434] fire6/squeeze1x1 <- pool5
I1021 10:30:52.160262 11321 net.cpp:408] fire6/squeeze1x1 -> fire6/squeeze1x1
I1021 10:30:52.162550 11321 net.cpp:150] Setting up fire6/squeeze1x1
I1021 10:30:52.162572 11321 net.cpp:157] Top shape: 128 48 14 14 (1204224)
I1021 10:30:52.162580 11321 net.cpp:165] Memory required for data: 3258595328
I1021 10:30:52.162591 11321 layer_factory.hpp:77] Creating layer fire6/relu_squeeze1x1
I1021 10:30:52.162603 11321 net.cpp:100] Creating Layer fire6/relu_squeeze1x1
I1021 10:30:52.162611 11321 net.cpp:434] fire6/relu_squeeze1x1 <- fire6/squeeze1x1
I1021 10:30:52.162621 11321 net.cpp:395] fire6/relu_squeeze1x1 -> fire6/squeeze1x1 (in-place)
I1021 10:30:52.163166 11321 net.cpp:150] Setting up fire6/relu_squeeze1x1
I1021 10:30:52.163188 11321 net.cpp:157] Top shape: 128 48 14 14 (1204224)
I1021 10:30:52.163200 11321 net.cpp:165] Memory required for data: 3263412224
I1021 10:30:52.163205 11321 layer_factory.hpp:77] Creating layer fire6/squeeze1x1_fire6/relu_squeeze1x1_0_split
I1021 10:30:52.163215 11321 net.cpp:100] Creating Layer fire6/squeeze1x1_fire6/relu_squeeze1x1_0_split
I1021 10:30:52.163221 11321 net.cpp:434] fire6/squeeze1x1_fire6/relu_squeeze1x1_0_split <- fire6/squeeze1x1
I1021 10:30:52.163231 11321 net.cpp:408] fire6/squeeze1x1_fire6/relu_squeeze1x1_0_split -> fire6/squeeze1x1_fire6/relu_squeeze1x1_0_split_0
I1021 10:30:52.163242 11321 net.cpp:408] fire6/squeeze1x1_fire6/relu_squeeze1x1_0_split -> fire6/squeeze1x1_fire6/relu_squeeze1x1_0_split_1
I1021 10:30:52.163339 11321 net.cpp:150] Setting up fire6/squeeze1x1_fire6/relu_squeeze1x1_0_split
I1021 10:30:52.163352 11321 net.cpp:157] Top shape: 128 48 14 14 (1204224)
I1021 10:30:52.163359 11321 net.cpp:157] Top shape: 128 48 14 14 (1204224)
I1021 10:30:52.163364 11321 net.cpp:165] Memory required for data: 3273046016
I1021 10:30:52.163369 11321 layer_factory.hpp:77] Creating layer fire6/expand1x1
I1021 10:30:52.163385 11321 net.cpp:100] Creating Layer fire6/expand1x1
I1021 10:30:52.163393 11321 net.cpp:434] fire6/expand1x1 <- fire6/squeeze1x1_fire6/relu_squeeze1x1_0_split_0
I1021 10:30:52.163422 11321 net.cpp:408] fire6/expand1x1 -> fire6/expand1x1
I1021 10:30:52.166235 11321 net.cpp:150] Setting up fire6/expand1x1
I1021 10:30:52.166270 11321 net.cpp:157] Top shape: 128 192 14 14 (4816896)
I1021 10:30:52.166276 11321 net.cpp:165] Memory required for data: 3292313600
I1021 10:30:52.166288 11321 layer_factory.hpp:77] Creating layer fire6/relu_expand1x1
I1021 10:30:52.166301 11321 net.cpp:100] Creating Layer fire6/relu_expand1x1
I1021 10:30:52.166308 11321 net.cpp:434] fire6/relu_expand1x1 <- fire6/expand1x1
I1021 10:30:52.166319 11321 net.cpp:395] fire6/relu_expand1x1 -> fire6/expand1x1 (in-place)
I1021 10:30:52.166620 11321 net.cpp:150] Setting up fire6/relu_expand1x1
I1021 10:30:52.166640 11321 net.cpp:157] Top shape: 128 192 14 14 (4816896)
I1021 10:30:52.166646 11321 net.cpp:165] Memory required for data: 3311581184
I1021 10:30:52.166651 11321 layer_factory.hpp:77] Creating layer fire6/expand3x3
I1021 10:30:52.166666 11321 net.cpp:100] Creating Layer fire6/expand3x3
I1021 10:30:52.166672 11321 net.cpp:434] fire6/expand3x3 <- fire6/squeeze1x1_fire6/relu_squeeze1x1_0_split_1
I1021 10:30:52.166682 11321 net.cpp:408] fire6/expand3x3 -> fire6/expand3x3
I1021 10:30:52.172813 11321 net.cpp:150] Setting up fire6/expand3x3
I1021 10:30:52.172837 11321 net.cpp:157] Top shape: 128 192 14 14 (4816896)
I1021 10:30:52.172843 11321 net.cpp:165] Memory required for data: 3330848768
I1021 10:30:52.172854 11321 layer_factory.hpp:77] Creating layer fire6/relu_expand3x3
I1021 10:30:52.172865 11321 net.cpp:100] Creating Layer fire6/relu_expand3x3
I1021 10:30:52.172873 11321 net.cpp:434] fire6/relu_expand3x3 <- fire6/expand3x3
I1021 10:30:52.172884 11321 net.cpp:395] fire6/relu_expand3x3 -> fire6/expand3x3 (in-place)
I1021 10:30:52.173538 11321 net.cpp:150] Setting up fire6/relu_expand3x3
I1021 10:30:52.173558 11321 net.cpp:157] Top shape: 128 192 14 14 (4816896)
I1021 10:30:52.173571 11321 net.cpp:165] Memory required for data: 3350116352
I1021 10:30:52.173578 11321 layer_factory.hpp:77] Creating layer fire6/concat
I1021 10:30:52.173585 11321 net.cpp:100] Creating Layer fire6/concat
I1021 10:30:52.173593 11321 net.cpp:434] fire6/concat <- fire6/expand1x1
I1021 10:30:52.173600 11321 net.cpp:434] fire6/concat <- fire6/expand3x3
I1021 10:30:52.173610 11321 net.cpp:408] fire6/concat -> fire6/concat
I1021 10:30:52.173666 11321 net.cpp:150] Setting up fire6/concat
I1021 10:30:52.173678 11321 net.cpp:157] Top shape: 128 384 14 14 (9633792)
I1021 10:30:52.173683 11321 net.cpp:165] Memory required for data: 3388651520
I1021 10:30:52.173688 11321 layer_factory.hpp:77] Creating layer fire7/squeeze1x1
I1021 10:30:52.173702 11321 net.cpp:100] Creating Layer fire7/squeeze1x1
I1021 10:30:52.173709 11321 net.cpp:434] fire7/squeeze1x1 <- fire6/concat
I1021 10:30:52.173718 11321 net.cpp:408] fire7/squeeze1x1 -> fire7/squeeze1x1
I1021 10:30:52.175899 11321 net.cpp:150] Setting up fire7/squeeze1x1
I1021 10:30:52.175940 11321 net.cpp:157] Top shape: 128 48 14 14 (1204224)
I1021 10:30:52.175950 11321 net.cpp:165] Memory required for data: 3393468416
I1021 10:30:52.175982 11321 layer_factory.hpp:77] Creating layer fire7/relu_squeeze1x1
I1021 10:30:52.176004 11321 net.cpp:100] Creating Layer fire7/relu_squeeze1x1
I1021 10:30:52.176018 11321 net.cpp:434] fire7/relu_squeeze1x1 <- fire7/squeeze1x1
I1021 10:30:52.176033 11321 net.cpp:395] fire7/relu_squeeze1x1 -> fire7/squeeze1x1 (in-place)
I1021 10:30:52.176777 11321 net.cpp:150] Setting up fire7/relu_squeeze1x1
I1021 10:30:52.176820 11321 net.cpp:157] Top shape: 128 48 14 14 (1204224)
I1021 10:30:52.176828 11321 net.cpp:165] Memory required for data: 3398285312
I1021 10:30:52.176837 11321 layer_factory.hpp:77] Creating layer fire7/squeeze1x1_fire7/relu_squeeze1x1_0_split
I1021 10:30:52.176856 11321 net.cpp:100] Creating Layer fire7/squeeze1x1_fire7/relu_squeeze1x1_0_split
I1021 10:30:52.176865 11321 net.cpp:434] fire7/squeeze1x1_fire7/relu_squeeze1x1_0_split <- fire7/squeeze1x1
I1021 10:30:52.176882 11321 net.cpp:408] fire7/squeeze1x1_fire7/relu_squeeze1x1_0_split -> fire7/squeeze1x1_fire7/relu_squeeze1x1_0_split_0
I1021 10:30:52.176913 11321 net.cpp:408] fire7/squeeze1x1_fire7/relu_squeeze1x1_0_split -> fire7/squeeze1x1_fire7/relu_squeeze1x1_0_split_1
I1021 10:30:52.176988 11321 net.cpp:150] Setting up fire7/squeeze1x1_fire7/relu_squeeze1x1_0_split
I1021 10:30:52.177004 11321 net.cpp:157] Top shape: 128 48 14 14 (1204224)
I1021 10:30:52.177017 11321 net.cpp:157] Top shape: 128 48 14 14 (1204224)
I1021 10:30:52.177022 11321 net.cpp:165] Memory required for data: 3407919104
I1021 10:30:52.177027 11321 layer_factory.hpp:77] Creating layer fire7/expand1x1
I1021 10:30:52.177047 11321 net.cpp:100] Creating Layer fire7/expand1x1
I1021 10:30:52.177053 11321 net.cpp:434] fire7/expand1x1 <- fire7/squeeze1x1_fire7/relu_squeeze1x1_0_split_0
I1021 10:30:52.177064 11321 net.cpp:408] fire7/expand1x1 -> fire7/expand1x1
I1021 10:30:52.178910 11321 net.cpp:150] Setting up fire7/expand1x1
I1021 10:30:52.178938 11321 net.cpp:157] Top shape: 128 192 14 14 (4816896)
I1021 10:30:52.178944 11321 net.cpp:165] Memory required for data: 3427186688
I1021 10:30:52.178954 11321 layer_factory.hpp:77] Creating layer fire7/relu_expand1x1
I1021 10:30:52.178964 11321 net.cpp:100] Creating Layer fire7/relu_expand1x1
I1021 10:30:52.178971 11321 net.cpp:434] fire7/relu_expand1x1 <- fire7/expand1x1
I1021 10:30:52.178980 11321 net.cpp:395] fire7/relu_expand1x1 -> fire7/expand1x1 (in-place)
I1021 10:30:52.179270 11321 net.cpp:150] Setting up fire7/relu_expand1x1
I1021 10:30:52.179285 11321 net.cpp:157] Top shape: 128 192 14 14 (4816896)
I1021 10:30:52.179291 11321 net.cpp:165] Memory required for data: 3446454272
I1021 10:30:52.179296 11321 layer_factory.hpp:77] Creating layer fire7/expand3x3
I1021 10:30:52.179309 11321 net.cpp:100] Creating Layer fire7/expand3x3
I1021 10:30:52.179317 11321 net.cpp:434] fire7/expand3x3 <- fire7/squeeze1x1_fire7/relu_squeeze1x1_0_split_1
I1021 10:30:52.179327 11321 net.cpp:408] fire7/expand3x3 -> fire7/expand3x3
I1021 10:30:52.183130 11321 net.cpp:150] Setting up fire7/expand3x3
I1021 10:30:52.183167 11321 net.cpp:157] Top shape: 128 192 14 14 (4816896)
I1021 10:30:52.183176 11321 net.cpp:165] Memory required for data: 3465721856
I1021 10:30:52.183192 11321 layer_factory.hpp:77] Creating layer fire7/relu_expand3x3
I1021 10:30:52.183207 11321 net.cpp:100] Creating Layer fire7/relu_expand3x3
I1021 10:30:52.183221 11321 net.cpp:434] fire7/relu_expand3x3 <- fire7/expand3x3
I1021 10:30:52.183231 11321 net.cpp:395] fire7/relu_expand3x3 -> fire7/expand3x3 (in-place)
I1021 10:30:52.183823 11321 net.cpp:150] Setting up fire7/relu_expand3x3
I1021 10:30:52.183848 11321 net.cpp:157] Top shape: 128 192 14 14 (4816896)
I1021 10:30:52.183853 11321 net.cpp:165] Memory required for data: 3484989440
I1021 10:30:52.183864 11321 layer_factory.hpp:77] Creating layer fire7/concat
I1021 10:30:52.183876 11321 net.cpp:100] Creating Layer fire7/concat
I1021 10:30:52.183883 11321 net.cpp:434] fire7/concat <- fire7/expand1x1
I1021 10:30:52.183892 11321 net.cpp:434] fire7/concat <- fire7/expand3x3
I1021 10:30:52.183898 11321 net.cpp:408] fire7/concat -> fire7/concat
I1021 10:30:52.183945 11321 net.cpp:150] Setting up fire7/concat
I1021 10:30:52.183954 11321 net.cpp:157] Top shape: 128 384 14 14 (9633792)
I1021 10:30:52.183959 11321 net.cpp:165] Memory required for data: 3523524608
I1021 10:30:52.183964 11321 layer_factory.hpp:77] Creating layer fire8/squeeze1x1
I1021 10:30:52.183977 11321 net.cpp:100] Creating Layer fire8/squeeze1x1
I1021 10:30:52.183990 11321 net.cpp:434] fire8/squeeze1x1 <- fire7/concat
I1021 10:30:52.183997 11321 net.cpp:408] fire8/squeeze1x1 -> fire8/squeeze1x1
I1021 10:30:52.185765 11321 net.cpp:150] Setting up fire8/squeeze1x1
I1021 10:30:52.185786 11321 net.cpp:157] Top shape: 128 64 14 14 (1605632)
I1021 10:30:52.185796 11321 net.cpp:165] Memory required for data: 3529947136
I1021 10:30:52.185806 11321 layer_factory.hpp:77] Creating layer fire8/relu_squeeze1x1
I1021 10:30:52.185820 11321 net.cpp:100] Creating Layer fire8/relu_squeeze1x1
I1021 10:30:52.185827 11321 net.cpp:434] fire8/relu_squeeze1x1 <- fire8/squeeze1x1
I1021 10:30:52.185859 11321 net.cpp:395] fire8/relu_squeeze1x1 -> fire8/squeeze1x1 (in-place)
I1021 10:30:52.186720 11321 net.cpp:150] Setting up fire8/relu_squeeze1x1
I1021 10:30:52.186767 11321 net.cpp:157] Top shape: 128 64 14 14 (1605632)
I1021 10:30:52.186782 11321 net.cpp:165] Memory required for data: 3536369664
I1021 10:30:52.186799 11321 layer_factory.hpp:77] Creating layer fire8/squeeze1x1_fire8/relu_squeeze1x1_0_split
I1021 10:30:52.186820 11321 net.cpp:100] Creating Layer fire8/squeeze1x1_fire8/relu_squeeze1x1_0_split
I1021 10:30:52.186836 11321 net.cpp:434] fire8/squeeze1x1_fire8/relu_squeeze1x1_0_split <- fire8/squeeze1x1
I1021 10:30:52.186866 11321 net.cpp:408] fire8/squeeze1x1_fire8/relu_squeeze1x1_0_split -> fire8/squeeze1x1_fire8/relu_squeeze1x1_0_split_0
I1021 10:30:52.186897 11321 net.cpp:408] fire8/squeeze1x1_fire8/relu_squeeze1x1_0_split -> fire8/squeeze1x1_fire8/relu_squeeze1x1_0_split_1
I1021 10:30:52.187079 11321 net.cpp:150] Setting up fire8/squeeze1x1_fire8/relu_squeeze1x1_0_split
I1021 10:30:52.187103 11321 net.cpp:157] Top shape: 128 64 14 14 (1605632)
I1021 10:30:52.187117 11321 net.cpp:157] Top shape: 128 64 14 14 (1605632)
I1021 10:30:52.187129 11321 net.cpp:165] Memory required for data: 3549214720
I1021 10:30:52.187141 11321 layer_factory.hpp:77] Creating layer fire8/expand1x1
I1021 10:30:52.187175 11321 net.cpp:100] Creating Layer fire8/expand1x1
I1021 10:30:52.187188 11321 net.cpp:434] fire8/expand1x1 <- fire8/squeeze1x1_fire8/relu_squeeze1x1_0_split_0
I1021 10:30:52.187197 11321 net.cpp:408] fire8/expand1x1 -> fire8/expand1x1
I1021 10:30:52.189746 11321 net.cpp:150] Setting up fire8/expand1x1
I1021 10:30:52.189774 11321 net.cpp:157] Top shape: 128 256 14 14 (6422528)
I1021 10:30:52.189779 11321 net.cpp:165] Memory required for data: 3574904832
I1021 10:30:52.189790 11321 layer_factory.hpp:77] Creating layer fire8/relu_expand1x1
I1021 10:30:52.189798 11321 net.cpp:100] Creating Layer fire8/relu_expand1x1
I1021 10:30:52.189805 11321 net.cpp:434] fire8/relu_expand1x1 <- fire8/expand1x1
I1021 10:30:52.189815 11321 net.cpp:395] fire8/relu_expand1x1 -> fire8/expand1x1 (in-place)
I1021 10:30:52.190109 11321 net.cpp:150] Setting up fire8/relu_expand1x1
I1021 10:30:52.190124 11321 net.cpp:157] Top shape: 128 256 14 14 (6422528)
I1021 10:30:52.190129 11321 net.cpp:165] Memory required for data: 3600594944
I1021 10:30:52.190135 11321 layer_factory.hpp:77] Creating layer fire8/expand3x3
I1021 10:30:52.190148 11321 net.cpp:100] Creating Layer fire8/expand3x3
I1021 10:30:52.190155 11321 net.cpp:434] fire8/expand3x3 <- fire8/squeeze1x1_fire8/relu_squeeze1x1_0_split_1
I1021 10:30:52.190165 11321 net.cpp:408] fire8/expand3x3 -> fire8/expand3x3
I1021 10:30:52.195032 11321 net.cpp:150] Setting up fire8/expand3x3
I1021 10:30:52.195065 11321 net.cpp:157] Top shape: 128 256 14 14 (6422528)
I1021 10:30:52.195070 11321 net.cpp:165] Memory required for data: 3626285056
I1021 10:30:52.195080 11321 layer_factory.hpp:77] Creating layer fire8/relu_expand3x3
I1021 10:30:52.195091 11321 net.cpp:100] Creating Layer fire8/relu_expand3x3
I1021 10:30:52.195097 11321 net.cpp:434] fire8/relu_expand3x3 <- fire8/expand3x3
I1021 10:30:52.195106 11321 net.cpp:395] fire8/relu_expand3x3 -> fire8/expand3x3 (in-place)
I1021 10:30:52.195643 11321 net.cpp:150] Setting up fire8/relu_expand3x3
I1021 10:30:52.195663 11321 net.cpp:157] Top shape: 128 256 14 14 (6422528)
I1021 10:30:52.195672 11321 net.cpp:165] Memory required for data: 3651975168
I1021 10:30:52.195677 11321 layer_factory.hpp:77] Creating layer fire8/concat
I1021 10:30:52.195686 11321 net.cpp:100] Creating Layer fire8/concat
I1021 10:30:52.195693 11321 net.cpp:434] fire8/concat <- fire8/expand1x1
I1021 10:30:52.195699 11321 net.cpp:434] fire8/concat <- fire8/expand3x3
I1021 10:30:52.195706 11321 net.cpp:408] fire8/concat -> fire8/concat
I1021 10:30:52.195754 11321 net.cpp:150] Setting up fire8/concat
I1021 10:30:52.195762 11321 net.cpp:157] Top shape: 128 512 14 14 (12845056)
I1021 10:30:52.195766 11321 net.cpp:165] Memory required for data: 3703355392
I1021 10:30:52.195787 11321 layer_factory.hpp:77] Creating layer fire9/squeeze1x1
I1021 10:30:52.195801 11321 net.cpp:100] Creating Layer fire9/squeeze1x1
I1021 10:30:52.195807 11321 net.cpp:434] fire9/squeeze1x1 <- fire8/concat
I1021 10:30:52.195814 11321 net.cpp:408] fire9/squeeze1x1 -> fire9/squeeze1x1
I1021 10:30:52.197610 11321 net.cpp:150] Setting up fire9/squeeze1x1
I1021 10:30:52.197630 11321 net.cpp:157] Top shape: 128 64 14 14 (1605632)
I1021 10:30:52.197641 11321 net.cpp:165] Memory required for data: 3709777920
I1021 10:30:52.197651 11321 layer_factory.hpp:77] Creating layer fire9/relu_squeeze1x1
I1021 10:30:52.197660 11321 net.cpp:100] Creating Layer fire9/relu_squeeze1x1
I1021 10:30:52.197666 11321 net.cpp:434] fire9/relu_squeeze1x1 <- fire9/squeeze1x1
I1021 10:30:52.197674 11321 net.cpp:395] fire9/relu_squeeze1x1 -> fire9/squeeze1x1 (in-place)
I1021 10:30:52.198173 11321 net.cpp:150] Setting up fire9/relu_squeeze1x1
I1021 10:30:52.198191 11321 net.cpp:157] Top shape: 128 64 14 14 (1605632)
I1021 10:30:52.198196 11321 net.cpp:165] Memory required for data: 3716200448
I1021 10:30:52.198201 11321 layer_factory.hpp:77] Creating layer fire9/squeeze1x1_fire9/relu_squeeze1x1_0_split
I1021 10:30:52.198221 11321 net.cpp:100] Creating Layer fire9/squeeze1x1_fire9/relu_squeeze1x1_0_split
I1021 10:30:52.198227 11321 net.cpp:434] fire9/squeeze1x1_fire9/relu_squeeze1x1_0_split <- fire9/squeeze1x1
I1021 10:30:52.198236 11321 net.cpp:408] fire9/squeeze1x1_fire9/relu_squeeze1x1_0_split -> fire9/squeeze1x1_fire9/relu_squeeze1x1_0_split_0
I1021 10:30:52.198246 11321 net.cpp:408] fire9/squeeze1x1_fire9/relu_squeeze1x1_0_split -> fire9/squeeze1x1_fire9/relu_squeeze1x1_0_split_1
I1021 10:30:52.198309 11321 net.cpp:150] Setting up fire9/squeeze1x1_fire9/relu_squeeze1x1_0_split
I1021 10:30:52.198319 11321 net.cpp:157] Top shape: 128 64 14 14 (1605632)
I1021 10:30:52.198325 11321 net.cpp:157] Top shape: 128 64 14 14 (1605632)
I1021 10:30:52.198329 11321 net.cpp:165] Memory required for data: 3729045504
I1021 10:30:52.198335 11321 layer_factory.hpp:77] Creating layer fire9/expand1x1
I1021 10:30:52.198348 11321 net.cpp:100] Creating Layer fire9/expand1x1
I1021 10:30:52.198354 11321 net.cpp:434] fire9/expand1x1 <- fire9/squeeze1x1_fire9/relu_squeeze1x1_0_split_0
I1021 10:30:52.198360 11321 net.cpp:408] fire9/expand1x1 -> fire9/expand1x1
I1021 10:30:52.200953 11321 net.cpp:150] Setting up fire9/expand1x1
I1021 10:30:52.200974 11321 net.cpp:157] Top shape: 128 256 14 14 (6422528)
I1021 10:30:52.200979 11321 net.cpp:165] Memory required for data: 3754735616
I1021 10:30:52.200992 11321 layer_factory.hpp:77] Creating layer fire9/relu_expand1x1
I1021 10:30:52.201004 11321 net.cpp:100] Creating Layer fire9/relu_expand1x1
I1021 10:30:52.201011 11321 net.cpp:434] fire9/relu_expand1x1 <- fire9/expand1x1
I1021 10:30:52.201022 11321 net.cpp:395] fire9/relu_expand1x1 -> fire9/expand1x1 (in-place)
I1021 10:30:52.201398 11321 net.cpp:150] Setting up fire9/relu_expand1x1
I1021 10:30:52.201419 11321 net.cpp:157] Top shape: 128 256 14 14 (6422528)
I1021 10:30:52.201424 11321 net.cpp:165] Memory required for data: 3780425728
I1021 10:30:52.201429 11321 layer_factory.hpp:77] Creating layer fire9/expand3x3
I1021 10:30:52.201449 11321 net.cpp:100] Creating Layer fire9/expand3x3
I1021 10:30:52.201457 11321 net.cpp:434] fire9/expand3x3 <- fire9/squeeze1x1_fire9/relu_squeeze1x1_0_split_1
I1021 10:30:52.201477 11321 net.cpp:408] fire9/expand3x3 -> fire9/expand3x3
I1021 10:30:52.206426 11321 net.cpp:150] Setting up fire9/expand3x3
I1021 10:30:52.206460 11321 net.cpp:157] Top shape: 128 256 14 14 (6422528)
I1021 10:30:52.206470 11321 net.cpp:165] Memory required for data: 3806115840
I1021 10:30:52.206480 11321 layer_factory.hpp:77] Creating layer fire9/relu_expand3x3
I1021 10:30:52.206496 11321 net.cpp:100] Creating Layer fire9/relu_expand3x3
I1021 10:30:52.206506 11321 net.cpp:434] fire9/relu_expand3x3 <- fire9/expand3x3
I1021 10:30:52.206519 11321 net.cpp:395] fire9/relu_expand3x3 -> fire9/expand3x3 (in-place)
I1021 10:30:52.207201 11321 net.cpp:150] Setting up fire9/relu_expand3x3
I1021 10:30:52.207278 11321 net.cpp:157] Top shape: 128 256 14 14 (6422528)
I1021 10:30:52.207290 11321 net.cpp:165] Memory required for data: 3831805952
I1021 10:30:52.207300 11321 layer_factory.hpp:77] Creating layer fire9/concat
I1021 10:30:52.207320 11321 net.cpp:100] Creating Layer fire9/concat
I1021 10:30:52.207334 11321 net.cpp:434] fire9/concat <- fire9/expand1x1
I1021 10:30:52.207355 11321 net.cpp:434] fire9/concat <- fire9/expand3x3
I1021 10:30:52.207375 11321 net.cpp:408] fire9/concat -> fire9/concat
I1021 10:30:52.207494 11321 net.cpp:150] Setting up fire9/concat
I1021 10:30:52.207515 11321 net.cpp:157] Top shape: 128 512 14 14 (12845056)
I1021 10:30:52.207527 11321 net.cpp:165] Memory required for data: 3883186176
I1021 10:30:52.207537 11321 layer_factory.hpp:77] Creating layer drop9
I1021 10:30:52.207552 11321 net.cpp:100] Creating Layer drop9
I1021 10:30:52.207564 11321 net.cpp:434] drop9 <- fire9/concat
I1021 10:30:52.207586 11321 net.cpp:395] drop9 -> fire9/concat (in-place)
I1021 10:30:52.207695 11321 net.cpp:150] Setting up drop9
I1021 10:30:52.207716 11321 net.cpp:157] Top shape: 128 512 14 14 (12845056)
I1021 10:30:52.207720 11321 net.cpp:165] Memory required for data: 3934566400
I1021 10:30:52.207732 11321 layer_factory.hpp:77] Creating layer conv10_2626
I1021 10:30:52.207751 11321 net.cpp:100] Creating Layer conv10_2626
I1021 10:30:52.207758 11321 net.cpp:434] conv10_2626 <- fire9/concat
I1021 10:30:52.207772 11321 net.cpp:408] conv10_2626 -> conv10_2626
I1021 10:30:52.241938 11321 net.cpp:150] Setting up conv10_2626
I1021 10:30:52.241979 11321 net.cpp:157] Top shape: 128 2626 14 14 (65881088)
I1021 10:30:52.241984 11321 net.cpp:165] Memory required for data: 4198090752
I1021 10:30:52.241996 11321 layer_factory.hpp:77] Creating layer relu_conv10
I1021 10:30:52.242007 11321 net.cpp:100] Creating Layer relu_conv10
I1021 10:30:52.242014 11321 net.cpp:434] relu_conv10 <- conv10_2626
I1021 10:30:52.242022 11321 net.cpp:395] relu_conv10 -> conv10_2626 (in-place)
I1021 10:30:52.242467 11321 net.cpp:150] Setting up relu_conv10
I1021 10:30:52.242483 11321 net.cpp:157] Top shape: 128 2626 14 14 (65881088)
I1021 10:30:52.242487 11321 net.cpp:165] Memory required for data: 4461615104
I1021 10:30:52.242491 11321 layer_factory.hpp:77] Creating layer pool10
I1021 10:30:52.242503 11321 net.cpp:100] Creating Layer pool10
I1021 10:30:52.242508 11321 net.cpp:434] pool10 <- conv10_2626
I1021 10:30:52.242517 11321 net.cpp:408] pool10 -> pool10
I1021 10:30:52.242759 11321 net.cpp:150] Setting up pool10
I1021 10:30:52.242772 11321 net.cpp:157] Top shape: 128 2626 1 1 (336128)
I1021 10:30:52.242776 11321 net.cpp:165] Memory required for data: 4462959616
I1021 10:30:52.242780 11321 layer_factory.hpp:77] Creating layer loss
I1021 10:30:52.242789 11321 net.cpp:100] Creating Layer loss
I1021 10:30:52.242792 11321 net.cpp:434] loss <- pool10
I1021 10:30:52.242799 11321 net.cpp:434] loss <- label
I1021 10:30:52.242806 11321 net.cpp:408] loss -> loss
I1021 10:30:52.243104 11321 layer_factory.hpp:77] Creating layer loss
…
I1021 10:30:52.246294 11321 solver.cpp:181] Creating test net (#0) specified by net file: /home/zhh/DL/models/SqueezeNet/train_val.prototxt
I1021 10:30:52.246381 11321 net.cpp:322] The NetState phase (1) differed from the phase (0) specified by a rule in layer data
I1021 10:30:52.247016 11321 net.cpp:58] Initializing net from parameters: 
state {
  phase: TEST
}
layer {
  name: "data"
  type: "Data"
  top: "data"
  top: "label"
  include {
    phase: TEST
  }
  transform_param {
    crop_size: 227
    mean_file: "/share/zhh/mean.binaryproto"
  }
  data_param {
    source: "/share/front/test_lmdb"
    batch_size: 100
    backend: LMDB
  }
}
layer {
  name: "conv1"
  type: "Convolution"
  bottom: "data"
  top: "conv1"
  convolution_param {
    num_output: 64
    kernel_size: 3
    stride: 2
    weight_filler {
      type: "xavier"
    }
  }
}
layer {
  name: "relu_conv1"
  type: "ReLU"
  bottom: "conv1"
  top: "conv1"
}
layer {
  name: "pool1"
  type: "Pooling"
  bottom: "conv1"
  top: "pool1"
  pooling_param {
    pool: MAX
    kernel_size: 3
    stride: 2
  }
}
layer {
  name: "fire2/squeeze1x1"
  type: "Convolution"
  bottom: "pool1"
  top: "fire2/squeeze1x1"
  convolution_param {
    num_output: 16
    kernel_size: 1
    weight_filler {
      type: "xavier"
    }
  }
}
layer {
  name: "fire2/relu_squeeze1x1"
  type: "ReLU"
  bottom: "fire2/squeeze1x1"
  top: "fire2/squeeze1x1"
}
layer {
  name: "fire2/expand1x1"
  type: "Convolution"
  bottom: "fire2/squeeze1x1"
  top: "fire2/expand1x1"
  convolution_param {
    num_output: 64
    kernel_size: 1
    weight_filler {
      type: "xavier"
    }
  }
}
layer {
  name: "fire2/relu_expand1x1"
  type: "ReLU"
  bottom: "fire2/expand1x1"
  top: "fire2/expand1x1"
}
layer {
  name: "fire2/expand3x3"
  type: "Convolution"
  bottom: "fire2/squeeze1x1"
  top: "fire2/expand3x3"
  convolution_param {
    num_output: 64
    pad: 1
    kernel_size: 3
    weight_filler {
      type: "xavier"
    }
  }
}
layer {
  name: "fire2/relu_expand3x3"
  type: "ReLU"
  bottom: "fire2/expand3x3"
  top: "fire2/expand3x3"
}
layer {
  name: "fire2/concat"
  type: "Concat"
  bottom: "fire2/expand1x1"
  bottom: "fire2/expand3x3"
  top: "fire2/concat"
}
layer {
  name: "fire3/squeeze1x1"
  type: "Convolution"
  bottom: "fire2/concat"
  top: "fire3/squeeze1x1"
  convolution_param {
    num_output: 16
    kernel_size: 1
    weight_filler {
      type: "xavier"
    }
  }
}
layer {
  name: "fire3/relu_squeeze1x1"
  type: "ReLU"
  bottom: "fire3/squeeze1x1"
  top: "fire3/squeeze1x1"
}
layer {
  name: "fire3/expand1x1"
  type: "Convolution"
  bottom: "fire3/squeeze1x1"
  top: "fire3/expand1x1"
  convolution_param {
    num_output: 64
    kernel_size: 1
    weight_filler {
      type: "xavier"
    }
  }
}
layer {
  name: "fire3/relu_expand1x1"
  type: "ReLU"
  bottom: "fire3/expand1x1"
  top: "fire3/expand1x1"
}
layer {
  name: "fire3/expand3x3"
  type: "Convolution"
  bottom: "fire3/squeeze1x1"
  top: "fire3/expand3x3"
  convolution_param {
    num_output: 64
    pad: 1
    kernel_size: 3
    weight_filler {
      type: "xavier"
    }
  }
}
layer {
  name: "fire3/relu_expand3x3"
  type: "ReLU"
  bottom: "fire3/expand3x3"
  top: "fire3/expand3x3"
}
layer {
  name: "fire3/concat"
  type: "Concat"
  bottom: "fire3/expand1x1"
  bottom: "fire3/expand3x3"
  top: "fire3/concat"
}
layer {
  name: "pool3"
  type: "Pooling"
  bottom: "fire3/concat"
  top: "pool3"
  pooling_param {
    pool: MAX
    kernel_size: 3
    stride: 2
  }
}
layer {
  name: "fire4/squeeze1x1"
  type: "Convolution"
  bottom: "pool3"
  top: "fire4/squeeze1x1"
  convolution_param {
    num_output: 32
    kernel_size: 1
    weight_filler {
      type: "xavier"
    }
  }
}
layer {
  name: "fire4/relu_squeeze1x1"
  type: "ReLU"
  bottom: "fire4/squeeze1x1"
  top: "fire4/squeeze1x1"
}
layer {
  name: "fire4/expand1x1"
  type: "Convolution"
  bottom: "fire4/squeeze1x1"
  top: "fire4/expand1x1"
  convolution_param {
    num_output: 128
    kernel_size: 1
    weight_filler {
      type: "xavier"
    }
  }
}
layer {
  name: "fire4/relu_expand1x1"
  type: "ReLU"
  bottom: "fire4/expand1x1"
  top: "fire4/expand1x1"
}
layer {
  name: "fire4/expand3x3"
  type: "Convolution"
  bottom: "fire4/squeeze1x1"
  top: "fire4/expand3x3"
  convolution_param {
    num_output: 128
    pad: 1
    kernel_size: 3
    weight_filler {
      type: "xavier"
    }
  }
}
layer {
  name: "fire4/relu_expand3x3"
  type: "ReLU"
  bottom: "fire4/expand3x3"
  top: "fire4/expand3x3"
}
layer {
  name: "fire4/concat"
  type: "Concat"
  bottom: "fire4/expand1x1"
  bottom: "fire4/expand3x3"
  top: "fire4/concat"
}
layer {
  name: "fire5/squeeze1x1"
  type: "Convolution"
  bottom: "fire4/concat"
  top: "fire5/squeeze1x1"
  convolution_param {
    num_output: 32
    kernel_size: 1
    weight_filler {
      type: "xavier"
    }
  }
}
layer {
  name: "fire5/relu_squeeze1x1"
  type: "ReLU"
  bottom: "fire5/squeeze1x1"
  top: "fire5/squeeze1x1"
}
layer {
  name: "fire5/expand1x1"
  type: "Convolution"
  bottom: "fire5/squeeze1x1"
  top: "fire5/expand1x1"
  convolution_param {
    num_output: 128
    kernel_size: 1
    weight_filler {
      type: "xavier"
    }
  }
}
layer {
  name: "fire5/relu_expand1x1"
  type: "ReLU"
  bottom: "fire5/expand1x1"
  top: "fire5/expand1x1"
}
layer {
  name: "fire5/expand3x3"
  type: "Convolution"
  bottom: "fire5/squeeze1x1"
  top: "fire5/expand3x3"
  convolution_param {
    num_output: 128
    pad: 1
    kernel_size: 3
    weight_filler {
      type: "xavier"
    }
  }
}
layer {
  name: "fire5/relu_expand3x3"
  type: "ReLU"
  bottom: "fire5/expand3x3"
  top: "fire5/expand3x3"
}
layer {
  name: "fire5/concat"
  type: "Concat"
  bottom: "fire5/expand1x1"
  bottom: "fire5/expand3x3"
  top: "fire5/concat"
}
layer {
  name: "pool5"
  type: "Pooling"
  bottom: "fire5/concat"
  top: "pool5"
  pooling_param {
    pool: MAX
    kernel_size: 3
    stride: 2
  }
}
layer {
  name: "fire6/squeeze1x1"
  type: "Convolution"
  bottom: "pool5"
  top: "fire6/squeeze1x1"
  convolution_param {
    num_output: 48
    kernel_size: 1
    weight_filler {
      type: "xavier"
    }
  }
}
layer {
  name: "fire6/relu_squeeze1x1"
  type: "ReLU"
  bottom: "fire6/squeeze1x1"
  top: "fire6/squeeze1x1"
}
layer {
  name: "fire6/expand1x1"
  type: "Convolution"
  bottom: "fire6/squeeze1x1"
  top: "fire6/expand1x1"
  convolution_param {
    num_output: 192
    kernel_size: 1
    weight_filler {
      type: "xavier"
    }
  }
}
layer {
  name: "fire6/relu_expand1x1"
  type: "ReLU"
  bottom: "fire6/expand1x1"
  top: "fire6/expand1x1"
}
layer {
  name: "fire6/expand3x3"
  type: "Convolution"
  bottom: "fire6/squeeze1x1"
  top: "fire6/expand3x3"
  convolution_param {
    num_output: 192
    pad: 1
    kernel_size: 3
    weight_filler {
      type: "xavier"
    }
  }
}
layer {
  name: "fire6/relu_expand3x3"
  type: "ReLU"
  bottom: "fire6/expand3x3"
  top: "fire6/expand3x3"
}
layer {
  name: "fire6/concat"
  type: "Concat"
  bottom: "fire6/expand1x1"
  bottom: "fire6/expand3x3"
  top: "fire6/concat"
}
layer {
  name: "fire7/squeeze1x1"
  type: "Convolution"
  bottom: "fire6/concat"
  top: "fire7/squeeze1x1"
  convolution_param {
    num_output: 48
    kernel_size: 1
    weight_filler {
      type: "xavier"
    }
  }
}
layer {
  name: "fire7/relu_squeeze1x1"
  type: "ReLU"
  bottom: "fire7/squeeze1x1"
  top: "fire7/squeeze1x1"
}
layer {
  name: "fire7/expand1x1"
  type: "Convolution"
  bottom: "fire7/squeeze1x1"
  top: "fire7/expand1x1"
  convolution_param {
    num_output: 192
    kernel_size: 1
    weight_filler {
      type: "xavier"
    }
  }
}
layer {
  name: "fire7/relu_expand1x1"
  type: "ReLU"
  bottom: "fire7/expand1x1"
  top: "fire7/expand1x1"
}
layer {
  name: "fire7/expand3x3"
  type: "Convolution"
  bottom: "fire7/squeeze1x1"
  top: "fire7/expand3x3"
  convolution_param {
    num_output: 192
    pad: 1
    kernel_size: 3
    weight_filler {
      type: "xavier"
    }
  }
}
layer {
  name: "fire7/relu_expand3x3"
  type: "ReLU"
  bottom: "fire7/expand3x3"
  top: "fire7/expand3x3"
}
layer {
  name: "fire7/concat"
  type: "Concat"
  bottom: "fire7/expand1x1"
  bottom: "fire7/expand3x3"
  top: "fire7/concat"
}
layer {
  name: "fire8/squeeze1x1"
  type: "Convolution"
  bottom: "fire7/concat"
  top: "fire8/squeeze1x1"
  convolution_param {
    num_output: 64
    kernel_size: 1
    weight_filler {
      type: "xavier"
    }
  }
}
layer {
  name: "fire8/relu_squeeze1x1"
  type: "ReLU"
  bottom: "fire8/squeeze1x1"
  top: "fire8/squeeze1x1"
}
layer {
  name: "fire8/expand1x1"
  type: "Convolution"
  bottom: "fire8/squeeze1x1"
  top: "fire8/expand1x1"
  convolution_param {
    num_output: 256
    kernel_size: 1
    weight_filler {
      type: "xavier"
    }
  }
}
layer {
  name: "fire8/relu_expand1x1"
  type: "ReLU"
  bottom: "fire8/expand1x1"
  top: "fire8/expand1x1"
}
layer {
  name: "fire8/expand3x3"
  type: "Convolution"
  bottom: "fire8/squeeze1x1"
  top: "fire8/expand3x3"
  convolution_param {
    num_output: 256
    pad: 1
    kernel_size: 3
    weight_filler {
      type: "xavier"
    }
  }
}
layer {
  name: "fire8/relu_expand3x3"
  type: "ReLU"
  bottom: "fire8/expand3x3"
  top: "fire8/expand3x3"
}
layer {
  name: "fire8/concat"
  type: "Concat"
  bottom: "fire8/expand1x1"
  bottom: "fire8/expand3x3"
  top: "fire8/concat"
}
layer {
  name: "fire9/squeeze1x1"
  type: "Convolution"
  bottom: "fire8/concat"
  top: "fire9/squeeze1x1"
  convolution_param {
    num_output: 64
    kernel_size: 1
    weight_filler {
      type: "xavier"
    }
  }
}
layer {
  name: "fire9/relu_squeeze1x1"
  type: "ReLU"
  bottom: "fire9/squeeze1x1"
  top: "fire9/squeeze1x1"
}
layer {
  name: "fire9/expand1x1"
  type: "Convolution"
  bottom: "fire9/squeeze1x1"
  top: "fire9/expand1x1"
  convolution_param {
    num_output: 256
    kernel_size: 1
    weight_filler {
      type: "xavier"
    }
  }
}
layer {
  name: "fire9/relu_expand1x1"
  type: "ReLU"
  bottom: "fire9/expand1x1"
  top: "fire9/expand1x1"
}
layer {
  name: "fire9/expand3x3"
  type: "Convolution"
  bottom: "fire9/squeeze1x1"
  top: "fire9/expand3x3"
  convolution_param {
    num_output: 256
    pad: 1
    kernel_size: 3
    weight_filler {
      type: "xavier"
    }
  }
}
layer {
  name: "fire9/relu_expand3x3"
  type: "ReLU"
  bottom: "fire9/expand3x3"
  top: "fire9/expand3x3"
}
layer {
  name: "fire9/concat"
  type: "Concat"
  bottom: "fire9/expand1x1"
  bottom: "fire9/expand3x3"
  top: "fire9/concat"
}
layer {
  name: "drop9"
  type: "Dropout"
  bottom: "fire9/concat"
  top: "fire9/concat"
  dropout_param {
    dropout_ratio: 0.5
  }
}
layer {
  name: "conv10_2626"
  type: "Convolution"
  bottom: "fire9/concat"
  top: "conv10_2626"
  param {
    lr_mult: 10
    decay_mult: 1
  }
  convolution_param {
    num_output: 2626
    kernel_size: 1
    weight_filler {
      type: "gaussian"
      mean: 0
      std: 0.01
    }
  }
}
layer {
  name: "relu_conv10"
  type: "ReLU"
  bottom: "conv10_2626"
  top: "conv10_2626"
}
layer {
  name: "pool10"
  type: "Pooling"
  bottom: "conv10_2626"
  top: "pool10"
  pooling_param {
    pool: AVE
    global_pooling: true
  }
}
layer {
  name: "loss"
  type: "SoftmaxWithLoss"
  bottom: "pool10"
  bottom: "label"
  top: "loss"
}
layer {
  name: "accuracy"
  type: "Accuracy"
  bottom: "pool10"
  bottom: "label"
  top: "accuracy"
  include {
    phase: TEST
  }
}
I1021 10:30:52.247551 11321 layer_factory.hpp:77] Creating layer data
I1021 10:30:52.247822 11321 net.cpp:100] Creating Layer data
I1021 10:30:52.247844 11321 net.cpp:408] data -> data
I1021 10:30:52.247860 11321 net.cpp:408] data -> label
I1021 10:30:52.247872 11321 data_transformer.cpp:25] Loading mean file from: /share/zhh/mean.binaryproto
I1021 10:30:52.285328 11341 db_lmdb.cpp:35] Opened lmdb /share/front/test_lmdb
I1021 10:30:52.313302 11321 data_layer.cpp:41] output data size: 100,3,227,227
I1021 10:30:52.464973 11321 net.cpp:150] Setting up data
I1021 10:30:52.465025 11321 net.cpp:157] Top shape: 100 3 227 227 (15458700)
I1021 10:30:52.465037 11321 net.cpp:157] Top shape: 100 (100)
I1021 10:30:52.465044 11321 net.cpp:165] Memory required for data: 61835200
I1021 10:30:52.465054 11321 layer_factory.hpp:77] Creating layer label_data_1_split
I1021 10:30:52.465077 11321 net.cpp:100] Creating Layer label_data_1_split
I1021 10:30:52.465092 11321 net.cpp:434] label_data_1_split <- label
I1021 10:30:52.465111 11321 net.cpp:408] label_data_1_split -> label_data_1_split_0
I1021 10:30:52.465131 11321 net.cpp:408] label_data_1_split -> label_data_1_split_1
I1021 10:30:52.465601 11321 net.cpp:150] Setting up label_data_1_split
I1021 10:30:52.465625 11321 net.cpp:157] Top shape: 100 (100)
I1021 10:30:52.465637 11321 net.cpp:157] Top shape: 100 (100)
I1021 10:30:52.465642 11321 net.cpp:165] Memory required for data: 61836000
I1021 10:30:52.465648 11321 layer_factory.hpp:77] Creating layer conv1
I1021 10:30:52.465663 11321 net.cpp:100] Creating Layer conv1
I1021 10:30:52.465672 11321 net.cpp:434] conv1 <- data
I1021 10:30:52.465679 11321 net.cpp:408] conv1 -> conv1
I1021 10:30:52.469502 11321 net.cpp:150] Setting up conv1
I1021 10:30:52.469535 11321 net.cpp:157] Top shape: 100 64 113 113 (81721600)
I1021 10:30:52.469540 11321 net.cpp:165] Memory required for data: 388722400
I1021 10:30:52.469558 11321 layer_factory.hpp:77] Creating layer relu_conv1
I1021 10:30:52.469570 11321 net.cpp:100] Creating Layer relu_conv1
I1021 10:30:52.469575 11321 net.cpp:434] relu_conv1 <- conv1
I1021 10:30:52.469583 11321 net.cpp:395] relu_conv1 -> conv1 (in-place)
I1021 10:30:52.469854 11321 net.cpp:150] Setting up relu_conv1
I1021 10:30:52.469869 11321 net.cpp:157] Top shape: 100 64 113 113 (81721600)
I1021 10:30:52.469882 11321 net.cpp:165] Memory required for data: 715608800
I1021 10:30:52.469885 11321 layer_factory.hpp:77] Creating layer pool1
I1021 10:30:52.469897 11321 net.cpp:100] Creating Layer pool1
I1021 10:30:52.469902 11321 net.cpp:434] pool1 <- conv1
I1021 10:30:52.469910 11321 net.cpp:408] pool1 -> pool1
I1021 10:30:52.469982 11321 net.cpp:150] Setting up pool1
I1021 10:30:52.469993 11321 net.cpp:157] Top shape: 100 64 56 56 (20070400)
I1021 10:30:52.469998 11321 net.cpp:165] Memory required for data: 795890400
I1021 10:30:52.470003 11321 layer_factory.hpp:77] Creating layer fire2/squeeze1x1
I1021 10:30:52.470015 11321 net.cpp:100] Creating Layer fire2/squeeze1x1
I1021 10:30:52.470019 11321 net.cpp:434] fire2/squeeze1x1 <- pool1
I1021 10:30:52.470051 11321 net.cpp:408] fire2/squeeze1x1 -> fire2/squeeze1x1
I1021 10:30:52.480590 11321 net.cpp:150] Setting up fire2/squeeze1x1
I1021 10:30:52.480628 11321 net.cpp:157] Top shape: 100 16 56 56 (5017600)
I1021 10:30:52.480633 11321 net.cpp:165] Memory required for data: 815960800
I1021 10:30:52.480650 11321 layer_factory.hpp:77] Creating layer fire2/relu_squeeze1x1
I1021 10:30:52.480662 11321 net.cpp:100] Creating Layer fire2/relu_squeeze1x1
I1021 10:30:52.480669 11321 net.cpp:434] fire2/relu_squeeze1x1 <- fire2/squeeze1x1
I1021 10:30:52.480676 11321 net.cpp:395] fire2/relu_squeeze1x1 -> fire2/squeeze1x1 (in-place)
I1021 10:30:52.481336 11321 net.cpp:150] Setting up fire2/relu_squeeze1x1
I1021 10:30:52.481369 11321 net.cpp:157] Top shape: 100 16 56 56 (5017600)
I1021 10:30:52.481375 11321 net.cpp:165] Memory required for data: 836031200
I1021 10:30:52.481381 11321 layer_factory.hpp:77] Creating layer fire2/squeeze1x1_fire2/relu_squeeze1x1_0_split
I1021 10:30:52.481391 11321 net.cpp:100] Creating Layer fire2/squeeze1x1_fire2/relu_squeeze1x1_0_split
I1021 10:30:52.481397 11321 net.cpp:434] fire2/squeeze1x1_fire2/relu_squeeze1x1_0_split <- fire2/squeeze1x1
I1021 10:30:52.481407 11321 net.cpp:408] fire2/squeeze1x1_fire2/relu_squeeze1x1_0_split -> fire2/squeeze1x1_fire2/relu_squeeze1x1_0_split_0
I1021 10:30:52.481420 11321 net.cpp:408] fire2/squeeze1x1_fire2/relu_squeeze1x1_0_split -> fire2/squeeze1x1_fire2/relu_squeeze1x1_0_split_1
I1021 10:30:52.481503 11321 net.cpp:150] Setting up fire2/squeeze1x1_fire2/relu_squeeze1x1_0_split
I1021 10:30:52.481515 11321 net.cpp:157] Top shape: 100 16 56 56 (5017600)
I1021 10:30:52.481523 11321 net.cpp:157] Top shape: 100 16 56 56 (5017600)
I1021 10:30:52.481525 11321 net.cpp:165] Memory required for data: 876172000
I1021 10:30:52.481530 11321 layer_factory.hpp:77] Creating layer fire2/expand1x1
I1021 10:30:52.481545 11321 net.cpp:100] Creating Layer fire2/expand1x1
I1021 10:30:52.481554 11321 net.cpp:434] fire2/expand1x1 <- fire2/squeeze1x1_fire2/relu_squeeze1x1_0_split_0
I1021 10:30:52.481564 11321 net.cpp:408] fire2/expand1x1 -> fire2/expand1x1
I1021 10:30:52.483438 11321 net.cpp:150] Setting up fire2/expand1x1
I1021 10:30:52.483471 11321 net.cpp:157] Top shape: 100 64 56 56 (20070400)
I1021 10:30:52.483477 11321 net.cpp:165] Memory required for data: 956453600
I1021 10:30:52.483492 11321 layer_factory.hpp:77] Creating layer fire2/relu_expand1x1
I1021 10:30:52.483502 11321 net.cpp:100] Creating Layer fire2/relu_expand1x1
I1021 10:30:52.483510 11321 net.cpp:434] fire2/relu_expand1x1 <- fire2/expand1x1
I1021 10:30:52.483518 11321 net.cpp:395] fire2/relu_expand1x1 -> fire2/expand1x1 (in-place)
I1021 10:30:52.483849 11321 net.cpp:150] Setting up fire2/relu_expand1x1
I1021 10:30:52.483863 11321 net.cpp:157] Top shape: 100 64 56 56 (20070400)
I1021 10:30:52.483870 11321 net.cpp:165] Memory required for data: 1036735200
I1021 10:30:52.483875 11321 layer_factory.hpp:77] Creating layer fire2/expand3x3
I1021 10:30:52.483888 11321 net.cpp:100] Creating Layer fire2/expand3x3
I1021 10:30:52.483894 11321 net.cpp:434] fire2/expand3x3 <- fire2/squeeze1x1_fire2/relu_squeeze1x1_0_split_1
I1021 10:30:52.483906 11321 net.cpp:408] fire2/expand3x3 -> fire2/expand3x3
I1021 10:30:52.485368 11321 net.cpp:150] Setting up fire2/expand3x3
I1021 10:30:52.485383 11321 net.cpp:157] Top shape: 100 64 56 56 (20070400)
I1021 10:30:52.485397 11321 net.cpp:165] Memory required for data: 1117016800
I1021 10:30:52.485404 11321 layer_factory.hpp:77] Creating layer fire2/relu_expand3x3
I1021 10:30:52.485410 11321 net.cpp:100] Creating Layer fire2/relu_expand3x3
I1021 10:30:52.485415 11321 net.cpp:434] fire2/relu_expand3x3 <- fire2/expand3x3
I1021 10:30:52.485421 11321 net.cpp:395] fire2/relu_expand3x3 -> fire2/expand3x3 (in-place)
I1021 10:30:52.485617 11321 net.cpp:150] Setting up fire2/relu_expand3x3
I1021 10:30:52.485628 11321 net.cpp:157] Top shape: 100 64 56 56 (20070400)
I1021 10:30:52.485632 11321 net.cpp:165] Memory required for data: 1197298400
I1021 10:30:52.485635 11321 layer_factory.hpp:77] Creating layer fire2/concat
I1021 10:30:52.485656 11321 net.cpp:100] Creating Layer fire2/concat
I1021 10:30:52.485659 11321 net.cpp:434] fire2/concat <- fire2/expand1x1
I1021 10:30:52.485664 11321 net.cpp:434] fire2/concat <- fire2/expand3x3
I1021 10:30:52.485669 11321 net.cpp:408] fire2/concat -> fire2/concat
I1021 10:30:52.485702 11321 net.cpp:150] Setting up fire2/concat
I1021 10:30:52.485710 11321 net.cpp:157] Top shape: 100 128 56 56 (40140800)
I1021 10:30:52.485713 11321 net.cpp:165] Memory required for data: 1357861600
I1021 10:30:52.485718 11321 layer_factory.hpp:77] Creating layer fire3/squeeze1x1
I1021 10:30:52.485724 11321 net.cpp:100] Creating Layer fire3/squeeze1x1
I1021 10:30:52.485728 11321 net.cpp:434] fire3/squeeze1x1 <- fire2/concat
I1021 10:30:52.485733 11321 net.cpp:408] fire3/squeeze1x1 -> fire3/squeeze1x1
I1021 10:30:52.487275 11321 net.cpp:150] Setting up fire3/squeeze1x1
I1021 10:30:52.487290 11321 net.cpp:157] Top shape: 100 16 56 56 (5017600)
I1021 10:30:52.487305 11321 net.cpp:165] Memory required for data: 1377932000
I1021 10:30:52.487315 11321 layer_factory.hpp:77] Creating layer fire3/relu_squeeze1x1
I1021 10:30:52.487321 11321 net.cpp:100] Creating Layer fire3/relu_squeeze1x1
I1021 10:30:52.487336 11321 net.cpp:434] fire3/relu_squeeze1x1 <- fire3/squeeze1x1
I1021 10:30:52.487342 11321 net.cpp:395] fire3/relu_squeeze1x1 -> fire3/squeeze1x1 (in-place)
I1021 10:30:52.487756 11321 net.cpp:150] Setting up fire3/relu_squeeze1x1
I1021 10:30:52.487769 11321 net.cpp:157] Top shape: 100 16 56 56 (5017600)
I1021 10:30:52.487773 11321 net.cpp:165] Memory required for data: 1398002400
I1021 10:30:52.487777 11321 layer_factory.hpp:77] Creating layer fire3/squeeze1x1_fire3/relu_squeeze1x1_0_split
I1021 10:30:52.487794 11321 net.cpp:100] Creating Layer fire3/squeeze1x1_fire3/relu_squeeze1x1_0_split
I1021 10:30:52.487798 11321 net.cpp:434] fire3/squeeze1x1_fire3/relu_squeeze1x1_0_split <- fire3/squeeze1x1
I1021 10:30:52.487804 11321 net.cpp:408] fire3/squeeze1x1_fire3/relu_squeeze1x1_0_split -> fire3/squeeze1x1_fire3/relu_squeeze1x1_0_split_0
I1021 10:30:52.487812 11321 net.cpp:408] fire3/squeeze1x1_fire3/relu_squeeze1x1_0_split -> fire3/squeeze1x1_fire3/relu_squeeze1x1_0_split_1
I1021 10:30:52.487857 11321 net.cpp:150] Setting up fire3/squeeze1x1_fire3/relu_squeeze1x1_0_split
I1021 10:30:52.487865 11321 net.cpp:157] Top shape: 100 16 56 56 (5017600)
I1021 10:30:52.487869 11321 net.cpp:157] Top shape: 100 16 56 56 (5017600)
I1021 10:30:52.487872 11321 net.cpp:165] Memory required for data: 1438143200
I1021 10:30:52.487876 11321 layer_factory.hpp:77] Creating layer fire3/expand1x1
I1021 10:30:52.487885 11321 net.cpp:100] Creating Layer fire3/expand1x1
I1021 10:30:52.487890 11321 net.cpp:434] fire3/expand1x1 <- fire3/squeeze1x1_fire3/relu_squeeze1x1_0_split_0
I1021 10:30:52.487895 11321 net.cpp:408] fire3/expand1x1 -> fire3/expand1x1
I1021 10:30:52.489110 11321 net.cpp:150] Setting up fire3/expand1x1
I1021 10:30:52.489125 11321 net.cpp:157] Top shape: 100 64 56 56 (20070400)
I1021 10:30:52.489130 11321 net.cpp:165] Memory required for data: 1518424800
I1021 10:30:52.489136 11321 layer_factory.hpp:77] Creating layer fire3/relu_expand1x1
I1021 10:30:52.489143 11321 net.cpp:100] Creating Layer fire3/relu_expand1x1
I1021 10:30:52.489147 11321 net.cpp:434] fire3/relu_expand1x1 <- fire3/expand1x1
I1021 10:30:52.489153 11321 net.cpp:395] fire3/relu_expand1x1 -> fire3/expand1x1 (in-place)
I1021 10:30:52.489323 11321 net.cpp:150] Setting up fire3/relu_expand1x1
I1021 10:30:52.489334 11321 net.cpp:157] Top shape: 100 64 56 56 (20070400)
I1021 10:30:52.489337 11321 net.cpp:165] Memory required for data: 1598706400
I1021 10:30:52.489341 11321 layer_factory.hpp:77] Creating layer fire3/expand3x3
I1021 10:30:52.489349 11321 net.cpp:100] Creating Layer fire3/expand3x3
I1021 10:30:52.489353 11321 net.cpp:434] fire3/expand3x3 <- fire3/squeeze1x1_fire3/relu_squeeze1x1_0_split_1
I1021 10:30:52.489359 11321 net.cpp:408] fire3/expand3x3 -> fire3/expand3x3
I1021 10:30:52.490722 11321 net.cpp:150] Setting up fire3/expand3x3
I1021 10:30:52.490748 11321 net.cpp:157] Top shape: 100 64 56 56 (20070400)
I1021 10:30:52.490763 11321 net.cpp:165] Memory required for data: 1678988000
I1021 10:30:52.490770 11321 layer_factory.hpp:77] Creating layer fire3/relu_expand3x3
I1021 10:30:52.490777 11321 net.cpp:100] Creating Layer fire3/relu_expand3x3
I1021 10:30:52.490782 11321 net.cpp:434] fire3/relu_expand3x3 <- fire3/expand3x3
I1021 10:30:52.490787 11321 net.cpp:395] fire3/relu_expand3x3 -> fire3/expand3x3 (in-place)
I1021 10:30:52.490991 11321 net.cpp:150] Setting up fire3/relu_expand3x3
I1021 10:30:52.491003 11321 net.cpp:157] Top shape: 100 64 56 56 (20070400)
I1021 10:30:52.491005 11321 net.cpp:165] Memory required for data: 1759269600
I1021 10:30:52.491008 11321 layer_factory.hpp:77] Creating layer fire3/concat
I1021 10:30:52.491014 11321 net.cpp:100] Creating Layer fire3/concat
I1021 10:30:52.491017 11321 net.cpp:434] fire3/concat <- fire3/expand1x1
I1021 10:30:52.491024 11321 net.cpp:434] fire3/concat <- fire3/expand3x3
I1021 10:30:52.491029 11321 net.cpp:408] fire3/concat -> fire3/concat
I1021 10:30:52.491060 11321 net.cpp:150] Setting up fire3/concat
I1021 10:30:52.491067 11321 net.cpp:157] Top shape: 100 128 56 56 (40140800)
I1021 10:30:52.491070 11321 net.cpp:165] Memory required for data: 1919832800
I1021 10:30:52.491075 11321 layer_factory.hpp:77] Creating layer pool3
I1021 10:30:52.491080 11321 net.cpp:100] Creating Layer pool3
I1021 10:30:52.491084 11321 net.cpp:434] pool3 <- fire3/concat
I1021 10:30:52.491089 11321 net.cpp:408] pool3 -> pool3
I1021 10:30:52.491132 11321 net.cpp:150] Setting up pool3
I1021 10:30:52.491138 11321 net.cpp:157] Top shape: 100 128 28 28 (10035200)
I1021 10:30:52.491142 11321 net.cpp:165] Memory required for data: 1959973600
I1021 10:30:52.491144 11321 layer_factory.hpp:77] Creating layer fire4/squeeze1x1
I1021 10:30:52.491153 11321 net.cpp:100] Creating Layer fire4/squeeze1x1
I1021 10:30:52.491156 11321 net.cpp:434] fire4/squeeze1x1 <- pool3
I1021 10:30:52.491161 11321 net.cpp:408] fire4/squeeze1x1 -> fire4/squeeze1x1
I1021 10:30:52.492600 11321 net.cpp:150] Setting up fire4/squeeze1x1
I1021 10:30:52.492621 11321 net.cpp:157] Top shape: 100 32 28 28 (2508800)
I1021 10:30:52.492627 11321 net.cpp:165] Memory required for data: 1970008800
I1021 10:30:52.492637 11321 layer_factory.hpp:77] Creating layer fire4/relu_squeeze1x1
I1021 10:30:52.492662 11321 net.cpp:100] Creating Layer fire4/relu_squeeze1x1
I1021 10:30:52.492668 11321 net.cpp:434] fire4/relu_squeeze1x1 <- fire4/squeeze1x1
I1021 10:30:52.492678 11321 net.cpp:395] fire4/relu_squeeze1x1 -> fire4/squeeze1x1 (in-place)
I1021 10:30:52.493242 11321 net.cpp:150] Setting up fire4/relu_squeeze1x1
I1021 10:30:52.493274 11321 net.cpp:157] Top shape: 100 32 28 28 (2508800)
I1021 10:30:52.493280 11321 net.cpp:165] Memory required for data: 1980044000
I1021 10:30:52.493286 11321 layer_factory.hpp:77] Creating layer fire4/squeeze1x1_fire4/relu_squeeze1x1_0_split
I1021 10:30:52.493295 11321 net.cpp:100] Creating Layer fire4/squeeze1x1_fire4/relu_squeeze1x1_0_split
I1021 10:30:52.493302 11321 net.cpp:434] fire4/squeeze1x1_fire4/relu_squeeze1x1_0_split <- fire4/squeeze1x1
I1021 10:30:52.493317 11321 net.cpp:408] fire4/squeeze1x1_fire4/relu_squeeze1x1_0_split -> fire4/squeeze1x1_fire4/relu_squeeze1x1_0_split_0
I1021 10:30:52.493329 11321 net.cpp:408] fire4/squeeze1x1_fire4/relu_squeeze1x1_0_split -> fire4/squeeze1x1_fire4/relu_squeeze1x1_0_split_1
I1021 10:30:52.493408 11321 net.cpp:150] Setting up fire4/squeeze1x1_fire4/relu_squeeze1x1_0_split
I1021 10:30:52.493419 11321 net.cpp:157] Top shape: 100 32 28 28 (2508800)
I1021 10:30:52.493427 11321 net.cpp:157] Top shape: 100 32 28 28 (2508800)
I1021 10:30:52.493432 11321 net.cpp:165] Memory required for data: 2000114400
I1021 10:30:52.493438 11321 layer_factory.hpp:77] Creating layer fire4/expand1x1
I1021 10:30:52.493449 11321 net.cpp:100] Creating Layer fire4/expand1x1
I1021 10:30:52.493461 11321 net.cpp:434] fire4/expand1x1 <- fire4/squeeze1x1_fire4/relu_squeeze1x1_0_split_0
I1021 10:30:52.493479 11321 net.cpp:408] fire4/expand1x1 -> fire4/expand1x1
I1021 10:30:52.495499 11321 net.cpp:150] Setting up fire4/expand1x1
I1021 10:30:52.495524 11321 net.cpp:157] Top shape: 100 128 28 28 (10035200)
I1021 10:30:52.495548 11321 net.cpp:165] Memory required for data: 2040255200
I1021 10:30:52.495575 11321 layer_factory.hpp:77] Creating layer fire4/relu_expand1x1
I1021 10:30:52.495591 11321 net.cpp:100] Creating Layer fire4/relu_expand1x1
I1021 10:30:52.495607 11321 net.cpp:434] fire4/relu_expand1x1 <- fire4/expand1x1
I1021 10:30:52.495647 11321 net.cpp:395] fire4/relu_expand1x1 -> fire4/expand1x1 (in-place)
I1021 10:30:52.495975 11321 net.cpp:150] Setting up fire4/relu_expand1x1
I1021 10:30:52.495996 11321 net.cpp:157] Top shape: 100 128 28 28 (10035200)
I1021 10:30:52.496013 11321 net.cpp:165] Memory required for data: 2080396000
I1021 10:30:52.496026 11321 layer_factory.hpp:77] Creating layer fire4/expand3x3
I1021 10:30:52.496050 11321 net.cpp:100] Creating Layer fire4/expand3x3
I1021 10:30:52.496062 11321 net.cpp:434] fire4/expand3x3 <- fire4/squeeze1x1_fire4/relu_squeeze1x1_0_split_1
I1021 10:30:52.496084 11321 net.cpp:408] fire4/expand3x3 -> fire4/expand3x3
I1021 10:30:52.497972 11321 net.cpp:150] Setting up fire4/expand3x3
I1021 10:30:52.497987 11321 net.cpp:157] Top shape: 100 128 28 28 (10035200)
I1021 10:30:52.497994 11321 net.cpp:165] Memory required for data: 2120536800
I1021 10:30:52.498018 11321 layer_factory.hpp:77] Creating layer fire4/relu_expand3x3
I1021 10:30:52.498028 11321 net.cpp:100] Creating Layer fire4/relu_expand3x3
I1021 10:30:52.498035 11321 net.cpp:434] fire4/relu_expand3x3 <- fire4/expand3x3
I1021 10:30:52.498045 11321 net.cpp:395] fire4/relu_expand3x3 -> fire4/expand3x3 (in-place)
I1021 10:30:52.498229 11321 net.cpp:150] Setting up fire4/relu_expand3x3
I1021 10:30:52.498242 11321 net.cpp:157] Top shape: 100 128 28 28 (10035200)
I1021 10:30:52.498248 11321 net.cpp:165] Memory required for data: 2160677600
I1021 10:30:52.498255 11321 layer_factory.hpp:77] Creating layer fire4/concat
I1021 10:30:52.498265 11321 net.cpp:100] Creating Layer fire4/concat
I1021 10:30:52.498271 11321 net.cpp:434] fire4/concat <- fire4/expand1x1
I1021 10:30:52.498281 11321 net.cpp:434] fire4/concat <- fire4/expand3x3
I1021 10:30:52.498289 11321 net.cpp:408] fire4/concat -> fire4/concat
I1021 10:30:52.498332 11321 net.cpp:150] Setting up fire4/concat
I1021 10:30:52.498342 11321 net.cpp:157] Top shape: 100 256 28 28 (20070400)
I1021 10:30:52.498348 11321 net.cpp:165] Memory required for data: 2240959200
I1021 10:30:52.498355 11321 layer_factory.hpp:77] Creating layer fire5/squeeze1x1
I1021 10:30:52.498368 11321 net.cpp:100] Creating Layer fire5/squeeze1x1
I1021 10:30:52.498376 11321 net.cpp:434] fire5/squeeze1x1 <- fire4/concat
I1021 10:30:52.498388 11321 net.cpp:408] fire5/squeeze1x1 -> fire5/squeeze1x1
I1021 10:30:52.499843 11321 net.cpp:150] Setting up fire5/squeeze1x1
I1021 10:30:52.499862 11321 net.cpp:157] Top shape: 100 32 28 28 (2508800)
I1021 10:30:52.499868 11321 net.cpp:165] Memory required for data: 2250994400
I1021 10:30:52.499891 11321 layer_factory.hpp:77] Creating layer fire5/relu_squeeze1x1
I1021 10:30:52.499902 11321 net.cpp:100] Creating Layer fire5/relu_squeeze1x1
I1021 10:30:52.499909 11321 net.cpp:434] fire5/relu_squeeze1x1 <- fire5/squeeze1x1
I1021 10:30:52.499919 11321 net.cpp:395] fire5/relu_squeeze1x1 -> fire5/squeeze1x1 (in-place)
I1021 10:30:52.500363 11321 net.cpp:150] Setting up fire5/relu_squeeze1x1
I1021 10:30:52.500380 11321 net.cpp:157] Top shape: 100 32 28 28 (2508800)
I1021 10:30:52.500385 11321 net.cpp:165] Memory required for data: 2261029600
I1021 10:30:52.500391 11321 layer_factory.hpp:77] Creating layer fire5/squeeze1x1_fire5/relu_squeeze1x1_0_split
I1021 10:30:52.500419 11321 net.cpp:100] Creating Layer fire5/squeeze1x1_fire5/relu_squeeze1x1_0_split
I1021 10:30:52.500427 11321 net.cpp:434] fire5/squeeze1x1_fire5/relu_squeeze1x1_0_split <- fire5/squeeze1x1
I1021 10:30:52.500440 11321 net.cpp:408] fire5/squeeze1x1_fire5/relu_squeeze1x1_0_split -> fire5/squeeze1x1_fire5/relu_squeeze1x1_0_split_0
I1021 10:30:52.500455 11321 net.cpp:408] fire5/squeeze1x1_fire5/relu_squeeze1x1_0_split -> fire5/squeeze1x1_fire5/relu_squeeze1x1_0_split_1
I1021 10:30:52.500536 11321 net.cpp:150] Setting up fire5/squeeze1x1_fire5/relu_squeeze1x1_0_split
I1021 10:30:52.500550 11321 net.cpp:157] Top shape: 100 32 28 28 (2508800)
I1021 10:30:52.500560 11321 net.cpp:157] Top shape: 100 32 28 28 (2508800)
I1021 10:30:52.500566 11321 net.cpp:165] Memory required for data: 2281100000
I1021 10:30:52.500572 11321 layer_factory.hpp:77] Creating layer fire5/expand1x1
I1021 10:30:52.500586 11321 net.cpp:100] Creating Layer fire5/expand1x1
I1021 10:30:52.500592 11321 net.cpp:434] fire5/expand1x1 <- fire5/squeeze1x1_fire5/relu_squeeze1x1_0_split_0
I1021 10:30:52.500605 11321 net.cpp:408] fire5/expand1x1 -> fire5/expand1x1
I1021 10:30:52.502001 11321 net.cpp:150] Setting up fire5/expand1x1
I1021 10:30:52.502020 11321 net.cpp:157] Top shape: 100 128 28 28 (10035200)
I1021 10:30:52.502027 11321 net.cpp:165] Memory required for data: 2321240800
I1021 10:30:52.502039 11321 layer_factory.hpp:77] Creating layer fire5/relu_expand1x1
I1021 10:30:52.502049 11321 net.cpp:100] Creating Layer fire5/relu_expand1x1
I1021 10:30:52.502059 11321 net.cpp:434] fire5/relu_expand1x1 <- fire5/expand1x1
I1021 10:30:52.502069 11321 net.cpp:395] fire5/relu_expand1x1 -> fire5/expand1x1 (in-place)
I1021 10:30:52.502297 11321 net.cpp:150] Setting up fire5/relu_expand1x1
I1021 10:30:52.502311 11321 net.cpp:157] Top shape: 100 128 28 28 (10035200)
I1021 10:30:52.502317 11321 net.cpp:165] Memory required for data: 2361381600
I1021 10:30:52.502323 11321 layer_factory.hpp:77] Creating layer fire5/expand3x3
I1021 10:30:52.502338 11321 net.cpp:100] Creating Layer fire5/expand3x3
I1021 10:30:52.502347 11321 net.cpp:434] fire5/expand3x3 <- fire5/squeeze1x1_fire5/relu_squeeze1x1_0_split_1
I1021 10:30:52.502358 11321 net.cpp:408] fire5/expand3x3 -> fire5/expand3x3
I1021 10:30:52.504370 11321 net.cpp:150] Setting up fire5/expand3x3
I1021 10:30:52.504387 11321 net.cpp:157] Top shape: 100 128 28 28 (10035200)
I1021 10:30:52.504393 11321 net.cpp:165] Memory required for data: 2401522400
I1021 10:30:52.504426 11321 layer_factory.hpp:77] Creating layer fire5/relu_expand3x3
I1021 10:30:52.504441 11321 net.cpp:100] Creating Layer fire5/relu_expand3x3
I1021 10:30:52.504449 11321 net.cpp:434] fire5/relu_expand3x3 <- fire5/expand3x3
I1021 10:30:52.504462 11321 net.cpp:395] fire5/relu_expand3x3 -> fire5/expand3x3 (in-place)
I1021 10:30:52.504740 11321 net.cpp:150] Setting up fire5/relu_expand3x3
I1021 10:30:52.504767 11321 net.cpp:157] Top shape: 100 128 28 28 (10035200)
I1021 10:30:52.504781 11321 net.cpp:165] Memory required for data: 2441663200
I1021 10:30:52.504794 11321 layer_factory.hpp:77] Creating layer fire5/concat
I1021 10:30:52.504812 11321 net.cpp:100] Creating Layer fire5/concat
I1021 10:30:52.504825 11321 net.cpp:434] fire5/concat <- fire5/expand1x1
I1021 10:30:52.504843 11321 net.cpp:434] fire5/concat <- fire5/expand3x3
I1021 10:30:52.504859 11321 net.cpp:408] fire5/concat -> fire5/concat
I1021 10:30:52.504930 11321 net.cpp:150] Setting up fire5/concat
I1021 10:30:52.504947 11321 net.cpp:157] Top shape: 100 256 28 28 (20070400)
I1021 10:30:52.504961 11321 net.cpp:165] Memory required for data: 2521944800
I1021 10:30:52.504972 11321 layer_factory.hpp:77] Creating layer pool5
I1021 10:30:52.504994 11321 net.cpp:100] Creating Layer pool5
I1021 10:30:52.505005 11321 net.cpp:434] pool5 <- fire5/concat
I1021 10:30:52.505025 11321 net.cpp:408] pool5 -> pool5
I1021 10:30:52.505115 11321 net.cpp:150] Setting up pool5
I1021 10:30:52.505133 11321 net.cpp:157] Top shape: 100 256 14 14 (5017600)
I1021 10:30:52.505146 11321 net.cpp:165] Memory required for data: 2542015200
I1021 10:30:52.505156 11321 layer_factory.hpp:77] Creating layer fire6/squeeze1x1
I1021 10:30:52.505175 11321 net.cpp:100] Creating Layer fire6/squeeze1x1
I1021 10:30:52.505187 11321 net.cpp:434] fire6/squeeze1x1 <- pool5
I1021 10:30:52.505208 11321 net.cpp:408] fire6/squeeze1x1 -> fire6/squeeze1x1
I1021 10:30:52.507419 11321 net.cpp:150] Setting up fire6/squeeze1x1
I1021 10:30:52.534955 11321 net.cpp:157] Top shape: 100 48 14 14 (940800)
I1021 10:30:52.534979 11321 net.cpp:165] Memory required for data: 2545778400
I1021 10:30:52.535004 11321 layer_factory.hpp:77] Creating layer fire6/relu_squeeze1x1
I1021 10:30:52.535025 11321 net.cpp:100] Creating Layer fire6/relu_squeeze1x1
I1021 10:30:52.535038 11321 net.cpp:434] fire6/relu_squeeze1x1 <- fire6/squeeze1x1
I1021 10:30:52.535060 11321 net.cpp:395] fire6/relu_squeeze1x1 -> fire6/squeeze1x1 (in-place)
I1021 10:30:52.536116 11321 net.cpp:150] Setting up fire6/relu_squeeze1x1
I1021 10:30:52.536149 11321 net.cpp:157] Top shape: 100 48 14 14 (940800)
I1021 10:30:52.536159 11321 net.cpp:165] Memory required for data: 2549541600
I1021 10:30:52.536169 11321 layer_factory.hpp:77] Creating layer fire6/squeeze1x1_fire6/relu_squeeze1x1_0_split
I1021 10:30:52.536182 11321 net.cpp:100] Creating Layer fire6/squeeze1x1_fire6/relu_squeeze1x1_0_split
I1021 10:30:52.536193 11321 net.cpp:434] fire6/squeeze1x1_fire6/relu_squeeze1x1_0_split <- fire6/squeeze1x1
I1021 10:30:52.536208 11321 net.cpp:408] fire6/squeeze1x1_fire6/relu_squeeze1x1_0_split -> fire6/squeeze1x1_fire6/relu_squeeze1x1_0_split_0
I1021 10:30:52.536226 11321 net.cpp:408] fire6/squeeze1x1_fire6/relu_squeeze1x1_0_split -> fire6/squeeze1x1_fire6/relu_squeeze1x1_0_split_1
I1021 10:30:52.536387 11321 net.cpp:150] Setting up fire6/squeeze1x1_fire6/relu_squeeze1x1_0_split
I1021 10:30:52.536414 11321 net.cpp:157] Top shape: 100 48 14 14 (940800)
I1021 10:30:52.536433 11321 net.cpp:157] Top shape: 100 48 14 14 (940800)
I1021 10:30:52.536448 11321 net.cpp:165] Memory required for data: 2557068000
I1021 10:30:52.536463 11321 layer_factory.hpp:77] Creating layer fire6/expand1x1
I1021 10:30:52.536496 11321 net.cpp:100] Creating Layer fire6/expand1x1
I1021 10:30:52.536516 11321 net.cpp:434] fire6/expand1x1 <- fire6/squeeze1x1_fire6/relu_squeeze1x1_0_split_0
I1021 10:30:52.536540 11321 net.cpp:408] fire6/expand1x1 -> fire6/expand1x1
I1021 10:30:52.539496 11321 net.cpp:150] Setting up fire6/expand1x1
I1021 10:30:52.539530 11321 net.cpp:157] Top shape: 100 192 14 14 (3763200)
I1021 10:30:52.539547 11321 net.cpp:165] Memory required for data: 2572120800
I1021 10:30:52.539564 11321 layer_factory.hpp:77] Creating layer fire6/relu_expand1x1
I1021 10:30:52.539583 11321 net.cpp:100] Creating Layer fire6/relu_expand1x1
I1021 10:30:52.539595 11321 net.cpp:434] fire6/relu_expand1x1 <- fire6/expand1x1
I1021 10:30:52.539611 11321 net.cpp:395] fire6/relu_expand1x1 -> fire6/expand1x1 (in-place)
I1021 10:30:52.540050 11321 net.cpp:150] Setting up fire6/relu_expand1x1
I1021 10:30:52.540074 11321 net.cpp:157] Top shape: 100 192 14 14 (3763200)
I1021 10:30:52.540083 11321 net.cpp:165] Memory required for data: 2587173600
I1021 10:30:52.540092 11321 layer_factory.hpp:77] Creating layer fire6/expand3x3
I1021 10:30:52.540115 11321 net.cpp:100] Creating Layer fire6/expand3x3
I1021 10:30:52.540125 11321 net.cpp:434] fire6/expand3x3 <- fire6/squeeze1x1_fire6/relu_squeeze1x1_0_split_1
I1021 10:30:52.540141 11321 net.cpp:408] fire6/expand3x3 -> fire6/expand3x3
I1021 10:30:52.544523 11321 net.cpp:150] Setting up fire6/expand3x3
I1021 10:30:52.544555 11321 net.cpp:157] Top shape: 100 192 14 14 (3763200)
I1021 10:30:52.544574 11321 net.cpp:165] Memory required for data: 2602226400
I1021 10:30:52.544591 11321 layer_factory.hpp:77] Creating layer fire6/relu_expand3x3
I1021 10:30:52.544606 11321 net.cpp:100] Creating Layer fire6/relu_expand3x3
I1021 10:30:52.544617 11321 net.cpp:434] fire6/relu_expand3x3 <- fire6/expand3x3
I1021 10:30:52.544632 11321 net.cpp:395] fire6/relu_expand3x3 -> fire6/expand3x3 (in-place)
I1021 10:30:52.545037 11321 net.cpp:150] Setting up fire6/relu_expand3x3
I1021 10:30:52.545058 11321 net.cpp:157] Top shape: 100 192 14 14 (3763200)
I1021 10:30:52.545066 11321 net.cpp:165] Memory required for data: 2617279200
I1021 10:30:52.545075 11321 layer_factory.hpp:77] Creating layer fire6/concat
I1021 10:30:52.545089 11321 net.cpp:100] Creating Layer fire6/concat
I1021 10:30:52.545099 11321 net.cpp:434] fire6/concat <- fire6/expand1x1
I1021 10:30:52.545135 11321 net.cpp:434] fire6/concat <- fire6/expand3x3
I1021 10:30:52.545153 11321 net.cpp:408] fire6/concat -> fire6/concat
I1021 10:30:52.545228 11321 net.cpp:150] Setting up fire6/concat
I1021 10:30:52.545248 11321 net.cpp:157] Top shape: 100 384 14 14 (7526400)
I1021 10:30:52.545255 11321 net.cpp:165] Memory required for data: 2647384800
I1021 10:30:52.545264 11321 layer_factory.hpp:77] Creating layer fire7/squeeze1x1
I1021 10:30:52.545281 11321 net.cpp:100] Creating Layer fire7/squeeze1x1
I1021 10:30:52.545291 11321 net.cpp:434] fire7/squeeze1x1 <- fire6/concat
I1021 10:30:52.545307 11321 net.cpp:408] fire7/squeeze1x1 -> fire7/squeeze1x1
I1021 10:30:52.548435 11321 net.cpp:150] Setting up fire7/squeeze1x1
I1021 10:30:52.548465 11321 net.cpp:157] Top shape: 100 48 14 14 (940800)
I1021 10:30:52.548482 11321 net.cpp:165] Memory required for data: 2651148000
I1021 10:30:52.548513 11321 layer_factory.hpp:77] Creating layer fire7/relu_squeeze1x1
I1021 10:30:52.548530 11321 net.cpp:100] Creating Layer fire7/relu_squeeze1x1
I1021 10:30:52.548540 11321 net.cpp:434] fire7/relu_squeeze1x1 <- fire7/squeeze1x1
I1021 10:30:52.548554 11321 net.cpp:395] fire7/relu_squeeze1x1 -> fire7/squeeze1x1 (in-place)
I1021 10:30:52.549259 11321 net.cpp:150] Setting up fire7/relu_squeeze1x1
I1021 10:30:52.549286 11321 net.cpp:157] Top shape: 100 48 14 14 (940800)
I1021 10:30:52.549295 11321 net.cpp:165] Memory required for data: 2654911200
I1021 10:30:52.549304 11321 layer_factory.hpp:77] Creating layer fire7/squeeze1x1_fire7/relu_squeeze1x1_0_split
I1021 10:30:52.549320 11321 net.cpp:100] Creating Layer fire7/squeeze1x1_fire7/relu_squeeze1x1_0_split
I1021 10:30:52.549335 11321 net.cpp:434] fire7/squeeze1x1_fire7/relu_squeeze1x1_0_split <- fire7/squeeze1x1
I1021 10:30:52.549360 11321 net.cpp:408] fire7/squeeze1x1_fire7/relu_squeeze1x1_0_split -> fire7/squeeze1x1_fire7/relu_squeeze1x1_0_split_0
I1021 10:30:52.549386 11321 net.cpp:408] fire7/squeeze1x1_fire7/relu_squeeze1x1_0_split -> fire7/squeeze1x1_fire7/relu_squeeze1x1_0_split_1
I1021 10:30:52.549518 11321 net.cpp:150] Setting up fire7/squeeze1x1_fire7/relu_squeeze1x1_0_split
I1021 10:30:52.549537 11321 net.cpp:157] Top shape: 100 48 14 14 (940800)
I1021 10:30:52.549547 11321 net.cpp:157] Top shape: 100 48 14 14 (940800)
I1021 10:30:52.549554 11321 net.cpp:165] Memory required for data: 2662437600
I1021 10:30:52.549561 11321 layer_factory.hpp:77] Creating layer fire7/expand1x1
I1021 10:30:52.549582 11321 net.cpp:100] Creating Layer fire7/expand1x1
I1021 10:30:52.549593 11321 net.cpp:434] fire7/expand1x1 <- fire7/squeeze1x1_fire7/relu_squeeze1x1_0_split_0
I1021 10:30:52.549607 11321 net.cpp:408] fire7/expand1x1 -> fire7/expand1x1
I1021 10:30:52.552317 11321 net.cpp:150] Setting up fire7/expand1x1
I1021 10:30:52.552347 11321 net.cpp:157] Top shape: 100 192 14 14 (3763200)
I1021 10:30:52.552363 11321 net.cpp:165] Memory required for data: 2677490400
I1021 10:30:52.552379 11321 layer_factory.hpp:77] Creating layer fire7/relu_expand1x1
I1021 10:30:52.552395 11321 net.cpp:100] Creating Layer fire7/relu_expand1x1
I1021 10:30:52.552407 11321 net.cpp:434] fire7/relu_expand1x1 <- fire7/expand1x1
I1021 10:30:52.552419 11321 net.cpp:395] fire7/relu_expand1x1 -> fire7/expand1x1 (in-place)
I1021 10:30:52.552805 11321 net.cpp:150] Setting up fire7/relu_expand1x1
I1021 10:30:52.552824 11321 net.cpp:157] Top shape: 100 192 14 14 (3763200)
I1021 10:30:52.552832 11321 net.cpp:165] Memory required for data: 2692543200
I1021 10:30:52.552840 11321 layer_factory.hpp:77] Creating layer fire7/expand3x3
I1021 10:30:52.552860 11321 net.cpp:100] Creating Layer fire7/expand3x3
I1021 10:30:52.552870 11321 net.cpp:434] fire7/expand3x3 <- fire7/squeeze1x1_fire7/relu_squeeze1x1_0_split_1
I1021 10:30:52.552884 11321 net.cpp:408] fire7/expand3x3 -> fire7/expand3x3
I1021 10:30:52.557327 11321 net.cpp:150] Setting up fire7/expand3x3
I1021 10:30:52.557379 11321 net.cpp:157] Top shape: 100 192 14 14 (3763200)
I1021 10:30:52.557394 11321 net.cpp:165] Memory required for data: 2707596000
I1021 10:30:52.557432 11321 layer_factory.hpp:77] Creating layer fire7/relu_expand3x3
I1021 10:30:52.557448 11321 net.cpp:100] Creating Layer fire7/relu_expand3x3
I1021 10:30:52.557459 11321 net.cpp:434] fire7/relu_expand3x3 <- fire7/expand3x3
I1021 10:30:52.557476 11321 net.cpp:395] fire7/relu_expand3x3 -> fire7/expand3x3 (in-place)
I1021 10:30:52.557857 11321 net.cpp:150] Setting up fire7/relu_expand3x3
I1021 10:30:52.557878 11321 net.cpp:157] Top shape: 100 192 14 14 (3763200)
I1021 10:30:52.557885 11321 net.cpp:165] Memory required for data: 2722648800
I1021 10:30:52.557893 11321 layer_factory.hpp:77] Creating layer fire7/concat
I1021 10:30:52.557905 11321 net.cpp:100] Creating Layer fire7/concat
I1021 10:30:52.557915 11321 net.cpp:434] fire7/concat <- fire7/expand1x1
I1021 10:30:52.557929 11321 net.cpp:434] fire7/concat <- fire7/expand3x3
I1021 10:30:52.557940 11321 net.cpp:408] fire7/concat -> fire7/concat
I1021 10:30:52.558012 11321 net.cpp:150] Setting up fire7/concat
I1021 10:30:52.558027 11321 net.cpp:157] Top shape: 100 384 14 14 (7526400)
I1021 10:30:52.558034 11321 net.cpp:165] Memory required for data: 2752754400
I1021 10:30:52.558048 11321 layer_factory.hpp:77] Creating layer fire8/squeeze1x1
I1021 10:30:52.558074 11321 net.cpp:100] Creating Layer fire8/squeeze1x1
I1021 10:30:52.558090 11321 net.cpp:434] fire8/squeeze1x1 <- fire7/concat
I1021 10:30:52.558111 11321 net.cpp:408] fire8/squeeze1x1 -> fire8/squeeze1x1
I1021 10:30:52.564467 11321 net.cpp:150] Setting up fire8/squeeze1x1
I1021 10:30:52.564539 11321 net.cpp:157] Top shape: 100 64 14 14 (1254400)
I1021 10:30:52.564568 11321 net.cpp:165] Memory required for data: 2757772000
I1021 10:30:52.564612 11321 layer_factory.hpp:77] Creating layer fire8/relu_squeeze1x1
I1021 10:30:52.564654 11321 net.cpp:100] Creating Layer fire8/relu_squeeze1x1
I1021 10:30:52.564682 11321 net.cpp:434] fire8/relu_squeeze1x1 <- fire8/squeeze1x1
I1021 10:30:52.564725 11321 net.cpp:395] fire8/relu_squeeze1x1 -> fire8/squeeze1x1 (in-place)
I1021 10:30:52.566133 11321 net.cpp:150] Setting up fire8/relu_squeeze1x1
I1021 10:30:52.566187 11321 net.cpp:157] Top shape: 100 64 14 14 (1254400)
I1021 10:30:52.566206 11321 net.cpp:165] Memory required for data: 2762789600
I1021 10:30:52.566220 11321 layer_factory.hpp:77] Creating layer fire8/squeeze1x1_fire8/relu_squeeze1x1_0_split
I1021 10:30:52.566247 11321 net.cpp:100] Creating Layer fire8/squeeze1x1_fire8/relu_squeeze1x1_0_split
I1021 10:30:52.566267 11321 net.cpp:434] fire8/squeeze1x1_fire8/relu_squeeze1x1_0_split <- fire8/squeeze1x1
I1021 10:30:52.566300 11321 net.cpp:408] fire8/squeeze1x1_fire8/relu_squeeze1x1_0_split -> fire8/squeeze1x1_fire8/relu_squeeze1x1_0_split_0
I1021 10:30:52.566337 11321 net.cpp:408] fire8/squeeze1x1_fire8/relu_squeeze1x1_0_split -> fire8/squeeze1x1_fire8/relu_squeeze1x1_0_split_1
I1021 10:30:52.566606 11321 net.cpp:150] Setting up fire8/squeeze1x1_fire8/relu_squeeze1x1_0_split
I1021 10:30:52.566635 11321 net.cpp:157] Top shape: 100 64 14 14 (1254400)
I1021 10:30:52.566656 11321 net.cpp:157] Top shape: 100 64 14 14 (1254400)
I1021 10:30:52.566673 11321 net.cpp:165] Memory required for data: 2772824800
I1021 10:30:52.566691 11321 layer_factory.hpp:77] Creating layer fire8/expand1x1
I1021 10:30:52.566735 11321 net.cpp:100] Creating Layer fire8/expand1x1
I1021 10:30:52.566757 11321 net.cpp:434] fire8/expand1x1 <- fire8/squeeze1x1_fire8/relu_squeeze1x1_0_split_0
I1021 10:30:52.566783 11321 net.cpp:408] fire8/expand1x1 -> fire8/expand1x1
I1021 10:30:52.571288 11321 net.cpp:150] Setting up fire8/expand1x1
I1021 10:30:52.571352 11321 net.cpp:157] Top shape: 100 256 14 14 (5017600)
I1021 10:30:52.571370 11321 net.cpp:165] Memory required for data: 2792895200
I1021 10:30:52.571410 11321 layer_factory.hpp:77] Creating layer fire8/relu_expand1x1
I1021 10:30:52.571442 11321 net.cpp:100] Creating Layer fire8/relu_expand1x1
I1021 10:30:52.571462 11321 net.cpp:434] fire8/relu_expand1x1 <- fire8/expand1x1
I1021 10:30:52.571492 11321 net.cpp:395] fire8/relu_expand1x1 -> fire8/expand1x1 (in-place)
I1021 10:30:52.572247 11321 net.cpp:150] Setting up fire8/relu_expand1x1
I1021 10:30:52.572321 11321 net.cpp:157] Top shape: 100 256 14 14 (5017600)
I1021 10:30:52.572337 11321 net.cpp:165] Memory required for data: 2812965600
I1021 10:30:52.572351 11321 layer_factory.hpp:77] Creating layer fire8/expand3x3
I1021 10:30:52.572383 11321 net.cpp:100] Creating Layer fire8/expand3x3
I1021 10:30:52.572402 11321 net.cpp:434] fire8/expand3x3 <- fire8/squeeze1x1_fire8/relu_squeeze1x1_0_split_1
I1021 10:30:52.572427 11321 net.cpp:408] fire8/expand3x3 -> fire8/expand3x3
I1021 10:30:52.581077 11321 net.cpp:150] Setting up fire8/expand3x3
I1021 10:30:52.581115 11321 net.cpp:157] Top shape: 100 256 14 14 (5017600)
I1021 10:30:52.581122 11321 net.cpp:165] Memory required for data: 2833036000
I1021 10:30:52.581142 11321 layer_factory.hpp:77] Creating layer fire8/relu_expand3x3
I1021 10:30:52.581161 11321 net.cpp:100] Creating Layer fire8/relu_expand3x3
I1021 10:30:52.581172 11321 net.cpp:434] fire8/relu_expand3x3 <- fire8/expand3x3
I1021 10:30:52.581187 11321 net.cpp:395] fire8/relu_expand3x3 -> fire8/expand3x3 (in-place)
I1021 10:30:52.581516 11321 net.cpp:150] Setting up fire8/relu_expand3x3
I1021 10:30:52.581532 11321 net.cpp:157] Top shape: 100 256 14 14 (5017600)
I1021 10:30:52.581540 11321 net.cpp:165] Memory required for data: 2853106400
I1021 10:30:52.581547 11321 layer_factory.hpp:77] Creating layer fire8/concat
I1021 10:30:52.581558 11321 net.cpp:100] Creating Layer fire8/concat
I1021 10:30:52.581567 11321 net.cpp:434] fire8/concat <- fire8/expand1x1
I1021 10:30:52.581578 11321 net.cpp:434] fire8/concat <- fire8/expand3x3
I1021 10:30:52.581589 11321 net.cpp:408] fire8/concat -> fire8/concat
I1021 10:30:52.581655 11321 net.cpp:150] Setting up fire8/concat
I1021 10:30:52.581670 11321 net.cpp:157] Top shape: 100 512 14 14 (10035200)
I1021 10:30:52.581676 11321 net.cpp:165] Memory required for data: 2893247200
I1021 10:30:52.581681 11321 layer_factory.hpp:77] Creating layer fire9/squeeze1x1
I1021 10:30:52.581701 11321 net.cpp:100] Creating Layer fire9/squeeze1x1
I1021 10:30:52.581709 11321 net.cpp:434] fire9/squeeze1x1 <- fire8/concat
I1021 10:30:52.581722 11321 net.cpp:408] fire9/squeeze1x1 -> fire9/squeeze1x1
I1021 10:30:52.584885 11321 net.cpp:150] Setting up fire9/squeeze1x1
I1021 10:30:52.584933 11321 net.cpp:157] Top shape: 100 64 14 14 (1254400)
I1021 10:30:52.584946 11321 net.cpp:165] Memory required for data: 2898264800
I1021 10:30:52.584969 11321 layer_factory.hpp:77] Creating layer fire9/relu_squeeze1x1
I1021 10:30:52.585014 11321 net.cpp:100] Creating Layer fire9/relu_squeeze1x1
I1021 10:30:52.585031 11321 net.cpp:434] fire9/relu_squeeze1x1 <- fire9/squeeze1x1
I1021 10:30:52.585052 11321 net.cpp:395] fire9/relu_squeeze1x1 -> fire9/squeeze1x1 (in-place)
I1021 10:30:52.586164 11321 net.cpp:150] Setting up fire9/relu_squeeze1x1
I1021 10:30:52.586213 11321 net.cpp:157] Top shape: 100 64 14 14 (1254400)
I1021 10:30:52.586226 11321 net.cpp:165] Memory required for data: 2903282400
I1021 10:30:52.586244 11321 layer_factory.hpp:77] Creating layer fire9/squeeze1x1_fire9/relu_squeeze1x1_0_split
I1021 10:30:52.586267 11321 net.cpp:100] Creating Layer fire9/squeeze1x1_fire9/relu_squeeze1x1_0_split
I1021 10:30:52.586285 11321 net.cpp:434] fire9/squeeze1x1_fire9/relu_squeeze1x1_0_split <- fire9/squeeze1x1
I1021 10:30:52.586313 11321 net.cpp:408] fire9/squeeze1x1_fire9/relu_squeeze1x1_0_split -> fire9/squeeze1x1_fire9/relu_squeeze1x1_0_split_0
I1021 10:30:52.586343 11321 net.cpp:408] fire9/squeeze1x1_fire9/relu_squeeze1x1_0_split -> fire9/squeeze1x1_fire9/relu_squeeze1x1_0_split_1
I1021 10:30:52.586550 11321 net.cpp:150] Setting up fire9/squeeze1x1_fire9/relu_squeeze1x1_0_split
I1021 10:30:52.586570 11321 net.cpp:157] Top shape: 100 64 14 14 (1254400)
I1021 10:30:52.586582 11321 net.cpp:157] Top shape: 100 64 14 14 (1254400)
I1021 10:30:52.586592 11321 net.cpp:165] Memory required for data: 2913317600
I1021 10:30:52.586603 11321 layer_factory.hpp:77] Creating layer fire9/expand1x1
I1021 10:30:52.586638 11321 net.cpp:100] Creating Layer fire9/expand1x1
I1021 10:30:52.586688 11321 net.cpp:434] fire9/expand1x1 <- fire9/squeeze1x1_fire9/relu_squeeze1x1_0_split_0
I1021 10:30:52.586710 11321 net.cpp:408] fire9/expand1x1 -> fire9/expand1x1
I1021 10:30:52.591347 11321 net.cpp:150] Setting up fire9/expand1x1
I1021 10:30:52.591372 11321 net.cpp:157] Top shape: 100 256 14 14 (5017600)
I1021 10:30:52.591390 11321 net.cpp:165] Memory required for data: 2933388000
I1021 10:30:52.591409 11321 layer_factory.hpp:77] Creating layer fire9/relu_expand1x1
I1021 10:30:52.591434 11321 net.cpp:100] Creating Layer fire9/relu_expand1x1
I1021 10:30:52.591452 11321 net.cpp:434] fire9/relu_expand1x1 <- fire9/expand1x1
I1021 10:30:52.591480 11321 net.cpp:395] fire9/relu_expand1x1 -> fire9/expand1x1 (in-place)
I1021 10:30:52.592175 11321 net.cpp:150] Setting up fire9/relu_expand1x1
I1021 10:30:52.592209 11321 net.cpp:157] Top shape: 100 256 14 14 (5017600)
I1021 10:30:52.592223 11321 net.cpp:165] Memory required for data: 2953458400
I1021 10:30:52.592237 11321 layer_factory.hpp:77] Creating layer fire9/expand3x3
I1021 10:30:52.592270 11321 net.cpp:100] Creating Layer fire9/expand3x3
I1021 10:30:52.592288 11321 net.cpp:434] fire9/expand3x3 <- fire9/squeeze1x1_fire9/relu_squeeze1x1_0_split_1
I1021 10:30:52.592314 11321 net.cpp:408] fire9/expand3x3 -> fire9/expand3x3
I1021 10:30:52.616049 11321 net.cpp:150] Setting up fire9/expand3x3
I1021 10:30:52.616117 11321 net.cpp:157] Top shape: 100 256 14 14 (5017600)
I1021 10:30:52.616134 11321 net.cpp:165] Memory required for data: 2973528800
I1021 10:30:52.616165 11321 layer_factory.hpp:77] Creating layer fire9/relu_expand3x3
I1021 10:30:52.616197 11321 net.cpp:100] Creating Layer fire9/relu_expand3x3
I1021 10:30:52.616216 11321 net.cpp:434] fire9/relu_expand3x3 <- fire9/expand3x3
I1021 10:30:52.616237 11321 net.cpp:395] fire9/relu_expand3x3 -> fire9/expand3x3 (in-place)
I1021 10:30:52.616869 11321 net.cpp:150] Setting up fire9/relu_expand3x3
I1021 10:30:52.616910 11321 net.cpp:157] Top shape: 100 256 14 14 (5017600)
I1021 10:30:52.616925 11321 net.cpp:165] Memory required for data: 2993599200
I1021 10:30:52.616938 11321 layer_factory.hpp:77] Creating layer fire9/concat
I1021 10:30:52.616960 11321 net.cpp:100] Creating Layer fire9/concat
I1021 10:30:52.616973 11321 net.cpp:434] fire9/concat <- fire9/expand1x1
I1021 10:30:52.616991 11321 net.cpp:434] fire9/concat <- fire9/expand3x3
I1021 10:30:52.617018 11321 net.cpp:408] fire9/concat -> fire9/concat
I1021 10:30:52.617149 11321 net.cpp:150] Setting up fire9/concat
I1021 10:30:52.617172 11321 net.cpp:157] Top shape: 100 512 14 14 (10035200)
I1021 10:30:52.617184 11321 net.cpp:165] Memory required for data: 3033740000
I1021 10:30:52.617197 11321 layer_factory.hpp:77] Creating layer drop9
I1021 10:30:52.617233 11321 net.cpp:100] Creating Layer drop9
I1021 10:30:52.617254 11321 net.cpp:434] drop9 <- fire9/concat
I1021 10:30:52.617285 11321 net.cpp:395] drop9 -> fire9/concat (in-place)
I1021 10:30:52.617419 11321 net.cpp:150] Setting up drop9
I1021 10:30:52.617447 11321 net.cpp:157] Top shape: 100 512 14 14 (10035200)
I1021 10:30:52.617458 11321 net.cpp:165] Memory required for data: 3073880800
I1021 10:30:52.617470 11321 layer_factory.hpp:77] Creating layer conv10_2626
I1021 10:30:52.617512 11321 net.cpp:100] Creating Layer conv10_2626
I1021 10:30:52.617528 11321 net.cpp:434] conv10_2626 <- fire9/concat
I1021 10:30:52.617550 11321 net.cpp:408] conv10_2626 -> conv10_2626
I1021 10:30:52.664659 11321 net.cpp:150] Setting up conv10_2626
I1021 10:30:52.664715 11321 net.cpp:157] Top shape: 100 2626 14 14 (51469600)
I1021 10:30:52.664727 11321 net.cpp:165] Memory required for data: 3279759200
I1021 10:30:52.664750 11321 layer_factory.hpp:77] Creating layer relu_conv10
I1021 10:30:52.664780 11321 net.cpp:100] Creating Layer relu_conv10
I1021 10:30:52.664794 11321 net.cpp:434] relu_conv10 <- conv10_2626
I1021 10:30:52.664813 11321 net.cpp:395] relu_conv10 -> conv10_2626 (in-place)
I1021 10:30:52.665654 11321 net.cpp:150] Setting up relu_conv10
I1021 10:30:52.665686 11321 net.cpp:157] Top shape: 100 2626 14 14 (51469600)
I1021 10:30:52.665724 11321 net.cpp:165] Memory required for data: 3485637600
I1021 10:30:52.665737 11321 layer_factory.hpp:77] Creating layer pool10
I1021 10:30:52.665761 11321 net.cpp:100] Creating Layer pool10
I1021 10:30:52.665771 11321 net.cpp:434] pool10 <- conv10_2626
I1021 10:30:52.665784 11321 net.cpp:408] pool10 -> pool10
I1021 10:30:52.666337 11321 net.cpp:150] Setting up pool10
I1021 10:30:52.666363 11321 net.cpp:157] Top shape: 100 2626 1 1 (262600)
I1021 10:30:52.666373 11321 net.cpp:165] Memory required for data: 3486688000
I1021 10:30:52.666380 11321 layer_factory.hpp:77] Creating layer pool10_pool10_0_split
I1021 10:30:52.666398 11321 net.cpp:100] Creating Layer pool10_pool10_0_split
I1021 10:30:52.666407 11321 net.cpp:434] pool10_pool10_0_split <- pool10
I1021 10:30:52.666434 11321 net.cpp:408] pool10_pool10_0_split -> pool10_pool10_0_split_0
I1021 10:30:52.666452 11321 net.cpp:408] pool10_pool10_0_split -> pool10_pool10_0_split_1
I1021 10:30:52.666582 11321 net.cpp:150] Setting up pool10_pool10_0_split
I1021 10:30:52.666597 11321 net.cpp:157] Top shape: 100 2626 1 1 (262600)
I1021 10:30:52.666604 11321 net.cpp:157] Top shape: 100 2626 1 1 (262600)
I1021 10:30:52.666610 11321 net.cpp:165] Memory required for data: 3488788800
I1021 10:30:52.666617 11321 layer_factory.hpp:77] Creating layer loss
I1021 10:30:52.666630 11321 net.cpp:100] Creating Layer loss
I1021 10:30:52.666641 11321 net.cpp:434] loss <- pool10_pool10_0_split_0
I1021 10:30:52.666652 11321 net.cpp:434] loss <- label_data_1_split_0
I1021 10:30:52.666664 11321 net.cpp:408] loss -> loss
…
