…
I1022 21:19:45.811986 20928 net.cpp:322] The NetState phase (0) differed from the phase (1) specified by a rule in layer data
I1022 21:19:45.812072 20928 net.cpp:322] The NetState phase (0) differed from the phase (1) specified by a rule in layer accuracy
I1022 21:19:45.812664 20928 net.cpp:58] Initializing net from parameters: 
state {
  phase: TRAIN
  level: 0
  stage: ""
}
layer {
  name: "data"
  type: "Data"
  top: "data"
  top: "label"
  include {
    phase: TRAIN
  }
  transform_param {
    crop_size: 227
    mean_file: "/share/zhh/mean.binaryproto"
  }
  data_param {
    source: "/share/front/train_lmdb"
    batch_size: 128
    backend: LMDB
  }
}
layer {
  name: "conv1"
  type: "Convolution"
  bottom: "data"
  top: "conv1"
  convolution_param {
    num_output: 64
    kernel_size: 3
    stride: 2
    weight_filler {
      type: "xavier"
    }
  }
}
layer {
  name: "relu_conv1"
  type: "ReLU"
  bottom: "conv1"
  top: "conv1"
}
layer {
  name: "pool1"
  type: "Pooling"
  bottom: "conv1"
  top: "pool1"
  pooling_param {
    pool: MAX
    kernel_size: 3
    stride: 2
  }
}
layer {
  name: "fire2/squeeze1x1"
  type: "Convolution"
  bottom: "pool1"
  top: "fire2/squeeze1x1"
  convolution_param {
    num_output: 16
    kernel_size: 1
    weight_filler {
      type: "xavier"
    }
  }
}
layer {
  name: "fire2/expand1x1"
  type: "Convolution"
  bottom: "fire2/squeeze1x1"
  top: "fire2/expand1x1"
  convolution_param {
    num_output: 64
    kernel_size: 1
    weight_filler {
      type: "xavier"
    }
  }
}
layer {
  name: "fire2/relu_expand1x1"
  type: "ReLU"
  bottom: "fire2/expand1x1"
  top: "fire2/expand1x1"
}
layer {
  name: "fire2/expand3x3"
  type: "Convolution"
  bottom: "fire2/squeeze1x1"
  top: "fire2/expand3x3"
  convolution_param {
    num_output: 64
    pad: 1
    kernel_size: 3
    weight_filler {
      type: "xavier"
    }
  }
}
layer {
  name: "fire2/relu_expand3x3"
  type: "ReLU"
  bottom: "fire2/expand3x3"
  top: "fire2/expand3x3"
}
layer {
  name: "fire2/concat"
  type: "Concat"
  bottom: "fire2/expand1x1"
  bottom: "fire2/expand3x3"
  top: "fire2/concat"
}
layer {
  name: "fire3/squeeze1x1"
  type: "Convolution"
  bottom: "fire2/concat"
  top: "fire3/squeeze1x1"
  convolution_param {
    num_output: 16
    kernel_size: 1
    weight_filler {
      type: "xavier"
    }
  }
}
layer {
  name: "fire3/expand1x1"
  type: "Convolution"
  bottom: "fire3/squeeze1x1"
  top: "fire3/expand1x1"
  convolution_param {
    num_output: 64
    kernel_size: 1
    weight_filler {
      type: "xavier"
    }
  }
}
layer {
  name: "fire3/relu_expand1x1"
  type: "ReLU"
  bottom: "fire3/expand1x1"
  top: "fire3/expand1x1"
}
layer {
  name: "fire3/expand3x3"
  type: "Convolution"
  bottom: "fire3/squeeze1x1"
  top: "fire3/expand3x3"
  convolution_param {
    num_output: 64
    pad: 1
    kernel_size: 3
    weight_filler {
      type: "xavier"
    }
  }
}
layer {
  name: "fire3/relu_expand3x3"
  type: "ReLU"
  bottom: "fire3/expand3x3"
  top: "fire3/expand3x3"
}
layer {
  name: "fire3/concat"
  type: "Concat"
  bottom: "fire3/expand1x1"
  bottom: "fire3/expand3x3"
  top: "fire3/concat"
}
layer {
  name: "pool3"
  type: "Pooling"
  bottom: "fire3/concat"
  top: "pool3"
  pooling_param {
    pool: MAX
    kernel_size: 3
    stride: 2
  }
}
layer {
  name: "fire4/squeeze1x1"
  type: "Convolution"
  bottom: "pool3"
  top: "fire4/squeeze1x1"
  convolution_param {
    num_output: 32
    kernel_size: 1
    weight_filler {
      type: "xavier"
    }
  }
}
layer {
  name: "fire4/expand1x1"
  type: "Convolution"
  bottom: "fire4/squeeze1x1"
  top: "fire4/expand1x1"
  convolution_param {
    num_output: 128
    kernel_size: 1
    weight_filler {
      type: "xavier"
    }
  }
}
layer {
  name: "fire4/relu_expand1x1"
  type: "ReLU"
  bottom: "fire4/expand1x1"
  top: "fire4/expand1x1"
}
layer {
  name: "fire4/expand3x3"
  type: "Convolution"
  bottom: "fire4/squeeze1x1"
  top: "fire4/expand3x3"
  convolution_param {
    num_output: 128
    pad: 1
    kernel_size: 3
    weight_filler {
      type: "xavier"
    }
  }
}
layer {
  name: "fire4/relu_expand3x3"
  type: "ReLU"
  bottom: "fire4/expand3x3"
  top: "fire4/expand3x3"
}
layer {
  name: "fire4/concat"
  type: "Concat"
  bottom: "fire4/expand1x1"
  bottom: "fire4/expand3x3"
  top: "fire4/concat"
}
layer {
  name: "fire5/squeeze1x1"
  type: "Convolution"
  bottom: "fire4/concat"
  top: "fire5/squeeze1x1"
  convolution_param {
    num_output: 32
    kernel_size: 1
    weight_filler {
      type: "xavier"
    }
  }
}
layer {
  name: "fire5/expand1x1"
  type: "Convolution"
  bottom: "fire5/squeeze1x1"
  top: "fire5/expand1x1"
  convolution_param {
    num_output: 128
    kernel_size: 1
    weight_filler {
      type: "xavier"
    }
  }
}
layer {
  name: "fire5/relu_expand1x1"
  type: "ReLU"
  bottom: "fire5/expand1x1"
  top: "fire5/expand1x1"
}
layer {
  name: "fire5/expand3x3"
  type: "Convolution"
  bottom: "fire5/squeeze1x1"
  top: "fire5/expand3x3"
  convolution_param {
    num_output: 128
    pad: 1
    kernel_size: 3
    weight_filler {
      type: "xavier"
    }
  }
}
layer {
  name: "fire5/relu_expand3x3"
  type: "ReLU"
  bottom: "fire5/expand3x3"
  top: "fire5/expand3x3"
}
layer {
  name: "fire5/concat"
  type: "Concat"
  bottom: "fire5/expand1x1"
  bottom: "fire5/expand3x3"
  top: "fire5/concat"
}
layer {
  name: "pool5"
  type: "Pooling"
  bottom: "fire5/concat"
  top: "pool5"
  pooling_param {
    pool: MAX
    kernel_size: 3
    stride: 2
  }
}
layer {
  name: "fire6/squeeze1x1"
  type: "Convolution"
  bottom: "pool5"
  top: "fire6/squeeze1x1"
  convolution_param {
    num_output: 48
    kernel_size: 1
    weight_filler {
      type: "xavier"
    }
  }
}
layer {
  name: "fire6/expand1x1"
  type: "Convolution"
  bottom: "fire6/squeeze1x1"
  top: "fire6/expand1x1"
  convolution_param {
    num_output: 192
    kernel_size: 1
    weight_filler {
      type: "xavier"
    }
  }
}
layer {
  name: "fire6/relu_expand1x1"
  type: "ReLU"
  bottom: "fire6/expand1x1"
  top: "fire6/expand1x1"
}
layer {
  name: "fire6/expand3x3"
  type: "Convolution"
  bottom: "fire6/squeeze1x1"
  top: "fire6/expand3x3"
  convolution_param {
    num_output: 192
    pad: 1
    kernel_size: 3
    weight_filler {
      type: "xavier"
    }
  }
}
layer {
  name: "fire6/relu_expand3x3"
  type: "ReLU"
  bottom: "fire6/expand3x3"
  top: "fire6/expand3x3"
}
layer {
  name: "fire6/concat"
  type: "Concat"
  bottom: "fire6/expand1x1"
  bottom: "fire6/expand3x3"
  top: "fire6/concat"
}
layer {
  name: "fire7/squeeze1x1"
  type: "Convolution"
  bottom: "fire6/concat"
  top: "fire7/squeeze1x1"
  convolution_param {
    num_output: 48
    kernel_size: 1
    weight_filler {
      type: "xavier"
    }
  }
}
layer {
  name: "fire7/expand1x1"
  type: "Convolution"
  bottom: "fire7/squeeze1x1"
  top: "fire7/expand1x1"
  convolution_param {
    num_output: 192
    kernel_size: 1
    weight_filler {
      type: "xavier"
    }
  }
}
layer {
  name: "fire7/relu_expand1x1"
  type: "ReLU"
  bottom: "fire7/expand1x1"
  top: "fire7/expand1x1"
}
layer {
  name: "fire7/expand3x3"
  type: "Convolution"
  bottom: "fire7/squeeze1x1"
  top: "fire7/expand3x3"
  convolution_param {
    num_output: 192
    pad: 1
    kernel_size: 3
    weight_filler {
      type: "xavier"
    }
  }
}
layer {
  name: "fire7/relu_expand3x3"
  type: "ReLU"
  bottom: "fire7/expand3x3"
  top: "fire7/expand3x3"
}
layer {
  name: "fire7/concat"
  type: "Concat"
  bottom: "fire7/expand1x1"
  bottom: "fire7/expand3x3"
  top: "fire7/concat"
}
layer {
  name: "fire8/squeeze1x1"
  type: "Convolution"
  bottom: "fire7/concat"
  top: "fire8/squeeze1x1"
  convolution_param {
    num_output: 64
    kernel_size: 1
    weight_filler {
      type: "xavier"
    }
  }
}
layer {
  name: "fire8/expand1x1"
  type: "Convolution"
  bottom: "fire8/squeeze1x1"
  top: "fire8/expand1x1"
  convolution_param {
    num_output: 256
    kernel_size: 1
    weight_filler {
      type: "xavier"
    }
  }
}
layer {
  name: "fire8/relu_expand1x1"
  type: "ReLU"
  bottom: "fire8/expand1x1"
  top: "fire8/expand1x1"
}
layer {
  name: "fire8/expand3x3"
  type: "Convolution"
  bottom: "fire8/squeeze1x1"
  top: "fire8/expand3x3"
  convolution_param {
    num_output: 256
    pad: 1
    kernel_size: 3
    weight_filler {
      type: "xavier"
    }
  }
}
layer {
  name: "fire8/relu_expand3x3"
  type: "ReLU"
  bottom: "fire8/expand3x3"
  top: "fire8/expand3x3"
}
layer {
  name: "fire8/concat"
  type: "Concat"
  bottom: "fire8/expand1x1"
  bottom: "fire8/expand3x3"
  top: "fire8/concat"
}
layer {
  name: "fire9/squeeze1x1"
  type: "Convolution"
  bottom: "fire8/concat"
  top: "fire9/squeeze1x1"
  convolution_param {
    num_output: 64
    kernel_size: 1
    weight_filler {
      type: "xavier"
    }
  }
}
layer {
  name: "fire9/expand1x1"
  type: "Convolution"
  bottom: "fire9/squeeze1x1"
  top: "fire9/expand1x1"
  convolution_param {
    num_output: 256
    kernel_size: 1
    weight_filler {
      type: "xavier"
    }
  }
}
layer {
  name: "fire9/relu_expand1x1"
  type: "ReLU"
  bottom: "fire9/expand1x1"
  top: "fire9/expand1x1"
}
layer {
  name: "fire9/expand3x3"
  type: "Convolution"
  bottom: "fire9/squeeze1x1"
  top: "fire9/expand3x3"
  convolution_param {
    num_output: 256
    pad: 1
    kernel_size: 3
    weight_filler {
      type: "xavier"
    }
  }
}
layer {
  name: "fire9/relu_expand3x3"
  type: "ReLU"
  bottom: "fire9/expand3x3"
  top: "fire9/expand3x3"
}
layer {
  name: "fire9/concat"
  type: "Concat"
  bottom: "fire9/expand1x1"
  bottom: "fire9/expand3x3"
  top: "fire9/concat"
}
layer {
  name: "drop9"
  type: "Dropout"
  bottom: "fire9/concat"
  top: "fire9/concat"
  dropout_param {
    dropout_ratio: 0.5
  }
}
layer {
  name: "conv10_2626"
  type: "Convolution"
  bottom: "fire9/concat"
  top: "conv10_2626"
  param {
    lr_mult: 10
    decay_mult: 1
  }
  convolution_param {
    num_output: 2626
    kernel_size: 1
    weight_filler {
      type: "gaussian"
      mean: 0
      std: 0.01
    }
  }
}
layer {
  name: "relu_conv10"
  type: "ReLU"
  bottom: "conv10_2626"
  top: "conv10_2626"
}
layer {
  name: "pool10"
  type: "Pooling"
  bottom: "conv10_2626"
  top: "pool10"
  pooling_param {
    pool: AVE
    global_pooling: true
  }
}
layer {
  name: "loss"
  type: "SoftmaxWithLoss"
  bottom: "pool10"
  bottom: "label"
  top: "loss"
}
I1022 21:19:45.813169 20928 layer_factory.hpp:77] Creating layer data
I1022 21:19:45.813455 20928 net.cpp:100] Creating Layer data
I1022 21:19:45.813484 20928 net.cpp:408] data -> data
I1022 21:19:45.813525 20928 net.cpp:408] data -> label
I1022 21:19:45.813561 20928 data_transformer.cpp:25] Loading mean file from: /share/zhh/mean.binaryproto
I1022 21:19:45.869496 20946 db_lmdb.cpp:35] Opened lmdb /share/front/train_lmdb
I1022 21:19:45.899196 20928 data_layer.cpp:41] output data size: 128,3,227,227
I1022 21:19:46.060541 20928 net.cpp:150] Setting up data
I1022 21:19:46.060601 20928 net.cpp:157] Top shape: 128 3 227 227 (19787136)
I1022 21:19:46.060611 20928 net.cpp:157] Top shape: 128 (128)
I1022 21:19:46.060618 20928 net.cpp:165] Memory required for data: 79149056
I1022 21:19:46.060631 20928 layer_factory.hpp:77] Creating layer conv1
I1022 21:19:46.060684 20928 net.cpp:100] Creating Layer conv1
I1022 21:19:46.060695 20928 net.cpp:434] conv1 <- data
I1022 21:19:46.060714 20928 net.cpp:408] conv1 -> conv1
I1022 21:19:46.075494 20947 blocking_queue.cpp:50] Waiting for data
I1022 21:19:46.277146 20928 net.cpp:150] Setting up conv1
I1022 21:19:46.277185 20928 net.cpp:157] Top shape: 128 64 113 113 (104603648)
I1022 21:19:46.277218 20928 net.cpp:165] Memory required for data: 497563648
I1022 21:19:46.277251 20928 layer_factory.hpp:77] Creating layer relu_conv1
I1022 21:19:46.277268 20928 net.cpp:100] Creating Layer relu_conv1
I1022 21:19:46.277276 20928 net.cpp:434] relu_conv1 <- conv1
I1022 21:19:46.277287 20928 net.cpp:395] relu_conv1 -> conv1 (in-place)
I1022 21:19:46.277770 20928 net.cpp:150] Setting up relu_conv1
I1022 21:19:46.277793 20928 net.cpp:157] Top shape: 128 64 113 113 (104603648)
I1022 21:19:46.277799 20928 net.cpp:165] Memory required for data: 915978240
I1022 21:19:46.277806 20928 layer_factory.hpp:77] Creating layer pool1
I1022 21:19:46.277818 20928 net.cpp:100] Creating Layer pool1
I1022 21:19:46.277824 20928 net.cpp:434] pool1 <- conv1
I1022 21:19:46.277833 20928 net.cpp:408] pool1 -> pool1
I1022 21:19:46.277894 20928 net.cpp:150] Setting up pool1
I1022 21:19:46.277907 20928 net.cpp:157] Top shape: 128 64 56 56 (25690112)
I1022 21:19:46.277914 20928 net.cpp:165] Memory required for data: 1018738688
I1022 21:19:46.277920 20928 layer_factory.hpp:77] Creating layer fire2/squeeze1x1
I1022 21:19:46.277935 20928 net.cpp:100] Creating Layer fire2/squeeze1x1
I1022 21:19:46.277941 20928 net.cpp:434] fire2/squeeze1x1 <- pool1
I1022 21:19:46.277951 20928 net.cpp:408] fire2/squeeze1x1 -> fire2/squeeze1x1
I1022 21:19:46.279920 20928 net.cpp:150] Setting up fire2/squeeze1x1
I1022 21:19:46.279942 20928 net.cpp:157] Top shape: 128 16 56 56 (6422528)
I1022 21:19:46.279949 20928 net.cpp:165] Memory required for data: 1044428800
I1022 21:19:46.279965 20928 layer_factory.hpp:77] Creating layer fire2/squeeze1x1_fire2/squeeze1x1_0_split
I1022 21:19:46.279981 20928 net.cpp:100] Creating Layer fire2/squeeze1x1_fire2/squeeze1x1_0_split
I1022 21:19:46.279989 20928 net.cpp:434] fire2/squeeze1x1_fire2/squeeze1x1_0_split <- fire2/squeeze1x1
I1022 21:19:46.279997 20928 net.cpp:408] fire2/squeeze1x1_fire2/squeeze1x1_0_split -> fire2/squeeze1x1_fire2/squeeze1x1_0_split_0
I1022 21:19:46.280009 20928 net.cpp:408] fire2/squeeze1x1_fire2/squeeze1x1_0_split -> fire2/squeeze1x1_fire2/squeeze1x1_0_split_1
I1022 21:19:46.280055 20928 net.cpp:150] Setting up fire2/squeeze1x1_fire2/squeeze1x1_0_split
I1022 21:19:46.280069 20928 net.cpp:157] Top shape: 128 16 56 56 (6422528)
I1022 21:19:46.280077 20928 net.cpp:157] Top shape: 128 16 56 56 (6422528)
I1022 21:19:46.280082 20928 net.cpp:165] Memory required for data: 1095809024
I1022 21:19:46.280088 20928 layer_factory.hpp:77] Creating layer fire2/expand1x1
I1022 21:19:46.280102 20928 net.cpp:100] Creating Layer fire2/expand1x1
I1022 21:19:46.280107 20928 net.cpp:434] fire2/expand1x1 <- fire2/squeeze1x1_fire2/squeeze1x1_0_split_0
I1022 21:19:46.280115 20928 net.cpp:408] fire2/expand1x1 -> fire2/expand1x1
I1022 21:19:46.281549 20928 net.cpp:150] Setting up fire2/expand1x1
I1022 21:19:46.281579 20928 net.cpp:157] Top shape: 128 64 56 56 (25690112)
I1022 21:19:46.281584 20928 net.cpp:165] Memory required for data: 1198569472
I1022 21:19:46.281599 20928 layer_factory.hpp:77] Creating layer fire2/relu_expand1x1
I1022 21:19:46.281620 20928 net.cpp:100] Creating Layer fire2/relu_expand1x1
I1022 21:19:46.281626 20928 net.cpp:434] fire2/relu_expand1x1 <- fire2/expand1x1
I1022 21:19:46.281635 20928 net.cpp:395] fire2/relu_expand1x1 -> fire2/expand1x1 (in-place)
I1022 21:19:46.282091 20928 net.cpp:150] Setting up fire2/relu_expand1x1
I1022 21:19:46.282109 20928 net.cpp:157] Top shape: 128 64 56 56 (25690112)
I1022 21:19:46.282125 20928 net.cpp:165] Memory required for data: 1301329920
I1022 21:19:46.282142 20928 layer_factory.hpp:77] Creating layer fire2/expand3x3
I1022 21:19:46.282157 20928 net.cpp:100] Creating Layer fire2/expand3x3
I1022 21:19:46.282165 20928 net.cpp:434] fire2/expand3x3 <- fire2/squeeze1x1_fire2/squeeze1x1_0_split_1
I1022 21:19:46.282174 20928 net.cpp:408] fire2/expand3x3 -> fire2/expand3x3
I1022 21:19:46.283839 20928 net.cpp:150] Setting up fire2/expand3x3
I1022 21:19:46.283869 20928 net.cpp:157] Top shape: 128 64 56 56 (25690112)
I1022 21:19:46.283876 20928 net.cpp:165] Memory required for data: 1404090368
I1022 21:19:46.283915 20928 layer_factory.hpp:77] Creating layer fire2/relu_expand3x3
I1022 21:19:46.283924 20928 net.cpp:100] Creating Layer fire2/relu_expand3x3
I1022 21:19:46.283931 20928 net.cpp:434] fire2/relu_expand3x3 <- fire2/expand3x3
I1022 21:19:46.283941 20928 net.cpp:395] fire2/relu_expand3x3 -> fire2/expand3x3 (in-place)
I1022 21:19:46.284214 20928 net.cpp:150] Setting up fire2/relu_expand3x3
I1022 21:19:46.284229 20928 net.cpp:157] Top shape: 128 64 56 56 (25690112)
I1022 21:19:46.284235 20928 net.cpp:165] Memory required for data: 1506850816
I1022 21:19:46.284240 20928 layer_factory.hpp:77] Creating layer fire2/concat
I1022 21:19:46.284253 20928 net.cpp:100] Creating Layer fire2/concat
I1022 21:19:46.284260 20928 net.cpp:434] fire2/concat <- fire2/expand1x1
I1022 21:19:46.284278 20928 net.cpp:434] fire2/concat <- fire2/expand3x3
I1022 21:19:46.284299 20928 net.cpp:408] fire2/concat -> fire2/concat
I1022 21:19:46.284337 20928 net.cpp:150] Setting up fire2/concat
I1022 21:19:46.284349 20928 net.cpp:157] Top shape: 128 128 56 56 (51380224)
I1022 21:19:46.284355 20928 net.cpp:165] Memory required for data: 1712371712
I1022 21:19:46.284360 20928 layer_factory.hpp:77] Creating layer fire3/squeeze1x1
I1022 21:19:46.284371 20928 net.cpp:100] Creating Layer fire3/squeeze1x1
I1022 21:19:46.284389 20928 net.cpp:434] fire3/squeeze1x1 <- fire2/concat
I1022 21:19:46.284399 20928 net.cpp:408] fire3/squeeze1x1 -> fire3/squeeze1x1
I1022 21:19:46.286448 20928 net.cpp:150] Setting up fire3/squeeze1x1
I1022 21:19:46.286499 20928 net.cpp:157] Top shape: 128 16 56 56 (6422528)
I1022 21:19:46.286509 20928 net.cpp:165] Memory required for data: 1738061824
I1022 21:19:46.286532 20928 layer_factory.hpp:77] Creating layer fire3/squeeze1x1_fire3/squeeze1x1_0_split
I1022 21:19:46.286547 20928 net.cpp:100] Creating Layer fire3/squeeze1x1_fire3/squeeze1x1_0_split
I1022 21:19:46.286564 20928 net.cpp:434] fire3/squeeze1x1_fire3/squeeze1x1_0_split <- fire3/squeeze1x1
I1022 21:19:46.286581 20928 net.cpp:408] fire3/squeeze1x1_fire3/squeeze1x1_0_split -> fire3/squeeze1x1_fire3/squeeze1x1_0_split_0
I1022 21:19:46.286602 20928 net.cpp:408] fire3/squeeze1x1_fire3/squeeze1x1_0_split -> fire3/squeeze1x1_fire3/squeeze1x1_0_split_1
I1022 21:19:46.286685 20928 net.cpp:150] Setting up fire3/squeeze1x1_fire3/squeeze1x1_0_split
I1022 21:19:46.286700 20928 net.cpp:157] Top shape: 128 16 56 56 (6422528)
I1022 21:19:46.286710 20928 net.cpp:157] Top shape: 128 16 56 56 (6422528)
I1022 21:19:46.286717 20928 net.cpp:165] Memory required for data: 1789442048
I1022 21:19:46.286725 20928 layer_factory.hpp:77] Creating layer fire3/expand1x1
I1022 21:19:46.286749 20928 net.cpp:100] Creating Layer fire3/expand1x1
I1022 21:19:46.286758 20928 net.cpp:434] fire3/expand1x1 <- fire3/squeeze1x1_fire3/squeeze1x1_0_split_0
I1022 21:19:46.286770 20928 net.cpp:408] fire3/expand1x1 -> fire3/expand1x1
I1022 21:19:46.289096 20928 net.cpp:150] Setting up fire3/expand1x1
I1022 21:19:46.289134 20928 net.cpp:157] Top shape: 128 64 56 56 (25690112)
I1022 21:19:46.289144 20928 net.cpp:165] Memory required for data: 1892202496
I1022 21:19:46.289158 20928 layer_factory.hpp:77] Creating layer fire3/relu_expand1x1
I1022 21:19:46.289175 20928 net.cpp:100] Creating Layer fire3/relu_expand1x1
I1022 21:19:46.289185 20928 net.cpp:434] fire3/relu_expand1x1 <- fire3/expand1x1
I1022 21:19:46.289199 20928 net.cpp:395] fire3/relu_expand1x1 -> fire3/expand1x1 (in-place)
I1022 21:19:46.289557 20928 net.cpp:150] Setting up fire3/relu_expand1x1
I1022 21:19:46.289579 20928 net.cpp:157] Top shape: 128 64 56 56 (25690112)
I1022 21:19:46.289592 20928 net.cpp:165] Memory required for data: 1994962944
I1022 21:19:46.289600 20928 layer_factory.hpp:77] Creating layer fire3/expand3x3
I1022 21:19:46.289619 20928 net.cpp:100] Creating Layer fire3/expand3x3
I1022 21:19:46.289628 20928 net.cpp:434] fire3/expand3x3 <- fire3/squeeze1x1_fire3/squeeze1x1_0_split_1
I1022 21:19:46.289641 20928 net.cpp:408] fire3/expand3x3 -> fire3/expand3x3
I1022 21:19:46.292182 20928 net.cpp:150] Setting up fire3/expand3x3
I1022 21:19:46.292254 20928 net.cpp:157] Top shape: 128 64 56 56 (25690112)
I1022 21:19:46.292265 20928 net.cpp:165] Memory required for data: 2097723392
I1022 21:19:46.292291 20928 layer_factory.hpp:77] Creating layer fire3/relu_expand3x3
I1022 21:19:46.292318 20928 net.cpp:100] Creating Layer fire3/relu_expand3x3
I1022 21:19:46.292328 20928 net.cpp:434] fire3/relu_expand3x3 <- fire3/expand3x3
I1022 21:19:46.292349 20928 net.cpp:395] fire3/relu_expand3x3 -> fire3/expand3x3 (in-place)
I1022 21:19:46.293081 20928 net.cpp:150] Setting up fire3/relu_expand3x3
I1022 21:19:46.293108 20928 net.cpp:157] Top shape: 128 64 56 56 (25690112)
I1022 21:19:46.293118 20928 net.cpp:165] Memory required for data: 2200483840
I1022 21:19:46.293128 20928 layer_factory.hpp:77] Creating layer fire3/concat
I1022 21:19:46.293141 20928 net.cpp:100] Creating Layer fire3/concat
I1022 21:19:46.293151 20928 net.cpp:434] fire3/concat <- fire3/expand1x1
I1022 21:19:46.293165 20928 net.cpp:434] fire3/concat <- fire3/expand3x3
I1022 21:19:46.293179 20928 net.cpp:408] fire3/concat -> fire3/concat
I1022 21:19:46.293251 20928 net.cpp:150] Setting up fire3/concat
I1022 21:19:46.293268 20928 net.cpp:157] Top shape: 128 128 56 56 (51380224)
I1022 21:19:46.293282 20928 net.cpp:165] Memory required for data: 2406004736
I1022 21:19:46.293295 20928 layer_factory.hpp:77] Creating layer pool3
I1022 21:19:46.293309 20928 net.cpp:100] Creating Layer pool3
I1022 21:19:46.293323 20928 net.cpp:434] pool3 <- fire3/concat
I1022 21:19:46.293339 20928 net.cpp:408] pool3 -> pool3
I1022 21:19:46.293421 20928 net.cpp:150] Setting up pool3
I1022 21:19:46.293439 20928 net.cpp:157] Top shape: 128 128 28 28 (12845056)
I1022 21:19:46.293447 20928 net.cpp:165] Memory required for data: 2457384960
I1022 21:19:46.293455 20928 layer_factory.hpp:77] Creating layer fire4/squeeze1x1
I1022 21:19:46.293478 20928 net.cpp:100] Creating Layer fire4/squeeze1x1
I1022 21:19:46.293486 20928 net.cpp:434] fire4/squeeze1x1 <- pool3
I1022 21:19:46.293499 20928 net.cpp:408] fire4/squeeze1x1 -> fire4/squeeze1x1
I1022 21:19:46.295611 20928 net.cpp:150] Setting up fire4/squeeze1x1
I1022 21:19:46.295658 20928 net.cpp:157] Top shape: 128 32 28 28 (3211264)
I1022 21:19:46.295668 20928 net.cpp:165] Memory required for data: 2470230016
I1022 21:19:46.295689 20928 layer_factory.hpp:77] Creating layer fire4/squeeze1x1_fire4/squeeze1x1_0_split
I1022 21:19:46.295704 20928 net.cpp:100] Creating Layer fire4/squeeze1x1_fire4/squeeze1x1_0_split
I1022 21:19:46.295716 20928 net.cpp:434] fire4/squeeze1x1_fire4/squeeze1x1_0_split <- fire4/squeeze1x1
I1022 21:19:46.295732 20928 net.cpp:408] fire4/squeeze1x1_fire4/squeeze1x1_0_split -> fire4/squeeze1x1_fire4/squeeze1x1_0_split_0
I1022 21:19:46.295748 20928 net.cpp:408] fire4/squeeze1x1_fire4/squeeze1x1_0_split -> fire4/squeeze1x1_fire4/squeeze1x1_0_split_1
I1022 21:19:46.295836 20928 net.cpp:150] Setting up fire4/squeeze1x1_fire4/squeeze1x1_0_split
I1022 21:19:46.295853 20928 net.cpp:157] Top shape: 128 32 28 28 (3211264)
I1022 21:19:46.295871 20928 net.cpp:157] Top shape: 128 32 28 28 (3211264)
I1022 21:19:46.295878 20928 net.cpp:165] Memory required for data: 2495920128
I1022 21:19:46.295886 20928 layer_factory.hpp:77] Creating layer fire4/expand1x1
I1022 21:19:46.295907 20928 net.cpp:100] Creating Layer fire4/expand1x1
I1022 21:19:46.295917 20928 net.cpp:434] fire4/expand1x1 <- fire4/squeeze1x1_fire4/squeeze1x1_0_split_0
I1022 21:19:46.295930 20928 net.cpp:408] fire4/expand1x1 -> fire4/expand1x1
I1022 21:19:46.298741 20928 net.cpp:150] Setting up fire4/expand1x1
I1022 21:19:46.298784 20928 net.cpp:157] Top shape: 128 128 28 28 (12845056)
I1022 21:19:46.298792 20928 net.cpp:165] Memory required for data: 2547300352
I1022 21:19:46.298816 20928 layer_factory.hpp:77] Creating layer fire4/relu_expand1x1
I1022 21:19:46.298830 20928 net.cpp:100] Creating Layer fire4/relu_expand1x1
I1022 21:19:46.298840 20928 net.cpp:434] fire4/relu_expand1x1 <- fire4/expand1x1
I1022 21:19:46.298857 20928 net.cpp:395] fire4/relu_expand1x1 -> fire4/expand1x1 (in-place)
I1022 21:19:46.299581 20928 net.cpp:150] Setting up fire4/relu_expand1x1
I1022 21:19:46.299612 20928 net.cpp:157] Top shape: 128 128 28 28 (12845056)
I1022 21:19:46.299629 20928 net.cpp:165] Memory required for data: 2598680576
I1022 21:19:46.299640 20928 layer_factory.hpp:77] Creating layer fire4/expand3x3
I1022 21:19:46.299664 20928 net.cpp:100] Creating Layer fire4/expand3x3
I1022 21:19:46.299674 20928 net.cpp:434] fire4/expand3x3 <- fire4/squeeze1x1_fire4/squeeze1x1_0_split_1
I1022 21:19:46.299693 20928 net.cpp:408] fire4/expand3x3 -> fire4/expand3x3
I1022 21:19:46.303849 20928 net.cpp:150] Setting up fire4/expand3x3
I1022 21:19:46.303879 20928 net.cpp:157] Top shape: 128 128 28 28 (12845056)
I1022 21:19:46.303889 20928 net.cpp:165] Memory required for data: 2650060800
I1022 21:19:46.303905 20928 layer_factory.hpp:77] Creating layer fire4/relu_expand3x3
I1022 21:19:46.303920 20928 net.cpp:100] Creating Layer fire4/relu_expand3x3
I1022 21:19:46.303928 20928 net.cpp:434] fire4/relu_expand3x3 <- fire4/expand3x3
I1022 21:19:46.303943 20928 net.cpp:395] fire4/relu_expand3x3 -> fire4/expand3x3 (in-place)
I1022 21:19:46.304594 20928 net.cpp:150] Setting up fire4/relu_expand3x3
I1022 21:19:46.304625 20928 net.cpp:157] Top shape: 128 128 28 28 (12845056)
I1022 21:19:46.304633 20928 net.cpp:165] Memory required for data: 2701441024
I1022 21:19:46.304641 20928 layer_factory.hpp:77] Creating layer fire4/concat
I1022 21:19:46.304656 20928 net.cpp:100] Creating Layer fire4/concat
I1022 21:19:46.304664 20928 net.cpp:434] fire4/concat <- fire4/expand1x1
I1022 21:19:46.304675 20928 net.cpp:434] fire4/concat <- fire4/expand3x3
I1022 21:19:46.304689 20928 net.cpp:408] fire4/concat -> fire4/concat
I1022 21:19:46.304745 20928 net.cpp:150] Setting up fire4/concat
I1022 21:19:46.304764 20928 net.cpp:157] Top shape: 128 256 28 28 (25690112)
I1022 21:19:46.304772 20928 net.cpp:165] Memory required for data: 2804201472
I1022 21:19:46.304780 20928 layer_factory.hpp:77] Creating layer fire5/squeeze1x1
I1022 21:19:46.304796 20928 net.cpp:100] Creating Layer fire5/squeeze1x1
I1022 21:19:46.304805 20928 net.cpp:434] fire5/squeeze1x1 <- fire4/concat
I1022 21:19:46.304821 20928 net.cpp:408] fire5/squeeze1x1 -> fire5/squeeze1x1
I1022 21:19:46.307215 20928 net.cpp:150] Setting up fire5/squeeze1x1
I1022 21:19:46.307247 20928 net.cpp:157] Top shape: 128 32 28 28 (3211264)
I1022 21:19:46.307256 20928 net.cpp:165] Memory required for data: 2817046528
I1022 21:19:46.307272 20928 layer_factory.hpp:77] Creating layer fire5/squeeze1x1_fire5/squeeze1x1_0_split
I1022 21:19:46.307286 20928 net.cpp:100] Creating Layer fire5/squeeze1x1_fire5/squeeze1x1_0_split
I1022 21:19:46.307296 20928 net.cpp:434] fire5/squeeze1x1_fire5/squeeze1x1_0_split <- fire5/squeeze1x1
I1022 21:19:46.307312 20928 net.cpp:408] fire5/squeeze1x1_fire5/squeeze1x1_0_split -> fire5/squeeze1x1_fire5/squeeze1x1_0_split_0
I1022 21:19:46.307328 20928 net.cpp:408] fire5/squeeze1x1_fire5/squeeze1x1_0_split -> fire5/squeeze1x1_fire5/squeeze1x1_0_split_1
I1022 21:19:46.307412 20928 net.cpp:150] Setting up fire5/squeeze1x1_fire5/squeeze1x1_0_split
I1022 21:19:46.307428 20928 net.cpp:157] Top shape: 128 32 28 28 (3211264)
I1022 21:19:46.307445 20928 net.cpp:157] Top shape: 128 32 28 28 (3211264)
I1022 21:19:46.307451 20928 net.cpp:165] Memory required for data: 2842736640
I1022 21:19:46.307459 20928 layer_factory.hpp:77] Creating layer fire5/expand1x1
I1022 21:19:46.307477 20928 net.cpp:100] Creating Layer fire5/expand1x1
I1022 21:19:46.307488 20928 net.cpp:434] fire5/expand1x1 <- fire5/squeeze1x1_fire5/squeeze1x1_0_split_0
I1022 21:19:46.307500 20928 net.cpp:408] fire5/expand1x1 -> fire5/expand1x1
I1022 21:19:46.309764 20928 net.cpp:150] Setting up fire5/expand1x1
I1022 21:19:46.309798 20928 net.cpp:157] Top shape: 128 128 28 28 (12845056)
I1022 21:19:46.309806 20928 net.cpp:165] Memory required for data: 2894116864
I1022 21:19:46.309821 20928 layer_factory.hpp:77] Creating layer fire5/relu_expand1x1
I1022 21:19:46.309837 20928 net.cpp:100] Creating Layer fire5/relu_expand1x1
I1022 21:19:46.309870 20928 net.cpp:434] fire5/relu_expand1x1 <- fire5/expand1x1
I1022 21:19:46.309885 20928 net.cpp:395] fire5/relu_expand1x1 -> fire5/expand1x1 (in-place)
I1022 21:19:46.310264 20928 net.cpp:150] Setting up fire5/relu_expand1x1
I1022 21:19:46.310287 20928 net.cpp:157] Top shape: 128 128 28 28 (12845056)
I1022 21:19:46.310299 20928 net.cpp:165] Memory required for data: 2945497088
I1022 21:19:46.310307 20928 layer_factory.hpp:77] Creating layer fire5/expand3x3
I1022 21:19:46.310331 20928 net.cpp:100] Creating Layer fire5/expand3x3
I1022 21:19:46.310340 20928 net.cpp:434] fire5/expand3x3 <- fire5/squeeze1x1_fire5/squeeze1x1_0_split_1
I1022 21:19:46.310353 20928 net.cpp:408] fire5/expand3x3 -> fire5/expand3x3
I1022 21:19:46.314715 20928 net.cpp:150] Setting up fire5/expand3x3
I1022 21:19:46.314756 20928 net.cpp:157] Top shape: 128 128 28 28 (12845056)
I1022 21:19:46.314764 20928 net.cpp:165] Memory required for data: 2996877312
I1022 21:19:46.314775 20928 layer_factory.hpp:77] Creating layer fire5/relu_expand3x3
I1022 21:19:46.314786 20928 net.cpp:100] Creating Layer fire5/relu_expand3x3
I1022 21:19:46.314793 20928 net.cpp:434] fire5/relu_expand3x3 <- fire5/expand3x3
I1022 21:19:46.314802 20928 net.cpp:395] fire5/relu_expand3x3 -> fire5/expand3x3 (in-place)
I1022 21:19:46.315073 20928 net.cpp:150] Setting up fire5/relu_expand3x3
I1022 21:19:46.315089 20928 net.cpp:157] Top shape: 128 128 28 28 (12845056)
I1022 21:19:46.315101 20928 net.cpp:165] Memory required for data: 3048257536
I1022 21:19:46.315107 20928 layer_factory.hpp:77] Creating layer fire5/concat
I1022 21:19:46.315120 20928 net.cpp:100] Creating Layer fire5/concat
I1022 21:19:46.315126 20928 net.cpp:434] fire5/concat <- fire5/expand1x1
I1022 21:19:46.315135 20928 net.cpp:434] fire5/concat <- fire5/expand3x3
I1022 21:19:46.315143 20928 net.cpp:408] fire5/concat -> fire5/concat
I1022 21:19:46.315188 20928 net.cpp:150] Setting up fire5/concat
I1022 21:19:46.315198 20928 net.cpp:157] Top shape: 128 256 28 28 (25690112)
I1022 21:19:46.315202 20928 net.cpp:165] Memory required for data: 3151017984
I1022 21:19:46.315207 20928 layer_factory.hpp:77] Creating layer pool5
I1022 21:19:46.315217 20928 net.cpp:100] Creating Layer pool5
I1022 21:19:46.315223 20928 net.cpp:434] pool5 <- fire5/concat
I1022 21:19:46.315232 20928 net.cpp:408] pool5 -> pool5
I1022 21:19:46.315289 20928 net.cpp:150] Setting up pool5
I1022 21:19:46.315300 20928 net.cpp:157] Top shape: 128 256 14 14 (6422528)
I1022 21:19:46.315306 20928 net.cpp:165] Memory required for data: 3176708096
I1022 21:19:46.315310 20928 layer_factory.hpp:77] Creating layer fire6/squeeze1x1
I1022 21:19:46.315325 20928 net.cpp:100] Creating Layer fire6/squeeze1x1
I1022 21:19:46.315330 20928 net.cpp:434] fire6/squeeze1x1 <- pool5
I1022 21:19:46.315340 20928 net.cpp:408] fire6/squeeze1x1 -> fire6/squeeze1x1
I1022 21:19:46.317229 20928 net.cpp:150] Setting up fire6/squeeze1x1
I1022 21:19:46.317252 20928 net.cpp:157] Top shape: 128 48 14 14 (1204224)
I1022 21:19:46.317266 20928 net.cpp:165] Memory required for data: 3181524992
I1022 21:19:46.317277 20928 layer_factory.hpp:77] Creating layer fire6/squeeze1x1_fire6/squeeze1x1_0_split
I1022 21:19:46.317289 20928 net.cpp:100] Creating Layer fire6/squeeze1x1_fire6/squeeze1x1_0_split
I1022 21:19:46.317296 20928 net.cpp:434] fire6/squeeze1x1_fire6/squeeze1x1_0_split <- fire6/squeeze1x1
I1022 21:19:46.317306 20928 net.cpp:408] fire6/squeeze1x1_fire6/squeeze1x1_0_split -> fire6/squeeze1x1_fire6/squeeze1x1_0_split_0
I1022 21:19:46.317317 20928 net.cpp:408] fire6/squeeze1x1_fire6/squeeze1x1_0_split -> fire6/squeeze1x1_fire6/squeeze1x1_0_split_1
I1022 21:19:46.317384 20928 net.cpp:150] Setting up fire6/squeeze1x1_fire6/squeeze1x1_0_split
I1022 21:19:46.317399 20928 net.cpp:157] Top shape: 128 48 14 14 (1204224)
I1022 21:19:46.317407 20928 net.cpp:157] Top shape: 128 48 14 14 (1204224)
I1022 21:19:46.317412 20928 net.cpp:165] Memory required for data: 3191158784
I1022 21:19:46.317417 20928 layer_factory.hpp:77] Creating layer fire6/expand1x1
I1022 21:19:46.317430 20928 net.cpp:100] Creating Layer fire6/expand1x1
I1022 21:19:46.317459 20928 net.cpp:434] fire6/expand1x1 <- fire6/squeeze1x1_fire6/squeeze1x1_0_split_0
I1022 21:19:46.317479 20928 net.cpp:408] fire6/expand1x1 -> fire6/expand1x1
I1022 21:19:46.319288 20928 net.cpp:150] Setting up fire6/expand1x1
I1022 21:19:46.319314 20928 net.cpp:157] Top shape: 128 192 14 14 (4816896)
I1022 21:19:46.319324 20928 net.cpp:165] Memory required for data: 3210426368
I1022 21:19:46.319341 20928 layer_factory.hpp:77] Creating layer fire6/relu_expand1x1
I1022 21:19:46.319367 20928 net.cpp:100] Creating Layer fire6/relu_expand1x1
I1022 21:19:46.319375 20928 net.cpp:434] fire6/relu_expand1x1 <- fire6/expand1x1
I1022 21:19:46.319386 20928 net.cpp:395] fire6/relu_expand1x1 -> fire6/expand1x1 (in-place)
I1022 21:19:46.319936 20928 net.cpp:150] Setting up fire6/relu_expand1x1
I1022 21:19:46.319957 20928 net.cpp:157] Top shape: 128 192 14 14 (4816896)
I1022 21:19:46.319970 20928 net.cpp:165] Memory required for data: 3229693952
I1022 21:19:46.319977 20928 layer_factory.hpp:77] Creating layer fire6/expand3x3
I1022 21:19:46.319990 20928 net.cpp:100] Creating Layer fire6/expand3x3
I1022 21:19:46.319998 20928 net.cpp:434] fire6/expand3x3 <- fire6/squeeze1x1_fire6/squeeze1x1_0_split_1
I1022 21:19:46.320013 20928 net.cpp:408] fire6/expand3x3 -> fire6/expand3x3
I1022 21:19:46.323681 20928 net.cpp:150] Setting up fire6/expand3x3
I1022 21:19:46.323714 20928 net.cpp:157] Top shape: 128 192 14 14 (4816896)
I1022 21:19:46.323721 20928 net.cpp:165] Memory required for data: 3248961536
I1022 21:19:46.323734 20928 layer_factory.hpp:77] Creating layer fire6/relu_expand3x3
I1022 21:19:46.323745 20928 net.cpp:100] Creating Layer fire6/relu_expand3x3
I1022 21:19:46.323751 20928 net.cpp:434] fire6/relu_expand3x3 <- fire6/expand3x3
I1022 21:19:46.323760 20928 net.cpp:395] fire6/relu_expand3x3 -> fire6/expand3x3 (in-place)
I1022 21:19:46.324270 20928 net.cpp:150] Setting up fire6/relu_expand3x3
I1022 21:19:46.324290 20928 net.cpp:157] Top shape: 128 192 14 14 (4816896)
I1022 21:19:46.324302 20928 net.cpp:165] Memory required for data: 3268229120
I1022 21:19:46.324307 20928 layer_factory.hpp:77] Creating layer fire6/concat
I1022 21:19:46.324316 20928 net.cpp:100] Creating Layer fire6/concat
I1022 21:19:46.324322 20928 net.cpp:434] fire6/concat <- fire6/expand1x1
I1022 21:19:46.324331 20928 net.cpp:434] fire6/concat <- fire6/expand3x3
I1022 21:19:46.324339 20928 net.cpp:408] fire6/concat -> fire6/concat
I1022 21:19:46.324385 20928 net.cpp:150] Setting up fire6/concat
I1022 21:19:46.324394 20928 net.cpp:157] Top shape: 128 384 14 14 (9633792)
I1022 21:19:46.324399 20928 net.cpp:165] Memory required for data: 3306764288
I1022 21:19:46.324404 20928 layer_factory.hpp:77] Creating layer fire7/squeeze1x1
I1022 21:19:46.324417 20928 net.cpp:100] Creating Layer fire7/squeeze1x1
I1022 21:19:46.324422 20928 net.cpp:434] fire7/squeeze1x1 <- fire6/concat
I1022 21:19:46.324431 20928 net.cpp:408] fire7/squeeze1x1 -> fire7/squeeze1x1
I1022 21:19:46.326596 20928 net.cpp:150] Setting up fire7/squeeze1x1
I1022 21:19:46.326617 20928 net.cpp:157] Top shape: 128 48 14 14 (1204224)
I1022 21:19:46.326629 20928 net.cpp:165] Memory required for data: 3311581184
I1022 21:19:46.326652 20928 layer_factory.hpp:77] Creating layer fire7/squeeze1x1_fire7/squeeze1x1_0_split
I1022 21:19:46.326661 20928 net.cpp:100] Creating Layer fire7/squeeze1x1_fire7/squeeze1x1_0_split
I1022 21:19:46.326668 20928 net.cpp:434] fire7/squeeze1x1_fire7/squeeze1x1_0_split <- fire7/squeeze1x1
I1022 21:19:46.326676 20928 net.cpp:408] fire7/squeeze1x1_fire7/squeeze1x1_0_split -> fire7/squeeze1x1_fire7/squeeze1x1_0_split_0
I1022 21:19:46.326686 20928 net.cpp:408] fire7/squeeze1x1_fire7/squeeze1x1_0_split -> fire7/squeeze1x1_fire7/squeeze1x1_0_split_1
I1022 21:19:46.326750 20928 net.cpp:150] Setting up fire7/squeeze1x1_fire7/squeeze1x1_0_split
I1022 21:19:46.326762 20928 net.cpp:157] Top shape: 128 48 14 14 (1204224)
I1022 21:19:46.326769 20928 net.cpp:157] Top shape: 128 48 14 14 (1204224)
I1022 21:19:46.326773 20928 net.cpp:165] Memory required for data: 3321214976
I1022 21:19:46.326797 20928 layer_factory.hpp:77] Creating layer fire7/expand1x1
I1022 21:19:46.326812 20928 net.cpp:100] Creating Layer fire7/expand1x1
I1022 21:19:46.326818 20928 net.cpp:434] fire7/expand1x1 <- fire7/squeeze1x1_fire7/squeeze1x1_0_split_0
I1022 21:19:46.326828 20928 net.cpp:408] fire7/expand1x1 -> fire7/expand1x1
I1022 21:19:46.328629 20928 net.cpp:150] Setting up fire7/expand1x1
I1022 21:19:46.328651 20928 net.cpp:157] Top shape: 128 192 14 14 (4816896)
I1022 21:19:46.328665 20928 net.cpp:165] Memory required for data: 3340482560
I1022 21:19:46.328675 20928 layer_factory.hpp:77] Creating layer fire7/relu_expand1x1
I1022 21:19:46.328686 20928 net.cpp:100] Creating Layer fire7/relu_expand1x1
I1022 21:19:46.328693 20928 net.cpp:434] fire7/relu_expand1x1 <- fire7/expand1x1
I1022 21:19:46.328702 20928 net.cpp:395] fire7/relu_expand1x1 -> fire7/expand1x1 (in-place)
I1022 21:19:46.328960 20928 net.cpp:150] Setting up fire7/relu_expand1x1
I1022 21:19:46.328976 20928 net.cpp:157] Top shape: 128 192 14 14 (4816896)
I1022 21:19:46.328989 20928 net.cpp:165] Memory required for data: 3359750144
I1022 21:19:46.328994 20928 layer_factory.hpp:77] Creating layer fire7/expand3x3
I1022 21:19:46.329006 20928 net.cpp:100] Creating Layer fire7/expand3x3
I1022 21:19:46.329012 20928 net.cpp:434] fire7/expand3x3 <- fire7/squeeze1x1_fire7/squeeze1x1_0_split_1
I1022 21:19:46.329020 20928 net.cpp:408] fire7/expand3x3 -> fire7/expand3x3
I1022 21:19:46.332113 20928 net.cpp:150] Setting up fire7/expand3x3
I1022 21:19:46.332139 20928 net.cpp:157] Top shape: 128 192 14 14 (4816896)
I1022 21:19:46.332144 20928 net.cpp:165] Memory required for data: 3379017728
I1022 21:19:46.332155 20928 layer_factory.hpp:77] Creating layer fire7/relu_expand3x3
I1022 21:19:46.332165 20928 net.cpp:100] Creating Layer fire7/relu_expand3x3
I1022 21:19:46.332171 20928 net.cpp:434] fire7/relu_expand3x3 <- fire7/expand3x3
I1022 21:19:46.332182 20928 net.cpp:395] fire7/relu_expand3x3 -> fire7/expand3x3 (in-place)
I1022 21:19:46.332435 20928 net.cpp:150] Setting up fire7/relu_expand3x3
I1022 21:19:46.332451 20928 net.cpp:157] Top shape: 128 192 14 14 (4816896)
I1022 21:19:46.332458 20928 net.cpp:165] Memory required for data: 3398285312
I1022 21:19:46.332463 20928 layer_factory.hpp:77] Creating layer fire7/concat
I1022 21:19:46.332470 20928 net.cpp:100] Creating Layer fire7/concat
I1022 21:19:46.332475 20928 net.cpp:434] fire7/concat <- fire7/expand1x1
I1022 21:19:46.332484 20928 net.cpp:434] fire7/concat <- fire7/expand3x3
I1022 21:19:46.332491 20928 net.cpp:408] fire7/concat -> fire7/concat
I1022 21:19:46.332535 20928 net.cpp:150] Setting up fire7/concat
I1022 21:19:46.332545 20928 net.cpp:157] Top shape: 128 384 14 14 (9633792)
I1022 21:19:46.332550 20928 net.cpp:165] Memory required for data: 3436820480
I1022 21:19:46.332553 20928 layer_factory.hpp:77] Creating layer fire8/squeeze1x1
I1022 21:19:46.332567 20928 net.cpp:100] Creating Layer fire8/squeeze1x1
I1022 21:19:46.332572 20928 net.cpp:434] fire8/squeeze1x1 <- fire7/concat
I1022 21:19:46.332581 20928 net.cpp:408] fire8/squeeze1x1 -> fire8/squeeze1x1
I1022 21:19:46.334537 20928 net.cpp:150] Setting up fire8/squeeze1x1
I1022 21:19:46.334558 20928 net.cpp:157] Top shape: 128 64 14 14 (1605632)
I1022 21:19:46.334571 20928 net.cpp:165] Memory required for data: 3443243008
I1022 21:19:46.334581 20928 layer_factory.hpp:77] Creating layer fire8/squeeze1x1_fire8/squeeze1x1_0_split
I1022 21:19:46.334590 20928 net.cpp:100] Creating Layer fire8/squeeze1x1_fire8/squeeze1x1_0_split
I1022 21:19:46.334596 20928 net.cpp:434] fire8/squeeze1x1_fire8/squeeze1x1_0_split <- fire8/squeeze1x1
I1022 21:19:46.334605 20928 net.cpp:408] fire8/squeeze1x1_fire8/squeeze1x1_0_split -> fire8/squeeze1x1_fire8/squeeze1x1_0_split_0
I1022 21:19:46.334615 20928 net.cpp:408] fire8/squeeze1x1_fire8/squeeze1x1_0_split -> fire8/squeeze1x1_fire8/squeeze1x1_0_split_1
I1022 21:19:46.334676 20928 net.cpp:150] Setting up fire8/squeeze1x1_fire8/squeeze1x1_0_split
I1022 21:19:46.334688 20928 net.cpp:157] Top shape: 128 64 14 14 (1605632)
I1022 21:19:46.334712 20928 net.cpp:157] Top shape: 128 64 14 14 (1605632)
I1022 21:19:46.334717 20928 net.cpp:165] Memory required for data: 3456088064
I1022 21:19:46.334722 20928 layer_factory.hpp:77] Creating layer fire8/expand1x1
I1022 21:19:46.334735 20928 net.cpp:100] Creating Layer fire8/expand1x1
I1022 21:19:46.334743 20928 net.cpp:434] fire8/expand1x1 <- fire8/squeeze1x1_fire8/squeeze1x1_0_split_0
I1022 21:19:46.334751 20928 net.cpp:408] fire8/expand1x1 -> fire8/expand1x1
I1022 21:19:46.338304 20928 net.cpp:150] Setting up fire8/expand1x1
I1022 21:19:46.338340 20928 net.cpp:157] Top shape: 128 256 14 14 (6422528)
I1022 21:19:46.338346 20928 net.cpp:165] Memory required for data: 3481778176
I1022 21:19:46.338356 20928 layer_factory.hpp:77] Creating layer fire8/relu_expand1x1
I1022 21:19:46.338366 20928 net.cpp:100] Creating Layer fire8/relu_expand1x1
I1022 21:19:46.338372 20928 net.cpp:434] fire8/relu_expand1x1 <- fire8/expand1x1
I1022 21:19:46.338382 20928 net.cpp:395] fire8/relu_expand1x1 -> fire8/expand1x1 (in-place)
I1022 21:19:46.338892 20928 net.cpp:150] Setting up fire8/relu_expand1x1
I1022 21:19:46.338912 20928 net.cpp:157] Top shape: 128 256 14 14 (6422528)
I1022 21:19:46.338924 20928 net.cpp:165] Memory required for data: 3507468288
I1022 21:19:46.338930 20928 layer_factory.hpp:77] Creating layer fire8/expand3x3
I1022 21:19:46.338943 20928 net.cpp:100] Creating Layer fire8/expand3x3
I1022 21:19:46.338951 20928 net.cpp:434] fire8/expand3x3 <- fire8/squeeze1x1_fire8/squeeze1x1_0_split_1
I1022 21:19:46.338961 20928 net.cpp:408] fire8/expand3x3 -> fire8/expand3x3
I1022 21:19:46.342802 20928 net.cpp:150] Setting up fire8/expand3x3
I1022 21:19:46.342823 20928 net.cpp:157] Top shape: 128 256 14 14 (6422528)
I1022 21:19:46.342835 20928 net.cpp:165] Memory required for data: 3533158400
I1022 21:19:46.342845 20928 layer_factory.hpp:77] Creating layer fire8/relu_expand3x3
I1022 21:19:46.342856 20928 net.cpp:100] Creating Layer fire8/relu_expand3x3
I1022 21:19:46.342862 20928 net.cpp:434] fire8/relu_expand3x3 <- fire8/expand3x3
I1022 21:19:46.342870 20928 net.cpp:395] fire8/relu_expand3x3 -> fire8/expand3x3 (in-place)
I1022 21:19:46.343364 20928 net.cpp:150] Setting up fire8/relu_expand3x3
I1022 21:19:46.343382 20928 net.cpp:157] Top shape: 128 256 14 14 (6422528)
I1022 21:19:46.343392 20928 net.cpp:165] Memory required for data: 3558848512
I1022 21:19:46.343397 20928 layer_factory.hpp:77] Creating layer fire8/concat
I1022 21:19:46.343406 20928 net.cpp:100] Creating Layer fire8/concat
I1022 21:19:46.343411 20928 net.cpp:434] fire8/concat <- fire8/expand1x1
I1022 21:19:46.343420 20928 net.cpp:434] fire8/concat <- fire8/expand3x3
I1022 21:19:46.343427 20928 net.cpp:408] fire8/concat -> fire8/concat
I1022 21:19:46.343472 20928 net.cpp:150] Setting up fire8/concat
I1022 21:19:46.343492 20928 net.cpp:157] Top shape: 128 512 14 14 (12845056)
I1022 21:19:46.343497 20928 net.cpp:165] Memory required for data: 3610228736
I1022 21:19:46.343502 20928 layer_factory.hpp:77] Creating layer fire9/squeeze1x1
I1022 21:19:46.343518 20928 net.cpp:100] Creating Layer fire9/squeeze1x1
I1022 21:19:46.343524 20928 net.cpp:434] fire9/squeeze1x1 <- fire8/concat
I1022 21:19:46.343533 20928 net.cpp:408] fire9/squeeze1x1 -> fire9/squeeze1x1
I1022 21:19:46.345558 20928 net.cpp:150] Setting up fire9/squeeze1x1
I1022 21:19:46.345579 20928 net.cpp:157] Top shape: 128 64 14 14 (1605632)
I1022 21:19:46.345588 20928 net.cpp:165] Memory required for data: 3616651264
I1022 21:19:46.345598 20928 layer_factory.hpp:77] Creating layer fire9/squeeze1x1_fire9/squeeze1x1_0_split
I1022 21:19:46.345607 20928 net.cpp:100] Creating Layer fire9/squeeze1x1_fire9/squeeze1x1_0_split
I1022 21:19:46.345613 20928 net.cpp:434] fire9/squeeze1x1_fire9/squeeze1x1_0_split <- fire9/squeeze1x1
I1022 21:19:46.345624 20928 net.cpp:408] fire9/squeeze1x1_fire9/squeeze1x1_0_split -> fire9/squeeze1x1_fire9/squeeze1x1_0_split_0
I1022 21:19:46.345634 20928 net.cpp:408] fire9/squeeze1x1_fire9/squeeze1x1_0_split -> fire9/squeeze1x1_fire9/squeeze1x1_0_split_1
I1022 21:19:46.345693 20928 net.cpp:150] Setting up fire9/squeeze1x1_fire9/squeeze1x1_0_split
I1022 21:19:46.345727 20928 net.cpp:157] Top shape: 128 64 14 14 (1605632)
I1022 21:19:46.345741 20928 net.cpp:157] Top shape: 128 64 14 14 (1605632)
I1022 21:19:46.345746 20928 net.cpp:165] Memory required for data: 3629496320
I1022 21:19:46.345751 20928 layer_factory.hpp:77] Creating layer fire9/expand1x1
I1022 21:19:46.345763 20928 net.cpp:100] Creating Layer fire9/expand1x1
I1022 21:19:46.345770 20928 net.cpp:434] fire9/expand1x1 <- fire9/squeeze1x1_fire9/squeeze1x1_0_split_0
I1022 21:19:46.345779 20928 net.cpp:408] fire9/expand1x1 -> fire9/expand1x1
I1022 21:19:46.347692 20928 net.cpp:150] Setting up fire9/expand1x1
I1022 21:19:46.347723 20928 net.cpp:157] Top shape: 128 256 14 14 (6422528)
I1022 21:19:46.347735 20928 net.cpp:165] Memory required for data: 3655186432
I1022 21:19:46.347745 20928 layer_factory.hpp:77] Creating layer fire9/relu_expand1x1
I1022 21:19:46.347754 20928 net.cpp:100] Creating Layer fire9/relu_expand1x1
I1022 21:19:46.347759 20928 net.cpp:434] fire9/relu_expand1x1 <- fire9/expand1x1
I1022 21:19:46.347769 20928 net.cpp:395] fire9/relu_expand1x1 -> fire9/expand1x1 (in-place)
I1022 21:19:46.348230 20928 net.cpp:150] Setting up fire9/relu_expand1x1
I1022 21:19:46.348248 20928 net.cpp:157] Top shape: 128 256 14 14 (6422528)
I1022 21:19:46.348259 20928 net.cpp:165] Memory required for data: 3680876544
I1022 21:19:46.348264 20928 layer_factory.hpp:77] Creating layer fire9/expand3x3
I1022 21:19:46.348278 20928 net.cpp:100] Creating Layer fire9/expand3x3
I1022 21:19:46.348284 20928 net.cpp:434] fire9/expand3x3 <- fire9/squeeze1x1_fire9/squeeze1x1_0_split_1
I1022 21:19:46.348291 20928 net.cpp:408] fire9/expand3x3 -> fire9/expand3x3
I1022 21:19:46.352223 20928 net.cpp:150] Setting up fire9/expand3x3
I1022 21:19:46.352243 20928 net.cpp:157] Top shape: 128 256 14 14 (6422528)
I1022 21:19:46.352253 20928 net.cpp:165] Memory required for data: 3706566656
I1022 21:19:46.352264 20928 layer_factory.hpp:77] Creating layer fire9/relu_expand3x3
I1022 21:19:46.352277 20928 net.cpp:100] Creating Layer fire9/relu_expand3x3
I1022 21:19:46.352283 20928 net.cpp:434] fire9/relu_expand3x3 <- fire9/expand3x3
I1022 21:19:46.352290 20928 net.cpp:395] fire9/relu_expand3x3 -> fire9/expand3x3 (in-place)
I1022 21:19:46.352540 20928 net.cpp:150] Setting up fire9/relu_expand3x3
I1022 21:19:46.352553 20928 net.cpp:157] Top shape: 128 256 14 14 (6422528)
I1022 21:19:46.352565 20928 net.cpp:165] Memory required for data: 3732256768
I1022 21:19:46.352569 20928 layer_factory.hpp:77] Creating layer fire9/concat
I1022 21:19:46.352578 20928 net.cpp:100] Creating Layer fire9/concat
I1022 21:19:46.352583 20928 net.cpp:434] fire9/concat <- fire9/expand1x1
I1022 21:19:46.352591 20928 net.cpp:434] fire9/concat <- fire9/expand3x3
I1022 21:19:46.352596 20928 net.cpp:408] fire9/concat -> fire9/concat
I1022 21:19:46.352636 20928 net.cpp:150] Setting up fire9/concat
I1022 21:19:46.352646 20928 net.cpp:157] Top shape: 128 512 14 14 (12845056)
I1022 21:19:46.352651 20928 net.cpp:165] Memory required for data: 3783636992
I1022 21:19:46.352655 20928 layer_factory.hpp:77] Creating layer drop9
I1022 21:19:46.352663 20928 net.cpp:100] Creating Layer drop9
I1022 21:19:46.352669 20928 net.cpp:434] drop9 <- fire9/concat
I1022 21:19:46.352676 20928 net.cpp:395] drop9 -> fire9/concat (in-place)
I1022 21:19:46.352713 20928 net.cpp:150] Setting up drop9
I1022 21:19:46.352722 20928 net.cpp:157] Top shape: 128 512 14 14 (12845056)
I1022 21:19:46.352733 20928 net.cpp:165] Memory required for data: 3835017216
I1022 21:19:46.352737 20928 layer_factory.hpp:77] Creating layer conv10_2626
I1022 21:19:46.352751 20928 net.cpp:100] Creating Layer conv10_2626
I1022 21:19:46.352761 20928 net.cpp:434] conv10_2626 <- fire9/concat
I1022 21:19:46.352767 20928 net.cpp:408] conv10_2626 -> conv10_2626
I1022 21:19:46.383517 20928 net.cpp:150] Setting up conv10_2626
I1022 21:19:46.383561 20928 net.cpp:157] Top shape: 128 2626 14 14 (65881088)
I1022 21:19:46.383566 20928 net.cpp:165] Memory required for data: 4098541568
I1022 21:19:46.383606 20928 layer_factory.hpp:77] Creating layer relu_conv10
I1022 21:19:46.383637 20928 net.cpp:100] Creating Layer relu_conv10
I1022 21:19:46.383647 20928 net.cpp:434] relu_conv10 <- conv10_2626
I1022 21:19:46.383658 20928 net.cpp:395] relu_conv10 -> conv10_2626 (in-place)
I1022 21:19:46.384122 20928 net.cpp:150] Setting up relu_conv10
I1022 21:19:46.384138 20928 net.cpp:157] Top shape: 128 2626 14 14 (65881088)
I1022 21:19:46.384150 20928 net.cpp:165] Memory required for data: 4362065920
I1022 21:19:46.384155 20928 layer_factory.hpp:77] Creating layer pool10
I1022 21:19:46.384167 20928 net.cpp:100] Creating Layer pool10
I1022 21:19:46.384172 20928 net.cpp:434] pool10 <- conv10_2626
I1022 21:19:46.384181 20928 net.cpp:408] pool10 -> pool10
I1022 21:19:46.384424 20928 net.cpp:150] Setting up pool10
I1022 21:19:46.384438 20928 net.cpp:157] Top shape: 128 2626 1 1 (336128)
I1022 21:19:46.384450 20928 net.cpp:165] Memory required for data: 4363410432
I1022 21:19:46.384454 20928 layer_factory.hpp:77] Creating layer loss
I1022 21:19:46.384461 20928 net.cpp:100] Creating Layer loss
I1022 21:19:46.384466 20928 net.cpp:434] loss <- pool10
I1022 21:19:46.384472 20928 net.cpp:434] loss <- label
I1022 21:19:46.384481 20928 net.cpp:408] loss -> loss
I1022 21:19:46.396759 20928 layer_factory.hpp:77] Creating layer loss
…
I1022 21:19:46.400032 20928 solver.cpp:181] Creating test net (#0) specified by net file: models/squeezenet_relu/train_val.prototxt
I1022 21:19:46.400120 20928 net.cpp:322] The NetState phase (1) differed from the phase (0) specified by a rule in layer data
I1022 21:19:46.400532 20928 net.cpp:58] Initializing net from parameters: 
state {
  phase: TEST
}
layer {
  name: "data"
  type: "Data"
  top: "data"
  top: "label"
  include {
    phase: TEST
  }
  transform_param {
    crop_size: 227
    mean_file: "/share/zhh/mean.binaryproto"
  }
  data_param {
    source: "/share/front/test_lmdb"
    batch_size: 100
    backend: LMDB
  }
}
layer {
  name: "conv1"
  type: "Convolution"
  bottom: "data"
  top: "conv1"
  convolution_param {
    num_output: 64
    kernel_size: 3
    stride: 2
    weight_filler {
      type: "xavier"
    }
  }
}
layer {
  name: "relu_conv1"
  type: "ReLU"
  bottom: "conv1"
  top: "conv1"
}
layer {
  name: "pool1"
  type: "Pooling"
  bottom: "conv1"
  top: "pool1"
  pooling_param {
    pool: MAX
    kernel_size: 3
    stride: 2
  }
}
layer {
  name: "fire2/squeeze1x1"
  type: "Convolution"
  bottom: "pool1"
  top: "fire2/squeeze1x1"
  convolution_param {
    num_output: 16
    kernel_size: 1
    weight_filler {
      type: "xavier"
    }
  }
}
layer {
  name: "fire2/expand1x1"
  type: "Convolution"
  bottom: "fire2/squeeze1x1"
  top: "fire2/expand1x1"
  convolution_param {
    num_output: 64
    kernel_size: 1
    weight_filler {
      type: "xavier"
    }
  }
}
layer {
  name: "fire2/relu_expand1x1"
  type: "ReLU"
  bottom: "fire2/expand1x1"
  top: "fire2/expand1x1"
}
layer {
  name: "fire2/expand3x3"
  type: "Convolution"
  bottom: "fire2/squeeze1x1"
  top: "fire2/expand3x3"
  convolution_param {
    num_output: 64
    pad: 1
    kernel_size: 3
    weight_filler {
      type: "xavier"
    }
  }
}
layer {
  name: "fire2/relu_expand3x3"
  type: "ReLU"
  bottom: "fire2/expand3x3"
  top: "fire2/expand3x3"
}
layer {
  name: "fire2/concat"
  type: "Concat"
  bottom: "fire2/expand1x1"
  bottom: "fire2/expand3x3"
  top: "fire2/concat"
}
layer {
  name: "fire3/squeeze1x1"
  type: "Convolution"
  bottom: "fire2/concat"
  top: "fire3/squeeze1x1"
  convolution_param {
    num_output: 16
    kernel_size: 1
    weight_filler {
      type: "xavier"
    }
  }
}
layer {
  name: "fire3/expand1x1"
  type: "Convolution"
  bottom: "fire3/squeeze1x1"
  top: "fire3/expand1x1"
  convolution_param {
    num_output: 64
    kernel_size: 1
    weight_filler {
      type: "xavier"
    }
  }
}
layer {
  name: "fire3/relu_expand1x1"
  type: "ReLU"
  bottom: "fire3/expand1x1"
  top: "fire3/expand1x1"
}
layer {
  name: "fire3/expand3x3"
  type: "Convolution"
  bottom: "fire3/squeeze1x1"
  top: "fire3/expand3x3"
  convolution_param {
    num_output: 64
    pad: 1
    kernel_size: 3
    weight_filler {
      type: "xavier"
    }
  }
}
layer {
  name: "fire3/relu_expand3x3"
  type: "ReLU"
  bottom: "fire3/expand3x3"
  top: "fire3/expand3x3"
}
layer {
  name: "fire3/concat"
  type: "Concat"
  bottom: "fire3/expand1x1"
  bottom: "fire3/expand3x3"
  top: "fire3/concat"
}
layer {
  name: "pool3"
  type: "Pooling"
  bottom: "fire3/concat"
  top: "pool3"
  pooling_param {
    pool: MAX
    kernel_size: 3
    stride: 2
  }
}
layer {
  name: "fire4/squeeze1x1"
  type: "Convolution"
  bottom: "pool3"
  top: "fire4/squeeze1x1"
  convolution_param {
    num_output: 32
    kernel_size: 1
    weight_filler {
      type: "xavier"
    }
  }
}
layer {
  name: "fire4/expand1x1"
  type: "Convolution"
  bottom: "fire4/squeeze1x1"
  top: "fire4/expand1x1"
  convolution_param {
    num_output: 128
    kernel_size: 1
    weight_filler {
      type: "xavier"
    }
  }
}
layer {
  name: "fire4/relu_expand1x1"
  type: "ReLU"
  bottom: "fire4/expand1x1"
  top: "fire4/expand1x1"
}
layer {
  name: "fire4/expand3x3"
  type: "Convolution"
  bottom: "fire4/squeeze1x1"
  top: "fire4/expand3x3"
  convolution_param {
    num_output: 128
    pad: 1
    kernel_size: 3
    weight_filler {
      type: "xavier"
    }
  }
}
layer {
  name: "fire4/relu_expand3x3"
  type: "ReLU"
  bottom: "fire4/expand3x3"
  top: "fire4/expand3x3"
}
layer {
  name: "fire4/concat"
  type: "Concat"
  bottom: "fire4/expand1x1"
  bottom: "fire4/expand3x3"
  top: "fire4/concat"
}
layer {
  name: "fire5/squeeze1x1"
  type: "Convolution"
  bottom: "fire4/concat"
  top: "fire5/squeeze1x1"
  convolution_param {
    num_output: 32
    kernel_size: 1
    weight_filler {
      type: "xavier"
    }
  }
}
layer {
  name: "fire5/expand1x1"
  type: "Convolution"
  bottom: "fire5/squeeze1x1"
  top: "fire5/expand1x1"
  convolution_param {
    num_output: 128
    kernel_size: 1
    weight_filler {
      type: "xavier"
    }
  }
}
layer {
  name: "fire5/relu_expand1x1"
  type: "ReLU"
  bottom: "fire5/expand1x1"
  top: "fire5/expand1x1"
}
layer {
  name: "fire5/expand3x3"
  type: "Convolution"
  bottom: "fire5/squeeze1x1"
  top: "fire5/expand3x3"
  convolution_param {
    num_output: 128
    pad: 1
    kernel_size: 3
    weight_filler {
      type: "xavier"
    }
  }
}
layer {
  name: "fire5/relu_expand3x3"
  type: "ReLU"
  bottom: "fire5/expand3x3"
  top: "fire5/expand3x3"
}
layer {
  name: "fire5/concat"
  type: "Concat"
  bottom: "fire5/expand1x1"
  bottom: "fire5/expand3x3"
  top: "fire5/concat"
}
layer {
  name: "pool5"
  type: "Pooling"
  bottom: "fire5/concat"
  top: "pool5"
  pooling_param {
    pool: MAX
    kernel_size: 3
    stride: 2
  }
}
layer {
  name: "fire6/squeeze1x1"
  type: "Convolution"
  bottom: "pool5"
  top: "fire6/squeeze1x1"
  convolution_param {
    num_output: 48
    kernel_size: 1
    weight_filler {
      type: "xavier"
    }
  }
}
layer {
  name: "fire6/expand1x1"
  type: "Convolution"
  bottom: "fire6/squeeze1x1"
  top: "fire6/expand1x1"
  convolution_param {
    num_output: 192
    kernel_size: 1
    weight_filler {
      type: "xavier"
    }
  }
}
layer {
  name: "fire6/relu_expand1x1"
  type: "ReLU"
  bottom: "fire6/expand1x1"
  top: "fire6/expand1x1"
}
layer {
  name: "fire6/expand3x3"
  type: "Convolution"
  bottom: "fire6/squeeze1x1"
  top: "fire6/expand3x3"
  convolution_param {
    num_output: 192
    pad: 1
    kernel_size: 3
    weight_filler {
      type: "xavier"
    }
  }
}
layer {
  name: "fire6/relu_expand3x3"
  type: "ReLU"
  bottom: "fire6/expand3x3"
  top: "fire6/expand3x3"
}
layer {
  name: "fire6/concat"
  type: "Concat"
  bottom: "fire6/expand1x1"
  bottom: "fire6/expand3x3"
  top: "fire6/concat"
}
layer {
  name: "fire7/squeeze1x1"
  type: "Convolution"
  bottom: "fire6/concat"
  top: "fire7/squeeze1x1"
  convolution_param {
    num_output: 48
    kernel_size: 1
    weight_filler {
      type: "xavier"
    }
  }
}
layer {
  name: "fire7/expand1x1"
  type: "Convolution"
  bottom: "fire7/squeeze1x1"
  top: "fire7/expand1x1"
  convolution_param {
    num_output: 192
    kernel_size: 1
    weight_filler {
      type: "xavier"
    }
  }
}
layer {
  name: "fire7/relu_expand1x1"
  type: "ReLU"
  bottom: "fire7/expand1x1"
  top: "fire7/expand1x1"
}
layer {
  name: "fire7/expand3x3"
  type: "Convolution"
  bottom: "fire7/squeeze1x1"
  top: "fire7/expand3x3"
  convolution_param {
    num_output: 192
    pad: 1
    kernel_size: 3
    weight_filler {
      type: "xavier"
    }
  }
}
layer {
  name: "fire7/relu_expand3x3"
  type: "ReLU"
  bottom: "fire7/expand3x3"
  top: "fire7/expand3x3"
}
layer {
  name: "fire7/concat"
  type: "Concat"
  bottom: "fire7/expand1x1"
  bottom: "fire7/expand3x3"
  top: "fire7/concat"
}
layer {
  name: "fire8/squeeze1x1"
  type: "Convolution"
  bottom: "fire7/concat"
  top: "fire8/squeeze1x1"
  convolution_param {
    num_output: 64
    kernel_size: 1
    weight_filler {
      type: "xavier"
    }
  }
}
layer {
  name: "fire8/expand1x1"
  type: "Convolution"
  bottom: "fire8/squeeze1x1"
  top: "fire8/expand1x1"
  convolution_param {
    num_output: 256
    kernel_size: 1
    weight_filler {
      type: "xavier"
    }
  }
}
layer {
  name: "fire8/relu_expand1x1"
  type: "ReLU"
  bottom: "fire8/expand1x1"
  top: "fire8/expand1x1"
}
layer {
  name: "fire8/expand3x3"
  type: "Convolution"
  bottom: "fire8/squeeze1x1"
  top: "fire8/expand3x3"
  convolution_param {
    num_output: 256
    pad: 1
    kernel_size: 3
    weight_filler {
      type: "xavier"
    }
  }
}
layer {
  name: "fire8/relu_expand3x3"
  type: "ReLU"
  bottom: "fire8/expand3x3"
  top: "fire8/expand3x3"
}
layer {
  name: "fire8/concat"
  type: "Concat"
  bottom: "fire8/expand1x1"
  bottom: "fire8/expand3x3"
  top: "fire8/concat"
}
layer {
  name: "fire9/squeeze1x1"
  type: "Convolution"
  bottom: "fire8/concat"
  top: "fire9/squeeze1x1"
  convolution_param {
    num_output: 64
    kernel_size: 1
    weight_filler {
      type: "xavier"
    }
  }
}
layer {
  name: "fire9/expand1x1"
  type: "Convolution"
  bottom: "fire9/squeeze1x1"
  top: "fire9/expand1x1"
  convolution_param {
    num_output: 256
    kernel_size: 1
    weight_filler {
      type: "xavier"
    }
  }
}
layer {
  name: "fire9/relu_expand1x1"
  type: "ReLU"
  bottom: "fire9/expand1x1"
  top: "fire9/expand1x1"
}
layer {
  name: "fire9/expand3x3"
  type: "Convolution"
  bottom: "fire9/squeeze1x1"
  top: "fire9/expand3x3"
  convolution_param {
    num_output: 256
    pad: 1
    kernel_size: 3
    weight_filler {
      type: "xavier"
    }
  }
}
layer {
  name: "fire9/relu_expand3x3"
  type: "ReLU"
  bottom: "fire9/expand3x3"
  top: "fire9/expand3x3"
}
layer {
  name: "fire9/concat"
  type: "Concat"
  bottom: "fire9/expand1x1"
  bottom: "fire9/expand3x3"
  top: "fire9/concat"
}
layer {
  name: "drop9"
  type: "Dropout"
  bottom: "fire9/concat"
  top: "fire9/concat"
  dropout_param {
    dropout_ratio: 0.5
  }
}
layer {
  name: "conv10_2626"
  type: "Convolution"
  bottom: "fire9/concat"
  top: "conv10_2626"
  param {
    lr_mult: 10
    decay_mult: 1
  }
  convolution_param {
    num_output: 2626
    kernel_size: 1
    weight_filler {
      type: "gaussian"
      mean: 0
      std: 0.01
    }
  }
}
layer {
  name: "relu_conv10"
  type: "ReLU"
  bottom: "conv10_2626"
  top: "conv10_2626"
}
layer {
  name: "pool10"
  type: "Pooling"
  bottom: "conv10_2626"
  top: "pool10"
  pooling_param {
    pool: AVE
    global_pooling: true
  }
}
layer {
  name: "loss"
  type: "SoftmaxWithLoss"
  bottom: "pool10"
  bottom: "label"
  top: "loss"
}
layer {
  name: "accuracy"
  type: "Accuracy"
  bottom: "pool10"
  bottom: "label"
  top: "accuracy"
  include {
    phase: TEST
  }
}
I1022 21:19:46.400817 20928 layer_factory.hpp:77] Creating layer data
I1022 21:19:46.401136 20928 net.cpp:100] Creating Layer data
I1022 21:19:46.401149 20928 net.cpp:408] data -> data
I1022 21:19:46.401160 20928 net.cpp:408] data -> label
I1022 21:19:46.401170 20928 data_transformer.cpp:25] Loading mean file from: /share/zhh/mean.binaryproto
I1022 21:19:46.425530 20948 db_lmdb.cpp:35] Opened lmdb /share/front/test_lmdb
I1022 21:19:46.454983 20928 data_layer.cpp:41] output data size: 100,3,227,227
I1022 21:19:46.574049 20928 net.cpp:150] Setting up data
I1022 21:19:46.574095 20928 net.cpp:157] Top shape: 100 3 227 227 (15458700)
I1022 21:19:46.574101 20928 net.cpp:157] Top shape: 100 (100)
I1022 21:19:46.574105 20928 net.cpp:165] Memory required for data: 61835200
I1022 21:19:46.574111 20928 layer_factory.hpp:77] Creating layer label_data_1_split
I1022 21:19:46.574125 20928 net.cpp:100] Creating Layer label_data_1_split
I1022 21:19:46.574129 20928 net.cpp:434] label_data_1_split <- label
I1022 21:19:46.574137 20928 net.cpp:408] label_data_1_split -> label_data_1_split_0
I1022 21:19:46.574149 20928 net.cpp:408] label_data_1_split -> label_data_1_split_1
I1022 21:19:46.574229 20928 net.cpp:150] Setting up label_data_1_split
I1022 21:19:46.574237 20928 net.cpp:157] Top shape: 100 (100)
I1022 21:19:46.574242 20928 net.cpp:157] Top shape: 100 (100)
I1022 21:19:46.574245 20928 net.cpp:165] Memory required for data: 61836000
I1022 21:19:46.574249 20928 layer_factory.hpp:77] Creating layer conv1
I1022 21:19:46.574261 20928 net.cpp:100] Creating Layer conv1
I1022 21:19:46.574265 20928 net.cpp:434] conv1 <- data
I1022 21:19:46.574271 20928 net.cpp:408] conv1 -> conv1
I1022 21:19:46.583856 20928 net.cpp:150] Setting up conv1
I1022 21:19:46.583894 20928 net.cpp:157] Top shape: 100 64 113 113 (81721600)
I1022 21:19:46.583899 20928 net.cpp:165] Memory required for data: 388722400
I1022 21:19:46.583915 20928 layer_factory.hpp:77] Creating layer relu_conv1
I1022 21:19:46.583925 20928 net.cpp:100] Creating Layer relu_conv1
I1022 21:19:46.583930 20928 net.cpp:434] relu_conv1 <- conv1
I1022 21:19:46.583948 20928 net.cpp:395] relu_conv1 -> conv1 (in-place)
I1022 21:19:46.584138 20928 net.cpp:150] Setting up relu_conv1
I1022 21:19:46.584149 20928 net.cpp:157] Top shape: 100 64 113 113 (81721600)
I1022 21:19:46.584164 20928 net.cpp:165] Memory required for data: 715608800
I1022 21:19:46.584185 20928 layer_factory.hpp:77] Creating layer pool1
I1022 21:19:46.584195 20928 net.cpp:100] Creating Layer pool1
I1022 21:19:46.584198 20928 net.cpp:434] pool1 <- conv1
I1022 21:19:46.584204 20928 net.cpp:408] pool1 -> pool1
I1022 21:19:46.584255 20928 net.cpp:150] Setting up pool1
I1022 21:19:46.584264 20928 net.cpp:157] Top shape: 100 64 56 56 (20070400)
I1022 21:19:46.584267 20928 net.cpp:165] Memory required for data: 795890400
I1022 21:19:46.584270 20928 layer_factory.hpp:77] Creating layer fire2/squeeze1x1
I1022 21:19:46.584281 20928 net.cpp:100] Creating Layer fire2/squeeze1x1
I1022 21:19:46.584285 20928 net.cpp:434] fire2/squeeze1x1 <- pool1
I1022 21:19:46.584290 20928 net.cpp:408] fire2/squeeze1x1 -> fire2/squeeze1x1
I1022 21:19:46.585552 20928 net.cpp:150] Setting up fire2/squeeze1x1
I1022 21:19:46.585568 20928 net.cpp:157] Top shape: 100 16 56 56 (5017600)
I1022 21:19:46.585583 20928 net.cpp:165] Memory required for data: 815960800
I1022 21:19:46.585593 20928 layer_factory.hpp:77] Creating layer fire2/squeeze1x1_fire2/squeeze1x1_0_split
I1022 21:19:46.585600 20928 net.cpp:100] Creating Layer fire2/squeeze1x1_fire2/squeeze1x1_0_split
I1022 21:19:46.585604 20928 net.cpp:434] fire2/squeeze1x1_fire2/squeeze1x1_0_split <- fire2/squeeze1x1
I1022 21:19:46.585610 20928 net.cpp:408] fire2/squeeze1x1_fire2/squeeze1x1_0_split -> fire2/squeeze1x1_fire2/squeeze1x1_0_split_0
I1022 21:19:46.585630 20928 net.cpp:408] fire2/squeeze1x1_fire2/squeeze1x1_0_split -> fire2/squeeze1x1_fire2/squeeze1x1_0_split_1
I1022 21:19:46.585675 20928 net.cpp:150] Setting up fire2/squeeze1x1_fire2/squeeze1x1_0_split
I1022 21:19:46.585685 20928 net.cpp:157] Top shape: 100 16 56 56 (5017600)
I1022 21:19:46.585690 20928 net.cpp:157] Top shape: 100 16 56 56 (5017600)
I1022 21:19:46.585692 20928 net.cpp:165] Memory required for data: 856101600
I1022 21:19:46.585696 20928 layer_factory.hpp:77] Creating layer fire2/expand1x1
I1022 21:19:46.585705 20928 net.cpp:100] Creating Layer fire2/expand1x1
I1022 21:19:46.585708 20928 net.cpp:434] fire2/expand1x1 <- fire2/squeeze1x1_fire2/squeeze1x1_0_split_0
I1022 21:19:46.585714 20928 net.cpp:408] fire2/expand1x1 -> fire2/expand1x1
I1022 21:19:46.586992 20928 net.cpp:150] Setting up fire2/expand1x1
I1022 21:19:46.587007 20928 net.cpp:157] Top shape: 100 64 56 56 (20070400)
I1022 21:19:46.587023 20928 net.cpp:165] Memory required for data: 936383200
I1022 21:19:46.587033 20928 layer_factory.hpp:77] Creating layer fire2/relu_expand1x1
I1022 21:19:46.587040 20928 net.cpp:100] Creating Layer fire2/relu_expand1x1
I1022 21:19:46.587044 20928 net.cpp:434] fire2/relu_expand1x1 <- fire2/expand1x1
I1022 21:19:46.587062 20928 net.cpp:395] fire2/relu_expand1x1 -> fire2/expand1x1 (in-place)
I1022 21:19:46.587246 20928 net.cpp:150] Setting up fire2/relu_expand1x1
I1022 21:19:46.587268 20928 net.cpp:157] Top shape: 100 64 56 56 (20070400)
I1022 21:19:46.587272 20928 net.cpp:165] Memory required for data: 1016664800
I1022 21:19:46.587276 20928 layer_factory.hpp:77] Creating layer fire2/expand3x3
I1022 21:19:46.587285 20928 net.cpp:100] Creating Layer fire2/expand3x3
I1022 21:19:46.587288 20928 net.cpp:434] fire2/expand3x3 <- fire2/squeeze1x1_fire2/squeeze1x1_0_split_1
I1022 21:19:46.587294 20928 net.cpp:408] fire2/expand3x3 -> fire2/expand3x3
I1022 21:19:46.588646 20928 net.cpp:150] Setting up fire2/expand3x3
I1022 21:19:46.588661 20928 net.cpp:157] Top shape: 100 64 56 56 (20070400)
I1022 21:19:46.588677 20928 net.cpp:165] Memory required for data: 1096946400
I1022 21:19:46.588685 20928 layer_factory.hpp:77] Creating layer fire2/relu_expand3x3
I1022 21:19:46.588690 20928 net.cpp:100] Creating Layer fire2/relu_expand3x3
I1022 21:19:46.588696 20928 net.cpp:434] fire2/relu_expand3x3 <- fire2/expand3x3
I1022 21:19:46.588701 20928 net.cpp:395] fire2/relu_expand3x3 -> fire2/expand3x3 (in-place)
I1022 21:19:46.589102 20928 net.cpp:150] Setting up fire2/relu_expand3x3
I1022 21:19:46.589128 20928 net.cpp:157] Top shape: 100 64 56 56 (20070400)
I1022 21:19:46.589133 20928 net.cpp:165] Memory required for data: 1177228000
I1022 21:19:46.589148 20928 layer_factory.hpp:77] Creating layer fire2/concat
I1022 21:19:46.589155 20928 net.cpp:100] Creating Layer fire2/concat
I1022 21:19:46.589159 20928 net.cpp:434] fire2/concat <- fire2/expand1x1
I1022 21:19:46.589164 20928 net.cpp:434] fire2/concat <- fire2/expand3x3
I1022 21:19:46.589169 20928 net.cpp:408] fire2/concat -> fire2/concat
I1022 21:19:46.589205 20928 net.cpp:150] Setting up fire2/concat
I1022 21:19:46.589211 20928 net.cpp:157] Top shape: 100 128 56 56 (40140800)
I1022 21:19:46.589215 20928 net.cpp:165] Memory required for data: 1337791200
I1022 21:19:46.589217 20928 layer_factory.hpp:77] Creating layer fire3/squeeze1x1
I1022 21:19:46.589226 20928 net.cpp:100] Creating Layer fire3/squeeze1x1
I1022 21:19:46.589228 20928 net.cpp:434] fire3/squeeze1x1 <- fire2/concat
I1022 21:19:46.589234 20928 net.cpp:408] fire3/squeeze1x1 -> fire3/squeeze1x1
I1022 21:19:46.590358 20928 net.cpp:150] Setting up fire3/squeeze1x1
I1022 21:19:46.590373 20928 net.cpp:157] Top shape: 100 16 56 56 (5017600)
I1022 21:19:46.590389 20928 net.cpp:165] Memory required for data: 1357861600
I1022 21:19:46.590399 20928 layer_factory.hpp:77] Creating layer fire3/squeeze1x1_fire3/squeeze1x1_0_split
I1022 21:19:46.590406 20928 net.cpp:100] Creating Layer fire3/squeeze1x1_fire3/squeeze1x1_0_split
I1022 21:19:46.590410 20928 net.cpp:434] fire3/squeeze1x1_fire3/squeeze1x1_0_split <- fire3/squeeze1x1
I1022 21:19:46.590416 20928 net.cpp:408] fire3/squeeze1x1_fire3/squeeze1x1_0_split -> fire3/squeeze1x1_fire3/squeeze1x1_0_split_0
I1022 21:19:46.590423 20928 net.cpp:408] fire3/squeeze1x1_fire3/squeeze1x1_0_split -> fire3/squeeze1x1_fire3/squeeze1x1_0_split_1
I1022 21:19:46.590467 20928 net.cpp:150] Setting up fire3/squeeze1x1_fire3/squeeze1x1_0_split
I1022 21:19:46.590476 20928 net.cpp:157] Top shape: 100 16 56 56 (5017600)
I1022 21:19:46.590481 20928 net.cpp:157] Top shape: 100 16 56 56 (5017600)
I1022 21:19:46.590484 20928 net.cpp:165] Memory required for data: 1398002400
I1022 21:19:46.590487 20928 layer_factory.hpp:77] Creating layer fire3/expand1x1
I1022 21:19:46.590494 20928 net.cpp:100] Creating Layer fire3/expand1x1
I1022 21:19:46.590498 20928 net.cpp:434] fire3/expand1x1 <- fire3/squeeze1x1_fire3/squeeze1x1_0_split_0
I1022 21:19:46.590504 20928 net.cpp:408] fire3/expand1x1 -> fire3/expand1x1
I1022 21:19:46.591717 20928 net.cpp:150] Setting up fire3/expand1x1
I1022 21:19:46.591744 20928 net.cpp:157] Top shape: 100 64 56 56 (20070400)
I1022 21:19:46.591760 20928 net.cpp:165] Memory required for data: 1478284000
I1022 21:19:46.591768 20928 layer_factory.hpp:77] Creating layer fire3/relu_expand1x1
I1022 21:19:46.591773 20928 net.cpp:100] Creating Layer fire3/relu_expand1x1
I1022 21:19:46.591778 20928 net.cpp:434] fire3/relu_expand1x1 <- fire3/expand1x1
I1022 21:19:46.591784 20928 net.cpp:395] fire3/relu_expand1x1 -> fire3/expand1x1 (in-place)
I1022 21:19:46.592193 20928 net.cpp:150] Setting up fire3/relu_expand1x1
I1022 21:19:46.592207 20928 net.cpp:157] Top shape: 100 64 56 56 (20070400)
I1022 21:19:46.592211 20928 net.cpp:165] Memory required for data: 1558565600
I1022 21:19:46.592216 20928 layer_factory.hpp:77] Creating layer fire3/expand3x3
I1022 21:19:46.592226 20928 net.cpp:100] Creating Layer fire3/expand3x3
I1022 21:19:46.592231 20928 net.cpp:434] fire3/expand3x3 <- fire3/squeeze1x1_fire3/squeeze1x1_0_split_1
I1022 21:19:46.592237 20928 net.cpp:408] fire3/expand3x3 -> fire3/expand3x3
I1022 21:19:46.593547 20928 net.cpp:150] Setting up fire3/expand3x3
I1022 21:19:46.593575 20928 net.cpp:157] Top shape: 100 64 56 56 (20070400)
I1022 21:19:46.593578 20928 net.cpp:165] Memory required for data: 1638847200
I1022 21:19:46.593585 20928 layer_factory.hpp:77] Creating layer fire3/relu_expand3x3
I1022 21:19:46.593592 20928 net.cpp:100] Creating Layer fire3/relu_expand3x3
I1022 21:19:46.593597 20928 net.cpp:434] fire3/relu_expand3x3 <- fire3/expand3x3
I1022 21:19:46.593602 20928 net.cpp:395] fire3/relu_expand3x3 -> fire3/expand3x3 (in-place)
I1022 21:19:46.594028 20928 net.cpp:150] Setting up fire3/relu_expand3x3
I1022 21:19:46.594055 20928 net.cpp:157] Top shape: 100 64 56 56 (20070400)
I1022 21:19:46.594070 20928 net.cpp:165] Memory required for data: 1719128800
I1022 21:19:46.594074 20928 layer_factory.hpp:77] Creating layer fire3/concat
I1022 21:19:46.594081 20928 net.cpp:100] Creating Layer fire3/concat
I1022 21:19:46.594086 20928 net.cpp:434] fire3/concat <- fire3/expand1x1
I1022 21:19:46.594091 20928 net.cpp:434] fire3/concat <- fire3/expand3x3
I1022 21:19:46.594096 20928 net.cpp:408] fire3/concat -> fire3/concat
I1022 21:19:46.594132 20928 net.cpp:150] Setting up fire3/concat
I1022 21:19:46.594139 20928 net.cpp:157] Top shape: 100 128 56 56 (40140800)
I1022 21:19:46.594142 20928 net.cpp:165] Memory required for data: 1879692000
I1022 21:19:46.594146 20928 layer_factory.hpp:77] Creating layer pool3
I1022 21:19:46.594152 20928 net.cpp:100] Creating Layer pool3
I1022 21:19:46.594156 20928 net.cpp:434] pool3 <- fire3/concat
I1022 21:19:46.594161 20928 net.cpp:408] pool3 -> pool3
I1022 21:19:46.594203 20928 net.cpp:150] Setting up pool3
I1022 21:19:46.594210 20928 net.cpp:157] Top shape: 100 128 28 28 (10035200)
I1022 21:19:46.594213 20928 net.cpp:165] Memory required for data: 1919832800
I1022 21:19:46.594216 20928 layer_factory.hpp:77] Creating layer fire4/squeeze1x1
I1022 21:19:46.594224 20928 net.cpp:100] Creating Layer fire4/squeeze1x1
I1022 21:19:46.594228 20928 net.cpp:434] fire4/squeeze1x1 <- pool3
I1022 21:19:46.594234 20928 net.cpp:408] fire4/squeeze1x1 -> fire4/squeeze1x1
I1022 21:19:46.595504 20928 net.cpp:150] Setting up fire4/squeeze1x1
I1022 21:19:46.595518 20928 net.cpp:157] Top shape: 100 32 28 28 (2508800)
I1022 21:19:46.595533 20928 net.cpp:165] Memory required for data: 1929868000
I1022 21:19:46.595551 20928 layer_factory.hpp:77] Creating layer fire4/squeeze1x1_fire4/squeeze1x1_0_split
I1022 21:19:46.595558 20928 net.cpp:100] Creating Layer fire4/squeeze1x1_fire4/squeeze1x1_0_split
I1022 21:19:46.595562 20928 net.cpp:434] fire4/squeeze1x1_fire4/squeeze1x1_0_split <- fire4/squeeze1x1
I1022 21:19:46.595568 20928 net.cpp:408] fire4/squeeze1x1_fire4/squeeze1x1_0_split -> fire4/squeeze1x1_fire4/squeeze1x1_0_split_0
I1022 21:19:46.595588 20928 net.cpp:408] fire4/squeeze1x1_fire4/squeeze1x1_0_split -> fire4/squeeze1x1_fire4/squeeze1x1_0_split_1
I1022 21:19:46.595641 20928 net.cpp:150] Setting up fire4/squeeze1x1_fire4/squeeze1x1_0_split
I1022 21:19:46.595651 20928 net.cpp:157] Top shape: 100 32 28 28 (2508800)
I1022 21:19:46.595656 20928 net.cpp:157] Top shape: 100 32 28 28 (2508800)
I1022 21:19:46.595659 20928 net.cpp:165] Memory required for data: 1949938400
I1022 21:19:46.595662 20928 layer_factory.hpp:77] Creating layer fire4/expand1x1
I1022 21:19:46.595670 20928 net.cpp:100] Creating Layer fire4/expand1x1
I1022 21:19:46.595674 20928 net.cpp:434] fire4/expand1x1 <- fire4/squeeze1x1_fire4/squeeze1x1_0_split_0
I1022 21:19:46.595680 20928 net.cpp:408] fire4/expand1x1 -> fire4/expand1x1
I1022 21:19:46.596917 20928 net.cpp:150] Setting up fire4/expand1x1
I1022 21:19:46.596932 20928 net.cpp:157] Top shape: 100 128 28 28 (10035200)
I1022 21:19:46.596947 20928 net.cpp:165] Memory required for data: 1990079200
I1022 21:19:46.596958 20928 layer_factory.hpp:77] Creating layer fire4/relu_expand1x1
I1022 21:19:46.596966 20928 net.cpp:100] Creating Layer fire4/relu_expand1x1
I1022 21:19:46.596969 20928 net.cpp:434] fire4/relu_expand1x1 <- fire4/expand1x1
I1022 21:19:46.596974 20928 net.cpp:395] fire4/relu_expand1x1 -> fire4/expand1x1 (in-place)
I1022 21:19:46.597174 20928 net.cpp:150] Setting up fire4/relu_expand1x1
I1022 21:19:46.597185 20928 net.cpp:157] Top shape: 100 128 28 28 (10035200)
I1022 21:19:46.597200 20928 net.cpp:165] Memory required for data: 2030220000
I1022 21:19:46.597203 20928 layer_factory.hpp:77] Creating layer fire4/expand3x3
I1022 21:19:46.597213 20928 net.cpp:100] Creating Layer fire4/expand3x3
I1022 21:19:46.597218 20928 net.cpp:434] fire4/expand3x3 <- fire4/squeeze1x1_fire4/squeeze1x1_0_split_1
I1022 21:19:46.597224 20928 net.cpp:408] fire4/expand3x3 -> fire4/expand3x3
I1022 21:19:46.598837 20928 net.cpp:150] Setting up fire4/expand3x3
I1022 21:19:46.598865 20928 net.cpp:157] Top shape: 100 128 28 28 (10035200)
I1022 21:19:46.598881 20928 net.cpp:165] Memory required for data: 2070360800
I1022 21:19:46.598887 20928 layer_factory.hpp:77] Creating layer fire4/relu_expand3x3
I1022 21:19:46.598894 20928 net.cpp:100] Creating Layer fire4/relu_expand3x3
I1022 21:19:46.598898 20928 net.cpp:434] fire4/relu_expand3x3 <- fire4/expand3x3
I1022 21:19:46.598903 20928 net.cpp:395] fire4/relu_expand3x3 -> fire4/expand3x3 (in-place)
I1022 21:19:46.599333 20928 net.cpp:150] Setting up fire4/relu_expand3x3
I1022 21:19:46.599346 20928 net.cpp:157] Top shape: 100 128 28 28 (10035200)
I1022 21:19:46.599350 20928 net.cpp:165] Memory required for data: 2110501600
I1022 21:19:46.599354 20928 layer_factory.hpp:77] Creating layer fire4/concat
I1022 21:19:46.599361 20928 net.cpp:100] Creating Layer fire4/concat
I1022 21:19:46.599364 20928 net.cpp:434] fire4/concat <- fire4/expand1x1
I1022 21:19:46.599370 20928 net.cpp:434] fire4/concat <- fire4/expand3x3
I1022 21:19:46.599376 20928 net.cpp:408] fire4/concat -> fire4/concat
I1022 21:19:46.599412 20928 net.cpp:150] Setting up fire4/concat
I1022 21:19:46.599419 20928 net.cpp:157] Top shape: 100 256 28 28 (20070400)
I1022 21:19:46.599422 20928 net.cpp:165] Memory required for data: 2190783200
I1022 21:19:46.599426 20928 layer_factory.hpp:77] Creating layer fire5/squeeze1x1
I1022 21:19:46.599433 20928 net.cpp:100] Creating Layer fire5/squeeze1x1
I1022 21:19:46.599437 20928 net.cpp:434] fire5/squeeze1x1 <- fire4/concat
I1022 21:19:46.599442 20928 net.cpp:408] fire5/squeeze1x1 -> fire5/squeeze1x1
I1022 21:19:46.600595 20928 net.cpp:150] Setting up fire5/squeeze1x1
I1022 21:19:46.600622 20928 net.cpp:157] Top shape: 100 32 28 28 (2508800)
I1022 21:19:46.600626 20928 net.cpp:165] Memory required for data: 2200818400
I1022 21:19:46.600633 20928 layer_factory.hpp:77] Creating layer fire5/squeeze1x1_fire5/squeeze1x1_0_split
I1022 21:19:46.600641 20928 net.cpp:100] Creating Layer fire5/squeeze1x1_fire5/squeeze1x1_0_split
I1022 21:19:46.600644 20928 net.cpp:434] fire5/squeeze1x1_fire5/squeeze1x1_0_split <- fire5/squeeze1x1
I1022 21:19:46.600652 20928 net.cpp:408] fire5/squeeze1x1_fire5/squeeze1x1_0_split -> fire5/squeeze1x1_fire5/squeeze1x1_0_split_0
I1022 21:19:46.600661 20928 net.cpp:408] fire5/squeeze1x1_fire5/squeeze1x1_0_split -> fire5/squeeze1x1_fire5/squeeze1x1_0_split_1
I1022 21:19:46.600706 20928 net.cpp:150] Setting up fire5/squeeze1x1_fire5/squeeze1x1_0_split
I1022 21:19:46.600715 20928 net.cpp:157] Top shape: 100 32 28 28 (2508800)
I1022 21:19:46.600720 20928 net.cpp:157] Top shape: 100 32 28 28 (2508800)
I1022 21:19:46.600723 20928 net.cpp:165] Memory required for data: 2220888800
I1022 21:19:46.600726 20928 layer_factory.hpp:77] Creating layer fire5/expand1x1
I1022 21:19:46.600735 20928 net.cpp:100] Creating Layer fire5/expand1x1
I1022 21:19:46.600740 20928 net.cpp:434] fire5/expand1x1 <- fire5/squeeze1x1_fire5/squeeze1x1_0_split_0
I1022 21:19:46.600745 20928 net.cpp:408] fire5/expand1x1 -> fire5/expand1x1
I1022 21:19:46.602098 20928 net.cpp:150] Setting up fire5/expand1x1
I1022 21:19:46.602126 20928 net.cpp:157] Top shape: 100 128 28 28 (10035200)
I1022 21:19:46.602130 20928 net.cpp:165] Memory required for data: 2261029600
I1022 21:19:46.602149 20928 layer_factory.hpp:77] Creating layer fire5/relu_expand1x1
I1022 21:19:46.602155 20928 net.cpp:100] Creating Layer fire5/relu_expand1x1
I1022 21:19:46.602159 20928 net.cpp:434] fire5/relu_expand1x1 <- fire5/expand1x1
I1022 21:19:46.602179 20928 net.cpp:395] fire5/relu_expand1x1 -> fire5/expand1x1 (in-place)
I1022 21:19:46.602591 20928 net.cpp:150] Setting up fire5/relu_expand1x1
I1022 21:19:46.602604 20928 net.cpp:157] Top shape: 100 128 28 28 (10035200)
I1022 21:19:46.602619 20928 net.cpp:165] Memory required for data: 2301170400
I1022 21:19:46.602623 20928 layer_factory.hpp:77] Creating layer fire5/expand3x3
I1022 21:19:46.602633 20928 net.cpp:100] Creating Layer fire5/expand3x3
I1022 21:19:46.602638 20928 net.cpp:434] fire5/expand3x3 <- fire5/squeeze1x1_fire5/squeeze1x1_0_split_1
I1022 21:19:46.602658 20928 net.cpp:408] fire5/expand3x3 -> fire5/expand3x3
I1022 21:19:46.604146 20928 net.cpp:150] Setting up fire5/expand3x3
I1022 21:19:46.604184 20928 net.cpp:157] Top shape: 100 128 28 28 (10035200)
I1022 21:19:46.604188 20928 net.cpp:165] Memory required for data: 2341311200
I1022 21:19:46.604207 20928 layer_factory.hpp:77] Creating layer fire5/relu_expand3x3
I1022 21:19:46.604218 20928 net.cpp:100] Creating Layer fire5/relu_expand3x3
I1022 21:19:46.604221 20928 net.cpp:434] fire5/relu_expand3x3 <- fire5/expand3x3
I1022 21:19:46.604229 20928 net.cpp:395] fire5/relu_expand3x3 -> fire5/expand3x3 (in-place)
I1022 21:19:46.604666 20928 net.cpp:150] Setting up fire5/relu_expand3x3
I1022 21:19:46.604681 20928 net.cpp:157] Top shape: 100 128 28 28 (10035200)
I1022 21:19:46.604696 20928 net.cpp:165] Memory required for data: 2381452000
I1022 21:19:46.604699 20928 layer_factory.hpp:77] Creating layer fire5/concat
I1022 21:19:46.604707 20928 net.cpp:100] Creating Layer fire5/concat
I1022 21:19:46.604722 20928 net.cpp:434] fire5/concat <- fire5/expand1x1
I1022 21:19:46.604727 20928 net.cpp:434] fire5/concat <- fire5/expand3x3
I1022 21:19:46.604732 20928 net.cpp:408] fire5/concat -> fire5/concat
I1022 21:19:46.604768 20928 net.cpp:150] Setting up fire5/concat
I1022 21:19:46.604784 20928 net.cpp:157] Top shape: 100 256 28 28 (20070400)
I1022 21:19:46.604786 20928 net.cpp:165] Memory required for data: 2461733600
I1022 21:19:46.604790 20928 layer_factory.hpp:77] Creating layer pool5
I1022 21:19:46.604799 20928 net.cpp:100] Creating Layer pool5
I1022 21:19:46.604801 20928 net.cpp:434] pool5 <- fire5/concat
I1022 21:19:46.604809 20928 net.cpp:408] pool5 -> pool5
I1022 21:19:46.604857 20928 net.cpp:150] Setting up pool5
I1022 21:19:46.604866 20928 net.cpp:157] Top shape: 100 256 14 14 (5017600)
I1022 21:19:46.604869 20928 net.cpp:165] Memory required for data: 2481804000
I1022 21:19:46.604872 20928 layer_factory.hpp:77] Creating layer fire6/squeeze1x1
I1022 21:19:46.604882 20928 net.cpp:100] Creating Layer fire6/squeeze1x1
I1022 21:19:46.604885 20928 net.cpp:434] fire6/squeeze1x1 <- pool5
I1022 21:19:46.604892 20928 net.cpp:408] fire6/squeeze1x1 -> fire6/squeeze1x1
I1022 21:19:46.606417 20928 net.cpp:150] Setting up fire6/squeeze1x1
I1022 21:19:46.606432 20928 net.cpp:157] Top shape: 100 48 14 14 (940800)
I1022 21:19:46.606447 20928 net.cpp:165] Memory required for data: 2485567200
I1022 21:19:46.606454 20928 layer_factory.hpp:77] Creating layer fire6/squeeze1x1_fire6/squeeze1x1_0_split
I1022 21:19:46.606477 20928 net.cpp:100] Creating Layer fire6/squeeze1x1_fire6/squeeze1x1_0_split
I1022 21:19:46.606480 20928 net.cpp:434] fire6/squeeze1x1_fire6/squeeze1x1_0_split <- fire6/squeeze1x1
I1022 21:19:46.606499 20928 net.cpp:408] fire6/squeeze1x1_fire6/squeeze1x1_0_split -> fire6/squeeze1x1_fire6/squeeze1x1_0_split_0
I1022 21:19:46.606508 20928 net.cpp:408] fire6/squeeze1x1_fire6/squeeze1x1_0_split -> fire6/squeeze1x1_fire6/squeeze1x1_0_split_1
I1022 21:19:46.606560 20928 net.cpp:150] Setting up fire6/squeeze1x1_fire6/squeeze1x1_0_split
I1022 21:19:46.606581 20928 net.cpp:157] Top shape: 100 48 14 14 (940800)
I1022 21:19:46.606585 20928 net.cpp:157] Top shape: 100 48 14 14 (940800)
I1022 21:19:46.606588 20928 net.cpp:165] Memory required for data: 2493093600
I1022 21:19:46.606592 20928 layer_factory.hpp:77] Creating layer fire6/expand1x1
I1022 21:19:46.606601 20928 net.cpp:100] Creating Layer fire6/expand1x1
I1022 21:19:46.606606 20928 net.cpp:434] fire6/expand1x1 <- fire6/squeeze1x1_fire6/squeeze1x1_0_split_0
I1022 21:19:46.606611 20928 net.cpp:408] fire6/expand1x1 -> fire6/expand1x1
I1022 21:19:46.608104 20928 net.cpp:150] Setting up fire6/expand1x1
I1022 21:19:46.608119 20928 net.cpp:157] Top shape: 100 192 14 14 (3763200)
I1022 21:19:46.608134 20928 net.cpp:165] Memory required for data: 2508146400
I1022 21:19:46.608150 20928 layer_factory.hpp:77] Creating layer fire6/relu_expand1x1
I1022 21:19:46.608156 20928 net.cpp:100] Creating Layer fire6/relu_expand1x1
I1022 21:19:46.608184 20928 net.cpp:434] fire6/relu_expand1x1 <- fire6/expand1x1
I1022 21:19:46.608191 20928 net.cpp:395] fire6/relu_expand1x1 -> fire6/expand1x1 (in-place)
I1022 21:19:46.608397 20928 net.cpp:150] Setting up fire6/relu_expand1x1
I1022 21:19:46.608408 20928 net.cpp:157] Top shape: 100 192 14 14 (3763200)
I1022 21:19:46.608423 20928 net.cpp:165] Memory required for data: 2523199200
I1022 21:19:46.608428 20928 layer_factory.hpp:77] Creating layer fire6/expand3x3
I1022 21:19:46.608436 20928 net.cpp:100] Creating Layer fire6/expand3x3
I1022 21:19:46.608441 20928 net.cpp:434] fire6/expand3x3 <- fire6/squeeze1x1_fire6/squeeze1x1_0_split_1
I1022 21:19:46.608448 20928 net.cpp:408] fire6/expand3x3 -> fire6/expand3x3
I1022 21:19:46.610841 20928 net.cpp:150] Setting up fire6/expand3x3
I1022 21:19:46.610857 20928 net.cpp:157] Top shape: 100 192 14 14 (3763200)
I1022 21:19:46.610874 20928 net.cpp:165] Memory required for data: 2538252000
I1022 21:19:46.610884 20928 layer_factory.hpp:77] Creating layer fire6/relu_expand3x3
I1022 21:19:46.610893 20928 net.cpp:100] Creating Layer fire6/relu_expand3x3
I1022 21:19:46.610899 20928 net.cpp:434] fire6/relu_expand3x3 <- fire6/expand3x3
I1022 21:19:46.610905 20928 net.cpp:395] fire6/relu_expand3x3 -> fire6/expand3x3 (in-place)
I1022 21:19:46.611115 20928 net.cpp:150] Setting up fire6/relu_expand3x3
I1022 21:19:46.611129 20928 net.cpp:157] Top shape: 100 192 14 14 (3763200)
I1022 21:19:46.611145 20928 net.cpp:165] Memory required for data: 2553304800
I1022 21:19:46.611150 20928 layer_factory.hpp:77] Creating layer fire6/concat
I1022 21:19:46.611155 20928 net.cpp:100] Creating Layer fire6/concat
I1022 21:19:46.611160 20928 net.cpp:434] fire6/concat <- fire6/expand1x1
I1022 21:19:46.611165 20928 net.cpp:434] fire6/concat <- fire6/expand3x3
I1022 21:19:46.611171 20928 net.cpp:408] fire6/concat -> fire6/concat
I1022 21:19:46.611208 20928 net.cpp:150] Setting up fire6/concat
I1022 21:19:46.611214 20928 net.cpp:157] Top shape: 100 384 14 14 (7526400)
I1022 21:19:46.611218 20928 net.cpp:165] Memory required for data: 2583410400
I1022 21:19:46.611222 20928 layer_factory.hpp:77] Creating layer fire7/squeeze1x1
I1022 21:19:46.611230 20928 net.cpp:100] Creating Layer fire7/squeeze1x1
I1022 21:19:46.611237 20928 net.cpp:434] fire7/squeeze1x1 <- fire6/concat
I1022 21:19:46.611243 20928 net.cpp:408] fire7/squeeze1x1 -> fire7/squeeze1x1
I1022 21:19:46.612751 20928 net.cpp:150] Setting up fire7/squeeze1x1
I1022 21:19:46.612777 20928 net.cpp:157] Top shape: 100 48 14 14 (940800)
I1022 21:19:46.612782 20928 net.cpp:165] Memory required for data: 2587173600
I1022 21:19:46.612794 20928 layer_factory.hpp:77] Creating layer fire7/squeeze1x1_fire7/squeeze1x1_0_split
I1022 21:19:46.612803 20928 net.cpp:100] Creating Layer fire7/squeeze1x1_fire7/squeeze1x1_0_split
I1022 21:19:46.612807 20928 net.cpp:434] fire7/squeeze1x1_fire7/squeeze1x1_0_split <- fire7/squeeze1x1
I1022 21:19:46.612825 20928 net.cpp:408] fire7/squeeze1x1_fire7/squeeze1x1_0_split -> fire7/squeeze1x1_fire7/squeeze1x1_0_split_0
I1022 21:19:46.612833 20928 net.cpp:408] fire7/squeeze1x1_fire7/squeeze1x1_0_split -> fire7/squeeze1x1_fire7/squeeze1x1_0_split_1
I1022 21:19:46.612884 20928 net.cpp:150] Setting up fire7/squeeze1x1_fire7/squeeze1x1_0_split
I1022 21:19:46.612892 20928 net.cpp:157] Top shape: 100 48 14 14 (940800)
I1022 21:19:46.612897 20928 net.cpp:157] Top shape: 100 48 14 14 (940800)
I1022 21:19:46.612900 20928 net.cpp:165] Memory required for data: 2594700000
I1022 21:19:46.612903 20928 layer_factory.hpp:77] Creating layer fire7/expand1x1
I1022 21:19:46.612912 20928 net.cpp:100] Creating Layer fire7/expand1x1
I1022 21:19:46.612916 20928 net.cpp:434] fire7/expand1x1 <- fire7/squeeze1x1_fire7/squeeze1x1_0_split_0
I1022 21:19:46.612922 20928 net.cpp:408] fire7/expand1x1 -> fire7/expand1x1
I1022 21:19:46.614341 20928 net.cpp:150] Setting up fire7/expand1x1
I1022 21:19:46.614356 20928 net.cpp:157] Top shape: 100 192 14 14 (3763200)
I1022 21:19:46.614372 20928 net.cpp:165] Memory required for data: 2609752800
I1022 21:19:46.614378 20928 layer_factory.hpp:77] Creating layer fire7/relu_expand1x1
I1022 21:19:46.614398 20928 net.cpp:100] Creating Layer fire7/relu_expand1x1
I1022 21:19:46.614403 20928 net.cpp:434] fire7/relu_expand1x1 <- fire7/expand1x1
I1022 21:19:46.614408 20928 net.cpp:395] fire7/relu_expand1x1 -> fire7/expand1x1 (in-place)
I1022 21:19:46.614831 20928 net.cpp:150] Setting up fire7/relu_expand1x1
I1022 21:19:46.614845 20928 net.cpp:157] Top shape: 100 192 14 14 (3763200)
I1022 21:19:46.614861 20928 net.cpp:165] Memory required for data: 2624805600
I1022 21:19:46.614864 20928 layer_factory.hpp:77] Creating layer fire7/expand3x3
I1022 21:19:46.614876 20928 net.cpp:100] Creating Layer fire7/expand3x3
I1022 21:19:46.614881 20928 net.cpp:434] fire7/expand3x3 <- fire7/squeeze1x1_fire7/squeeze1x1_0_split_1
I1022 21:19:46.614888 20928 net.cpp:408] fire7/expand3x3 -> fire7/expand3x3
I1022 21:19:46.616772 20928 net.cpp:150] Setting up fire7/expand3x3
I1022 21:19:46.616787 20928 net.cpp:157] Top shape: 100 192 14 14 (3763200)
I1022 21:19:46.616803 20928 net.cpp:165] Memory required for data: 2639858400
I1022 21:19:46.616822 20928 layer_factory.hpp:77] Creating layer fire7/relu_expand3x3
I1022 21:19:46.616828 20928 net.cpp:100] Creating Layer fire7/relu_expand3x3
I1022 21:19:46.616832 20928 net.cpp:434] fire7/relu_expand3x3 <- fire7/expand3x3
I1022 21:19:46.616852 20928 net.cpp:395] fire7/relu_expand3x3 -> fire7/expand3x3 (in-place)
I1022 21:19:46.617290 20928 net.cpp:150] Setting up fire7/relu_expand3x3
I1022 21:19:46.617303 20928 net.cpp:157] Top shape: 100 192 14 14 (3763200)
I1022 21:19:46.617318 20928 net.cpp:165] Memory required for data: 2654911200
I1022 21:19:46.617322 20928 layer_factory.hpp:77] Creating layer fire7/concat
I1022 21:19:46.617329 20928 net.cpp:100] Creating Layer fire7/concat
I1022 21:19:46.617333 20928 net.cpp:434] fire7/concat <- fire7/expand1x1
I1022 21:19:46.617338 20928 net.cpp:434] fire7/concat <- fire7/expand3x3
I1022 21:19:46.617344 20928 net.cpp:408] fire7/concat -> fire7/concat
I1022 21:19:46.617383 20928 net.cpp:150] Setting up fire7/concat
I1022 21:19:46.617390 20928 net.cpp:157] Top shape: 100 384 14 14 (7526400)
I1022 21:19:46.617393 20928 net.cpp:165] Memory required for data: 2685016800
I1022 21:19:46.617398 20928 layer_factory.hpp:77] Creating layer fire8/squeeze1x1
I1022 21:19:46.617405 20928 net.cpp:100] Creating Layer fire8/squeeze1x1
I1022 21:19:46.617409 20928 net.cpp:434] fire8/squeeze1x1 <- fire7/concat
I1022 21:19:46.617416 20928 net.cpp:408] fire8/squeeze1x1 -> fire8/squeeze1x1
I1022 21:19:46.619570 20928 net.cpp:150] Setting up fire8/squeeze1x1
I1022 21:19:46.619585 20928 net.cpp:157] Top shape: 100 64 14 14 (1254400)
I1022 21:19:46.619599 20928 net.cpp:165] Memory required for data: 2690034400
I1022 21:19:46.619616 20928 layer_factory.hpp:77] Creating layer fire8/squeeze1x1_fire8/squeeze1x1_0_split
I1022 21:19:46.619645 20928 net.cpp:100] Creating Layer fire8/squeeze1x1_fire8/squeeze1x1_0_split
I1022 21:19:46.619650 20928 net.cpp:434] fire8/squeeze1x1_fire8/squeeze1x1_0_split <- fire8/squeeze1x1
I1022 21:19:46.619668 20928 net.cpp:408] fire8/squeeze1x1_fire8/squeeze1x1_0_split -> fire8/squeeze1x1_fire8/squeeze1x1_0_split_0
I1022 21:19:46.619676 20928 net.cpp:408] fire8/squeeze1x1_fire8/squeeze1x1_0_split -> fire8/squeeze1x1_fire8/squeeze1x1_0_split_1
I1022 21:19:46.619731 20928 net.cpp:150] Setting up fire8/squeeze1x1_fire8/squeeze1x1_0_split
I1022 21:19:46.619740 20928 net.cpp:157] Top shape: 100 64 14 14 (1254400)
I1022 21:19:46.619745 20928 net.cpp:157] Top shape: 100 64 14 14 (1254400)
I1022 21:19:46.619748 20928 net.cpp:165] Memory required for data: 2700069600
I1022 21:19:46.619751 20928 layer_factory.hpp:77] Creating layer fire8/expand1x1
I1022 21:19:46.619761 20928 net.cpp:100] Creating Layer fire8/expand1x1
I1022 21:19:46.619765 20928 net.cpp:434] fire8/expand1x1 <- fire8/squeeze1x1_fire8/squeeze1x1_0_split_0
I1022 21:19:46.619772 20928 net.cpp:408] fire8/expand1x1 -> fire8/expand1x1
I1022 21:19:46.621536 20928 net.cpp:150] Setting up fire8/expand1x1
I1022 21:19:46.621549 20928 net.cpp:157] Top shape: 100 256 14 14 (5017600)
I1022 21:19:46.621577 20928 net.cpp:165] Memory required for data: 2720140000
I1022 21:19:46.621587 20928 layer_factory.hpp:77] Creating layer fire8/relu_expand1x1
I1022 21:19:46.621606 20928 net.cpp:100] Creating Layer fire8/relu_expand1x1
I1022 21:19:46.621610 20928 net.cpp:434] fire8/relu_expand1x1 <- fire8/expand1x1
I1022 21:19:46.621616 20928 net.cpp:395] fire8/relu_expand1x1 -> fire8/expand1x1 (in-place)
I1022 21:19:46.621827 20928 net.cpp:150] Setting up fire8/relu_expand1x1
I1022 21:19:46.621840 20928 net.cpp:157] Top shape: 100 256 14 14 (5017600)
I1022 21:19:46.621855 20928 net.cpp:165] Memory required for data: 2740210400
I1022 21:19:46.621858 20928 layer_factory.hpp:77] Creating layer fire8/expand3x3
I1022 21:19:46.621868 20928 net.cpp:100] Creating Layer fire8/expand3x3
I1022 21:19:46.621872 20928 net.cpp:434] fire8/expand3x3 <- fire8/squeeze1x1_fire8/squeeze1x1_0_split_1
I1022 21:19:46.621878 20928 net.cpp:408] fire8/expand3x3 -> fire8/expand3x3
I1022 21:19:46.625051 20928 net.cpp:150] Setting up fire8/expand3x3
I1022 21:19:46.625079 20928 net.cpp:157] Top shape: 100 256 14 14 (5017600)
I1022 21:19:46.625083 20928 net.cpp:165] Memory required for data: 2760280800
I1022 21:19:46.625090 20928 layer_factory.hpp:77] Creating layer fire8/relu_expand3x3
I1022 21:19:46.625098 20928 net.cpp:100] Creating Layer fire8/relu_expand3x3
I1022 21:19:46.625103 20928 net.cpp:434] fire8/relu_expand3x3 <- fire8/expand3x3
I1022 21:19:46.625108 20928 net.cpp:395] fire8/relu_expand3x3 -> fire8/expand3x3 (in-place)
I1022 21:19:46.625324 20928 net.cpp:150] Setting up fire8/relu_expand3x3
I1022 21:19:46.625336 20928 net.cpp:157] Top shape: 100 256 14 14 (5017600)
I1022 21:19:46.625351 20928 net.cpp:165] Memory required for data: 2780351200
I1022 21:19:46.625355 20928 layer_factory.hpp:77] Creating layer fire8/concat
I1022 21:19:46.625362 20928 net.cpp:100] Creating Layer fire8/concat
I1022 21:19:46.625367 20928 net.cpp:434] fire8/concat <- fire8/expand1x1
I1022 21:19:46.625372 20928 net.cpp:434] fire8/concat <- fire8/expand3x3
I1022 21:19:46.625377 20928 net.cpp:408] fire8/concat -> fire8/concat
I1022 21:19:46.625416 20928 net.cpp:150] Setting up fire8/concat
I1022 21:19:46.625428 20928 net.cpp:157] Top shape: 100 512 14 14 (10035200)
I1022 21:19:46.625432 20928 net.cpp:165] Memory required for data: 2820492000
I1022 21:19:46.625435 20928 layer_factory.hpp:77] Creating layer fire9/squeeze1x1
I1022 21:19:46.625444 20928 net.cpp:100] Creating Layer fire9/squeeze1x1
I1022 21:19:46.625448 20928 net.cpp:434] fire9/squeeze1x1 <- fire8/concat
I1022 21:19:46.625454 20928 net.cpp:408] fire9/squeeze1x1 -> fire9/squeeze1x1
I1022 21:19:46.627115 20928 net.cpp:150] Setting up fire9/squeeze1x1
I1022 21:19:46.627130 20928 net.cpp:157] Top shape: 100 64 14 14 (1254400)
I1022 21:19:46.627146 20928 net.cpp:165] Memory required for data: 2825509600
I1022 21:19:46.627152 20928 layer_factory.hpp:77] Creating layer fire9/squeeze1x1_fire9/squeeze1x1_0_split
I1022 21:19:46.627161 20928 net.cpp:100] Creating Layer fire9/squeeze1x1_fire9/squeeze1x1_0_split
I1022 21:19:46.627164 20928 net.cpp:434] fire9/squeeze1x1_fire9/squeeze1x1_0_split <- fire9/squeeze1x1
I1022 21:19:46.627172 20928 net.cpp:408] fire9/squeeze1x1_fire9/squeeze1x1_0_split -> fire9/squeeze1x1_fire9/squeeze1x1_0_split_0
I1022 21:19:46.627192 20928 net.cpp:408] fire9/squeeze1x1_fire9/squeeze1x1_0_split -> fire9/squeeze1x1_fire9/squeeze1x1_0_split_1
I1022 21:19:46.627243 20928 net.cpp:150] Setting up fire9/squeeze1x1_fire9/squeeze1x1_0_split
I1022 21:19:46.627254 20928 net.cpp:157] Top shape: 100 64 14 14 (1254400)
I1022 21:19:46.627257 20928 net.cpp:157] Top shape: 100 64 14 14 (1254400)
I1022 21:19:46.627260 20928 net.cpp:165] Memory required for data: 2835544800
I1022 21:19:46.627264 20928 layer_factory.hpp:77] Creating layer fire9/expand1x1
I1022 21:19:46.627274 20928 net.cpp:100] Creating Layer fire9/expand1x1
I1022 21:19:46.627277 20928 net.cpp:434] fire9/expand1x1 <- fire9/squeeze1x1_fire9/squeeze1x1_0_split_0
I1022 21:19:46.627282 20928 net.cpp:408] fire9/expand1x1 -> fire9/expand1x1
I1022 21:19:46.629011 20928 net.cpp:150] Setting up fire9/expand1x1
I1022 21:19:46.629026 20928 net.cpp:157] Top shape: 100 256 14 14 (5017600)
I1022 21:19:46.629041 20928 net.cpp:165] Memory required for data: 2855615200
I1022 21:19:46.629048 20928 layer_factory.hpp:77] Creating layer fire9/relu_expand1x1
I1022 21:19:46.629055 20928 net.cpp:100] Creating Layer fire9/relu_expand1x1
I1022 21:19:46.629060 20928 net.cpp:434] fire9/relu_expand1x1 <- fire9/expand1x1
I1022 21:19:46.629066 20928 net.cpp:395] fire9/relu_expand1x1 -> fire9/expand1x1 (in-place)
I1022 21:19:46.629503 20928 net.cpp:150] Setting up fire9/relu_expand1x1
I1022 21:19:46.629516 20928 net.cpp:157] Top shape: 100 256 14 14 (5017600)
I1022 21:19:46.629532 20928 net.cpp:165] Memory required for data: 2875685600
I1022 21:19:46.629536 20928 layer_factory.hpp:77] Creating layer fire9/expand3x3
I1022 21:19:46.629546 20928 net.cpp:100] Creating Layer fire9/expand3x3
I1022 21:19:46.629551 20928 net.cpp:434] fire9/expand3x3 <- fire9/squeeze1x1_fire9/squeeze1x1_0_split_1
I1022 21:19:46.629566 20928 net.cpp:408] fire9/expand3x3 -> fire9/expand3x3
I1022 21:19:46.632889 20928 net.cpp:150] Setting up fire9/expand3x3
I1022 21:19:46.632905 20928 net.cpp:157] Top shape: 100 256 14 14 (5017600)
I1022 21:19:46.632920 20928 net.cpp:165] Memory required for data: 2895756000
I1022 21:19:46.632938 20928 layer_factory.hpp:77] Creating layer fire9/relu_expand3x3
I1022 21:19:46.632947 20928 net.cpp:100] Creating Layer fire9/relu_expand3x3
I1022 21:19:46.632951 20928 net.cpp:434] fire9/relu_expand3x3 <- fire9/expand3x3
I1022 21:19:46.632971 20928 net.cpp:395] fire9/relu_expand3x3 -> fire9/expand3x3 (in-place)
I1022 21:19:46.633465 20928 net.cpp:150] Setting up fire9/relu_expand3x3
I1022 21:19:46.633482 20928 net.cpp:157] Top shape: 100 256 14 14 (5017600)
I1022 21:19:46.633486 20928 net.cpp:165] Memory required for data: 2915826400
I1022 21:19:46.633491 20928 layer_factory.hpp:77] Creating layer fire9/concat
I1022 21:19:46.633497 20928 net.cpp:100] Creating Layer fire9/concat
I1022 21:19:46.633502 20928 net.cpp:434] fire9/concat <- fire9/expand1x1
I1022 21:19:46.633507 20928 net.cpp:434] fire9/concat <- fire9/expand3x3
I1022 21:19:46.633512 20928 net.cpp:408] fire9/concat -> fire9/concat
I1022 21:19:46.633554 20928 net.cpp:150] Setting up fire9/concat
I1022 21:19:46.633568 20928 net.cpp:157] Top shape: 100 512 14 14 (10035200)
I1022 21:19:46.633570 20928 net.cpp:165] Memory required for data: 2955967200
I1022 21:19:46.633574 20928 layer_factory.hpp:77] Creating layer drop9
I1022 21:19:46.633581 20928 net.cpp:100] Creating Layer drop9
I1022 21:19:46.633585 20928 net.cpp:434] drop9 <- fire9/concat
I1022 21:19:46.633590 20928 net.cpp:395] drop9 -> fire9/concat (in-place)
I1022 21:19:46.633635 20928 net.cpp:150] Setting up drop9
I1022 21:19:46.633641 20928 net.cpp:157] Top shape: 100 512 14 14 (10035200)
I1022 21:19:46.633646 20928 net.cpp:165] Memory required for data: 2996108000
I1022 21:19:46.633648 20928 layer_factory.hpp:77] Creating layer conv10_2626
I1022 21:19:46.633666 20928 net.cpp:100] Creating Layer conv10_2626
I1022 21:19:46.633671 20928 net.cpp:434] conv10_2626 <- fire9/concat
I1022 21:19:46.633677 20928 net.cpp:408] conv10_2626 -> conv10_2626
I1022 21:19:46.658015 20928 net.cpp:150] Setting up conv10_2626
I1022 21:19:46.658056 20928 net.cpp:157] Top shape: 100 2626 14 14 (51469600)
I1022 21:19:46.658061 20928 net.cpp:165] Memory required for data: 3201986400
I1022 21:19:46.658071 20928 layer_factory.hpp:77] Creating layer relu_conv10
I1022 21:19:46.658082 20928 net.cpp:100] Creating Layer relu_conv10
I1022 21:19:46.658087 20928 net.cpp:434] relu_conv10 <- conv10_2626
I1022 21:19:46.658108 20928 net.cpp:395] relu_conv10 -> conv10_2626 (in-place)
I1022 21:19:46.658315 20928 net.cpp:150] Setting up relu_conv10
I1022 21:19:46.658326 20928 net.cpp:157] Top shape: 100 2626 14 14 (51469600)
I1022 21:19:46.658342 20928 net.cpp:165] Memory required for data: 3407864800
I1022 21:19:46.658345 20928 layer_factory.hpp:77] Creating layer pool10
I1022 21:19:46.658354 20928 net.cpp:100] Creating Layer pool10
I1022 21:19:46.658376 20928 net.cpp:434] pool10 <- conv10_2626
I1022 21:19:46.658385 20928 net.cpp:408] pool10 -> pool10
I1022 21:19:46.658869 20928 net.cpp:150] Setting up pool10
I1022 21:19:46.658882 20928 net.cpp:157] Top shape: 100 2626 1 1 (262600)
I1022 21:19:46.658898 20928 net.cpp:165] Memory required for data: 3408915200
I1022 21:19:46.658902 20928 layer_factory.hpp:77] Creating layer pool10_pool10_0_split
I1022 21:19:46.658918 20928 net.cpp:100] Creating Layer pool10_pool10_0_split
I1022 21:19:46.658923 20928 net.cpp:434] pool10_pool10_0_split <- pool10
I1022 21:19:46.658929 20928 net.cpp:408] pool10_pool10_0_split -> pool10_pool10_0_split_0
I1022 21:19:46.658936 20928 net.cpp:408] pool10_pool10_0_split -> pool10_pool10_0_split_1
I1022 21:19:46.658987 20928 net.cpp:150] Setting up pool10_pool10_0_split
I1022 21:19:46.658996 20928 net.cpp:157] Top shape: 100 2626 1 1 (262600)
I1022 21:19:46.659000 20928 net.cpp:157] Top shape: 100 2626 1 1 (262600)
I1022 21:19:46.659003 20928 net.cpp:165] Memory required for data: 3411016000
I1022 21:19:46.659008 20928 layer_factory.hpp:77] Creating layer loss
I1022 21:19:46.659013 20928 net.cpp:100] Creating Layer loss
I1022 21:19:46.659018 20928 net.cpp:434] loss <- pool10_pool10_0_split_0
I1022 21:19:46.659023 20928 net.cpp:434] loss <- label_data_1_split_0
I1022 21:19:46.659029 20928 net.cpp:408] loss -> loss
…
