…
I1018 21:57:31.047807 83243 net.cpp:322] The NetState phase (0) differed from the phase (1) specified by a rule in layer data
I1018 21:57:31.047876 83243 net.cpp:322] The NetState phase (0) differed from the phase (1) specified by a rule in layer accuracy
I1018 21:57:31.048305 83243 net.cpp:58] Initializing net from parameters: 
state {
  phase: TRAIN
  level: 0
  stage: ""
}
layer {
  name: "data"
  type: "Data"
  top: "data"
  top: "label"
  include {
    phase: TRAIN
  }
  transform_param {
    crop_size: 227
    mean_file: "/share/zhh/mean.binaryproto"
  }
  data_param {
    source: "/share/front/train_lmdb"
    batch_size: 64
    backend: LMDB
  }
}
layer {
  name: "conv1"
  type: "Convolution"
  bottom: "data"
  top: "conv1"
  convolution_param {
    num_output: 64
    kernel_size: 3
    stride: 2
    weight_filler {
      type: "xavier"
    }
  }
}
layer {
  name: "relu_conv1"
  type: "ReLU"
  bottom: "conv1"
  top: "conv1"
}
layer {
  name: "pool1"
  type: "Pooling"
  bottom: "conv1"
  top: "pool1"
  pooling_param {
    pool: MAX
    kernel_size: 3
    stride: 2
  }
}
layer {
  name: "fire2/squeeze1x1"
  type: "Convolution"
  bottom: "pool1"
  top: "fire2/squeeze1x1"
  convolution_param {
    num_output: 16
    kernel_size: 1
    weight_filler {
      type: "xavier"
    }
  }
}
layer {
  name: "fire2/relu_squeeze1x1"
  type: "ReLU"
  bottom: "fire2/squeeze1x1"
  top: "fire2/squeeze1x1"
}
layer {
  name: "fire2/expand1x1"
  type: "Convolution"
  bottom: "fire2/squeeze1x1"
  top: "fire2/expand1x1"
  convolution_param {
    num_output: 64
    kernel_size: 1
    weight_filler {
      type: "xavier"
    }
  }
}
layer {
  name: "fire2/relu_expand1x1"
  type: "ReLU"
  bottom: "fire2/expand1x1"
  top: "fire2/expand1x1"
}
layer {
  name: "fire2/expand3x3"
  type: "Convolution"
  bottom: "fire2/squeeze1x1"
  top: "fire2/expand3x3"
  convolution_param {
    num_output: 64
    pad: 1
    kernel_size: 3
    weight_filler {
      type: "xavier"
    }
  }
}
layer {
  name: "fire2/relu_expand3x3"
  type: "ReLU"
  bottom: "fire2/expand3x3"
  top: "fire2/expand3x3"
}
layer {
  name: "fire2/concat"
  type: "Concat"
  bottom: "fire2/expand1x1"
  bottom: "fire2/expand3x3"
  top: "fire2/concat"
}
layer {
  name: "fire3/squeeze1x1"
  type: "Convolution"
  bottom: "fire2/concat"
  top: "fire3/squeeze1x1"
  convolution_param {
    num_output: 16
    kernel_size: 1
    weight_filler {
      type: "xavier"
    }
  }
}
layer {
  name: "fire3/relu_squeeze1x1"
  type: "ReLU"
  bottom: "fire3/squeeze1x1"
  top: "fire3/squeeze1x1"
}
layer {
  name: "fire3/expand1x1"
  type: "Convolution"
  bottom: "fire3/squeeze1x1"
  top: "fire3/expand1x1"
  convolution_param {
    num_output: 64
    kernel_size: 1
    weight_filler {
      type: "xavier"
    }
  }
}
layer {
  name: "fire3/relu_expand1x1"
  type: "ReLU"
  bottom: "fire3/expand1x1"
  top: "fire3/expand1x1"
}
layer {
  name: "fire3/expand3x3"
  type: "Convolution"
  bottom: "fire3/squeeze1x1"
  top: "fire3/expand3x3"
  convolution_param {
    num_output: 64
    pad: 1
    kernel_size: 3
    weight_filler {
      type: "xavier"
    }
  }
}
layer {
  name: "fire3/relu_expand3x3"
  type: "ReLU"
  bottom: "fire3/expand3x3"
  top: "fire3/expand3x3"
}
layer {
  name: "fire3/concat"
  type: "Concat"
  bottom: "fire3/expand1x1"
  bottom: "fire3/expand3x3"
  top: "fire3/concat"
}
layer {
  name: "bypass_23"
  type: "Eltwise"
  bottom: "fire2/concat"
  bottom: "fire3/concat"
  top: "fire3_EltAdd"
}
layer {
  name: "fire4/squeeze1x1"
  type: "Convolution"
  bottom: "fire3_EltAdd"
  top: "fire4/squeeze1x1"
  convolution_param {
    num_output: 32
    kernel_size: 1
    weight_filler {
      type: "xavier"
    }
  }
}
layer {
  name: "fire4/relu_squeeze1x1"
  type: "ReLU"
  bottom: "fire4/squeeze1x1"
  top: "fire4/squeeze1x1"
}
layer {
  name: "fire4/expand1x1"
  type: "Convolution"
  bottom: "fire4/squeeze1x1"
  top: "fire4/expand1x1"
  convolution_param {
    num_output: 128
    kernel_size: 1
    weight_filler {
      type: "xavier"
    }
  }
}
layer {
  name: "fire4/relu_expand1x1"
  type: "ReLU"
  bottom: "fire4/expand1x1"
  top: "fire4/expand1x1"
}
layer {
  name: "fire4/expand3x3"
  type: "Convolution"
  bottom: "fire4/squeeze1x1"
  top: "fire4/expand3x3"
  convolution_param {
    num_output: 128
    pad: 1
    kernel_size: 3
    weight_filler {
      type: "xavier"
    }
  }
}
layer {
  name: "fire4/relu_expand3x3"
  type: "ReLU"
  bottom: "fire4/expand3x3"
  top: "fire4/expand3x3"
}
layer {
  name: "fire4/concat"
  type: "Concat"
  bottom: "fire4/expand1x1"
  bottom: "fire4/expand3x3"
  top: "fire4/concat"
}
layer {
  name: "pool4"
  type: "Pooling"
  bottom: "fire4/concat"
  top: "pool4"
  pooling_param {
    pool: MAX
    kernel_size: 3
    stride: 2
  }
}
layer {
  name: "fire5/squeeze1x1"
  type: "Convolution"
  bottom: "pool4"
  top: "fire5/squeeze1x1"
  convolution_param {
    num_output: 32
    kernel_size: 1
    weight_filler {
      type: "xavier"
    }
  }
}
layer {
  name: "fire5/relu_squeeze1x1"
  type: "ReLU"
  bottom: "fire5/squeeze1x1"
  top: "fire5/squeeze1x1"
}
layer {
  name: "fire5/expand1x1"
  type: "Convolution"
  bottom: "fire5/squeeze1x1"
  top: "fire5/expand1x1"
  convolution_param {
    num_output: 128
    kernel_size: 1
    weight_filler {
      type: "xavier"
    }
  }
}
layer {
  name: "fire5/relu_expand1x1"
  type: "ReLU"
  bottom: "fire5/expand1x1"
  top: "fire5/expand1x1"
}
layer {
  name: "fire5/expand3x3"
  type: "Convolution"
  bottom: "fire5/squeeze1x1"
  top: "fire5/expand3x3"
  convolution_param {
    num_output: 128
    pad: 1
    kernel_size: 3
    weight_filler {
      type: "xavier"
    }
  }
}
layer {
  name: "fire5/relu_expand3x3"
  type: "ReLU"
  bottom: "fire5/expand3x3"
  top: "fire5/expand3x3"
}
layer {
  name: "fire5/concat"
  type: "Concat"
  bottom: "fire5/expand1x1"
  bottom: "fire5/expand3x3"
  top: "fire5/concat"
}
layer {
  name: "bypass_45"
  type: "Eltwise"
  bottom: "pool4"
  bottom: "fire5/concat"
  top: "fire5_EltAdd"
}
layer {
  name: "fire6/squeeze1x1"
  type: "Convolution"
  bottom: "fire5_EltAdd"
  top: "fire6/squeeze1x1"
  convolution_param {
    num_output: 48
    kernel_size: 1
    weight_filler {
      type: "xavier"
    }
  }
}
layer {
  name: "fire6/relu_squeeze1x1"
  type: "ReLU"
  bottom: "fire6/squeeze1x1"
  top: "fire6/squeeze1x1"
}
layer {
  name: "fire6/expand1x1"
  type: "Convolution"
  bottom: "fire6/squeeze1x1"
  top: "fire6/expand1x1"
  convolution_param {
    num_output: 192
    kernel_size: 1
    weight_filler {
      type: "xavier"
    }
  }
}
layer {
  name: "fire6/relu_expand1x1"
  type: "ReLU"
  bottom: "fire6/expand1x1"
  top: "fire6/expand1x1"
}
layer {
  name: "fire6/expand3x3"
  type: "Convolution"
  bottom: "fire6/squeeze1x1"
  top: "fire6/expand3x3"
  convolution_param {
    num_output: 192
    pad: 1
    kernel_size: 3
    weight_filler {
      type: "xavier"
    }
  }
}
layer {
  name: "fire6/relu_expand3x3"
  type: "ReLU"
  bottom: "fire6/expand3x3"
  top: "fire6/expand3x3"
}
layer {
  name: "fire6/concat"
  type: "Concat"
  bottom: "fire6/expand1x1"
  bottom: "fire6/expand3x3"
  top: "fire6/concat"
}
layer {
  name: "fire7/squeeze1x1"
  type: "Convolution"
  bottom: "fire6/concat"
  top: "fire7/squeeze1x1"
  convolution_param {
    num_output: 48
    kernel_size: 1
    weight_filler {
      type: "xavier"
    }
  }
}
layer {
  name: "fire7/relu_squeeze1x1"
  type: "ReLU"
  bottom: "fire7/squeeze1x1"
  top: "fire7/squeeze1x1"
}
layer {
  name: "fire7/expand1x1"
  type: "Convolution"
  bottom: "fire7/squeeze1x1"
  top: "fire7/expand1x1"
  convolution_param {
    num_output: 192
    kernel_size: 1
    weight_filler {
      type: "xavier"
    }
  }
}
layer {
  name: "fire7/relu_expand1x1"
  type: "ReLU"
  bottom: "fire7/expand1x1"
  top: "fire7/expand1x1"
}
layer {
  name: "fire7/expand3x3"
  type: "Convolution"
  bottom: "fire7/squeeze1x1"
  top: "fire7/expand3x3"
  convolution_param {
    num_output: 192
    pad: 1
    kernel_size: 3
    weight_filler {
      type: "xavier"
    }
  }
}
layer {
  name: "fire7/relu_expand3x3"
  type: "ReLU"
  bottom: "fire7/expand3x3"
  top: "fire7/expand3x3"
}
layer {
  name: "fire7/concat"
  type: "Concat"
  bottom: "fire7/expand1x1"
  bottom: "fire7/expand3x3"
  top: "fire7/concat"
}
layer {
  name: "bypass_67"
  type: "Eltwise"
  bottom: "fire6/concat"
  bottom: "fire7/concat"
  top: "fire7_EltAdd"
}
layer {
  name: "fire8/squeeze1x1"
  type: "Convolution"
  bottom: "fire7_EltAdd"
  top: "fire8/squeeze1x1"
  convolution_param {
    num_output: 64
    kernel_size: 1
    weight_filler {
      type: "xavier"
    }
  }
}
layer {
  name: "fire8/relu_squeeze1x1"
  type: "ReLU"
  bottom: "fire8/squeeze1x1"
  top: "fire8/squeeze1x1"
}
layer {
  name: "fire8/expand1x1"
  type: "Convolution"
  bottom: "fire8/squeeze1x1"
  top: "fire8/expand1x1"
  convolution_param {
    num_output: 256
    kernel_size: 1
    weight_filler {
      type: "xavier"
    }
  }
}
layer {
  name: "fire8/relu_expand1x1"
  type: "ReLU"
  bottom: "fire8/expand1x1"
  top: "fire8/expand1x1"
}
layer {
  name: "fire8/expand3x3"
  type: "Convolution"
  bottom: "fire8/squeeze1x1"
  top: "fire8/expand3x3"
  convolution_param {
    num_output: 256
    pad: 1
    kernel_size: 3
    weight_filler {
      type: "xavier"
    }
  }
}
layer {
  name: "fire8/relu_expand3x3"
  type: "ReLU"
  bottom: "fire8/expand3x3"
  top: "fire8/expand3x3"
}
layer {
  name: "fire8/concat"
  type: "Concat"
  bottom: "fire8/expand1x1"
  bottom: "fire8/expand3x3"
  top: "fire8/concat"
}
layer {
  name: "pool8"
  type: "Pooling"
  bottom: "fire8/concat"
  top: "pool8"
  pooling_param {
    pool: MAX
    kernel_size: 3
    stride: 2
  }
}
layer {
  name: "fire9/squeeze1x1"
  type: "Convolution"
  bottom: "pool8"
  top: "fire9/squeeze1x1"
  convolution_param {
    num_output: 64
    kernel_size: 1
    weight_filler {
      type: "xavier"
    }
  }
}
layer {
  name: "fire9/relu_squeeze1x1"
  type: "ReLU"
  bottom: "fire9/squeeze1x1"
  top: "fire9/squeeze1x1"
}
layer {
  name: "fire9/expand1x1"
  type: "Convolution"
  bottom: "fire9/squeeze1x1"
  top: "fire9/expand1x1"
  convolution_param {
    num_output: 256
    kernel_size: 1
    weight_filler {
      type: "xavier"
    }
  }
}
layer {
  name: "fire9/relu_expand1x1"
  type: "ReLU"
  bottom: "fire9/expand1x1"
  top: "fire9/expand1x1"
}
layer {
  name: "fire9/expand3x3"
  type: "Convolution"
  bottom: "fire9/squeeze1x1"
  top: "fire9/expand3x3"
  convolution_param {
    num_output: 256
    pad: 1
    kernel_size: 3
    weight_filler {
      type: "xavier"
    }
  }
}
layer {
  name: "fire9/relu_expand3x3"
  type: "ReLU"
  bottom: "fire9/expand3x3"
  top: "fire9/expand3x3"
}
layer {
  name: "fire9/concat"
  type: "Concat"
  bottom: "fire9/expand1x1"
  bottom: "fire9/expand3x3"
  top: "fire9/concat"
}
layer {
  name: "bypass_89"
  type: "Eltwise"
  bottom: "pool8"
  bottom: "fire9/concat"
  top: "fire9_EltAdd"
}
layer {
  name: "drop9"
  type: "Dropout"
  bottom: "fire9_EltAdd"
  top: "fire9_EltAdd"
  dropout_param {
    dropout_ratio: 0.5
  }
}
layer {
  name: "conv10_2626"
  type: "Convolution"
  bottom: "fire9_EltAdd"
  top: "conv10_2626"
  param {
    lr_mult: 1
    decay_mult: 1
  }
  convolution_param {
    num_output: 2626
    kernel_size: 1
    weight_filler {
      type: "gaussian"
      mean: 0
      std: 0.01
    }
  }
}
layer {
  name: "relu_conv10"
  type: "ReLU"
  bottom: "conv10_2626"
  top: "conv10_2626"
}
layer {
  name: "pool10"
  type: "Pooling"
  bottom: "conv10_2626"
  top: "pool10"
  pooling_param {
    pool: AVE
    global_pooling: true
  }
}
layer {
  name: "loss"
  type: "SoftmaxWithLoss"
  bottom: "pool10"
  bottom: "label"
  top: "loss"
}
I1018 21:57:31.048926 83243 layer_factory.hpp:77] Creating layer data
I1018 21:57:31.049144 83243 net.cpp:100] Creating Layer data
I1018 21:57:31.049160 83243 net.cpp:408] data -> data
I1018 21:57:31.049206 83243 net.cpp:408] data -> label
I1018 21:57:31.049226 83243 data_transformer.cpp:25] Loading mean file from: /share/zhh/mean.binaryproto
I1018 21:57:31.050231 83261 db_lmdb.cpp:35] Opened lmdb /share/front/train_lmdb
I1018 21:57:31.062500 83243 data_layer.cpp:41] output data size: 64,3,227,227
I1018 21:57:31.126459 83243 net.cpp:150] Setting up data
I1018 21:57:31.126538 83243 net.cpp:157] Top shape: 64 3 227 227 (9893568)
I1018 21:57:31.126559 83243 net.cpp:157] Top shape: 64 (64)
I1018 21:57:31.126580 83243 net.cpp:165] Memory required for data: 39574528
I1018 21:57:31.126610 83243 layer_factory.hpp:77] Creating layer conv1
I1018 21:57:31.126663 83243 net.cpp:100] Creating Layer conv1
I1018 21:57:31.126677 83243 net.cpp:434] conv1 <- data
I1018 21:57:31.126701 83243 net.cpp:408] conv1 -> conv1
I1018 21:57:31.364892 83243 net.cpp:150] Setting up conv1
I1018 21:57:31.364944 83243 net.cpp:157] Top shape: 64 64 113 113 (52301824)
I1018 21:57:31.364949 83243 net.cpp:165] Memory required for data: 248781824
I1018 21:57:31.364974 83243 layer_factory.hpp:77] Creating layer relu_conv1
I1018 21:57:31.365001 83243 net.cpp:100] Creating Layer relu_conv1
I1018 21:57:31.365007 83243 net.cpp:434] relu_conv1 <- conv1
I1018 21:57:31.365015 83243 net.cpp:395] relu_conv1 -> conv1 (in-place)
I1018 21:57:31.365424 83243 net.cpp:150] Setting up relu_conv1
I1018 21:57:31.365442 83243 net.cpp:157] Top shape: 64 64 113 113 (52301824)
I1018 21:57:31.365458 83243 net.cpp:165] Memory required for data: 457989120
I1018 21:57:31.365461 83243 layer_factory.hpp:77] Creating layer pool1
I1018 21:57:31.365473 83243 net.cpp:100] Creating Layer pool1
I1018 21:57:31.365476 83243 net.cpp:434] pool1 <- conv1
I1018 21:57:31.365483 83243 net.cpp:408] pool1 -> pool1
I1018 21:57:31.365540 83243 net.cpp:150] Setting up pool1
I1018 21:57:31.365559 83243 net.cpp:157] Top shape: 64 64 56 56 (12845056)
I1018 21:57:31.365563 83243 net.cpp:165] Memory required for data: 509369344
I1018 21:57:31.365578 83243 layer_factory.hpp:77] Creating layer fire2/squeeze1x1
I1018 21:57:31.365592 83243 net.cpp:100] Creating Layer fire2/squeeze1x1
I1018 21:57:31.365597 83243 net.cpp:434] fire2/squeeze1x1 <- pool1
I1018 21:57:31.365602 83243 net.cpp:408] fire2/squeeze1x1 -> fire2/squeeze1x1
I1018 21:57:31.367099 83243 net.cpp:150] Setting up fire2/squeeze1x1
I1018 21:57:31.367141 83243 net.cpp:157] Top shape: 64 16 56 56 (3211264)
I1018 21:57:31.367144 83243 net.cpp:165] Memory required for data: 522214400
I1018 21:57:31.367159 83243 layer_factory.hpp:77] Creating layer fire2/relu_squeeze1x1
I1018 21:57:31.367180 83243 net.cpp:100] Creating Layer fire2/relu_squeeze1x1
I1018 21:57:31.367187 83243 net.cpp:434] fire2/relu_squeeze1x1 <- fire2/squeeze1x1
I1018 21:57:31.367193 83243 net.cpp:395] fire2/relu_squeeze1x1 -> fire2/squeeze1x1 (in-place)
I1018 21:57:31.367563 83243 net.cpp:150] Setting up fire2/relu_squeeze1x1
I1018 21:57:31.367578 83243 net.cpp:157] Top shape: 64 16 56 56 (3211264)
I1018 21:57:31.367594 83243 net.cpp:165] Memory required for data: 535059456
I1018 21:57:31.367599 83243 layer_factory.hpp:77] Creating layer fire2/squeeze1x1_fire2/relu_squeeze1x1_0_split
I1018 21:57:31.367614 83243 net.cpp:100] Creating Layer fire2/squeeze1x1_fire2/relu_squeeze1x1_0_split
I1018 21:57:31.367619 83243 net.cpp:434] fire2/squeeze1x1_fire2/relu_squeeze1x1_0_split <- fire2/squeeze1x1
I1018 21:57:31.367624 83243 net.cpp:408] fire2/squeeze1x1_fire2/relu_squeeze1x1_0_split -> fire2/squeeze1x1_fire2/relu_squeeze1x1_0_split_0
I1018 21:57:31.367633 83243 net.cpp:408] fire2/squeeze1x1_fire2/relu_squeeze1x1_0_split -> fire2/squeeze1x1_fire2/relu_squeeze1x1_0_split_1
I1018 21:57:31.367672 83243 net.cpp:150] Setting up fire2/squeeze1x1_fire2/relu_squeeze1x1_0_split
I1018 21:57:31.367699 83243 net.cpp:157] Top shape: 64 16 56 56 (3211264)
I1018 21:57:31.367714 83243 net.cpp:157] Top shape: 64 16 56 56 (3211264)
I1018 21:57:31.367718 83243 net.cpp:165] Memory required for data: 560749568
I1018 21:57:31.367734 83243 layer_factory.hpp:77] Creating layer fire2/expand1x1
I1018 21:57:31.367745 83243 net.cpp:100] Creating Layer fire2/expand1x1
I1018 21:57:31.367749 83243 net.cpp:434] fire2/expand1x1 <- fire2/squeeze1x1_fire2/relu_squeeze1x1_0_split_0
I1018 21:57:31.367755 83243 net.cpp:408] fire2/expand1x1 -> fire2/expand1x1
I1018 21:57:31.368953 83243 net.cpp:150] Setting up fire2/expand1x1
I1018 21:57:31.368989 83243 net.cpp:157] Top shape: 64 64 56 56 (12845056)
I1018 21:57:31.368993 83243 net.cpp:165] Memory required for data: 612129792
I1018 21:57:31.369007 83243 layer_factory.hpp:77] Creating layer fire2/relu_expand1x1
I1018 21:57:31.369031 83243 net.cpp:100] Creating Layer fire2/relu_expand1x1
I1018 21:57:31.369036 83243 net.cpp:434] fire2/relu_expand1x1 <- fire2/expand1x1
I1018 21:57:31.369042 83243 net.cpp:395] fire2/relu_expand1x1 -> fire2/expand1x1 (in-place)
I1018 21:57:31.369220 83243 net.cpp:150] Setting up fire2/relu_expand1x1
I1018 21:57:31.369231 83243 net.cpp:157] Top shape: 64 64 56 56 (12845056)
I1018 21:57:31.369235 83243 net.cpp:165] Memory required for data: 663510016
I1018 21:57:31.369251 83243 layer_factory.hpp:77] Creating layer fire2/expand3x3
I1018 21:57:31.369263 83243 net.cpp:100] Creating Layer fire2/expand3x3
I1018 21:57:31.369267 83243 net.cpp:434] fire2/expand3x3 <- fire2/squeeze1x1_fire2/relu_squeeze1x1_0_split_1
I1018 21:57:31.369274 83243 net.cpp:408] fire2/expand3x3 -> fire2/expand3x3
I1018 21:57:31.370534 83243 net.cpp:150] Setting up fire2/expand3x3
I1018 21:57:31.370560 83243 net.cpp:157] Top shape: 64 64 56 56 (12845056)
I1018 21:57:31.370576 83243 net.cpp:165] Memory required for data: 714890240
I1018 21:57:31.370584 83243 layer_factory.hpp:77] Creating layer fire2/relu_expand3x3
I1018 21:57:31.370594 83243 net.cpp:100] Creating Layer fire2/relu_expand3x3
I1018 21:57:31.370599 83243 net.cpp:434] fire2/relu_expand3x3 <- fire2/expand3x3
I1018 21:57:31.370604 83243 net.cpp:395] fire2/relu_expand3x3 -> fire2/expand3x3 (in-place)
I1018 21:57:31.370993 83243 net.cpp:150] Setting up fire2/relu_expand3x3
I1018 21:57:31.371007 83243 net.cpp:157] Top shape: 64 64 56 56 (12845056)
I1018 21:57:31.371023 83243 net.cpp:165] Memory required for data: 766270464
I1018 21:57:31.371027 83243 layer_factory.hpp:77] Creating layer fire2/concat
I1018 21:57:31.371048 83243 net.cpp:100] Creating Layer fire2/concat
I1018 21:57:31.371052 83243 net.cpp:434] fire2/concat <- fire2/expand1x1
I1018 21:57:31.371058 83243 net.cpp:434] fire2/concat <- fire2/expand3x3
I1018 21:57:31.371063 83243 net.cpp:408] fire2/concat -> fire2/concat
I1018 21:57:31.371096 83243 net.cpp:150] Setting up fire2/concat
I1018 21:57:31.371104 83243 net.cpp:157] Top shape: 64 128 56 56 (25690112)
I1018 21:57:31.371107 83243 net.cpp:165] Memory required for data: 869030912
I1018 21:57:31.371110 83243 layer_factory.hpp:77] Creating layer fire2/concat_fire2/concat_0_split
I1018 21:57:31.371116 83243 net.cpp:100] Creating Layer fire2/concat_fire2/concat_0_split
I1018 21:57:31.371120 83243 net.cpp:434] fire2/concat_fire2/concat_0_split <- fire2/concat
I1018 21:57:31.371126 83243 net.cpp:408] fire2/concat_fire2/concat_0_split -> fire2/concat_fire2/concat_0_split_0
I1018 21:57:31.371132 83243 net.cpp:408] fire2/concat_fire2/concat_0_split -> fire2/concat_fire2/concat_0_split_1
I1018 21:57:31.371167 83243 net.cpp:150] Setting up fire2/concat_fire2/concat_0_split
I1018 21:57:31.371173 83243 net.cpp:157] Top shape: 64 128 56 56 (25690112)
I1018 21:57:31.371177 83243 net.cpp:157] Top shape: 64 128 56 56 (25690112)
I1018 21:57:31.371181 83243 net.cpp:165] Memory required for data: 1074551808
I1018 21:57:31.371184 83243 layer_factory.hpp:77] Creating layer fire3/squeeze1x1
I1018 21:57:31.371196 83243 net.cpp:100] Creating Layer fire3/squeeze1x1
I1018 21:57:31.371199 83243 net.cpp:434] fire3/squeeze1x1 <- fire2/concat_fire2/concat_0_split_0
I1018 21:57:31.371222 83243 net.cpp:408] fire3/squeeze1x1 -> fire3/squeeze1x1
I1018 21:57:31.372236 83243 net.cpp:150] Setting up fire3/squeeze1x1
I1018 21:57:31.372267 83243 net.cpp:157] Top shape: 64 16 56 56 (3211264)
I1018 21:57:31.372272 83243 net.cpp:165] Memory required for data: 1087396864
I1018 21:57:31.372284 83243 layer_factory.hpp:77] Creating layer fire3/relu_squeeze1x1
I1018 21:57:31.372294 83243 net.cpp:100] Creating Layer fire3/relu_squeeze1x1
I1018 21:57:31.372298 83243 net.cpp:434] fire3/relu_squeeze1x1 <- fire3/squeeze1x1
I1018 21:57:31.372303 83243 net.cpp:395] fire3/relu_squeeze1x1 -> fire3/squeeze1x1 (in-place)
I1018 21:57:31.372692 83243 net.cpp:150] Setting up fire3/relu_squeeze1x1
I1018 21:57:31.372709 83243 net.cpp:157] Top shape: 64 16 56 56 (3211264)
I1018 21:57:31.372723 83243 net.cpp:165] Memory required for data: 1100241920
I1018 21:57:31.372727 83243 layer_factory.hpp:77] Creating layer fire3/squeeze1x1_fire3/relu_squeeze1x1_0_split
I1018 21:57:31.372733 83243 net.cpp:100] Creating Layer fire3/squeeze1x1_fire3/relu_squeeze1x1_0_split
I1018 21:57:31.372740 83243 net.cpp:434] fire3/squeeze1x1_fire3/relu_squeeze1x1_0_split <- fire3/squeeze1x1
I1018 21:57:31.372745 83243 net.cpp:408] fire3/squeeze1x1_fire3/relu_squeeze1x1_0_split -> fire3/squeeze1x1_fire3/relu_squeeze1x1_0_split_0
I1018 21:57:31.372753 83243 net.cpp:408] fire3/squeeze1x1_fire3/relu_squeeze1x1_0_split -> fire3/squeeze1x1_fire3/relu_squeeze1x1_0_split_1
I1018 21:57:31.372802 83243 net.cpp:150] Setting up fire3/squeeze1x1_fire3/relu_squeeze1x1_0_split
I1018 21:57:31.372808 83243 net.cpp:157] Top shape: 64 16 56 56 (3211264)
I1018 21:57:31.372812 83243 net.cpp:157] Top shape: 64 16 56 56 (3211264)
I1018 21:57:31.372815 83243 net.cpp:165] Memory required for data: 1125932032
I1018 21:57:31.372818 83243 layer_factory.hpp:77] Creating layer fire3/expand1x1
I1018 21:57:31.372833 83243 net.cpp:100] Creating Layer fire3/expand1x1
I1018 21:57:31.372839 83243 net.cpp:434] fire3/expand1x1 <- fire3/squeeze1x1_fire3/relu_squeeze1x1_0_split_0
I1018 21:57:31.372846 83243 net.cpp:408] fire3/expand1x1 -> fire3/expand1x1
I1018 21:57:31.373982 83243 net.cpp:150] Setting up fire3/expand1x1
I1018 21:57:31.374017 83243 net.cpp:157] Top shape: 64 64 56 56 (12845056)
I1018 21:57:31.374022 83243 net.cpp:165] Memory required for data: 1177312256
I1018 21:57:31.374030 83243 layer_factory.hpp:77] Creating layer fire3/relu_expand1x1
I1018 21:57:31.374040 83243 net.cpp:100] Creating Layer fire3/relu_expand1x1
I1018 21:57:31.374058 83243 net.cpp:434] fire3/relu_expand1x1 <- fire3/expand1x1
I1018 21:57:31.374064 83243 net.cpp:395] fire3/relu_expand1x1 -> fire3/expand1x1 (in-place)
I1018 21:57:31.374250 83243 net.cpp:150] Setting up fire3/relu_expand1x1
I1018 21:57:31.374260 83243 net.cpp:157] Top shape: 64 64 56 56 (12845056)
I1018 21:57:31.374264 83243 net.cpp:165] Memory required for data: 1228692480
I1018 21:57:31.374279 83243 layer_factory.hpp:77] Creating layer fire3/expand3x3
I1018 21:57:31.374291 83243 net.cpp:100] Creating Layer fire3/expand3x3
I1018 21:57:31.374296 83243 net.cpp:434] fire3/expand3x3 <- fire3/squeeze1x1_fire3/relu_squeeze1x1_0_split_1
I1018 21:57:31.374305 83243 net.cpp:408] fire3/expand3x3 -> fire3/expand3x3
I1018 21:57:31.375529 83243 net.cpp:150] Setting up fire3/expand3x3
I1018 21:57:31.375550 83243 net.cpp:157] Top shape: 64 64 56 56 (12845056)
I1018 21:57:31.375566 83243 net.cpp:165] Memory required for data: 1280072704
I1018 21:57:31.375576 83243 layer_factory.hpp:77] Creating layer fire3/relu_expand3x3
I1018 21:57:31.375583 83243 net.cpp:100] Creating Layer fire3/relu_expand3x3
I1018 21:57:31.375588 83243 net.cpp:434] fire3/relu_expand3x3 <- fire3/expand3x3
I1018 21:57:31.375608 83243 net.cpp:395] fire3/relu_expand3x3 -> fire3/expand3x3 (in-place)
I1018 21:57:31.375990 83243 net.cpp:150] Setting up fire3/relu_expand3x3
I1018 21:57:31.376004 83243 net.cpp:157] Top shape: 64 64 56 56 (12845056)
I1018 21:57:31.376019 83243 net.cpp:165] Memory required for data: 1331452928
I1018 21:57:31.376040 83243 layer_factory.hpp:77] Creating layer fire3/concat
I1018 21:57:31.376060 83243 net.cpp:100] Creating Layer fire3/concat
I1018 21:57:31.376065 83243 net.cpp:434] fire3/concat <- fire3/expand1x1
I1018 21:57:31.376070 83243 net.cpp:434] fire3/concat <- fire3/expand3x3
I1018 21:57:31.376076 83243 net.cpp:408] fire3/concat -> fire3/concat
I1018 21:57:31.376108 83243 net.cpp:150] Setting up fire3/concat
I1018 21:57:31.376119 83243 net.cpp:157] Top shape: 64 128 56 56 (25690112)
I1018 21:57:31.376122 83243 net.cpp:165] Memory required for data: 1434213376
I1018 21:57:31.376126 83243 layer_factory.hpp:77] Creating layer bypass_23
I1018 21:57:31.376138 83243 net.cpp:100] Creating Layer bypass_23
I1018 21:57:31.376143 83243 net.cpp:434] bypass_23 <- fire2/concat_fire2/concat_0_split_1
I1018 21:57:31.376148 83243 net.cpp:434] bypass_23 <- fire3/concat
I1018 21:57:31.376153 83243 net.cpp:408] bypass_23 -> fire3_EltAdd
I1018 21:57:31.376180 83243 net.cpp:150] Setting up bypass_23
I1018 21:57:31.376188 83243 net.cpp:157] Top shape: 64 128 56 56 (25690112)
I1018 21:57:31.376190 83243 net.cpp:165] Memory required for data: 1536973824
I1018 21:57:31.376194 83243 layer_factory.hpp:77] Creating layer fire4/squeeze1x1
I1018 21:57:31.376211 83243 net.cpp:100] Creating Layer fire4/squeeze1x1
I1018 21:57:31.376216 83243 net.cpp:434] fire4/squeeze1x1 <- fire3_EltAdd
I1018 21:57:31.376221 83243 net.cpp:408] fire4/squeeze1x1 -> fire4/squeeze1x1
I1018 21:57:31.377506 83243 net.cpp:150] Setting up fire4/squeeze1x1
I1018 21:57:31.377542 83243 net.cpp:157] Top shape: 64 32 56 56 (6422528)
I1018 21:57:31.377545 83243 net.cpp:165] Memory required for data: 1562663936
I1018 21:57:31.377554 83243 layer_factory.hpp:77] Creating layer fire4/relu_squeeze1x1
I1018 21:57:31.377564 83243 net.cpp:100] Creating Layer fire4/relu_squeeze1x1
I1018 21:57:31.377569 83243 net.cpp:434] fire4/relu_squeeze1x1 <- fire4/squeeze1x1
I1018 21:57:31.377575 83243 net.cpp:395] fire4/relu_squeeze1x1 -> fire4/squeeze1x1 (in-place)
I1018 21:57:31.377961 83243 net.cpp:150] Setting up fire4/relu_squeeze1x1
I1018 21:57:31.377975 83243 net.cpp:157] Top shape: 64 32 56 56 (6422528)
I1018 21:57:31.377990 83243 net.cpp:165] Memory required for data: 1588354048
I1018 21:57:31.377995 83243 layer_factory.hpp:77] Creating layer fire4/squeeze1x1_fire4/relu_squeeze1x1_0_split
I1018 21:57:31.378002 83243 net.cpp:100] Creating Layer fire4/squeeze1x1_fire4/relu_squeeze1x1_0_split
I1018 21:57:31.378006 83243 net.cpp:434] fire4/squeeze1x1_fire4/relu_squeeze1x1_0_split <- fire4/squeeze1x1
I1018 21:57:31.378012 83243 net.cpp:408] fire4/squeeze1x1_fire4/relu_squeeze1x1_0_split -> fire4/squeeze1x1_fire4/relu_squeeze1x1_0_split_0
I1018 21:57:31.378021 83243 net.cpp:408] fire4/squeeze1x1_fire4/relu_squeeze1x1_0_split -> fire4/squeeze1x1_fire4/relu_squeeze1x1_0_split_1
I1018 21:57:31.378065 83243 net.cpp:150] Setting up fire4/squeeze1x1_fire4/relu_squeeze1x1_0_split
I1018 21:57:31.378072 83243 net.cpp:157] Top shape: 64 32 56 56 (6422528)
I1018 21:57:31.378075 83243 net.cpp:157] Top shape: 64 32 56 56 (6422528)
I1018 21:57:31.378078 83243 net.cpp:165] Memory required for data: 1639734272
I1018 21:57:31.378082 83243 layer_factory.hpp:77] Creating layer fire4/expand1x1
I1018 21:57:31.378093 83243 net.cpp:100] Creating Layer fire4/expand1x1
I1018 21:57:31.378098 83243 net.cpp:434] fire4/expand1x1 <- fire4/squeeze1x1_fire4/relu_squeeze1x1_0_split_0
I1018 21:57:31.378103 83243 net.cpp:408] fire4/expand1x1 -> fire4/expand1x1
I1018 21:57:31.379346 83243 net.cpp:150] Setting up fire4/expand1x1
I1018 21:57:31.379384 83243 net.cpp:157] Top shape: 64 128 56 56 (25690112)
I1018 21:57:31.379387 83243 net.cpp:165] Memory required for data: 1742494720
I1018 21:57:31.379403 83243 layer_factory.hpp:77] Creating layer fire4/relu_expand1x1
I1018 21:57:31.379412 83243 net.cpp:100] Creating Layer fire4/relu_expand1x1
I1018 21:57:31.379417 83243 net.cpp:434] fire4/relu_expand1x1 <- fire4/expand1x1
I1018 21:57:31.379423 83243 net.cpp:395] fire4/relu_expand1x1 -> fire4/expand1x1 (in-place)
I1018 21:57:31.379645 83243 net.cpp:150] Setting up fire4/relu_expand1x1
I1018 21:57:31.379657 83243 net.cpp:157] Top shape: 64 128 56 56 (25690112)
I1018 21:57:31.379659 83243 net.cpp:165] Memory required for data: 1845255168
I1018 21:57:31.379675 83243 layer_factory.hpp:77] Creating layer fire4/expand3x3
I1018 21:57:31.379688 83243 net.cpp:100] Creating Layer fire4/expand3x3
I1018 21:57:31.379693 83243 net.cpp:434] fire4/expand3x3 <- fire4/squeeze1x1_fire4/relu_squeeze1x1_0_split_1
I1018 21:57:31.379698 83243 net.cpp:408] fire4/expand3x3 -> fire4/expand3x3
I1018 21:57:31.382283 83243 net.cpp:150] Setting up fire4/expand3x3
I1018 21:57:31.382339 83243 net.cpp:157] Top shape: 64 128 56 56 (25690112)
I1018 21:57:31.382344 83243 net.cpp:165] Memory required for data: 1948015616
I1018 21:57:31.382352 83243 layer_factory.hpp:77] Creating layer fire4/relu_expand3x3
I1018 21:57:31.382378 83243 net.cpp:100] Creating Layer fire4/relu_expand3x3
I1018 21:57:31.382403 83243 net.cpp:434] fire4/relu_expand3x3 <- fire4/expand3x3
I1018 21:57:31.382410 83243 net.cpp:395] fire4/relu_expand3x3 -> fire4/expand3x3 (in-place)
I1018 21:57:31.382896 83243 net.cpp:150] Setting up fire4/relu_expand3x3
I1018 21:57:31.382910 83243 net.cpp:157] Top shape: 64 128 56 56 (25690112)
I1018 21:57:31.382930 83243 net.cpp:165] Memory required for data: 2050776064
I1018 21:57:31.382933 83243 layer_factory.hpp:77] Creating layer fire4/concat
I1018 21:57:31.382941 83243 net.cpp:100] Creating Layer fire4/concat
I1018 21:57:31.382949 83243 net.cpp:434] fire4/concat <- fire4/expand1x1
I1018 21:57:31.382954 83243 net.cpp:434] fire4/concat <- fire4/expand3x3
I1018 21:57:31.382959 83243 net.cpp:408] fire4/concat -> fire4/concat
I1018 21:57:31.382999 83243 net.cpp:150] Setting up fire4/concat
I1018 21:57:31.383005 83243 net.cpp:157] Top shape: 64 256 56 56 (51380224)
I1018 21:57:31.383008 83243 net.cpp:165] Memory required for data: 2256296960
I1018 21:57:31.383011 83243 layer_factory.hpp:77] Creating layer pool4
I1018 21:57:31.383023 83243 net.cpp:100] Creating Layer pool4
I1018 21:57:31.383028 83243 net.cpp:434] pool4 <- fire4/concat
I1018 21:57:31.383038 83243 net.cpp:408] pool4 -> pool4
I1018 21:57:31.383098 83243 net.cpp:150] Setting up pool4
I1018 21:57:31.383107 83243 net.cpp:157] Top shape: 64 256 28 28 (12845056)
I1018 21:57:31.383111 83243 net.cpp:165] Memory required for data: 2307677184
I1018 21:57:31.383113 83243 layer_factory.hpp:77] Creating layer pool4_pool4_0_split
I1018 21:57:31.383124 83243 net.cpp:100] Creating Layer pool4_pool4_0_split
I1018 21:57:31.383131 83243 net.cpp:434] pool4_pool4_0_split <- pool4
I1018 21:57:31.383141 83243 net.cpp:408] pool4_pool4_0_split -> pool4_pool4_0_split_0
I1018 21:57:31.383146 83243 net.cpp:408] pool4_pool4_0_split -> pool4_pool4_0_split_1
I1018 21:57:31.383205 83243 net.cpp:150] Setting up pool4_pool4_0_split
I1018 21:57:31.383225 83243 net.cpp:157] Top shape: 64 256 28 28 (12845056)
I1018 21:57:31.383231 83243 net.cpp:157] Top shape: 64 256 28 28 (12845056)
I1018 21:57:31.383234 83243 net.cpp:165] Memory required for data: 2410437632
I1018 21:57:31.383237 83243 layer_factory.hpp:77] Creating layer fire5/squeeze1x1
I1018 21:57:31.383271 83243 net.cpp:100] Creating Layer fire5/squeeze1x1
I1018 21:57:31.383278 83243 net.cpp:434] fire5/squeeze1x1 <- pool4_pool4_0_split_0
I1018 21:57:31.383291 83243 net.cpp:408] fire5/squeeze1x1 -> fire5/squeeze1x1
I1018 21:57:31.384973 83243 net.cpp:150] Setting up fire5/squeeze1x1
I1018 21:57:31.385001 83243 net.cpp:157] Top shape: 64 32 28 28 (1605632)
I1018 21:57:31.385005 83243 net.cpp:165] Memory required for data: 2416860160
I1018 21:57:31.385023 83243 layer_factory.hpp:77] Creating layer fire5/relu_squeeze1x1
I1018 21:57:31.385030 83243 net.cpp:100] Creating Layer fire5/relu_squeeze1x1
I1018 21:57:31.385035 83243 net.cpp:434] fire5/relu_squeeze1x1 <- fire5/squeeze1x1
I1018 21:57:31.385040 83243 net.cpp:395] fire5/relu_squeeze1x1 -> fire5/squeeze1x1 (in-place)
I1018 21:57:31.385596 83243 net.cpp:150] Setting up fire5/relu_squeeze1x1
I1018 21:57:31.385620 83243 net.cpp:157] Top shape: 64 32 28 28 (1605632)
I1018 21:57:31.385650 83243 net.cpp:165] Memory required for data: 2423282688
I1018 21:57:31.385655 83243 layer_factory.hpp:77] Creating layer fire5/squeeze1x1_fire5/relu_squeeze1x1_0_split
I1018 21:57:31.385663 83243 net.cpp:100] Creating Layer fire5/squeeze1x1_fire5/relu_squeeze1x1_0_split
I1018 21:57:31.385666 83243 net.cpp:434] fire5/squeeze1x1_fire5/relu_squeeze1x1_0_split <- fire5/squeeze1x1
I1018 21:57:31.385686 83243 net.cpp:408] fire5/squeeze1x1_fire5/relu_squeeze1x1_0_split -> fire5/squeeze1x1_fire5/relu_squeeze1x1_0_split_0
I1018 21:57:31.385694 83243 net.cpp:408] fire5/squeeze1x1_fire5/relu_squeeze1x1_0_split -> fire5/squeeze1x1_fire5/relu_squeeze1x1_0_split_1
I1018 21:57:31.385740 83243 net.cpp:150] Setting up fire5/squeeze1x1_fire5/relu_squeeze1x1_0_split
I1018 21:57:31.385746 83243 net.cpp:157] Top shape: 64 32 28 28 (1605632)
I1018 21:57:31.385749 83243 net.cpp:157] Top shape: 64 32 28 28 (1605632)
I1018 21:57:31.385752 83243 net.cpp:165] Memory required for data: 2436127744
I1018 21:57:31.385756 83243 layer_factory.hpp:77] Creating layer fire5/expand1x1
I1018 21:57:31.385764 83243 net.cpp:100] Creating Layer fire5/expand1x1
I1018 21:57:31.385771 83243 net.cpp:434] fire5/expand1x1 <- fire5/squeeze1x1_fire5/relu_squeeze1x1_0_split_0
I1018 21:57:31.385777 83243 net.cpp:408] fire5/expand1x1 -> fire5/expand1x1
I1018 21:57:31.387377 83243 net.cpp:150] Setting up fire5/expand1x1
I1018 21:57:31.387415 83243 net.cpp:157] Top shape: 64 128 28 28 (6422528)
I1018 21:57:31.387424 83243 net.cpp:165] Memory required for data: 2461817856
I1018 21:57:31.387439 83243 layer_factory.hpp:77] Creating layer fire5/relu_expand1x1
I1018 21:57:31.387450 83243 net.cpp:100] Creating Layer fire5/relu_expand1x1
I1018 21:57:31.387470 83243 net.cpp:434] fire5/relu_expand1x1 <- fire5/expand1x1
I1018 21:57:31.387483 83243 net.cpp:395] fire5/relu_expand1x1 -> fire5/expand1x1 (in-place)
I1018 21:57:31.387879 83243 net.cpp:150] Setting up fire5/relu_expand1x1
I1018 21:57:31.387900 83243 net.cpp:157] Top shape: 64 128 28 28 (6422528)
I1018 21:57:31.387920 83243 net.cpp:165] Memory required for data: 2487507968
I1018 21:57:31.387928 83243 layer_factory.hpp:77] Creating layer fire5/expand3x3
I1018 21:57:31.387948 83243 net.cpp:100] Creating Layer fire5/expand3x3
I1018 21:57:31.387958 83243 net.cpp:434] fire5/expand3x3 <- fire5/squeeze1x1_fire5/relu_squeeze1x1_0_split_1
I1018 21:57:31.387971 83243 net.cpp:408] fire5/expand3x3 -> fire5/expand3x3
I1018 21:57:31.390334 83243 net.cpp:150] Setting up fire5/expand3x3
I1018 21:57:31.390350 83243 net.cpp:157] Top shape: 64 128 28 28 (6422528)
I1018 21:57:31.390365 83243 net.cpp:165] Memory required for data: 2513198080
I1018 21:57:31.390372 83243 layer_factory.hpp:77] Creating layer fire5/relu_expand3x3
I1018 21:57:31.390379 83243 net.cpp:100] Creating Layer fire5/relu_expand3x3
I1018 21:57:31.390384 83243 net.cpp:434] fire5/relu_expand3x3 <- fire5/expand3x3
I1018 21:57:31.390389 83243 net.cpp:395] fire5/relu_expand3x3 -> fire5/expand3x3 (in-place)
I1018 21:57:31.390812 83243 net.cpp:150] Setting up fire5/relu_expand3x3
I1018 21:57:31.390841 83243 net.cpp:157] Top shape: 64 128 28 28 (6422528)
I1018 21:57:31.390844 83243 net.cpp:165] Memory required for data: 2538888192
I1018 21:57:31.390847 83243 layer_factory.hpp:77] Creating layer fire5/concat
I1018 21:57:31.390854 83243 net.cpp:100] Creating Layer fire5/concat
I1018 21:57:31.390859 83243 net.cpp:434] fire5/concat <- fire5/expand1x1
I1018 21:57:31.390866 83243 net.cpp:434] fire5/concat <- fire5/expand3x3
I1018 21:57:31.390873 83243 net.cpp:408] fire5/concat -> fire5/concat
I1018 21:57:31.390918 83243 net.cpp:150] Setting up fire5/concat
I1018 21:57:31.390926 83243 net.cpp:157] Top shape: 64 256 28 28 (12845056)
I1018 21:57:31.390930 83243 net.cpp:165] Memory required for data: 2590268416
I1018 21:57:31.390935 83243 layer_factory.hpp:77] Creating layer bypass_45
I1018 21:57:31.390945 83243 net.cpp:100] Creating Layer bypass_45
I1018 21:57:31.390951 83243 net.cpp:434] bypass_45 <- pool4_pool4_0_split_1
I1018 21:57:31.390980 83243 net.cpp:434] bypass_45 <- fire5/concat
I1018 21:57:31.390990 83243 net.cpp:408] bypass_45 -> fire5_EltAdd
I1018 21:57:31.391047 83243 net.cpp:150] Setting up bypass_45
I1018 21:57:31.391062 83243 net.cpp:157] Top shape: 64 256 28 28 (12845056)
I1018 21:57:31.391069 83243 net.cpp:165] Memory required for data: 2641648640
I1018 21:57:31.391075 83243 layer_factory.hpp:77] Creating layer fire6/squeeze1x1
I1018 21:57:31.391088 83243 net.cpp:100] Creating Layer fire6/squeeze1x1
I1018 21:57:31.391093 83243 net.cpp:434] fire6/squeeze1x1 <- fire5_EltAdd
I1018 21:57:31.391101 83243 net.cpp:408] fire6/squeeze1x1 -> fire6/squeeze1x1
I1018 21:57:31.392254 83243 net.cpp:150] Setting up fire6/squeeze1x1
I1018 21:57:31.392271 83243 net.cpp:157] Top shape: 64 48 28 28 (2408448)
I1018 21:57:31.392287 83243 net.cpp:165] Memory required for data: 2651282432
I1018 21:57:31.392293 83243 layer_factory.hpp:77] Creating layer fire6/relu_squeeze1x1
I1018 21:57:31.392305 83243 net.cpp:100] Creating Layer fire6/relu_squeeze1x1
I1018 21:57:31.392312 83243 net.cpp:434] fire6/relu_squeeze1x1 <- fire6/squeeze1x1
I1018 21:57:31.392319 83243 net.cpp:395] fire6/relu_squeeze1x1 -> fire6/squeeze1x1 (in-place)
I1018 21:57:31.392838 83243 net.cpp:150] Setting up fire6/relu_squeeze1x1
I1018 21:57:31.392851 83243 net.cpp:157] Top shape: 64 48 28 28 (2408448)
I1018 21:57:31.392868 83243 net.cpp:165] Memory required for data: 2660916224
I1018 21:57:31.392870 83243 layer_factory.hpp:77] Creating layer fire6/squeeze1x1_fire6/relu_squeeze1x1_0_split
I1018 21:57:31.392877 83243 net.cpp:100] Creating Layer fire6/squeeze1x1_fire6/relu_squeeze1x1_0_split
I1018 21:57:31.392882 83243 net.cpp:434] fire6/squeeze1x1_fire6/relu_squeeze1x1_0_split <- fire6/squeeze1x1
I1018 21:57:31.392889 83243 net.cpp:408] fire6/squeeze1x1_fire6/relu_squeeze1x1_0_split -> fire6/squeeze1x1_fire6/relu_squeeze1x1_0_split_0
I1018 21:57:31.392895 83243 net.cpp:408] fire6/squeeze1x1_fire6/relu_squeeze1x1_0_split -> fire6/squeeze1x1_fire6/relu_squeeze1x1_0_split_1
I1018 21:57:31.392956 83243 net.cpp:150] Setting up fire6/squeeze1x1_fire6/relu_squeeze1x1_0_split
I1018 21:57:31.392963 83243 net.cpp:157] Top shape: 64 48 28 28 (2408448)
I1018 21:57:31.392969 83243 net.cpp:157] Top shape: 64 48 28 28 (2408448)
I1018 21:57:31.392976 83243 net.cpp:165] Memory required for data: 2680183808
I1018 21:57:31.392979 83243 layer_factory.hpp:77] Creating layer fire6/expand1x1
I1018 21:57:31.392994 83243 net.cpp:100] Creating Layer fire6/expand1x1
I1018 21:57:31.392999 83243 net.cpp:434] fire6/expand1x1 <- fire6/squeeze1x1_fire6/relu_squeeze1x1_0_split_0
I1018 21:57:31.393008 83243 net.cpp:408] fire6/expand1x1 -> fire6/expand1x1
I1018 21:57:31.395105 83243 net.cpp:150] Setting up fire6/expand1x1
I1018 21:57:31.395153 83243 net.cpp:157] Top shape: 64 192 28 28 (9633792)
I1018 21:57:31.395159 83243 net.cpp:165] Memory required for data: 2718718976
I1018 21:57:31.395175 83243 layer_factory.hpp:77] Creating layer fire6/relu_expand1x1
I1018 21:57:31.395191 83243 net.cpp:100] Creating Layer fire6/relu_expand1x1
I1018 21:57:31.395215 83243 net.cpp:434] fire6/relu_expand1x1 <- fire6/expand1x1
I1018 21:57:31.395231 83243 net.cpp:395] fire6/relu_expand1x1 -> fire6/expand1x1 (in-place)
I1018 21:57:31.395525 83243 net.cpp:150] Setting up fire6/relu_expand1x1
I1018 21:57:31.395539 83243 net.cpp:157] Top shape: 64 192 28 28 (9633792)
I1018 21:57:31.395556 83243 net.cpp:165] Memory required for data: 2757254144
I1018 21:57:31.395561 83243 layer_factory.hpp:77] Creating layer fire6/expand3x3
I1018 21:57:31.395579 83243 net.cpp:100] Creating Layer fire6/expand3x3
I1018 21:57:31.395586 83243 net.cpp:434] fire6/expand3x3 <- fire6/squeeze1x1_fire6/relu_squeeze1x1_0_split_1
I1018 21:57:31.395597 83243 net.cpp:408] fire6/expand3x3 -> fire6/expand3x3
I1018 21:57:31.398672 83243 net.cpp:150] Setting up fire6/expand3x3
I1018 21:57:31.398722 83243 net.cpp:157] Top shape: 64 192 28 28 (9633792)
I1018 21:57:31.398727 83243 net.cpp:165] Memory required for data: 2795789312
I1018 21:57:31.398739 83243 layer_factory.hpp:77] Creating layer fire6/relu_expand3x3
I1018 21:57:31.398771 83243 net.cpp:100] Creating Layer fire6/relu_expand3x3
I1018 21:57:31.398788 83243 net.cpp:434] fire6/relu_expand3x3 <- fire6/expand3x3
I1018 21:57:31.398799 83243 net.cpp:395] fire6/relu_expand3x3 -> fire6/expand3x3 (in-place)
I1018 21:57:31.399195 83243 net.cpp:150] Setting up fire6/relu_expand3x3
I1018 21:57:31.399214 83243 net.cpp:157] Top shape: 64 192 28 28 (9633792)
I1018 21:57:31.399229 83243 net.cpp:165] Memory required for data: 2834324480
I1018 21:57:31.399233 83243 layer_factory.hpp:77] Creating layer fire6/concat
I1018 21:57:31.399241 83243 net.cpp:100] Creating Layer fire6/concat
I1018 21:57:31.399246 83243 net.cpp:434] fire6/concat <- fire6/expand1x1
I1018 21:57:31.399252 83243 net.cpp:434] fire6/concat <- fire6/expand3x3
I1018 21:57:31.399258 83243 net.cpp:408] fire6/concat -> fire6/concat
I1018 21:57:31.399298 83243 net.cpp:150] Setting up fire6/concat
I1018 21:57:31.399304 83243 net.cpp:157] Top shape: 64 384 28 28 (19267584)
I1018 21:57:31.399307 83243 net.cpp:165] Memory required for data: 2911394816
I1018 21:57:31.399312 83243 layer_factory.hpp:77] Creating layer fire6/concat_fire6/concat_0_split
I1018 21:57:31.399318 83243 net.cpp:100] Creating Layer fire6/concat_fire6/concat_0_split
I1018 21:57:31.399322 83243 net.cpp:434] fire6/concat_fire6/concat_0_split <- fire6/concat
I1018 21:57:31.399327 83243 net.cpp:408] fire6/concat_fire6/concat_0_split -> fire6/concat_fire6/concat_0_split_0
I1018 21:57:31.399333 83243 net.cpp:408] fire6/concat_fire6/concat_0_split -> fire6/concat_fire6/concat_0_split_1
I1018 21:57:31.399374 83243 net.cpp:150] Setting up fire6/concat_fire6/concat_0_split
I1018 21:57:31.399379 83243 net.cpp:157] Top shape: 64 384 28 28 (19267584)
I1018 21:57:31.399384 83243 net.cpp:157] Top shape: 64 384 28 28 (19267584)
I1018 21:57:31.399386 83243 net.cpp:165] Memory required for data: 3065535488
I1018 21:57:31.399389 83243 layer_factory.hpp:77] Creating layer fire7/squeeze1x1
I1018 21:57:31.399401 83243 net.cpp:100] Creating Layer fire7/squeeze1x1
I1018 21:57:31.399406 83243 net.cpp:434] fire7/squeeze1x1 <- fire6/concat_fire6/concat_0_split_0
I1018 21:57:31.399411 83243 net.cpp:408] fire7/squeeze1x1 -> fire7/squeeze1x1
I1018 21:57:31.400673 83243 net.cpp:150] Setting up fire7/squeeze1x1
I1018 21:57:31.400696 83243 net.cpp:157] Top shape: 64 48 28 28 (2408448)
I1018 21:57:31.400712 83243 net.cpp:165] Memory required for data: 3075169280
I1018 21:57:31.400729 83243 layer_factory.hpp:77] Creating layer fire7/relu_squeeze1x1
I1018 21:57:31.400739 83243 net.cpp:100] Creating Layer fire7/relu_squeeze1x1
I1018 21:57:31.400743 83243 net.cpp:434] fire7/relu_squeeze1x1 <- fire7/squeeze1x1
I1018 21:57:31.400750 83243 net.cpp:395] fire7/relu_squeeze1x1 -> fire7/squeeze1x1 (in-place)
I1018 21:57:31.401162 83243 net.cpp:150] Setting up fire7/relu_squeeze1x1
I1018 21:57:31.401177 83243 net.cpp:157] Top shape: 64 48 28 28 (2408448)
I1018 21:57:31.401192 83243 net.cpp:165] Memory required for data: 3084803072
I1018 21:57:31.401196 83243 layer_factory.hpp:77] Creating layer fire7/squeeze1x1_fire7/relu_squeeze1x1_0_split
I1018 21:57:31.401203 83243 net.cpp:100] Creating Layer fire7/squeeze1x1_fire7/relu_squeeze1x1_0_split
I1018 21:57:31.401207 83243 net.cpp:434] fire7/squeeze1x1_fire7/relu_squeeze1x1_0_split <- fire7/squeeze1x1
I1018 21:57:31.401216 83243 net.cpp:408] fire7/squeeze1x1_fire7/relu_squeeze1x1_0_split -> fire7/squeeze1x1_fire7/relu_squeeze1x1_0_split_0
I1018 21:57:31.401223 83243 net.cpp:408] fire7/squeeze1x1_fire7/relu_squeeze1x1_0_split -> fire7/squeeze1x1_fire7/relu_squeeze1x1_0_split_1
I1018 21:57:31.401269 83243 net.cpp:150] Setting up fire7/squeeze1x1_fire7/relu_squeeze1x1_0_split
I1018 21:57:31.401278 83243 net.cpp:157] Top shape: 64 48 28 28 (2408448)
I1018 21:57:31.401281 83243 net.cpp:157] Top shape: 64 48 28 28 (2408448)
I1018 21:57:31.401284 83243 net.cpp:165] Memory required for data: 3104070656
I1018 21:57:31.401288 83243 layer_factory.hpp:77] Creating layer fire7/expand1x1
I1018 21:57:31.401298 83243 net.cpp:100] Creating Layer fire7/expand1x1
I1018 21:57:31.401317 83243 net.cpp:434] fire7/expand1x1 <- fire7/squeeze1x1_fire7/relu_squeeze1x1_0_split_0
I1018 21:57:31.401325 83243 net.cpp:408] fire7/expand1x1 -> fire7/expand1x1
I1018 21:57:31.402621 83243 net.cpp:150] Setting up fire7/expand1x1
I1018 21:57:31.402660 83243 net.cpp:157] Top shape: 64 192 28 28 (9633792)
I1018 21:57:31.402664 83243 net.cpp:165] Memory required for data: 3142605824
I1018 21:57:31.402673 83243 layer_factory.hpp:77] Creating layer fire7/relu_expand1x1
I1018 21:57:31.402688 83243 net.cpp:100] Creating Layer fire7/relu_expand1x1
I1018 21:57:31.402693 83243 net.cpp:434] fire7/relu_expand1x1 <- fire7/expand1x1
I1018 21:57:31.402701 83243 net.cpp:395] fire7/relu_expand1x1 -> fire7/expand1x1 (in-place)
I1018 21:57:31.402906 83243 net.cpp:150] Setting up fire7/relu_expand1x1
I1018 21:57:31.402917 83243 net.cpp:157] Top shape: 64 192 28 28 (9633792)
I1018 21:57:31.402920 83243 net.cpp:165] Memory required for data: 3181140992
I1018 21:57:31.402936 83243 layer_factory.hpp:77] Creating layer fire7/expand3x3
I1018 21:57:31.402951 83243 net.cpp:100] Creating Layer fire7/expand3x3
I1018 21:57:31.402954 83243 net.cpp:434] fire7/expand3x3 <- fire7/squeeze1x1_fire7/relu_squeeze1x1_0_split_1
I1018 21:57:31.402961 83243 net.cpp:408] fire7/expand3x3 -> fire7/expand3x3
I1018 21:57:31.405035 83243 net.cpp:150] Setting up fire7/expand3x3
I1018 21:57:31.405083 83243 net.cpp:157] Top shape: 64 192 28 28 (9633792)
I1018 21:57:31.405088 83243 net.cpp:165] Memory required for data: 3219676160
I1018 21:57:31.405098 83243 layer_factory.hpp:77] Creating layer fire7/relu_expand3x3
I1018 21:57:31.405109 83243 net.cpp:100] Creating Layer fire7/relu_expand3x3
I1018 21:57:31.405117 83243 net.cpp:434] fire7/relu_expand3x3 <- fire7/expand3x3
I1018 21:57:31.405124 83243 net.cpp:395] fire7/relu_expand3x3 -> fire7/expand3x3 (in-place)
I1018 21:57:31.405550 83243 net.cpp:150] Setting up fire7/relu_expand3x3
I1018 21:57:31.405566 83243 net.cpp:157] Top shape: 64 192 28 28 (9633792)
I1018 21:57:31.405581 83243 net.cpp:165] Memory required for data: 3258211328
I1018 21:57:31.405586 83243 layer_factory.hpp:77] Creating layer fire7/concat
I1018 21:57:31.405594 83243 net.cpp:100] Creating Layer fire7/concat
I1018 21:57:31.405599 83243 net.cpp:434] fire7/concat <- fire7/expand1x1
I1018 21:57:31.405606 83243 net.cpp:434] fire7/concat <- fire7/expand3x3
I1018 21:57:31.405611 83243 net.cpp:408] fire7/concat -> fire7/concat
I1018 21:57:31.405647 83243 net.cpp:150] Setting up fire7/concat
I1018 21:57:31.405654 83243 net.cpp:157] Top shape: 64 384 28 28 (19267584)
I1018 21:57:31.405658 83243 net.cpp:165] Memory required for data: 3335281664
I1018 21:57:31.405660 83243 layer_factory.hpp:77] Creating layer bypass_67
I1018 21:57:31.405666 83243 net.cpp:100] Creating Layer bypass_67
I1018 21:57:31.405670 83243 net.cpp:434] bypass_67 <- fire6/concat_fire6/concat_0_split_1
I1018 21:57:31.405674 83243 net.cpp:434] bypass_67 <- fire7/concat
I1018 21:57:31.405680 83243 net.cpp:408] bypass_67 -> fire7_EltAdd
I1018 21:57:31.405709 83243 net.cpp:150] Setting up bypass_67
I1018 21:57:31.405714 83243 net.cpp:157] Top shape: 64 384 28 28 (19267584)
I1018 21:57:31.405717 83243 net.cpp:165] Memory required for data: 3412352000
I1018 21:57:31.405720 83243 layer_factory.hpp:77] Creating layer fire8/squeeze1x1
I1018 21:57:31.405732 83243 net.cpp:100] Creating Layer fire8/squeeze1x1
I1018 21:57:31.405736 83243 net.cpp:434] fire8/squeeze1x1 <- fire7_EltAdd
I1018 21:57:31.405741 83243 net.cpp:408] fire8/squeeze1x1 -> fire8/squeeze1x1
I1018 21:57:31.407024 83243 net.cpp:150] Setting up fire8/squeeze1x1
I1018 21:57:31.407061 83243 net.cpp:157] Top shape: 64 64 28 28 (3211264)
I1018 21:57:31.407065 83243 net.cpp:165] Memory required for data: 3425197056
I1018 21:57:31.407075 83243 layer_factory.hpp:77] Creating layer fire8/relu_squeeze1x1
I1018 21:57:31.407084 83243 net.cpp:100] Creating Layer fire8/relu_squeeze1x1
I1018 21:57:31.407089 83243 net.cpp:434] fire8/relu_squeeze1x1 <- fire8/squeeze1x1
I1018 21:57:31.407096 83243 net.cpp:395] fire8/relu_squeeze1x1 -> fire8/squeeze1x1 (in-place)
I1018 21:57:31.407559 83243 net.cpp:150] Setting up fire8/relu_squeeze1x1
I1018 21:57:31.407575 83243 net.cpp:157] Top shape: 64 64 28 28 (3211264)
I1018 21:57:31.407590 83243 net.cpp:165] Memory required for data: 3438042112
I1018 21:57:31.407594 83243 layer_factory.hpp:77] Creating layer fire8/squeeze1x1_fire8/relu_squeeze1x1_0_split
I1018 21:57:31.407613 83243 net.cpp:100] Creating Layer fire8/squeeze1x1_fire8/relu_squeeze1x1_0_split
I1018 21:57:31.407618 83243 net.cpp:434] fire8/squeeze1x1_fire8/relu_squeeze1x1_0_split <- fire8/squeeze1x1
I1018 21:57:31.407625 83243 net.cpp:408] fire8/squeeze1x1_fire8/relu_squeeze1x1_0_split -> fire8/squeeze1x1_fire8/relu_squeeze1x1_0_split_0
I1018 21:57:31.407635 83243 net.cpp:408] fire8/squeeze1x1_fire8/relu_squeeze1x1_0_split -> fire8/squeeze1x1_fire8/relu_squeeze1x1_0_split_1
I1018 21:57:31.407696 83243 net.cpp:150] Setting up fire8/squeeze1x1_fire8/relu_squeeze1x1_0_split
I1018 21:57:31.407701 83243 net.cpp:157] Top shape: 64 64 28 28 (3211264)
I1018 21:57:31.407706 83243 net.cpp:157] Top shape: 64 64 28 28 (3211264)
I1018 21:57:31.407708 83243 net.cpp:165] Memory required for data: 3463732224
I1018 21:57:31.407711 83243 layer_factory.hpp:77] Creating layer fire8/expand1x1
I1018 21:57:31.407723 83243 net.cpp:100] Creating Layer fire8/expand1x1
I1018 21:57:31.407727 83243 net.cpp:434] fire8/expand1x1 <- fire8/squeeze1x1_fire8/relu_squeeze1x1_0_split_0
I1018 21:57:31.407734 83243 net.cpp:408] fire8/expand1x1 -> fire8/expand1x1
I1018 21:57:31.409133 83243 net.cpp:150] Setting up fire8/expand1x1
I1018 21:57:31.409175 83243 net.cpp:157] Top shape: 64 256 28 28 (12845056)
I1018 21:57:31.409180 83243 net.cpp:165] Memory required for data: 3515112448
I1018 21:57:31.409204 83243 layer_factory.hpp:77] Creating layer fire8/relu_expand1x1
I1018 21:57:31.409214 83243 net.cpp:100] Creating Layer fire8/relu_expand1x1
I1018 21:57:31.409219 83243 net.cpp:434] fire8/relu_expand1x1 <- fire8/expand1x1
I1018 21:57:31.409229 83243 net.cpp:395] fire8/relu_expand1x1 -> fire8/expand1x1 (in-place)
I1018 21:57:31.409438 83243 net.cpp:150] Setting up fire8/relu_expand1x1
I1018 21:57:31.409448 83243 net.cpp:157] Top shape: 64 256 28 28 (12845056)
I1018 21:57:31.409462 83243 net.cpp:165] Memory required for data: 3566492672
I1018 21:57:31.409466 83243 layer_factory.hpp:77] Creating layer fire8/expand3x3
I1018 21:57:31.409498 83243 net.cpp:100] Creating Layer fire8/expand3x3
I1018 21:57:31.409503 83243 net.cpp:434] fire8/expand3x3 <- fire8/squeeze1x1_fire8/relu_squeeze1x1_0_split_1
I1018 21:57:31.409512 83243 net.cpp:408] fire8/expand3x3 -> fire8/expand3x3
I1018 21:57:31.412796 83243 net.cpp:150] Setting up fire8/expand3x3
I1018 21:57:31.412844 83243 net.cpp:157] Top shape: 64 256 28 28 (12845056)
I1018 21:57:31.412849 83243 net.cpp:165] Memory required for data: 3617872896
I1018 21:57:31.412863 83243 layer_factory.hpp:77] Creating layer fire8/relu_expand3x3
I1018 21:57:31.412875 83243 net.cpp:100] Creating Layer fire8/relu_expand3x3
I1018 21:57:31.412881 83243 net.cpp:434] fire8/relu_expand3x3 <- fire8/expand3x3
I1018 21:57:31.412889 83243 net.cpp:395] fire8/relu_expand3x3 -> fire8/expand3x3 (in-place)
I1018 21:57:31.413321 83243 net.cpp:150] Setting up fire8/relu_expand3x3
I1018 21:57:31.413338 83243 net.cpp:157] Top shape: 64 256 28 28 (12845056)
I1018 21:57:31.413353 83243 net.cpp:165] Memory required for data: 3669253120
I1018 21:57:31.413358 83243 layer_factory.hpp:77] Creating layer fire8/concat
I1018 21:57:31.413368 83243 net.cpp:100] Creating Layer fire8/concat
I1018 21:57:31.413372 83243 net.cpp:434] fire8/concat <- fire8/expand1x1
I1018 21:57:31.413378 83243 net.cpp:434] fire8/concat <- fire8/expand3x3
I1018 21:57:31.413384 83243 net.cpp:408] fire8/concat -> fire8/concat
I1018 21:57:31.413424 83243 net.cpp:150] Setting up fire8/concat
I1018 21:57:31.413431 83243 net.cpp:157] Top shape: 64 512 28 28 (25690112)
I1018 21:57:31.413434 83243 net.cpp:165] Memory required for data: 3772013568
I1018 21:57:31.413437 83243 layer_factory.hpp:77] Creating layer pool8
I1018 21:57:31.413461 83243 net.cpp:100] Creating Layer pool8
I1018 21:57:31.413465 83243 net.cpp:434] pool8 <- fire8/concat
I1018 21:57:31.413472 83243 net.cpp:408] pool8 -> pool8
I1018 21:57:31.413519 83243 net.cpp:150] Setting up pool8
I1018 21:57:31.413527 83243 net.cpp:157] Top shape: 64 512 14 14 (6422528)
I1018 21:57:31.413530 83243 net.cpp:165] Memory required for data: 3797703680
I1018 21:57:31.413533 83243 layer_factory.hpp:77] Creating layer pool8_pool8_0_split
I1018 21:57:31.413540 83243 net.cpp:100] Creating Layer pool8_pool8_0_split
I1018 21:57:31.413544 83243 net.cpp:434] pool8_pool8_0_split <- pool8
I1018 21:57:31.413549 83243 net.cpp:408] pool8_pool8_0_split -> pool8_pool8_0_split_0
I1018 21:57:31.413555 83243 net.cpp:408] pool8_pool8_0_split -> pool8_pool8_0_split_1
I1018 21:57:31.413590 83243 net.cpp:150] Setting up pool8_pool8_0_split
I1018 21:57:31.413601 83243 net.cpp:157] Top shape: 64 512 14 14 (6422528)
I1018 21:57:31.413605 83243 net.cpp:157] Top shape: 64 512 14 14 (6422528)
I1018 21:57:31.413609 83243 net.cpp:165] Memory required for data: 3849083904
I1018 21:57:31.413611 83243 layer_factory.hpp:77] Creating layer fire9/squeeze1x1
I1018 21:57:31.413622 83243 net.cpp:100] Creating Layer fire9/squeeze1x1
I1018 21:57:31.413626 83243 net.cpp:434] fire9/squeeze1x1 <- pool8_pool8_0_split_0
I1018 21:57:31.413632 83243 net.cpp:408] fire9/squeeze1x1 -> fire9/squeeze1x1
I1018 21:57:31.415005 83243 net.cpp:150] Setting up fire9/squeeze1x1
I1018 21:57:31.415045 83243 net.cpp:157] Top shape: 64 64 14 14 (802816)
I1018 21:57:31.415050 83243 net.cpp:165] Memory required for data: 3852295168
I1018 21:57:31.415058 83243 layer_factory.hpp:77] Creating layer fire9/relu_squeeze1x1
I1018 21:57:31.415073 83243 net.cpp:100] Creating Layer fire9/relu_squeeze1x1
I1018 21:57:31.415079 83243 net.cpp:434] fire9/relu_squeeze1x1 <- fire9/squeeze1x1
I1018 21:57:31.415086 83243 net.cpp:395] fire9/relu_squeeze1x1 -> fire9/squeeze1x1 (in-place)
I1018 21:57:31.415530 83243 net.cpp:150] Setting up fire9/relu_squeeze1x1
I1018 21:57:31.415547 83243 net.cpp:157] Top shape: 64 64 14 14 (802816)
I1018 21:57:31.415562 83243 net.cpp:165] Memory required for data: 3855506432
I1018 21:57:31.415567 83243 layer_factory.hpp:77] Creating layer fire9/squeeze1x1_fire9/relu_squeeze1x1_0_split
I1018 21:57:31.415575 83243 net.cpp:100] Creating Layer fire9/squeeze1x1_fire9/relu_squeeze1x1_0_split
I1018 21:57:31.415578 83243 net.cpp:434] fire9/squeeze1x1_fire9/relu_squeeze1x1_0_split <- fire9/squeeze1x1
I1018 21:57:31.415585 83243 net.cpp:408] fire9/squeeze1x1_fire9/relu_squeeze1x1_0_split -> fire9/squeeze1x1_fire9/relu_squeeze1x1_0_split_0
I1018 21:57:31.415593 83243 net.cpp:408] fire9/squeeze1x1_fire9/relu_squeeze1x1_0_split -> fire9/squeeze1x1_fire9/relu_squeeze1x1_0_split_1
I1018 21:57:31.415650 83243 net.cpp:150] Setting up fire9/squeeze1x1_fire9/relu_squeeze1x1_0_split
I1018 21:57:31.415657 83243 net.cpp:157] Top shape: 64 64 14 14 (802816)
I1018 21:57:31.415660 83243 net.cpp:157] Top shape: 64 64 14 14 (802816)
I1018 21:57:31.415663 83243 net.cpp:165] Memory required for data: 3861928960
I1018 21:57:31.415666 83243 layer_factory.hpp:77] Creating layer fire9/expand1x1
I1018 21:57:31.415679 83243 net.cpp:100] Creating Layer fire9/expand1x1
I1018 21:57:31.415683 83243 net.cpp:434] fire9/expand1x1 <- fire9/squeeze1x1_fire9/relu_squeeze1x1_0_split_0
I1018 21:57:31.415689 83243 net.cpp:408] fire9/expand1x1 -> fire9/expand1x1
I1018 21:57:31.417445 83243 net.cpp:150] Setting up fire9/expand1x1
I1018 21:57:31.417490 83243 net.cpp:157] Top shape: 64 256 14 14 (3211264)
I1018 21:57:31.417493 83243 net.cpp:165] Memory required for data: 3874774016
I1018 21:57:31.417503 83243 layer_factory.hpp:77] Creating layer fire9/relu_expand1x1
I1018 21:57:31.417515 83243 net.cpp:100] Creating Layer fire9/relu_expand1x1
I1018 21:57:31.417521 83243 net.cpp:434] fire9/relu_expand1x1 <- fire9/expand1x1
I1018 21:57:31.417531 83243 net.cpp:395] fire9/relu_expand1x1 -> fire9/expand1x1 (in-place)
I1018 21:57:31.417734 83243 net.cpp:150] Setting up fire9/relu_expand1x1
I1018 21:57:31.417762 83243 net.cpp:157] Top shape: 64 256 14 14 (3211264)
I1018 21:57:31.417776 83243 net.cpp:165] Memory required for data: 3887619072
I1018 21:57:31.417780 83243 layer_factory.hpp:77] Creating layer fire9/expand3x3
I1018 21:57:31.417793 83243 net.cpp:100] Creating Layer fire9/expand3x3
I1018 21:57:31.417798 83243 net.cpp:434] fire9/expand3x3 <- fire9/squeeze1x1_fire9/relu_squeeze1x1_0_split_1
I1018 21:57:31.417804 83243 net.cpp:408] fire9/expand3x3 -> fire9/expand3x3
I1018 21:57:31.421218 83243 net.cpp:150] Setting up fire9/expand3x3
I1018 21:57:31.421265 83243 net.cpp:157] Top shape: 64 256 14 14 (3211264)
I1018 21:57:31.421269 83243 net.cpp:165] Memory required for data: 3900464128
I1018 21:57:31.421280 83243 layer_factory.hpp:77] Creating layer fire9/relu_expand3x3
I1018 21:57:31.421293 83243 net.cpp:100] Creating Layer fire9/relu_expand3x3
I1018 21:57:31.421299 83243 net.cpp:434] fire9/relu_expand3x3 <- fire9/expand3x3
I1018 21:57:31.421308 83243 net.cpp:395] fire9/relu_expand3x3 -> fire9/expand3x3 (in-place)
I1018 21:57:31.421758 83243 net.cpp:150] Setting up fire9/relu_expand3x3
I1018 21:57:31.421789 83243 net.cpp:157] Top shape: 64 256 14 14 (3211264)
I1018 21:57:31.421793 83243 net.cpp:165] Memory required for data: 3913309184
I1018 21:57:31.421797 83243 layer_factory.hpp:77] Creating layer fire9/concat
I1018 21:57:31.421807 83243 net.cpp:100] Creating Layer fire9/concat
I1018 21:57:31.421810 83243 net.cpp:434] fire9/concat <- fire9/expand1x1
I1018 21:57:31.421816 83243 net.cpp:434] fire9/concat <- fire9/expand3x3
I1018 21:57:31.421823 83243 net.cpp:408] fire9/concat -> fire9/concat
I1018 21:57:31.421876 83243 net.cpp:150] Setting up fire9/concat
I1018 21:57:31.421885 83243 net.cpp:157] Top shape: 64 512 14 14 (6422528)
I1018 21:57:31.421887 83243 net.cpp:165] Memory required for data: 3938999296
I1018 21:57:31.421891 83243 layer_factory.hpp:77] Creating layer bypass_89
I1018 21:57:31.421897 83243 net.cpp:100] Creating Layer bypass_89
I1018 21:57:31.421901 83243 net.cpp:434] bypass_89 <- pool8_pool8_0_split_1
I1018 21:57:31.421905 83243 net.cpp:434] bypass_89 <- fire9/concat
I1018 21:57:31.421911 83243 net.cpp:408] bypass_89 -> fire9_EltAdd
I1018 21:57:31.421939 83243 net.cpp:150] Setting up bypass_89
I1018 21:57:31.421947 83243 net.cpp:157] Top shape: 64 512 14 14 (6422528)
I1018 21:57:31.421949 83243 net.cpp:165] Memory required for data: 3964689408
I1018 21:57:31.421952 83243 layer_factory.hpp:77] Creating layer drop9
I1018 21:57:31.421964 83243 net.cpp:100] Creating Layer drop9
I1018 21:57:31.421968 83243 net.cpp:434] drop9 <- fire9_EltAdd
I1018 21:57:31.421972 83243 net.cpp:395] drop9 -> fire9_EltAdd (in-place)
I1018 21:57:31.422000 83243 net.cpp:150] Setting up drop9
I1018 21:57:31.422019 83243 net.cpp:157] Top shape: 64 512 14 14 (6422528)
I1018 21:57:31.422022 83243 net.cpp:165] Memory required for data: 3990379520
I1018 21:57:31.422025 83243 layer_factory.hpp:77] Creating layer conv10_2626
I1018 21:57:31.422037 83243 net.cpp:100] Creating Layer conv10_2626
I1018 21:57:31.422041 83243 net.cpp:434] conv10_2626 <- fire9_EltAdd
I1018 21:57:31.422049 83243 net.cpp:408] conv10_2626 -> conv10_2626
I1018 21:57:31.454680 83243 net.cpp:150] Setting up conv10_2626
I1018 21:57:31.454752 83243 net.cpp:157] Top shape: 64 2626 14 14 (32940544)
I1018 21:57:31.454761 83243 net.cpp:165] Memory required for data: 4122141696
I1018 21:57:31.454779 83243 layer_factory.hpp:77] Creating layer relu_conv10
I1018 21:57:31.454808 83243 net.cpp:100] Creating Layer relu_conv10
I1018 21:57:31.454816 83243 net.cpp:434] relu_conv10 <- conv10_2626
I1018 21:57:31.454835 83243 net.cpp:395] relu_conv10 -> conv10_2626 (in-place)
I1018 21:57:31.455447 83243 net.cpp:150] Setting up relu_conv10
I1018 21:57:31.455464 83243 net.cpp:157] Top shape: 64 2626 14 14 (32940544)
I1018 21:57:31.455480 83243 net.cpp:165] Memory required for data: 4253903872
I1018 21:57:31.455484 83243 layer_factory.hpp:77] Creating layer pool10
I1018 21:57:31.455497 83243 net.cpp:100] Creating Layer pool10
I1018 21:57:31.455502 83243 net.cpp:434] pool10 <- conv10_2626
I1018 21:57:31.455528 83243 net.cpp:408] pool10 -> pool10
I1018 21:57:31.455760 83243 net.cpp:150] Setting up pool10
I1018 21:57:31.455771 83243 net.cpp:157] Top shape: 64 2626 1 1 (168064)
I1018 21:57:31.455786 83243 net.cpp:165] Memory required for data: 4254576128
I1018 21:57:31.455790 83243 layer_factory.hpp:77] Creating layer loss
I1018 21:57:31.455797 83243 net.cpp:100] Creating Layer loss
I1018 21:57:31.455802 83243 net.cpp:434] loss <- pool10
I1018 21:57:31.455807 83243 net.cpp:434] loss <- label
I1018 21:57:31.455814 83243 net.cpp:408] loss -> loss
I1018 21:57:31.455832 83243 layer_factory.hpp:77] Creating layer loss
…
I1018 21:57:31.459743 83243 solver.cpp:181] Creating test net (#0) specified by net file: /home/zhh/caffe/models/squeezenet_residual/squeezenet_residual_train_val.prototxt
I1018 21:57:31.459933 83243 net.cpp:322] The NetState phase (1) differed from the phase (0) specified by a rule in layer data
I1018 21:57:31.460446 83243 net.cpp:58] Initializing net from parameters: 
state {
  phase: TEST
}
layer {
  name: "data"
  type: "Data"
  top: "data"
  top: "label"
  include {
    phase: TEST
  }
  transform_param {
    crop_size: 227
    mean_file: "/share/zhh/mean.binaryproto"
  }
  data_param {
    source: "/share/front/test_lmdb"
    batch_size: 100
    backend: LMDB
  }
}
layer {
  name: "conv1"
  type: "Convolution"
  bottom: "data"
  top: "conv1"
  convolution_param {
    num_output: 64
    kernel_size: 3
    stride: 2
    weight_filler {
      type: "xavier"
    }
  }
}
layer {
  name: "relu_conv1"
  type: "ReLU"
  bottom: "conv1"
  top: "conv1"
}
layer {
  name: "pool1"
  type: "Pooling"
  bottom: "conv1"
  top: "pool1"
  pooling_param {
    pool: MAX
    kernel_size: 3
    stride: 2
  }
}
layer {
  name: "fire2/squeeze1x1"
  type: "Convolution"
  bottom: "pool1"
  top: "fire2/squeeze1x1"
  convolution_param {
    num_output: 16
    kernel_size: 1
    weight_filler {
      type: "xavier"
    }
  }
}
layer {
  name: "fire2/relu_squeeze1x1"
  type: "ReLU"
  bottom: "fire2/squeeze1x1"
  top: "fire2/squeeze1x1"
}
layer {
  name: "fire2/expand1x1"
  type: "Convolution"
  bottom: "fire2/squeeze1x1"
  top: "fire2/expand1x1"
  convolution_param {
    num_output: 64
    kernel_size: 1
    weight_filler {
      type: "xavier"
    }
  }
}
layer {
  name: "fire2/relu_expand1x1"
  type: "ReLU"
  bottom: "fire2/expand1x1"
  top: "fire2/expand1x1"
}
layer {
  name: "fire2/expand3x3"
  type: "Convolution"
  bottom: "fire2/squeeze1x1"
  top: "fire2/expand3x3"
  convolution_param {
    num_output: 64
    pad: 1
    kernel_size: 3
    weight_filler {
      type: "xavier"
    }
  }
}
layer {
  name: "fire2/relu_expand3x3"
  type: "ReLU"
  bottom: "fire2/expand3x3"
  top: "fire2/expand3x3"
}
layer {
  name: "fire2/concat"
  type: "Concat"
  bottom: "fire2/expand1x1"
  bottom: "fire2/expand3x3"
  top: "fire2/concat"
}
layer {
  name: "fire3/squeeze1x1"
  type: "Convolution"
  bottom: "fire2/concat"
  top: "fire3/squeeze1x1"
  convolution_param {
    num_output: 16
    kernel_size: 1
    weight_filler {
      type: "xavier"
    }
  }
}
layer {
  name: "fire3/relu_squeeze1x1"
  type: "ReLU"
  bottom: "fire3/squeeze1x1"
  top: "fire3/squeeze1x1"
}
layer {
  name: "fire3/expand1x1"
  type: "Convolution"
  bottom: "fire3/squeeze1x1"
  top: "fire3/expand1x1"
  convolution_param {
    num_output: 64
    kernel_size: 1
    weight_filler {
      type: "xavier"
    }
  }
}
layer {
  name: "fire3/relu_expand1x1"
  type: "ReLU"
  bottom: "fire3/expand1x1"
  top: "fire3/expand1x1"
}
layer {
  name: "fire3/expand3x3"
  type: "Convolution"
  bottom: "fire3/squeeze1x1"
  top: "fire3/expand3x3"
  convolution_param {
    num_output: 64
    pad: 1
    kernel_size: 3
    weight_filler {
      type: "xavier"
    }
  }
}
layer {
  name: "fire3/relu_expand3x3"
  type: "ReLU"
  bottom: "fire3/expand3x3"
  top: "fire3/expand3x3"
}
layer {
  name: "fire3/concat"
  type: "Concat"
  bottom: "fire3/expand1x1"
  bottom: "fire3/expand3x3"
  top: "fire3/concat"
}
layer {
  name: "bypass_23"
  type: "Eltwise"
  bottom: "fire2/concat"
  bottom: "fire3/concat"
  top: "fire3_EltAdd"
}
layer {
  name: "fire4/squeeze1x1"
  type: "Convolution"
  bottom: "fire3_EltAdd"
  top: "fire4/squeeze1x1"
  convolution_param {
    num_output: 32
    kernel_size: 1
    weight_filler {
      type: "xavier"
    }
  }
}
layer {
  name: "fire4/relu_squeeze1x1"
  type: "ReLU"
  bottom: "fire4/squeeze1x1"
  top: "fire4/squeeze1x1"
}
layer {
  name: "fire4/expand1x1"
  type: "Convolution"
  bottom: "fire4/squeeze1x1"
  top: "fire4/expand1x1"
  convolution_param {
    num_output: 128
    kernel_size: 1
    weight_filler {
      type: "xavier"
    }
  }
}
layer {
  name: "fire4/relu_expand1x1"
  type: "ReLU"
  bottom: "fire4/expand1x1"
  top: "fire4/expand1x1"
}
layer {
  name: "fire4/expand3x3"
  type: "Convolution"
  bottom: "fire4/squeeze1x1"
  top: "fire4/expand3x3"
  convolution_param {
    num_output: 128
    pad: 1
    kernel_size: 3
    weight_filler {
      type: "xavier"
    }
  }
}
layer {
  name: "fire4/relu_expand3x3"
  type: "ReLU"
  bottom: "fire4/expand3x3"
  top: "fire4/expand3x3"
}
layer {
  name: "fire4/concat"
  type: "Concat"
  bottom: "fire4/expand1x1"
  bottom: "fire4/expand3x3"
  top: "fire4/concat"
}
layer {
  name: "pool4"
  type: "Pooling"
  bottom: "fire4/concat"
  top: "pool4"
  pooling_param {
    pool: MAX
    kernel_size: 3
    stride: 2
  }
}
layer {
  name: "fire5/squeeze1x1"
  type: "Convolution"
  bottom: "pool4"
  top: "fire5/squeeze1x1"
  convolution_param {
    num_output: 32
    kernel_size: 1
    weight_filler {
      type: "xavier"
    }
  }
}
layer {
  name: "fire5/relu_squeeze1x1"
  type: "ReLU"
  bottom: "fire5/squeeze1x1"
  top: "fire5/squeeze1x1"
}
layer {
  name: "fire5/expand1x1"
  type: "Convolution"
  bottom: "fire5/squeeze1x1"
  top: "fire5/expand1x1"
  convolution_param {
    num_output: 128
    kernel_size: 1
    weight_filler {
      type: "xavier"
    }
  }
}
layer {
  name: "fire5/relu_expand1x1"
  type: "ReLU"
  bottom: "fire5/expand1x1"
  top: "fire5/expand1x1"
}
layer {
  name: "fire5/expand3x3"
  type: "Convolution"
  bottom: "fire5/squeeze1x1"
  top: "fire5/expand3x3"
  convolution_param {
    num_output: 128
    pad: 1
    kernel_size: 3
    weight_filler {
      type: "xavier"
    }
  }
}
layer {
  name: "fire5/relu_expand3x3"
  type: "ReLU"
  bottom: "fire5/expand3x3"
  top: "fire5/expand3x3"
}
layer {
  name: "fire5/concat"
  type: "Concat"
  bottom: "fire5/expand1x1"
  bottom: "fire5/expand3x3"
  top: "fire5/concat"
}
layer {
  name: "bypass_45"
  type: "Eltwise"
  bottom: "pool4"
  bottom: "fire5/concat"
  top: "fire5_EltAdd"
}
layer {
  name: "fire6/squeeze1x1"
  type: "Convolution"
  bottom: "fire5_EltAdd"
  top: "fire6/squeeze1x1"
  convolution_param {
    num_output: 48
    kernel_size: 1
    weight_filler {
      type: "xavier"
    }
  }
}
layer {
  name: "fire6/relu_squeeze1x1"
  type: "ReLU"
  bottom: "fire6/squeeze1x1"
  top: "fire6/squeeze1x1"
}
layer {
  name: "fire6/expand1x1"
  type: "Convolution"
  bottom: "fire6/squeeze1x1"
  top: "fire6/expand1x1"
  convolution_param {
    num_output: 192
    kernel_size: 1
    weight_filler {
      type: "xavier"
    }
  }
}
layer {
  name: "fire6/relu_expand1x1"
  type: "ReLU"
  bottom: "fire6/expand1x1"
  top: "fire6/expand1x1"
}
layer {
  name: "fire6/expand3x3"
  type: "Convolution"
  bottom: "fire6/squeeze1x1"
  top: "fire6/expand3x3"
  convolution_param {
    num_output: 192
    pad: 1
    kernel_size: 3
    weight_filler {
      type: "xavier"
    }
  }
}
layer {
  name: "fire6/relu_expand3x3"
  type: "ReLU"
  bottom: "fire6/expand3x3"
  top: "fire6/expand3x3"
}
layer {
  name: "fire6/concat"
  type: "Concat"
  bottom: "fire6/expand1x1"
  bottom: "fire6/expand3x3"
  top: "fire6/concat"
}
layer {
  name: "fire7/squeeze1x1"
  type: "Convolution"
  bottom: "fire6/concat"
  top: "fire7/squeeze1x1"
  convolution_param {
    num_output: 48
    kernel_size: 1
    weight_filler {
      type: "xavier"
    }
  }
}
layer {
  name: "fire7/relu_squeeze1x1"
  type: "ReLU"
  bottom: "fire7/squeeze1x1"
  top: "fire7/squeeze1x1"
}
layer {
  name: "fire7/expand1x1"
  type: "Convolution"
  bottom: "fire7/squeeze1x1"
  top: "fire7/expand1x1"
  convolution_param {
    num_output: 192
    kernel_size: 1
    weight_filler {
      type: "xavier"
    }
  }
}
layer {
  name: "fire7/relu_expand1x1"
  type: "ReLU"
  bottom: "fire7/expand1x1"
  top: "fire7/expand1x1"
}
layer {
  name: "fire7/expand3x3"
  type: "Convolution"
  bottom: "fire7/squeeze1x1"
  top: "fire7/expand3x3"
  convolution_param {
    num_output: 192
    pad: 1
    kernel_size: 3
    weight_filler {
      type: "xavier"
    }
  }
}
layer {
  name: "fire7/relu_expand3x3"
  type: "ReLU"
  bottom: "fire7/expand3x3"
  top: "fire7/expand3x3"
}
layer {
  name: "fire7/concat"
  type: "Concat"
  bottom: "fire7/expand1x1"
  bottom: "fire7/expand3x3"
  top: "fire7/concat"
}
layer {
  name: "bypass_67"
  type: "Eltwise"
  bottom: "fire6/concat"
  bottom: "fire7/concat"
  top: "fire7_EltAdd"
}
layer {
  name: "fire8/squeeze1x1"
  type: "Convolution"
  bottom: "fire7_EltAdd"
  top: "fire8/squeeze1x1"
  convolution_param {
    num_output: 64
    kernel_size: 1
    weight_filler {
      type: "xavier"
    }
  }
}
layer {
  name: "fire8/relu_squeeze1x1"
  type: "ReLU"
  bottom: "fire8/squeeze1x1"
  top: "fire8/squeeze1x1"
}
layer {
  name: "fire8/expand1x1"
  type: "Convolution"
  bottom: "fire8/squeeze1x1"
  top: "fire8/expand1x1"
  convolution_param {
    num_output: 256
    kernel_size: 1
    weight_filler {
      type: "xavier"
    }
  }
}
layer {
  name: "fire8/relu_expand1x1"
  type: "ReLU"
  bottom: "fire8/expand1x1"
  top: "fire8/expand1x1"
}
layer {
  name: "fire8/expand3x3"
  type: "Convolution"
  bottom: "fire8/squeeze1x1"
  top: "fire8/expand3x3"
  convolution_param {
    num_output: 256
    pad: 1
    kernel_size: 3
    weight_filler {
      type: "xavier"
    }
  }
}
layer {
  name: "fire8/relu_expand3x3"
  type: "ReLU"
  bottom: "fire8/expand3x3"
  top: "fire8/expand3x3"
}
layer {
  name: "fire8/concat"
  type: "Concat"
  bottom: "fire8/expand1x1"
  bottom: "fire8/expand3x3"
  top: "fire8/concat"
}
layer {
  name: "pool8"
  type: "Pooling"
  bottom: "fire8/concat"
  top: "pool8"
  pooling_param {
    pool: MAX
    kernel_size: 3
    stride: 2
  }
}
layer {
  name: "fire9/squeeze1x1"
  type: "Convolution"
  bottom: "pool8"
  top: "fire9/squeeze1x1"
  convolution_param {
    num_output: 64
    kernel_size: 1
    weight_filler {
      type: "xavier"
    }
  }
}
layer {
  name: "fire9/relu_squeeze1x1"
  type: "ReLU"
  bottom: "fire9/squeeze1x1"
  top: "fire9/squeeze1x1"
}
layer {
  name: "fire9/expand1x1"
  type: "Convolution"
  bottom: "fire9/squeeze1x1"
  top: "fire9/expand1x1"
  convolution_param {
    num_output: 256
    kernel_size: 1
    weight_filler {
      type: "xavier"
    }
  }
}
layer {
  name: "fire9/relu_expand1x1"
  type: "ReLU"
  bottom: "fire9/expand1x1"
  top: "fire9/expand1x1"
}
layer {
  name: "fire9/expand3x3"
  type: "Convolution"
  bottom: "fire9/squeeze1x1"
  top: "fire9/expand3x3"
  convolution_param {
    num_output: 256
    pad: 1
    kernel_size: 3
    weight_filler {
      type: "xavier"
    }
  }
}
layer {
  name: "fire9/relu_expand3x3"
  type: "ReLU"
  bottom: "fire9/expand3x3"
  top: "fire9/expand3x3"
}
layer {
  name: "fire9/concat"
  type: "Concat"
  bottom: "fire9/expand1x1"
  bottom: "fire9/expand3x3"
  top: "fire9/concat"
}
layer {
  name: "bypass_89"
  type: "Eltwise"
  bottom: "pool8"
  bottom: "fire9/concat"
  top: "fire9_EltAdd"
}
layer {
  name: "drop9"
  type: "Dropout"
  bottom: "fire9_EltAdd"
  top: "fire9_EltAdd"
  dropout_param {
    dropout_ratio: 0.5
  }
}
layer {
  name: "conv10_2626"
  type: "Convolution"
  bottom: "fire9_EltAdd"
  top: "conv10_2626"
  param {
    lr_mult: 1
    decay_mult: 1
  }
  convolution_param {
    num_output: 2626
    kernel_size: 1
    weight_filler {
      type: "gaussian"
      mean: 0
      std: 0.01
    }
  }
}
layer {
  name: "relu_conv10"
  type: "ReLU"
  bottom: "conv10_2626"
  top: "conv10_2626"
}
layer {
  name: "pool10"
  type: "Pooling"
  bottom: "conv10_2626"
  top: "pool10"
  pooling_param {
    pool: AVE
    global_pooling: true
  }
}
layer {
  name: "loss"
  type: "SoftmaxWithLoss"
  bottom: "pool10"
  bottom: "label"
  top: "loss"
}
layer {
  name: "accuracy"
  type: "Accuracy"
  bottom: "pool10"
  bottom: "label"
  top: "accuracy"
  include {
    phase: TEST
  }
}
I1018 21:57:31.460788 83243 layer_factory.hpp:77] Creating layer data
I1018 21:57:31.460939 83243 net.cpp:100] Creating Layer data
I1018 21:57:31.460949 83243 net.cpp:408] data -> data
I1018 21:57:31.460964 83243 net.cpp:408] data -> label
I1018 21:57:31.460983 83243 data_transformer.cpp:25] Loading mean file from: /share/zhh/mean.binaryproto
I1018 21:57:31.463433 83263 db_lmdb.cpp:35] Opened lmdb /share/front/test_lmdb
I1018 21:57:31.464025 83243 data_layer.cpp:41] output data size: 100,3,227,227
I1018 21:57:31.562789 83243 net.cpp:150] Setting up data
I1018 21:57:31.562846 83243 net.cpp:157] Top shape: 100 3 227 227 (15458700)
I1018 21:57:31.562855 83243 net.cpp:157] Top shape: 100 (100)
I1018 21:57:31.562863 83243 net.cpp:165] Memory required for data: 61835200
I1018 21:57:31.562875 83243 layer_factory.hpp:77] Creating layer label_data_1_split
I1018 21:57:31.562893 83243 net.cpp:100] Creating Layer label_data_1_split
I1018 21:57:31.562902 83243 net.cpp:434] label_data_1_split <- label
I1018 21:57:31.562916 83243 net.cpp:408] label_data_1_split -> label_data_1_split_0
I1018 21:57:31.562932 83243 net.cpp:408] label_data_1_split -> label_data_1_split_1
I1018 21:57:31.563158 83243 net.cpp:150] Setting up label_data_1_split
I1018 21:57:31.563172 83243 net.cpp:157] Top shape: 100 (100)
I1018 21:57:31.563190 83243 net.cpp:157] Top shape: 100 (100)
I1018 21:57:31.563195 83243 net.cpp:165] Memory required for data: 61836000
I1018 21:57:31.563200 83243 layer_factory.hpp:77] Creating layer conv1
I1018 21:57:31.563220 83243 net.cpp:100] Creating Layer conv1
I1018 21:57:31.563226 83243 net.cpp:434] conv1 <- data
I1018 21:57:31.563235 83243 net.cpp:408] conv1 -> conv1
I1018 21:57:31.574580 83243 net.cpp:150] Setting up conv1
I1018 21:57:31.574689 83243 net.cpp:157] Top shape: 100 64 113 113 (81721600)
I1018 21:57:31.574724 83243 net.cpp:165] Memory required for data: 388722400
I1018 21:57:31.574823 83243 layer_factory.hpp:77] Creating layer relu_conv1
I1018 21:57:31.574882 83243 net.cpp:100] Creating Layer relu_conv1
I1018 21:57:31.574916 83243 net.cpp:434] relu_conv1 <- conv1
I1018 21:57:31.574964 83243 net.cpp:395] relu_conv1 -> conv1 (in-place)
I1018 21:57:31.575788 83243 net.cpp:150] Setting up relu_conv1
I1018 21:57:31.575830 83243 net.cpp:157] Top shape: 100 64 113 113 (81721600)
I1018 21:57:31.575858 83243 net.cpp:165] Memory required for data: 715608800
I1018 21:57:31.575880 83243 layer_factory.hpp:77] Creating layer pool1
I1018 21:57:31.575923 83243 net.cpp:100] Creating Layer pool1
I1018 21:57:31.575948 83243 net.cpp:434] pool1 <- conv1
I1018 21:57:31.575980 83243 net.cpp:408] pool1 -> pool1
I1018 21:57:31.576169 83243 net.cpp:150] Setting up pool1
I1018 21:57:31.576216 83243 net.cpp:157] Top shape: 100 64 56 56 (20070400)
I1018 21:57:31.576251 83243 net.cpp:165] Memory required for data: 795890400
I1018 21:57:31.576287 83243 layer_factory.hpp:77] Creating layer fire2/squeeze1x1
I1018 21:57:31.576340 83243 net.cpp:100] Creating Layer fire2/squeeze1x1
I1018 21:57:31.576381 83243 net.cpp:434] fire2/squeeze1x1 <- pool1
I1018 21:57:31.576424 83243 net.cpp:408] fire2/squeeze1x1 -> fire2/squeeze1x1
I1018 21:57:31.580783 83243 net.cpp:150] Setting up fire2/squeeze1x1
I1018 21:57:31.580837 83243 net.cpp:157] Top shape: 100 16 56 56 (5017600)
I1018 21:57:31.580852 83243 net.cpp:165] Memory required for data: 815960800
I1018 21:57:31.580890 83243 layer_factory.hpp:77] Creating layer fire2/relu_squeeze1x1
I1018 21:57:31.580921 83243 net.cpp:100] Creating Layer fire2/relu_squeeze1x1
I1018 21:57:31.580938 83243 net.cpp:434] fire2/relu_squeeze1x1 <- fire2/squeeze1x1
I1018 21:57:31.580961 83243 net.cpp:395] fire2/relu_squeeze1x1 -> fire2/squeeze1x1 (in-place)
I1018 21:57:31.581809 83243 net.cpp:150] Setting up fire2/relu_squeeze1x1
I1018 21:57:31.581848 83243 net.cpp:157] Top shape: 100 16 56 56 (5017600)
I1018 21:57:31.581863 83243 net.cpp:165] Memory required for data: 836031200
I1018 21:57:31.581879 83243 layer_factory.hpp:77] Creating layer fire2/squeeze1x1_fire2/relu_squeeze1x1_0_split
I1018 21:57:31.581902 83243 net.cpp:100] Creating Layer fire2/squeeze1x1_fire2/relu_squeeze1x1_0_split
I1018 21:57:31.581917 83243 net.cpp:434] fire2/squeeze1x1_fire2/relu_squeeze1x1_0_split <- fire2/squeeze1x1
I1018 21:57:31.581940 83243 net.cpp:408] fire2/squeeze1x1_fire2/relu_squeeze1x1_0_split -> fire2/squeeze1x1_fire2/relu_squeeze1x1_0_split_0
I1018 21:57:31.582100 83243 net.cpp:408] fire2/squeeze1x1_fire2/relu_squeeze1x1_0_split -> fire2/squeeze1x1_fire2/relu_squeeze1x1_0_split_1
I1018 21:57:31.582249 83243 net.cpp:150] Setting up fire2/squeeze1x1_fire2/relu_squeeze1x1_0_split
I1018 21:57:31.582275 83243 net.cpp:157] Top shape: 100 16 56 56 (5017600)
I1018 21:57:31.582294 83243 net.cpp:157] Top shape: 100 16 56 56 (5017600)
I1018 21:57:31.582322 83243 net.cpp:165] Memory required for data: 876172000
I1018 21:57:31.582337 83243 layer_factory.hpp:77] Creating layer fire2/expand1x1
I1018 21:57:31.582373 83243 net.cpp:100] Creating Layer fire2/expand1x1
I1018 21:57:31.582391 83243 net.cpp:434] fire2/expand1x1 <- fire2/squeeze1x1_fire2/relu_squeeze1x1_0_split_0
I1018 21:57:31.582417 83243 net.cpp:408] fire2/expand1x1 -> fire2/expand1x1
I1018 21:57:31.585167 83243 net.cpp:150] Setting up fire2/expand1x1
I1018 21:57:31.585225 83243 net.cpp:157] Top shape: 100 64 56 56 (20070400)
I1018 21:57:31.585240 83243 net.cpp:165] Memory required for data: 956453600
I1018 21:57:31.585279 83243 layer_factory.hpp:77] Creating layer fire2/relu_expand1x1
I1018 21:57:31.585307 83243 net.cpp:100] Creating Layer fire2/relu_expand1x1
I1018 21:57:31.585325 83243 net.cpp:434] fire2/relu_expand1x1 <- fire2/expand1x1
I1018 21:57:31.585348 83243 net.cpp:395] fire2/relu_expand1x1 -> fire2/expand1x1 (in-place)
I1018 21:57:31.585773 83243 net.cpp:150] Setting up fire2/relu_expand1x1
I1018 21:57:31.585804 83243 net.cpp:157] Top shape: 100 64 56 56 (20070400)
I1018 21:57:31.585818 83243 net.cpp:165] Memory required for data: 1036735200
I1018 21:57:31.585832 83243 layer_factory.hpp:77] Creating layer fire2/expand3x3
I1018 21:57:31.585865 83243 net.cpp:100] Creating Layer fire2/expand3x3
I1018 21:57:31.585882 83243 net.cpp:434] fire2/expand3x3 <- fire2/squeeze1x1_fire2/relu_squeeze1x1_0_split_1
I1018 21:57:31.585907 83243 net.cpp:408] fire2/expand3x3 -> fire2/expand3x3
I1018 21:57:31.588821 83243 net.cpp:150] Setting up fire2/expand3x3
I1018 21:57:31.588871 83243 net.cpp:157] Top shape: 100 64 56 56 (20070400)
I1018 21:57:31.588883 83243 net.cpp:165] Memory required for data: 1117016800
I1018 21:57:31.588909 83243 layer_factory.hpp:77] Creating layer fire2/relu_expand3x3
I1018 21:57:31.588934 83243 net.cpp:100] Creating Layer fire2/relu_expand3x3
I1018 21:57:31.588951 83243 net.cpp:434] fire2/relu_expand3x3 <- fire2/expand3x3
I1018 21:57:31.588973 83243 net.cpp:395] fire2/relu_expand3x3 -> fire2/expand3x3 (in-place)
I1018 21:57:31.589361 83243 net.cpp:150] Setting up fire2/relu_expand3x3
I1018 21:57:31.589390 83243 net.cpp:157] Top shape: 100 64 56 56 (20070400)
I1018 21:57:31.589402 83243 net.cpp:165] Memory required for data: 1197298400
I1018 21:57:31.589416 83243 layer_factory.hpp:77] Creating layer fire2/concat
I1018 21:57:31.589437 83243 net.cpp:100] Creating Layer fire2/concat
I1018 21:57:31.589450 83243 net.cpp:434] fire2/concat <- fire2/expand1x1
I1018 21:57:31.589470 83243 net.cpp:434] fire2/concat <- fire2/expand3x3
I1018 21:57:31.589489 83243 net.cpp:408] fire2/concat -> fire2/concat
I1018 21:57:31.589584 83243 net.cpp:150] Setting up fire2/concat
I1018 21:57:31.589607 83243 net.cpp:157] Top shape: 100 128 56 56 (40140800)
I1018 21:57:31.589618 83243 net.cpp:165] Memory required for data: 1357861600
I1018 21:57:31.589630 83243 layer_factory.hpp:77] Creating layer fire2/concat_fire2/concat_0_split
I1018 21:57:31.589648 83243 net.cpp:100] Creating Layer fire2/concat_fire2/concat_0_split
I1018 21:57:31.589663 83243 net.cpp:434] fire2/concat_fire2/concat_0_split <- fire2/concat
I1018 21:57:31.589687 83243 net.cpp:408] fire2/concat_fire2/concat_0_split -> fire2/concat_fire2/concat_0_split_0
I1018 21:57:31.589709 83243 net.cpp:408] fire2/concat_fire2/concat_0_split -> fire2/concat_fire2/concat_0_split_1
I1018 21:57:31.589819 83243 net.cpp:150] Setting up fire2/concat_fire2/concat_0_split
I1018 21:57:31.589840 83243 net.cpp:157] Top shape: 100 128 56 56 (40140800)
I1018 21:57:31.589856 83243 net.cpp:157] Top shape: 100 128 56 56 (40140800)
I1018 21:57:31.589907 83243 net.cpp:165] Memory required for data: 1678988000
I1018 21:57:31.589923 83243 layer_factory.hpp:77] Creating layer fire3/squeeze1x1
I1018 21:57:31.589953 83243 net.cpp:100] Creating Layer fire3/squeeze1x1
I1018 21:57:31.589972 83243 net.cpp:434] fire3/squeeze1x1 <- fire2/concat_fire2/concat_0_split_0
I1018 21:57:31.589994 83243 net.cpp:408] fire3/squeeze1x1 -> fire3/squeeze1x1
I1018 21:57:31.592947 83243 net.cpp:150] Setting up fire3/squeeze1x1
I1018 21:57:31.592998 83243 net.cpp:157] Top shape: 100 16 56 56 (5017600)
I1018 21:57:31.593009 83243 net.cpp:165] Memory required for data: 1699058400
I1018 21:57:31.593046 83243 layer_factory.hpp:77] Creating layer fire3/relu_squeeze1x1
I1018 21:57:31.593073 83243 net.cpp:100] Creating Layer fire3/relu_squeeze1x1
I1018 21:57:31.593091 83243 net.cpp:434] fire3/relu_squeeze1x1 <- fire3/squeeze1x1
I1018 21:57:31.593112 83243 net.cpp:395] fire3/relu_squeeze1x1 -> fire3/squeeze1x1 (in-place)
I1018 21:57:31.593935 83243 net.cpp:150] Setting up fire3/relu_squeeze1x1
I1018 21:57:31.593981 83243 net.cpp:157] Top shape: 100 16 56 56 (5017600)
I1018 21:57:31.593993 83243 net.cpp:165] Memory required for data: 1719128800
I1018 21:57:31.594007 83243 layer_factory.hpp:77] Creating layer fire3/squeeze1x1_fire3/relu_squeeze1x1_0_split
I1018 21:57:31.594034 83243 net.cpp:100] Creating Layer fire3/squeeze1x1_fire3/relu_squeeze1x1_0_split
I1018 21:57:31.594050 83243 net.cpp:434] fire3/squeeze1x1_fire3/relu_squeeze1x1_0_split <- fire3/squeeze1x1
I1018 21:57:31.594074 83243 net.cpp:408] fire3/squeeze1x1_fire3/relu_squeeze1x1_0_split -> fire3/squeeze1x1_fire3/relu_squeeze1x1_0_split_0
I1018 21:57:31.594101 83243 net.cpp:408] fire3/squeeze1x1_fire3/relu_squeeze1x1_0_split -> fire3/squeeze1x1_fire3/relu_squeeze1x1_0_split_1
I1018 21:57:31.594245 83243 net.cpp:150] Setting up fire3/squeeze1x1_fire3/relu_squeeze1x1_0_split
I1018 21:57:31.594269 83243 net.cpp:157] Top shape: 100 16 56 56 (5017600)
I1018 21:57:31.594286 83243 net.cpp:157] Top shape: 100 16 56 56 (5017600)
I1018 21:57:31.594300 83243 net.cpp:165] Memory required for data: 1759269600
I1018 21:57:31.594312 83243 layer_factory.hpp:77] Creating layer fire3/expand1x1
I1018 21:57:31.594342 83243 net.cpp:100] Creating Layer fire3/expand1x1
I1018 21:57:31.594365 83243 net.cpp:434] fire3/expand1x1 <- fire3/squeeze1x1_fire3/relu_squeeze1x1_0_split_0
I1018 21:57:31.594388 83243 net.cpp:408] fire3/expand1x1 -> fire3/expand1x1
I1018 21:57:31.596947 83243 net.cpp:150] Setting up fire3/expand1x1
I1018 21:57:31.596997 83243 net.cpp:157] Top shape: 100 64 56 56 (20070400)
I1018 21:57:31.597010 83243 net.cpp:165] Memory required for data: 1839551200
I1018 21:57:31.597035 83243 layer_factory.hpp:77] Creating layer fire3/relu_expand1x1
I1018 21:57:31.597061 83243 net.cpp:100] Creating Layer fire3/relu_expand1x1
I1018 21:57:31.597077 83243 net.cpp:434] fire3/relu_expand1x1 <- fire3/expand1x1
I1018 21:57:31.597100 83243 net.cpp:395] fire3/relu_expand1x1 -> fire3/expand1x1 (in-place)
I1018 21:57:31.597487 83243 net.cpp:150] Setting up fire3/relu_expand1x1
I1018 21:57:31.597517 83243 net.cpp:157] Top shape: 100 64 56 56 (20070400)
I1018 21:57:31.597529 83243 net.cpp:165] Memory required for data: 1919832800
I1018 21:57:31.597543 83243 layer_factory.hpp:77] Creating layer fire3/expand3x3
I1018 21:57:31.597574 83243 net.cpp:100] Creating Layer fire3/expand3x3
I1018 21:57:31.597589 83243 net.cpp:434] fire3/expand3x3 <- fire3/squeeze1x1_fire3/relu_squeeze1x1_0_split_1
I1018 21:57:31.597614 83243 net.cpp:408] fire3/expand3x3 -> fire3/expand3x3
I1018 21:57:31.600278 83243 net.cpp:150] Setting up fire3/expand3x3
I1018 21:57:31.600328 83243 net.cpp:157] Top shape: 100 64 56 56 (20070400)
I1018 21:57:31.600352 83243 net.cpp:165] Memory required for data: 2000114400
I1018 21:57:31.600374 83243 layer_factory.hpp:77] Creating layer fire3/relu_expand3x3
I1018 21:57:31.600399 83243 net.cpp:100] Creating Layer fire3/relu_expand3x3
I1018 21:57:31.600414 83243 net.cpp:434] fire3/relu_expand3x3 <- fire3/expand3x3
I1018 21:57:31.600469 83243 net.cpp:395] fire3/relu_expand3x3 -> fire3/expand3x3 (in-place)
I1018 21:57:31.600847 83243 net.cpp:150] Setting up fire3/relu_expand3x3
I1018 21:57:31.600873 83243 net.cpp:157] Top shape: 100 64 56 56 (20070400)
I1018 21:57:31.600885 83243 net.cpp:165] Memory required for data: 2080396000
I1018 21:57:31.600899 83243 layer_factory.hpp:77] Creating layer fire3/concat
I1018 21:57:31.600919 83243 net.cpp:100] Creating Layer fire3/concat
I1018 21:57:31.600934 83243 net.cpp:434] fire3/concat <- fire3/expand1x1
I1018 21:57:31.600950 83243 net.cpp:434] fire3/concat <- fire3/expand3x3
I1018 21:57:31.600967 83243 net.cpp:408] fire3/concat -> fire3/concat
I1018 21:57:31.601048 83243 net.cpp:150] Setting up fire3/concat
I1018 21:57:31.601068 83243 net.cpp:157] Top shape: 100 128 56 56 (40140800)
I1018 21:57:31.601080 83243 net.cpp:165] Memory required for data: 2240959200
I1018 21:57:31.601091 83243 layer_factory.hpp:77] Creating layer bypass_23
I1018 21:57:31.601109 83243 net.cpp:100] Creating Layer bypass_23
I1018 21:57:31.601122 83243 net.cpp:434] bypass_23 <- fire2/concat_fire2/concat_0_split_1
I1018 21:57:31.601138 83243 net.cpp:434] bypass_23 <- fire3/concat
I1018 21:57:31.601155 83243 net.cpp:408] bypass_23 -> fire3_EltAdd
I1018 21:57:31.601225 83243 net.cpp:150] Setting up bypass_23
I1018 21:57:31.601245 83243 net.cpp:157] Top shape: 100 128 56 56 (40140800)
I1018 21:57:31.601258 83243 net.cpp:165] Memory required for data: 2401522400
I1018 21:57:31.601269 83243 layer_factory.hpp:77] Creating layer fire4/squeeze1x1
I1018 21:57:31.601295 83243 net.cpp:100] Creating Layer fire4/squeeze1x1
I1018 21:57:31.601312 83243 net.cpp:434] fire4/squeeze1x1 <- fire3_EltAdd
I1018 21:57:31.601332 83243 net.cpp:408] fire4/squeeze1x1 -> fire4/squeeze1x1
I1018 21:57:31.603682 83243 net.cpp:150] Setting up fire4/squeeze1x1
I1018 21:57:31.603727 83243 net.cpp:157] Top shape: 100 32 56 56 (10035200)
I1018 21:57:31.603739 83243 net.cpp:165] Memory required for data: 2441663200
I1018 21:57:31.603763 83243 layer_factory.hpp:77] Creating layer fire4/relu_squeeze1x1
I1018 21:57:31.603786 83243 net.cpp:100] Creating Layer fire4/relu_squeeze1x1
I1018 21:57:31.603801 83243 net.cpp:434] fire4/relu_squeeze1x1 <- fire4/squeeze1x1
I1018 21:57:31.603822 83243 net.cpp:395] fire4/relu_squeeze1x1 -> fire4/squeeze1x1 (in-place)
I1018 21:57:31.604578 83243 net.cpp:150] Setting up fire4/relu_squeeze1x1
I1018 21:57:31.604619 83243 net.cpp:157] Top shape: 100 32 56 56 (10035200)
I1018 21:57:31.604630 83243 net.cpp:165] Memory required for data: 2481804000
I1018 21:57:31.604643 83243 layer_factory.hpp:77] Creating layer fire4/squeeze1x1_fire4/relu_squeeze1x1_0_split
I1018 21:57:31.604662 83243 net.cpp:100] Creating Layer fire4/squeeze1x1_fire4/relu_squeeze1x1_0_split
I1018 21:57:31.604676 83243 net.cpp:434] fire4/squeeze1x1_fire4/relu_squeeze1x1_0_split <- fire4/squeeze1x1
I1018 21:57:31.604697 83243 net.cpp:408] fire4/squeeze1x1_fire4/relu_squeeze1x1_0_split -> fire4/squeeze1x1_fire4/relu_squeeze1x1_0_split_0
I1018 21:57:31.604728 83243 net.cpp:408] fire4/squeeze1x1_fire4/relu_squeeze1x1_0_split -> fire4/squeeze1x1_fire4/relu_squeeze1x1_0_split_1
I1018 21:57:31.604856 83243 net.cpp:150] Setting up fire4/squeeze1x1_fire4/relu_squeeze1x1_0_split
I1018 21:57:31.604876 83243 net.cpp:157] Top shape: 100 32 56 56 (10035200)
I1018 21:57:31.604892 83243 net.cpp:157] Top shape: 100 32 56 56 (10035200)
I1018 21:57:31.604903 83243 net.cpp:165] Memory required for data: 2562085600
I1018 21:57:31.604915 83243 layer_factory.hpp:77] Creating layer fire4/expand1x1
I1018 21:57:31.604943 83243 net.cpp:100] Creating Layer fire4/expand1x1
I1018 21:57:31.604962 83243 net.cpp:434] fire4/expand1x1 <- fire4/squeeze1x1_fire4/relu_squeeze1x1_0_split_0
I1018 21:57:31.604984 83243 net.cpp:408] fire4/expand1x1 -> fire4/expand1x1
I1018 21:57:31.607453 83243 net.cpp:150] Setting up fire4/expand1x1
I1018 21:57:31.607499 83243 net.cpp:157] Top shape: 100 128 56 56 (40140800)
I1018 21:57:31.607511 83243 net.cpp:165] Memory required for data: 2722648800
I1018 21:57:31.607548 83243 layer_factory.hpp:77] Creating layer fire4/relu_expand1x1
I1018 21:57:31.607617 83243 net.cpp:100] Creating Layer fire4/relu_expand1x1
I1018 21:57:31.607640 83243 net.cpp:434] fire4/relu_expand1x1 <- fire4/expand1x1
I1018 21:57:31.607662 83243 net.cpp:395] fire4/relu_expand1x1 -> fire4/expand1x1 (in-place)
I1018 21:57:31.608058 83243 net.cpp:150] Setting up fire4/relu_expand1x1
I1018 21:57:31.608091 83243 net.cpp:157] Top shape: 100 128 56 56 (40140800)
I1018 21:57:31.608103 83243 net.cpp:165] Memory required for data: 2883212000
I1018 21:57:31.608116 83243 layer_factory.hpp:77] Creating layer fire4/expand3x3
I1018 21:57:31.608145 83243 net.cpp:100] Creating Layer fire4/expand3x3
I1018 21:57:31.608162 83243 net.cpp:434] fire4/expand3x3 <- fire4/squeeze1x1_fire4/relu_squeeze1x1_0_split_1
I1018 21:57:31.608184 83243 net.cpp:408] fire4/expand3x3 -> fire4/expand3x3
I1018 21:57:31.611383 83243 net.cpp:150] Setting up fire4/expand3x3
I1018 21:57:31.611434 83243 net.cpp:157] Top shape: 100 128 56 56 (40140800)
I1018 21:57:31.611446 83243 net.cpp:165] Memory required for data: 3043775200
I1018 21:57:31.611470 83243 layer_factory.hpp:77] Creating layer fire4/relu_expand3x3
I1018 21:57:31.611495 83243 net.cpp:100] Creating Layer fire4/relu_expand3x3
I1018 21:57:31.611541 83243 net.cpp:434] fire4/relu_expand3x3 <- fire4/expand3x3
I1018 21:57:31.611563 83243 net.cpp:395] fire4/relu_expand3x3 -> fire4/expand3x3 (in-place)
I1018 21:57:31.611938 83243 net.cpp:150] Setting up fire4/relu_expand3x3
I1018 21:57:31.611965 83243 net.cpp:157] Top shape: 100 128 56 56 (40140800)
I1018 21:57:31.611977 83243 net.cpp:165] Memory required for data: 3204338400
I1018 21:57:31.611989 83243 layer_factory.hpp:77] Creating layer fire4/concat
I1018 21:57:31.612007 83243 net.cpp:100] Creating Layer fire4/concat
I1018 21:57:31.612020 83243 net.cpp:434] fire4/concat <- fire4/expand1x1
I1018 21:57:31.612037 83243 net.cpp:434] fire4/concat <- fire4/expand3x3
I1018 21:57:31.612056 83243 net.cpp:408] fire4/concat -> fire4/concat
I1018 21:57:31.612145 83243 net.cpp:150] Setting up fire4/concat
I1018 21:57:31.612166 83243 net.cpp:157] Top shape: 100 256 56 56 (80281600)
I1018 21:57:31.612179 83243 net.cpp:165] Memory required for data: 3525464800
I1018 21:57:31.612190 83243 layer_factory.hpp:77] Creating layer pool4
I1018 21:57:31.612231 83243 net.cpp:100] Creating Layer pool4
I1018 21:57:31.612246 83243 net.cpp:434] pool4 <- fire4/concat
I1018 21:57:31.612263 83243 net.cpp:408] pool4 -> pool4
I1018 21:57:31.612375 83243 net.cpp:150] Setting up pool4
I1018 21:57:31.612393 83243 net.cpp:157] Top shape: 100 256 28 28 (20070400)
I1018 21:57:31.612406 83243 net.cpp:165] Memory required for data: 3605746400
I1018 21:57:31.612416 83243 layer_factory.hpp:77] Creating layer pool4_pool4_0_split
I1018 21:57:31.612442 83243 net.cpp:100] Creating Layer pool4_pool4_0_split
I1018 21:57:31.612458 83243 net.cpp:434] pool4_pool4_0_split <- pool4
I1018 21:57:31.612478 83243 net.cpp:408] pool4_pool4_0_split -> pool4_pool4_0_split_0
I1018 21:57:31.612498 83243 net.cpp:408] pool4_pool4_0_split -> pool4_pool4_0_split_1
I1018 21:57:31.612596 83243 net.cpp:150] Setting up pool4_pool4_0_split
I1018 21:57:31.612613 83243 net.cpp:157] Top shape: 100 256 28 28 (20070400)
I1018 21:57:31.612627 83243 net.cpp:157] Top shape: 100 256 28 28 (20070400)
I1018 21:57:31.612637 83243 net.cpp:165] Memory required for data: 3766309600
I1018 21:57:31.612648 83243 layer_factory.hpp:77] Creating layer fire5/squeeze1x1
I1018 21:57:31.612673 83243 net.cpp:100] Creating Layer fire5/squeeze1x1
I1018 21:57:31.612689 83243 net.cpp:434] fire5/squeeze1x1 <- pool4_pool4_0_split_0
I1018 21:57:31.612707 83243 net.cpp:408] fire5/squeeze1x1 -> fire5/squeeze1x1
I1018 21:57:31.615226 83243 net.cpp:150] Setting up fire5/squeeze1x1
I1018 21:57:31.615268 83243 net.cpp:157] Top shape: 100 32 28 28 (2508800)
I1018 21:57:31.615279 83243 net.cpp:165] Memory required for data: 3776344800
I1018 21:57:31.615301 83243 layer_factory.hpp:77] Creating layer fire5/relu_squeeze1x1
I1018 21:57:31.615334 83243 net.cpp:100] Creating Layer fire5/relu_squeeze1x1
I1018 21:57:31.615384 83243 net.cpp:434] fire5/relu_squeeze1x1 <- fire5/squeeze1x1
I1018 21:57:31.615408 83243 net.cpp:395] fire5/relu_squeeze1x1 -> fire5/squeeze1x1 (in-place)
I1018 21:57:31.616156 83243 net.cpp:150] Setting up fire5/relu_squeeze1x1
I1018 21:57:31.616189 83243 net.cpp:157] Top shape: 100 32 28 28 (2508800)
I1018 21:57:31.616216 83243 net.cpp:165] Memory required for data: 3786380000
I1018 21:57:31.616240 83243 layer_factory.hpp:77] Creating layer fire5/squeeze1x1_fire5/relu_squeeze1x1_0_split
I1018 21:57:31.616257 83243 net.cpp:100] Creating Layer fire5/squeeze1x1_fire5/relu_squeeze1x1_0_split
I1018 21:57:31.616271 83243 net.cpp:434] fire5/squeeze1x1_fire5/relu_squeeze1x1_0_split <- fire5/squeeze1x1
I1018 21:57:31.616302 83243 net.cpp:408] fire5/squeeze1x1_fire5/relu_squeeze1x1_0_split -> fire5/squeeze1x1_fire5/relu_squeeze1x1_0_split_0
I1018 21:57:31.616345 83243 net.cpp:408] fire5/squeeze1x1_fire5/relu_squeeze1x1_0_split -> fire5/squeeze1x1_fire5/relu_squeeze1x1_0_split_1
I1018 21:57:31.616485 83243 net.cpp:150] Setting up fire5/squeeze1x1_fire5/relu_squeeze1x1_0_split
I1018 21:57:31.616506 83243 net.cpp:157] Top shape: 100 32 28 28 (2508800)
I1018 21:57:31.616525 83243 net.cpp:157] Top shape: 100 32 28 28 (2508800)
I1018 21:57:31.616536 83243 net.cpp:165] Memory required for data: 3806450400
I1018 21:57:31.616547 83243 layer_factory.hpp:77] Creating layer fire5/expand1x1
I1018 21:57:31.616574 83243 net.cpp:100] Creating Layer fire5/expand1x1
I1018 21:57:31.616590 83243 net.cpp:434] fire5/expand1x1 <- fire5/squeeze1x1_fire5/relu_squeeze1x1_0_split_0
I1018 21:57:31.616612 83243 net.cpp:408] fire5/expand1x1 -> fire5/expand1x1
I1018 21:57:31.619359 83243 net.cpp:150] Setting up fire5/expand1x1
I1018 21:57:31.619400 83243 net.cpp:157] Top shape: 100 128 28 28 (10035200)
I1018 21:57:31.619413 83243 net.cpp:165] Memory required for data: 3846591200
I1018 21:57:31.619434 83243 layer_factory.hpp:77] Creating layer fire5/relu_expand1x1
I1018 21:57:31.619457 83243 net.cpp:100] Creating Layer fire5/relu_expand1x1
I1018 21:57:31.619470 83243 net.cpp:434] fire5/relu_expand1x1 <- fire5/expand1x1
I1018 21:57:31.619489 83243 net.cpp:395] fire5/relu_expand1x1 -> fire5/expand1x1 (in-place)
I1018 21:57:31.619841 83243 net.cpp:150] Setting up fire5/relu_expand1x1
I1018 21:57:31.619865 83243 net.cpp:157] Top shape: 100 128 28 28 (10035200)
I1018 21:57:31.619876 83243 net.cpp:165] Memory required for data: 3886732000
I1018 21:57:31.619887 83243 layer_factory.hpp:77] Creating layer fire5/expand3x3
I1018 21:57:31.619916 83243 net.cpp:100] Creating Layer fire5/expand3x3
I1018 21:57:31.619937 83243 net.cpp:434] fire5/expand3x3 <- fire5/squeeze1x1_fire5/relu_squeeze1x1_0_split_1
I1018 21:57:31.619957 83243 net.cpp:408] fire5/expand3x3 -> fire5/expand3x3
I1018 21:57:31.623726 83243 net.cpp:150] Setting up fire5/expand3x3
I1018 21:57:31.623769 83243 net.cpp:157] Top shape: 100 128 28 28 (10035200)
I1018 21:57:31.623781 83243 net.cpp:165] Memory required for data: 3926872800
I1018 21:57:31.623802 83243 layer_factory.hpp:77] Creating layer fire5/relu_expand3x3
I1018 21:57:31.623828 83243 net.cpp:100] Creating Layer fire5/relu_expand3x3
I1018 21:57:31.623844 83243 net.cpp:434] fire5/relu_expand3x3 <- fire5/expand3x3
I1018 21:57:31.623864 83243 net.cpp:395] fire5/relu_expand3x3 -> fire5/expand3x3 (in-place)
I1018 21:57:31.624238 83243 net.cpp:150] Setting up fire5/relu_expand3x3
I1018 21:57:31.624265 83243 net.cpp:157] Top shape: 100 128 28 28 (10035200)
I1018 21:57:31.624277 83243 net.cpp:165] Memory required for data: 3967013600
I1018 21:57:31.624294 83243 layer_factory.hpp:77] Creating layer fire5/concat
I1018 21:57:31.624310 83243 net.cpp:100] Creating Layer fire5/concat
I1018 21:57:31.624323 83243 net.cpp:434] fire5/concat <- fire5/expand1x1
I1018 21:57:31.624338 83243 net.cpp:434] fire5/concat <- fire5/expand3x3
I1018 21:57:31.624356 83243 net.cpp:408] fire5/concat -> fire5/concat
I1018 21:57:31.624434 83243 net.cpp:150] Setting up fire5/concat
I1018 21:57:31.624454 83243 net.cpp:157] Top shape: 100 256 28 28 (20070400)
I1018 21:57:31.624500 83243 net.cpp:165] Memory required for data: 4047295200
I1018 21:57:31.624512 83243 layer_factory.hpp:77] Creating layer bypass_45
I1018 21:57:31.624532 83243 net.cpp:100] Creating Layer bypass_45
I1018 21:57:31.624546 83243 net.cpp:434] bypass_45 <- pool4_pool4_0_split_1
I1018 21:57:31.624562 83243 net.cpp:434] bypass_45 <- fire5/concat
I1018 21:57:31.624586 83243 net.cpp:408] bypass_45 -> fire5_EltAdd
I1018 21:57:31.624677 83243 net.cpp:150] Setting up bypass_45
I1018 21:57:31.624696 83243 net.cpp:157] Top shape: 100 256 28 28 (20070400)
I1018 21:57:31.624706 83243 net.cpp:165] Memory required for data: 4127576800
I1018 21:57:31.624716 83243 layer_factory.hpp:77] Creating layer fire6/squeeze1x1
I1018 21:57:31.624744 83243 net.cpp:100] Creating Layer fire6/squeeze1x1
I1018 21:57:31.624758 83243 net.cpp:434] fire6/squeeze1x1 <- fire5_EltAdd
I1018 21:57:31.624774 83243 net.cpp:408] fire6/squeeze1x1 -> fire6/squeeze1x1
I1018 21:57:31.627029 83243 net.cpp:150] Setting up fire6/squeeze1x1
I1018 21:57:31.627068 83243 net.cpp:157] Top shape: 100 48 28 28 (3763200)
I1018 21:57:31.627079 83243 net.cpp:165] Memory required for data: 4142629600
I1018 21:57:31.627097 83243 layer_factory.hpp:77] Creating layer fire6/relu_squeeze1x1
I1018 21:57:31.627120 83243 net.cpp:100] Creating Layer fire6/relu_squeeze1x1
I1018 21:57:31.627132 83243 net.cpp:434] fire6/relu_squeeze1x1 <- fire6/squeeze1x1
I1018 21:57:31.627148 83243 net.cpp:395] fire6/relu_squeeze1x1 -> fire6/squeeze1x1 (in-place)
I1018 21:57:31.627795 83243 net.cpp:150] Setting up fire6/relu_squeeze1x1
I1018 21:57:31.627821 83243 net.cpp:157] Top shape: 100 48 28 28 (3763200)
I1018 21:57:31.627832 83243 net.cpp:165] Memory required for data: 4157682400
I1018 21:57:31.627843 83243 layer_factory.hpp:77] Creating layer fire6/squeeze1x1_fire6/relu_squeeze1x1_0_split
I1018 21:57:31.627859 83243 net.cpp:100] Creating Layer fire6/squeeze1x1_fire6/relu_squeeze1x1_0_split
I1018 21:57:31.627871 83243 net.cpp:434] fire6/squeeze1x1_fire6/relu_squeeze1x1_0_split <- fire6/squeeze1x1
I1018 21:57:31.627890 83243 net.cpp:408] fire6/squeeze1x1_fire6/relu_squeeze1x1_0_split -> fire6/squeeze1x1_fire6/relu_squeeze1x1_0_split_0
I1018 21:57:31.627912 83243 net.cpp:408] fire6/squeeze1x1_fire6/relu_squeeze1x1_0_split -> fire6/squeeze1x1_fire6/relu_squeeze1x1_0_split_1
I1018 21:57:31.628017 83243 net.cpp:150] Setting up fire6/squeeze1x1_fire6/relu_squeeze1x1_0_split
I1018 21:57:31.628036 83243 net.cpp:157] Top shape: 100 48 28 28 (3763200)
I1018 21:57:31.628058 83243 net.cpp:157] Top shape: 100 48 28 28 (3763200)
I1018 21:57:31.628068 83243 net.cpp:165] Memory required for data: 4187788000
I1018 21:57:31.628078 83243 layer_factory.hpp:77] Creating layer fire6/expand1x1
I1018 21:57:31.628110 83243 net.cpp:100] Creating Layer fire6/expand1x1
I1018 21:57:31.628124 83243 net.cpp:434] fire6/expand1x1 <- fire6/squeeze1x1_fire6/relu_squeeze1x1_0_split_0
I1018 21:57:31.628142 83243 net.cpp:408] fire6/expand1x1 -> fire6/expand1x1
I1018 21:57:31.631538 83243 net.cpp:150] Setting up fire6/expand1x1
I1018 21:57:31.631629 83243 net.cpp:157] Top shape: 100 192 28 28 (15052800)
I1018 21:57:31.631670 83243 net.cpp:165] Memory required for data: 4247999200
I1018 21:57:31.631733 83243 layer_factory.hpp:77] Creating layer fire6/relu_expand1x1
I1018 21:57:31.631781 83243 net.cpp:100] Creating Layer fire6/relu_expand1x1
I1018 21:57:31.631824 83243 net.cpp:434] fire6/relu_expand1x1 <- fire6/expand1x1
I1018 21:57:31.631868 83243 net.cpp:395] fire6/relu_expand1x1 -> fire6/expand1x1 (in-place)
I1018 21:57:31.632639 83243 net.cpp:150] Setting up fire6/relu_expand1x1
I1018 21:57:31.632696 83243 net.cpp:157] Top shape: 100 192 28 28 (15052800)
I1018 21:57:31.632727 83243 net.cpp:165] Memory required for data: 4308210400
I1018 21:57:31.632760 83243 layer_factory.hpp:77] Creating layer fire6/expand3x3
I1018 21:57:31.632824 83243 net.cpp:100] Creating Layer fire6/expand3x3
I1018 21:57:31.632859 83243 net.cpp:434] fire6/expand3x3 <- fire6/squeeze1x1_fire6/relu_squeeze1x1_0_split_1
I1018 21:57:31.632915 83243 net.cpp:408] fire6/expand3x3 -> fire6/expand3x3
I1018 21:57:31.643259 83243 net.cpp:150] Setting up fire6/expand3x3
I1018 21:57:31.643342 83243 net.cpp:157] Top shape: 100 192 28 28 (15052800)
I1018 21:57:31.643365 83243 net.cpp:165] Memory required for data: 4368421600
I1018 21:57:31.643416 83243 layer_factory.hpp:77] Creating layer fire6/relu_expand3x3
I1018 21:57:31.643471 83243 net.cpp:100] Creating Layer fire6/relu_expand3x3
I1018 21:57:31.643501 83243 net.cpp:434] fire6/relu_expand3x3 <- fire6/expand3x3
I1018 21:57:31.643548 83243 net.cpp:395] fire6/relu_expand3x3 -> fire6/expand3x3 (in-place)
I1018 21:57:31.644227 83243 net.cpp:150] Setting up fire6/relu_expand3x3
I1018 21:57:31.644249 83243 net.cpp:157] Top shape: 100 192 28 28 (15052800)
I1018 21:57:31.644289 83243 net.cpp:165] Memory required for data: 4428632800
I1018 21:57:31.644331 83243 layer_factory.hpp:77] Creating layer fire6/concat
I1018 21:57:31.644368 83243 net.cpp:100] Creating Layer fire6/concat
I1018 21:57:31.644388 83243 net.cpp:434] fire6/concat <- fire6/expand1x1
I1018 21:57:31.644402 83243 net.cpp:434] fire6/concat <- fire6/expand3x3
I1018 21:57:31.644433 83243 net.cpp:408] fire6/concat -> fire6/concat
I1018 21:57:31.644533 83243 net.cpp:150] Setting up fire6/concat
I1018 21:57:31.644577 83243 net.cpp:157] Top shape: 100 384 28 28 (30105600)
I1018 21:57:31.644587 83243 net.cpp:165] Memory required for data: 4549055200
I1018 21:57:31.644598 83243 layer_factory.hpp:77] Creating layer fire6/concat_fire6/concat_0_split
I1018 21:57:31.644632 83243 net.cpp:100] Creating Layer fire6/concat_fire6/concat_0_split
I1018 21:57:31.644642 83243 net.cpp:434] fire6/concat_fire6/concat_0_split <- fire6/concat
I1018 21:57:31.644685 83243 net.cpp:408] fire6/concat_fire6/concat_0_split -> fire6/concat_fire6/concat_0_split_0
I1018 21:57:31.644708 83243 net.cpp:408] fire6/concat_fire6/concat_0_split -> fire6/concat_fire6/concat_0_split_1
I1018 21:57:31.645689 83243 net.cpp:150] Setting up fire6/concat_fire6/concat_0_split
I1018 21:57:31.645733 83243 net.cpp:157] Top shape: 100 384 28 28 (30105600)
I1018 21:57:31.645767 83243 net.cpp:157] Top shape: 100 384 28 28 (30105600)
I1018 21:57:31.645787 83243 net.cpp:165] Memory required for data: 4789900000
I1018 21:57:31.645814 83243 layer_factory.hpp:77] Creating layer fire7/squeeze1x1
I1018 21:57:31.645871 83243 net.cpp:100] Creating Layer fire7/squeeze1x1
I1018 21:57:31.645900 83243 net.cpp:434] fire7/squeeze1x1 <- fire6/concat_fire6/concat_0_split_0
I1018 21:57:31.645938 83243 net.cpp:408] fire7/squeeze1x1 -> fire7/squeeze1x1
I1018 21:57:31.649794 83243 net.cpp:150] Setting up fire7/squeeze1x1
I1018 21:57:31.649822 83243 net.cpp:157] Top shape: 100 48 28 28 (3763200)
I1018 21:57:31.649833 83243 net.cpp:165] Memory required for data: 4804952800
I1018 21:57:31.649870 83243 layer_factory.hpp:77] Creating layer fire7/relu_squeeze1x1
I1018 21:57:31.649891 83243 net.cpp:100] Creating Layer fire7/relu_squeeze1x1
I1018 21:57:31.649915 83243 net.cpp:434] fire7/relu_squeeze1x1 <- fire7/squeeze1x1
I1018 21:57:31.649931 83243 net.cpp:395] fire7/relu_squeeze1x1 -> fire7/squeeze1x1 (in-place)
I1018 21:57:31.650478 83243 net.cpp:150] Setting up fire7/relu_squeeze1x1
I1018 21:57:31.650501 83243 net.cpp:157] Top shape: 100 48 28 28 (3763200)
I1018 21:57:31.650511 83243 net.cpp:165] Memory required for data: 4820005600
I1018 21:57:31.650521 83243 layer_factory.hpp:77] Creating layer fire7/squeeze1x1_fire7/relu_squeeze1x1_0_split
I1018 21:57:31.650535 83243 net.cpp:100] Creating Layer fire7/squeeze1x1_fire7/relu_squeeze1x1_0_split
I1018 21:57:31.650545 83243 net.cpp:434] fire7/squeeze1x1_fire7/relu_squeeze1x1_0_split <- fire7/squeeze1x1
I1018 21:57:31.650563 83243 net.cpp:408] fire7/squeeze1x1_fire7/relu_squeeze1x1_0_split -> fire7/squeeze1x1_fire7/relu_squeeze1x1_0_split_0
I1018 21:57:31.650581 83243 net.cpp:408] fire7/squeeze1x1_fire7/relu_squeeze1x1_0_split -> fire7/squeeze1x1_fire7/relu_squeeze1x1_0_split_1
I1018 21:57:31.650676 83243 net.cpp:150] Setting up fire7/squeeze1x1_fire7/relu_squeeze1x1_0_split
I1018 21:57:31.650692 83243 net.cpp:157] Top shape: 100 48 28 28 (3763200)
I1018 21:57:31.650732 83243 net.cpp:157] Top shape: 100 48 28 28 (3763200)
I1018 21:57:31.650780 83243 net.cpp:165] Memory required for data: 4850111200
I1018 21:57:31.650790 83243 layer_factory.hpp:77] Creating layer fire7/expand1x1
I1018 21:57:31.650815 83243 net.cpp:100] Creating Layer fire7/expand1x1
I1018 21:57:31.650828 83243 net.cpp:434] fire7/expand1x1 <- fire7/squeeze1x1_fire7/relu_squeeze1x1_0_split_0
I1018 21:57:31.650846 83243 net.cpp:408] fire7/expand1x1 -> fire7/expand1x1
I1018 21:57:31.652964 83243 net.cpp:150] Setting up fire7/expand1x1
I1018 21:57:31.653017 83243 net.cpp:157] Top shape: 100 192 28 28 (15052800)
I1018 21:57:31.653028 83243 net.cpp:165] Memory required for data: 4910322400
I1018 21:57:31.653048 83243 layer_factory.hpp:77] Creating layer fire7/relu_expand1x1
I1018 21:57:31.653067 83243 net.cpp:100] Creating Layer fire7/relu_expand1x1
I1018 21:57:31.653080 83243 net.cpp:434] fire7/relu_expand1x1 <- fire7/expand1x1
I1018 21:57:31.653098 83243 net.cpp:395] fire7/relu_expand1x1 -> fire7/expand1x1 (in-place)
I1018 21:57:31.653405 83243 net.cpp:150] Setting up fire7/relu_expand1x1
I1018 21:57:31.653425 83243 net.cpp:157] Top shape: 100 192 28 28 (15052800)
I1018 21:57:31.653435 83243 net.cpp:165] Memory required for data: 4970533600
I1018 21:57:31.653445 83243 layer_factory.hpp:77] Creating layer fire7/expand3x3
I1018 21:57:31.653482 83243 net.cpp:100] Creating Layer fire7/expand3x3
I1018 21:57:31.653509 83243 net.cpp:434] fire7/expand3x3 <- fire7/squeeze1x1_fire7/relu_squeeze1x1_0_split_1
I1018 21:57:31.653549 83243 net.cpp:408] fire7/expand3x3 -> fire7/expand3x3
I1018 21:57:31.662578 83243 net.cpp:150] Setting up fire7/expand3x3
I1018 21:57:31.662720 83243 net.cpp:157] Top shape: 100 192 28 28 (15052800)
I1018 21:57:31.662771 83243 net.cpp:165] Memory required for data: 5030744800
I1018 21:57:31.662878 83243 layer_factory.hpp:77] Creating layer fire7/relu_expand3x3
I1018 21:57:31.662969 83243 net.cpp:100] Creating Layer fire7/relu_expand3x3
I1018 21:57:31.663049 83243 net.cpp:434] fire7/relu_expand3x3 <- fire7/expand3x3
I1018 21:57:31.663103 83243 net.cpp:395] fire7/relu_expand3x3 -> fire7/expand3x3 (in-place)
I1018 21:57:31.663532 83243 net.cpp:150] Setting up fire7/relu_expand3x3
I1018 21:57:31.663560 83243 net.cpp:157] Top shape: 100 192 28 28 (15052800)
I1018 21:57:31.663578 83243 net.cpp:165] Memory required for data: 5090956000
I1018 21:57:31.663591 83243 layer_factory.hpp:77] Creating layer fire7/concat
I1018 21:57:31.663607 83243 net.cpp:100] Creating Layer fire7/concat
I1018 21:57:31.663640 83243 net.cpp:434] fire7/concat <- fire7/expand1x1
I1018 21:57:31.663657 83243 net.cpp:434] fire7/concat <- fire7/expand3x3
I1018 21:57:31.663688 83243 net.cpp:408] fire7/concat -> fire7/concat
I1018 21:57:31.663827 83243 net.cpp:150] Setting up fire7/concat
I1018 21:57:31.663864 83243 net.cpp:157] Top shape: 100 384 28 28 (30105600)
I1018 21:57:31.663883 83243 net.cpp:165] Memory required for data: 5211378400
I1018 21:57:31.663908 83243 layer_factory.hpp:77] Creating layer bypass_67
I1018 21:57:31.663944 83243 net.cpp:100] Creating Layer bypass_67
I1018 21:57:31.663970 83243 net.cpp:434] bypass_67 <- fire6/concat_fire6/concat_0_split_1
I1018 21:57:31.664000 83243 net.cpp:434] bypass_67 <- fire7/concat
I1018 21:57:31.664028 83243 net.cpp:408] bypass_67 -> fire7_EltAdd
I1018 21:57:31.664146 83243 net.cpp:150] Setting up bypass_67
I1018 21:57:31.664180 83243 net.cpp:157] Top shape: 100 384 28 28 (30105600)
I1018 21:57:31.664213 83243 net.cpp:165] Memory required for data: 5331800800
I1018 21:57:31.664238 83243 layer_factory.hpp:77] Creating layer fire8/squeeze1x1
I1018 21:57:31.664284 83243 net.cpp:100] Creating Layer fire8/squeeze1x1
I1018 21:57:31.664314 83243 net.cpp:434] fire8/squeeze1x1 <- fire7_EltAdd
I1018 21:57:31.664422 83243 net.cpp:408] fire8/squeeze1x1 -> fire8/squeeze1x1
I1018 21:57:31.670992 83243 net.cpp:150] Setting up fire8/squeeze1x1
I1018 21:57:31.671031 83243 net.cpp:157] Top shape: 100 64 28 28 (5017600)
I1018 21:57:31.671054 83243 net.cpp:165] Memory required for data: 5351871200
I1018 21:57:31.671118 83243 layer_factory.hpp:77] Creating layer fire8/relu_squeeze1x1
I1018 21:57:31.671151 83243 net.cpp:100] Creating Layer fire8/relu_squeeze1x1
I1018 21:57:31.671169 83243 net.cpp:434] fire8/relu_squeeze1x1 <- fire8/squeeze1x1
I1018 21:57:31.671182 83243 net.cpp:395] fire8/relu_squeeze1x1 -> fire8/squeeze1x1 (in-place)
I1018 21:57:31.672457 83243 net.cpp:150] Setting up fire8/relu_squeeze1x1
I1018 21:57:31.672515 83243 net.cpp:157] Top shape: 100 64 28 28 (5017600)
I1018 21:57:31.672554 83243 net.cpp:165] Memory required for data: 5371941600
I1018 21:57:31.672581 83243 layer_factory.hpp:77] Creating layer fire8/squeeze1x1_fire8/relu_squeeze1x1_0_split
I1018 21:57:31.672623 83243 net.cpp:100] Creating Layer fire8/squeeze1x1_fire8/relu_squeeze1x1_0_split
I1018 21:57:31.672655 83243 net.cpp:434] fire8/squeeze1x1_fire8/relu_squeeze1x1_0_split <- fire8/squeeze1x1
I1018 21:57:31.672699 83243 net.cpp:408] fire8/squeeze1x1_fire8/relu_squeeze1x1_0_split -> fire8/squeeze1x1_fire8/relu_squeeze1x1_0_split_0
I1018 21:57:31.672749 83243 net.cpp:408] fire8/squeeze1x1_fire8/relu_squeeze1x1_0_split -> fire8/squeeze1x1_fire8/relu_squeeze1x1_0_split_1
I1018 21:57:31.672937 83243 net.cpp:150] Setting up fire8/squeeze1x1_fire8/relu_squeeze1x1_0_split
I1018 21:57:31.672969 83243 net.cpp:157] Top shape: 100 64 28 28 (5017600)
I1018 21:57:31.672989 83243 net.cpp:157] Top shape: 100 64 28 28 (5017600)
I1018 21:57:31.673009 83243 net.cpp:165] Memory required for data: 5412082400
I1018 21:57:31.673023 83243 layer_factory.hpp:77] Creating layer fire8/expand1x1
I1018 21:57:31.673059 83243 net.cpp:100] Creating Layer fire8/expand1x1
I1018 21:57:31.673076 83243 net.cpp:434] fire8/expand1x1 <- fire8/squeeze1x1_fire8/relu_squeeze1x1_0_split_0
I1018 21:57:31.673110 83243 net.cpp:408] fire8/expand1x1 -> fire8/expand1x1
I1018 21:57:31.679005 83243 net.cpp:150] Setting up fire8/expand1x1
I1018 21:57:31.679057 83243 net.cpp:157] Top shape: 100 256 28 28 (20070400)
I1018 21:57:31.679095 83243 net.cpp:165] Memory required for data: 5492364000
I1018 21:57:31.679136 83243 layer_factory.hpp:77] Creating layer fire8/relu_expand1x1
I1018 21:57:31.679240 83243 net.cpp:100] Creating Layer fire8/relu_expand1x1
I1018 21:57:31.679311 83243 net.cpp:434] fire8/relu_expand1x1 <- fire8/expand1x1
I1018 21:57:31.679373 83243 net.cpp:395] fire8/relu_expand1x1 -> fire8/expand1x1 (in-place)
I1018 21:57:31.680245 83243 net.cpp:150] Setting up fire8/relu_expand1x1
I1018 21:57:31.680308 83243 net.cpp:157] Top shape: 100 256 28 28 (20070400)
I1018 21:57:31.680375 83243 net.cpp:165] Memory required for data: 5572645600
I1018 21:57:31.680449 83243 layer_factory.hpp:77] Creating layer fire8/expand3x3
I1018 21:57:31.680555 83243 net.cpp:100] Creating Layer fire8/expand3x3
I1018 21:57:31.680598 83243 net.cpp:434] fire8/expand3x3 <- fire8/squeeze1x1_fire8/relu_squeeze1x1_0_split_1
I1018 21:57:31.680647 83243 net.cpp:408] fire8/expand3x3 -> fire8/expand3x3
I1018 21:57:31.692602 83243 net.cpp:150] Setting up fire8/expand3x3
I1018 21:57:31.692637 83243 net.cpp:157] Top shape: 100 256 28 28 (20070400)
I1018 21:57:31.692653 83243 net.cpp:165] Memory required for data: 5652927200
I1018 21:57:31.692682 83243 layer_factory.hpp:77] Creating layer fire8/relu_expand3x3
I1018 21:57:31.692714 83243 net.cpp:100] Creating Layer fire8/relu_expand3x3
I1018 21:57:31.692729 83243 net.cpp:434] fire8/relu_expand3x3 <- fire8/expand3x3
I1018 21:57:31.692744 83243 net.cpp:395] fire8/relu_expand3x3 -> fire8/expand3x3 (in-place)
I1018 21:57:31.693150 83243 net.cpp:150] Setting up fire8/relu_expand3x3
I1018 21:57:31.693172 83243 net.cpp:157] Top shape: 100 256 28 28 (20070400)
I1018 21:57:31.693197 83243 net.cpp:165] Memory required for data: 5733208800
I1018 21:57:31.693209 83243 layer_factory.hpp:77] Creating layer fire8/concat
I1018 21:57:31.693223 83243 net.cpp:100] Creating Layer fire8/concat
I1018 21:57:31.693233 83243 net.cpp:434] fire8/concat <- fire8/expand1x1
I1018 21:57:31.693264 83243 net.cpp:434] fire8/concat <- fire8/expand3x3
I1018 21:57:31.693305 83243 net.cpp:408] fire8/concat -> fire8/concat
I1018 21:57:31.693408 83243 net.cpp:150] Setting up fire8/concat
I1018 21:57:31.693434 83243 net.cpp:157] Top shape: 100 512 28 28 (40140800)
I1018 21:57:31.693454 83243 net.cpp:165] Memory required for data: 5893772000
I1018 21:57:31.693478 83243 layer_factory.hpp:77] Creating layer pool8
I1018 21:57:31.693506 83243 net.cpp:100] Creating Layer pool8
I1018 21:57:31.693531 83243 net.cpp:434] pool8 <- fire8/concat
I1018 21:57:31.693552 83243 net.cpp:408] pool8 -> pool8
I1018 21:57:31.693702 83243 net.cpp:150] Setting up pool8
I1018 21:57:31.693720 83243 net.cpp:157] Top shape: 100 512 14 14 (10035200)
I1018 21:57:31.693752 83243 net.cpp:165] Memory required for data: 5933912800
I1018 21:57:31.693778 83243 layer_factory.hpp:77] Creating layer pool8_pool8_0_split
I1018 21:57:31.693816 83243 net.cpp:100] Creating Layer pool8_pool8_0_split
I1018 21:57:31.693840 83243 net.cpp:434] pool8_pool8_0_split <- pool8
I1018 21:57:31.693881 83243 net.cpp:408] pool8_pool8_0_split -> pool8_pool8_0_split_0
I1018 21:57:31.693918 83243 net.cpp:408] pool8_pool8_0_split -> pool8_pool8_0_split_1
I1018 21:57:31.694087 83243 net.cpp:150] Setting up pool8_pool8_0_split
I1018 21:57:31.694124 83243 net.cpp:157] Top shape: 100 512 14 14 (10035200)
I1018 21:57:31.694157 83243 net.cpp:157] Top shape: 100 512 14 14 (10035200)
I1018 21:57:31.694185 83243 net.cpp:165] Memory required for data: 6014194400
I1018 21:57:31.694202 83243 layer_factory.hpp:77] Creating layer fire9/squeeze1x1
I1018 21:57:31.694236 83243 net.cpp:100] Creating Layer fire9/squeeze1x1
I1018 21:57:31.694267 83243 net.cpp:434] fire9/squeeze1x1 <- pool8_pool8_0_split_0
I1018 21:57:31.694299 83243 net.cpp:408] fire9/squeeze1x1 -> fire9/squeeze1x1
I1018 21:57:31.699352 83243 net.cpp:150] Setting up fire9/squeeze1x1
I1018 21:57:31.699429 83243 net.cpp:157] Top shape: 100 64 14 14 (1254400)
I1018 21:57:31.699460 83243 net.cpp:165] Memory required for data: 6019212000
I1018 21:57:31.699512 83243 layer_factory.hpp:77] Creating layer fire9/relu_squeeze1x1
I1018 21:57:31.699549 83243 net.cpp:100] Creating Layer fire9/relu_squeeze1x1
I1018 21:57:31.699584 83243 net.cpp:434] fire9/relu_squeeze1x1 <- fire9/squeeze1x1
I1018 21:57:31.699625 83243 net.cpp:395] fire9/relu_squeeze1x1 -> fire9/squeeze1x1 (in-place)
I1018 21:57:31.700475 83243 net.cpp:150] Setting up fire9/relu_squeeze1x1
I1018 21:57:31.700515 83243 net.cpp:157] Top shape: 100 64 14 14 (1254400)
I1018 21:57:31.700530 83243 net.cpp:165] Memory required for data: 6024229600
I1018 21:57:31.700537 83243 layer_factory.hpp:77] Creating layer fire9/squeeze1x1_fire9/relu_squeeze1x1_0_split
I1018 21:57:31.700567 83243 net.cpp:100] Creating Layer fire9/squeeze1x1_fire9/relu_squeeze1x1_0_split
I1018 21:57:31.700585 83243 net.cpp:434] fire9/squeeze1x1_fire9/relu_squeeze1x1_0_split <- fire9/squeeze1x1
I1018 21:57:31.700614 83243 net.cpp:408] fire9/squeeze1x1_fire9/relu_squeeze1x1_0_split -> fire9/squeeze1x1_fire9/relu_squeeze1x1_0_split_0
I1018 21:57:31.700662 83243 net.cpp:408] fire9/squeeze1x1_fire9/relu_squeeze1x1_0_split -> fire9/squeeze1x1_fire9/relu_squeeze1x1_0_split_1
I1018 21:57:31.700911 83243 net.cpp:150] Setting up fire9/squeeze1x1_fire9/relu_squeeze1x1_0_split
I1018 21:57:31.700956 83243 net.cpp:157] Top shape: 100 64 14 14 (1254400)
I1018 21:57:31.700987 83243 net.cpp:157] Top shape: 100 64 14 14 (1254400)
I1018 21:57:31.701009 83243 net.cpp:165] Memory required for data: 6034264800
I1018 21:57:31.701040 83243 layer_factory.hpp:77] Creating layer fire9/expand1x1
I1018 21:57:31.701082 83243 net.cpp:100] Creating Layer fire9/expand1x1
I1018 21:57:31.701112 83243 net.cpp:434] fire9/expand1x1 <- fire9/squeeze1x1_fire9/relu_squeeze1x1_0_split_0
I1018 21:57:31.701156 83243 net.cpp:408] fire9/expand1x1 -> fire9/expand1x1
I1018 21:57:31.707059 83243 net.cpp:150] Setting up fire9/expand1x1
I1018 21:57:31.707141 83243 net.cpp:157] Top shape: 100 256 14 14 (5017600)
I1018 21:57:31.707168 83243 net.cpp:165] Memory required for data: 6054335200
I1018 21:57:31.707232 83243 layer_factory.hpp:77] Creating layer fire9/relu_expand1x1
I1018 21:57:31.707312 83243 net.cpp:100] Creating Layer fire9/relu_expand1x1
I1018 21:57:31.707350 83243 net.cpp:434] fire9/relu_expand1x1 <- fire9/expand1x1
I1018 21:57:31.707391 83243 net.cpp:395] fire9/relu_expand1x1 -> fire9/expand1x1 (in-place)
I1018 21:57:31.707995 83243 net.cpp:150] Setting up fire9/relu_expand1x1
I1018 21:57:31.708015 83243 net.cpp:157] Top shape: 100 256 14 14 (5017600)
I1018 21:57:31.708034 83243 net.cpp:165] Memory required for data: 6074405600
I1018 21:57:31.708068 83243 layer_factory.hpp:77] Creating layer fire9/expand3x3
I1018 21:57:31.708114 83243 net.cpp:100] Creating Layer fire9/expand3x3
I1018 21:57:31.708161 83243 net.cpp:434] fire9/expand3x3 <- fire9/squeeze1x1_fire9/relu_squeeze1x1_0_split_1
I1018 21:57:31.708223 83243 net.cpp:408] fire9/expand3x3 -> fire9/expand3x3
I1018 21:57:31.717444 83243 net.cpp:150] Setting up fire9/expand3x3
I1018 21:57:31.717499 83243 net.cpp:157] Top shape: 100 256 14 14 (5017600)
I1018 21:57:31.717528 83243 net.cpp:165] Memory required for data: 6094476000
I1018 21:57:31.717572 83243 layer_factory.hpp:77] Creating layer fire9/relu_expand3x3
I1018 21:57:31.717603 83243 net.cpp:100] Creating Layer fire9/relu_expand3x3
I1018 21:57:31.717623 83243 net.cpp:434] fire9/relu_expand3x3 <- fire9/expand3x3
I1018 21:57:31.717663 83243 net.cpp:395] fire9/relu_expand3x3 -> fire9/expand3x3 (in-place)
I1018 21:57:31.718210 83243 net.cpp:150] Setting up fire9/relu_expand3x3
I1018 21:57:31.718250 83243 net.cpp:157] Top shape: 100 256 14 14 (5017600)
I1018 21:57:31.718271 83243 net.cpp:165] Memory required for data: 6114546400
I1018 21:57:31.718288 83243 layer_factory.hpp:77] Creating layer fire9/concat
I1018 21:57:31.718312 83243 net.cpp:100] Creating Layer fire9/concat
I1018 21:57:31.718336 83243 net.cpp:434] fire9/concat <- fire9/expand1x1
I1018 21:57:31.718366 83243 net.cpp:434] fire9/concat <- fire9/expand3x3
I1018 21:57:31.718384 83243 net.cpp:408] fire9/concat -> fire9/concat
I1018 21:57:31.718493 83243 net.cpp:150] Setting up fire9/concat
I1018 21:57:31.718508 83243 net.cpp:157] Top shape: 100 512 14 14 (10035200)
I1018 21:57:31.718544 83243 net.cpp:165] Memory required for data: 6154687200
I1018 21:57:31.718559 83243 layer_factory.hpp:77] Creating layer bypass_89
I1018 21:57:31.718598 83243 net.cpp:100] Creating Layer bypass_89
I1018 21:57:31.718626 83243 net.cpp:434] bypass_89 <- pool8_pool8_0_split_1
I1018 21:57:31.718652 83243 net.cpp:434] bypass_89 <- fire9/concat
I1018 21:57:31.718690 83243 net.cpp:408] bypass_89 -> fire9_EltAdd
I1018 21:57:31.718822 83243 net.cpp:150] Setting up bypass_89
I1018 21:57:31.718848 83243 net.cpp:157] Top shape: 100 512 14 14 (10035200)
I1018 21:57:31.718860 83243 net.cpp:165] Memory required for data: 6194828000
I1018 21:57:31.718876 83243 layer_factory.hpp:77] Creating layer drop9
I1018 21:57:31.718906 83243 net.cpp:100] Creating Layer drop9
I1018 21:57:31.718924 83243 net.cpp:434] drop9 <- fire9_EltAdd
I1018 21:57:31.718948 83243 net.cpp:395] drop9 -> fire9_EltAdd (in-place)
I1018 21:57:31.719041 83243 net.cpp:150] Setting up drop9
I1018 21:57:31.719066 83243 net.cpp:157] Top shape: 100 512 14 14 (10035200)
I1018 21:57:31.719084 83243 net.cpp:165] Memory required for data: 6234968800
I1018 21:57:31.719102 83243 layer_factory.hpp:77] Creating layer conv10_2626
I1018 21:57:31.719141 83243 net.cpp:100] Creating Layer conv10_2626
I1018 21:57:31.719157 83243 net.cpp:434] conv10_2626 <- fire9_EltAdd
I1018 21:57:31.719188 83243 net.cpp:408] conv10_2626 -> conv10_2626
I1018 21:57:31.763774 83243 net.cpp:150] Setting up conv10_2626
I1018 21:57:31.763809 83243 net.cpp:157] Top shape: 100 2626 14 14 (51469600)
I1018 21:57:31.763816 83243 net.cpp:165] Memory required for data: 6440847200
I1018 21:57:31.763830 83243 layer_factory.hpp:77] Creating layer relu_conv10
I1018 21:57:31.763857 83243 net.cpp:100] Creating Layer relu_conv10
I1018 21:57:31.763866 83243 net.cpp:434] relu_conv10 <- conv10_2626
I1018 21:57:31.763880 83243 net.cpp:395] relu_conv10 -> conv10_2626 (in-place)
I1018 21:57:31.764374 83243 net.cpp:150] Setting up relu_conv10
I1018 21:57:31.764394 83243 net.cpp:157] Top shape: 100 2626 14 14 (51469600)
I1018 21:57:31.764400 83243 net.cpp:165] Memory required for data: 6646725600
I1018 21:57:31.764406 83243 layer_factory.hpp:77] Creating layer pool10
I1018 21:57:31.764423 83243 net.cpp:100] Creating Layer pool10
I1018 21:57:31.764431 83243 net.cpp:434] pool10 <- conv10_2626
I1018 21:57:31.764444 83243 net.cpp:408] pool10 -> pool10
I1018 21:57:31.764688 83243 net.cpp:150] Setting up pool10
I1018 21:57:31.764703 83243 net.cpp:157] Top shape: 100 2626 1 1 (262600)
I1018 21:57:31.764710 83243 net.cpp:165] Memory required for data: 6647776000
I1018 21:57:31.764717 83243 layer_factory.hpp:77] Creating layer pool10_pool10_0_split
I1018 21:57:31.764727 83243 net.cpp:100] Creating Layer pool10_pool10_0_split
I1018 21:57:31.764734 83243 net.cpp:434] pool10_pool10_0_split <- pool10
I1018 21:57:31.764747 83243 net.cpp:408] pool10_pool10_0_split -> pool10_pool10_0_split_0
I1018 21:57:31.764760 83243 net.cpp:408] pool10_pool10_0_split -> pool10_pool10_0_split_1
I1018 21:57:31.764828 83243 net.cpp:150] Setting up pool10_pool10_0_split
I1018 21:57:31.764840 83243 net.cpp:157] Top shape: 100 2626 1 1 (262600)
I1018 21:57:31.764848 83243 net.cpp:157] Top shape: 100 2626 1 1 (262600)
I1018 21:57:31.764853 83243 net.cpp:165] Memory required for data: 6649876800
I1018 21:57:31.764860 83243 layer_factory.hpp:77] Creating layer loss
I1018 21:57:31.764873 83243 net.cpp:100] Creating Layer loss
I1018 21:57:31.764880 83243 net.cpp:434] loss <- pool10_pool10_0_split_0
I1018 21:57:31.764889 83243 net.cpp:434] loss <- label_data_1_split_0
I1018 21:57:31.764900 83243 net.cpp:408] loss -> loss
…
