…
I1016 15:52:47.218642 135789 net.cpp:322] The NetState phase (0) differed from the phase (1) specified by a rule in layer data
I1016 15:52:47.218703 135789 net.cpp:322] The NetState phase (0) differed from the phase (1) specified by a rule in layer accuracy
I1016 15:52:47.219292 135789 net.cpp:58] Initializing net from parameters: 
state {
  phase: TRAIN
  level: 0
  stage: ""
}
layer {
  name: "data"
  type: "Data"
  top: "data"
  top: "label"
  include {
    phase: TRAIN
  }
  transform_param {
    crop_size: 227
    mean_file: "/share/zhh/mean.binaryproto"
  }
  data_param {
    source: "/share/front/train_lmdb"
    batch_size: 128
    backend: LMDB
  }
}
layer {
  name: "conv1"
  type: "Convolution"
  bottom: "data"
  top: "conv1"
  convolution_param {
    num_output: 64
    kernel_size: 3
    stride: 2
    weight_filler {
      type: "xavier"
    }
  }
}
layer {
  name: "relu_conv1"
  type: "ReLU"
  bottom: "conv1"
  top: "conv1"
}
layer {
  name: "pool1"
  type: "Pooling"
  bottom: "conv1"
  top: "pool1"
  pooling_param {
    pool: MAX
    kernel_size: 3
    stride: 2
  }
}
layer {
  name: "fire2/squeeze1x1"
  type: "Convolution"
  bottom: "pool1"
  top: "fire2/squeeze1x1"
  convolution_param {
    num_output: 16
    kernel_size: 1
    weight_filler {
      type: "xavier"
    }
  }
}
layer {
  name: "fire2/expand1x1"
  type: "Convolution"
  bottom: "fire2/squeeze1x1"
  top: "fire2/expand1x1"
  convolution_param {
    num_output: 64
    kernel_size: 1
    weight_filler {
      type: "xavier"
    }
  }
}
layer {
  name: "fire2/relu_expand1x1"
  type: "ReLU"
  bottom: "fire2/expand1x1"
  top: "fire2/expand1x1"
}
layer {
  name: "fire2/expand3x3"
  type: "Convolution"
  bottom: "fire2/squeeze1x1"
  top: "fire2/expand3x3"
  convolution_param {
    num_output: 64
    pad: 1
    kernel_size: 3
    weight_filler {
      type: "xavier"
    }
  }
}
layer {
  name: "fire2/relu_expand3x3"
  type: "ReLU"
  bottom: "fire2/expand3x3"
  top: "fire2/expand3x3"
}
layer {
  name: "fire2/concat"
  type: "Concat"
  bottom: "fire2/expand1x1"
  bottom: "fire2/expand3x3"
  top: "fire2/concat"
}
layer {
  name: "fire3/squeeze1x1"
  type: "Convolution"
  bottom: "fire2/concat"
  top: "fire3/squeeze1x1"
  convolution_param {
    num_output: 16
    kernel_size: 1
    weight_filler {
      type: "xavier"
    }
  }
}
layer {
  name: "fire3/expand1x1"
  type: "Convolution"
  bottom: "fire3/squeeze1x1"
  top: "fire3/expand1x1"
  convolution_param {
    num_output: 64
    kernel_size: 1
    weight_filler {
      type: "xavier"
    }
  }
}
layer {
  name: "fire3/relu_expand1x1"
  type: "ReLU"
  bottom: "fire3/expand1x1"
  top: "fire3/expand1x1"
}
layer {
  name: "fire3/expand3x3"
  type: "Convolution"
  bottom: "fire3/squeeze1x1"
  top: "fire3/expand3x3"
  convolution_param {
    num_output: 64
    pad: 1
    kernel_size: 3
    weight_filler {
      type: "xavier"
    }
  }
}
layer {
  name: "fire3/relu_expand3x3"
  type: "ReLU"
  bottom: "fire3/expand3x3"
  top: "fire3/expand3x3"
}
layer {
  name: "fire3/concat"
  type: "Concat"
  bottom: "fire3/expand1x1"
  bottom: "fire3/expand3x3"
  top: "fire3/concat"
}
layer {
  name: "pool3"
  type: "Pooling"
  bottom: "fire3/concat"
  top: "pool3"
  pooling_param {
    pool: MAX
    kernel_size: 3
    stride: 2
  }
}
layer {
  name: "fire4/squeeze1x1"
  type: "Convolution"
  bottom: "pool3"
  top: "fire4/squeeze1x1"
  convolution_param {
    num_output: 32
    kernel_size: 1
    weight_filler {
      type: "xavier"
    }
  }
}
layer {
  name: "fire4/expand1x1"
  type: "Convolution"
  bottom: "fire4/squeeze1x1"
  top: "fire4/expand1x1"
  convolution_param {
    num_output: 128
    kernel_size: 1
    weight_filler {
      type: "xavier"
    }
  }
}
layer {
  name: "fire4/relu_expand1x1"
  type: "ReLU"
  bottom: "fire4/expand1x1"
  top: "fire4/expand1x1"
}
layer {
  name: "fire4/expand3x3"
  type: "Convolution"
  bottom: "fire4/squeeze1x1"
  top: "fire4/expand3x3"
  convolution_param {
    num_output: 128
    pad: 1
    kernel_size: 3
    weight_filler {
      type: "xavier"
    }
  }
}
layer {
  name: "fire4/relu_expand3x3"
  type: "ReLU"
  bottom: "fire4/expand3x3"
  top: "fire4/expand3x3"
}
layer {
  name: "fire4/concat"
  type: "Concat"
  bottom: "fire4/expand1x1"
  bottom: "fire4/expand3x3"
  top: "fire4/concat"
}
layer {
  name: "fire5/squeeze1x1"
  type: "Convolution"
  bottom: "fire4/concat"
  top: "fire5/squeeze1x1"
  convolution_param {
    num_output: 32
    kernel_size: 1
    weight_filler {
      type: "xavier"
    }
  }
}
layer {
  name: "fire5/expand1x1"
  type: "Convolution"
  bottom: "fire5/squeeze1x1"
  top: "fire5/expand1x1"
  convolution_param {
    num_output: 128
    kernel_size: 1
    weight_filler {
      type: "xavier"
    }
  }
}
layer {
  name: "fire5/relu_expand1x1"
  type: "ReLU"
  bottom: "fire5/expand1x1"
  top: "fire5/expand1x1"
}
layer {
  name: "fire5/expand3x3"
  type: "Convolution"
  bottom: "fire5/squeeze1x1"
  top: "fire5/expand3x3"
  convolution_param {
    num_output: 128
    pad: 1
    kernel_size: 3
    weight_filler {
      type: "xavier"
    }
  }
}
layer {
  name: "fire5/relu_expand3x3"
  type: "ReLU"
  bottom: "fire5/expand3x3"
  top: "fire5/expand3x3"
}
layer {
  name: "fire5/concat"
  type: "Concat"
  bottom: "fire5/expand1x1"
  bottom: "fire5/expand3x3"
  top: "fire5/concat"
}
layer {
  name: "pool5"
  type: "Pooling"
  bottom: "fire5/concat"
  top: "pool5"
  pooling_param {
    pool: MAX
    kernel_size: 3
    stride: 2
  }
}
layer {
  name: "fire6/squeeze1x1"
  type: "Convolution"
  bottom: "pool5"
  top: "fire6/squeeze1x1"
  convolution_param {
    num_output: 48
    kernel_size: 1
    weight_filler {
      type: "xavier"
    }
  }
}
layer {
  name: "fire6/expand1x1"
  type: "Convolution"
  bottom: "fire6/squeeze1x1"
  top: "fire6/expand1x1"
  convolution_param {
    num_output: 192
    kernel_size: 1
    weight_filler {
      type: "xavier"
    }
  }
}
layer {
  name: "fire6/relu_expand1x1"
  type: "ReLU"
  bottom: "fire6/expand1x1"
  top: "fire6/expand1x1"
}
layer {
  name: "fire6/expand3x3"
  type: "Convolution"
  bottom: "fire6/squeeze1x1"
  top: "fire6/expand3x3"
  convolution_param {
    num_output: 192
    pad: 1
    kernel_size: 3
    weight_filler {
      type: "xavier"
    }
  }
}
layer {
  name: "fire6/relu_expand3x3"
  type: "ReLU"
  bottom: "fire6/expand3x3"
  top: "fire6/expand3x3"
}
layer {
  name: "fire6/concat"
  type: "Concat"
  bottom: "fire6/expand1x1"
  bottom: "fire6/expand3x3"
  top: "fire6/concat"
}
layer {
  name: "fire7/squeeze1x1"
  type: "Convolution"
  bottom: "fire6/concat"
  top: "fire7/squeeze1x1"
  convolution_param {
    num_output: 48
    kernel_size: 1
    weight_filler {
      type: "xavier"
    }
  }
}
layer {
  name: "fire7/expand1x1"
  type: "Convolution"
  bottom: "fire7/squeeze1x1"
  top: "fire7/expand1x1"
  convolution_param {
    num_output: 192
    kernel_size: 1
    weight_filler {
      type: "xavier"
    }
  }
}
layer {
  name: "fire7/relu_expand1x1"
  type: "ReLU"
  bottom: "fire7/expand1x1"
  top: "fire7/expand1x1"
}
layer {
  name: "fire7/expand3x3"
  type: "Convolution"
  bottom: "fire7/squeeze1x1"
  top: "fire7/expand3x3"
  convolution_param {
    num_output: 192
    pad: 1
    kernel_size: 3
    weight_filler {
      type: "xavier"
    }
  }
}
layer {
  name: "fire7/relu_expand3x3"
  type: "ReLU"
  bottom: "fire7/expand3x3"
  top: "fire7/expand3x3"
}
layer {
  name: "fire7/concat"
  type: "Concat"
  bottom: "fire7/expand1x1"
  bottom: "fire7/expand3x3"
  top: "fire7/concat"
}
layer {
  name: "fire8/squeeze1x1"
  type: "Convolution"
  bottom: "fire7/concat"
  top: "fire8/squeeze1x1"
  convolution_param {
    num_output: 64
    kernel_size: 1
    weight_filler {
      type: "xavier"
    }
  }
}
layer {
  name: "fire8/expand1x1"
  type: "Convolution"
  bottom: "fire8/squeeze1x1"
  top: "fire8/expand1x1"
  convolution_param {
    num_output: 256
    kernel_size: 1
    weight_filler {
      type: "xavier"
    }
  }
}
layer {
  name: "fire8/relu_expand1x1"
  type: "ReLU"
  bottom: "fire8/expand1x1"
  top: "fire8/expand1x1"
}
layer {
  name: "fire8/expand3x3"
  type: "Convolution"
  bottom: "fire8/squeeze1x1"
  top: "fire8/expand3x3"
  convolution_param {
    num_output: 256
    pad: 1
    kernel_size: 3
    weight_filler {
      type: "xavier"
    }
  }
}
layer {
  name: "fire8/relu_expand3x3"
  type: "ReLU"
  bottom: "fire8/expand3x3"
  top: "fire8/expand3x3"
}
layer {
  name: "fire8/concat"
  type: "Concat"
  bottom: "fire8/expand1x1"
  bottom: "fire8/expand3x3"
  top: "fire8/concat"
}
layer {
  name: "fire9/squeeze1x1"
  type: "Convolution"
  bottom: "fire8/concat"
  top: "fire9/squeeze1x1"
  convolution_param {
    num_output: 64
    kernel_size: 1
    weight_filler {
      type: "xavier"
    }
  }
}
layer {
  name: "fire9/expand1x1"
  type: "Convolution"
  bottom: "fire9/squeeze1x1"
  top: "fire9/expand1x1"
  convolution_param {
    num_output: 256
    kernel_size: 1
    weight_filler {
      type: "xavier"
    }
  }
}
layer {
  name: "fire9/relu_expand1x1"
  type: "ReLU"
  bottom: "fire9/expand1x1"
  top: "fire9/expand1x1"
}
layer {
  name: "fire9/expand3x3"
  type: "Convolution"
  bottom: "fire9/squeeze1x1"
  top: "fire9/expand3x3"
  convolution_param {
    num_output: 256
    pad: 1
    kernel_size: 3
    weight_filler {
      type: "xavier"
    }
  }
}
layer {
  name: "fire9/relu_expand3x3"
  type: "ReLU"
  bottom: "fire9/expand3x3"
  top: "fire9/expand3x3"
}
layer {
  name: "fire9/concat"
  type: "Concat"
  bottom: "fire9/expand1x1"
  bottom: "fire9/expand3x3"
  top: "fire9/concat"
}
layer {
  name: "drop9"
  type: "Dropout"
  bottom: "fire9/concat"
  top: "fire9/concat"
  dropout_param {
    dropout_ratio: 0.5
  }
}
layer {
  name: "conv10_2626"
  type: "Convolution"
  bottom: "fire9/concat"
  top: "conv10_2626"
  param {
    lr_mult: 10
    decay_mult: 1
  }
  convolution_param {
    num_output: 2626
    kernel_size: 1
    weight_filler {
      type: "gaussian"
      mean: 0
      std: 0.01
    }
  }
}
layer {
  name: "relu_conv10"
  type: "ReLU"
  bottom: "conv10_2626"
  top: "conv10_2626"
}
layer {
  name: "pool10"
  type: "Pooling"
  bottom: "conv10_2626"
  top: "pool10"
  pooling_param {
    pool: AVE
    global_pooling: true
  }
}
layer {
  name: "loss"
  type: "SoftmaxWithLoss"
  bottom: "pool10"
  bottom: "label"
  top: "loss"
}
I1016 15:52:47.219738 135789 layer_factory.hpp:77] Creating layer data
I1016 15:52:47.219996 135789 net.cpp:100] Creating Layer data
I1016 15:52:47.220015 135789 net.cpp:408] data -> data
I1016 15:52:47.220064 135789 net.cpp:408] data -> label
I1016 15:52:47.220084 135789 data_transformer.cpp:25] Loading mean file from: /share/zhh/mean.binaryproto
I1016 15:52:47.222213 135808 db_lmdb.cpp:35] Opened lmdb /share/front/train_lmdb
I1016 15:52:47.239358 135789 data_layer.cpp:41] output data size: 128,3,227,227
I1016 15:52:47.409970 135789 net.cpp:150] Setting up data
I1016 15:52:47.410017 135789 net.cpp:157] Top shape: 128 3 227 227 (19787136)
I1016 15:52:47.410025 135789 net.cpp:157] Top shape: 128 (128)
I1016 15:52:47.410032 135789 net.cpp:165] Memory required for data: 79149056
I1016 15:52:47.410043 135789 layer_factory.hpp:77] Creating layer conv1
I1016 15:52:47.410073 135789 net.cpp:100] Creating Layer conv1
I1016 15:52:47.410084 135789 net.cpp:434] conv1 <- data
I1016 15:52:47.410104 135789 net.cpp:408] conv1 -> conv1
I1016 15:52:47.424221 135809 blocking_queue.cpp:50] Waiting for data
I1016 15:52:47.577119 135789 net.cpp:150] Setting up conv1
I1016 15:52:47.577152 135789 net.cpp:157] Top shape: 128 64 113 113 (104603648)
I1016 15:52:47.577173 135789 net.cpp:165] Memory required for data: 497563648
I1016 15:52:47.577196 135789 layer_factory.hpp:77] Creating layer relu_conv1
I1016 15:52:47.577211 135789 net.cpp:100] Creating Layer relu_conv1
I1016 15:52:47.577219 135789 net.cpp:434] relu_conv1 <- conv1
I1016 15:52:47.577236 135789 net.cpp:395] relu_conv1 -> conv1 (in-place)
I1016 15:52:47.577638 135789 net.cpp:150] Setting up relu_conv1
I1016 15:52:47.577652 135789 net.cpp:157] Top shape: 128 64 113 113 (104603648)
I1016 15:52:47.577667 135789 net.cpp:165] Memory required for data: 915978240
I1016 15:52:47.577672 135789 layer_factory.hpp:77] Creating layer pool1
I1016 15:52:47.577680 135789 net.cpp:100] Creating Layer pool1
I1016 15:52:47.577684 135789 net.cpp:434] pool1 <- conv1
I1016 15:52:47.577690 135789 net.cpp:408] pool1 -> pool1
I1016 15:52:47.577750 135789 net.cpp:150] Setting up pool1
I1016 15:52:47.577770 135789 net.cpp:157] Top shape: 128 64 56 56 (25690112)
I1016 15:52:47.577775 135789 net.cpp:165] Memory required for data: 1018738688
I1016 15:52:47.577777 135789 layer_factory.hpp:77] Creating layer fire2/squeeze1x1
I1016 15:52:47.577790 135789 net.cpp:100] Creating Layer fire2/squeeze1x1
I1016 15:52:47.577793 135789 net.cpp:434] fire2/squeeze1x1 <- pool1
I1016 15:52:47.577798 135789 net.cpp:408] fire2/squeeze1x1 -> fire2/squeeze1x1
I1016 15:52:47.579268 135789 net.cpp:150] Setting up fire2/squeeze1x1
I1016 15:52:47.579283 135789 net.cpp:157] Top shape: 128 16 56 56 (6422528)
I1016 15:52:47.579299 135789 net.cpp:165] Memory required for data: 1044428800
I1016 15:52:47.579308 135789 layer_factory.hpp:77] Creating layer fire2/squeeze1x1_fire2/squeeze1x1_0_split
I1016 15:52:47.579319 135789 net.cpp:100] Creating Layer fire2/squeeze1x1_fire2/squeeze1x1_0_split
I1016 15:52:47.579324 135789 net.cpp:434] fire2/squeeze1x1_fire2/squeeze1x1_0_split <- fire2/squeeze1x1
I1016 15:52:47.579329 135789 net.cpp:408] fire2/squeeze1x1_fire2/squeeze1x1_0_split -> fire2/squeeze1x1_fire2/squeeze1x1_0_split_0
I1016 15:52:47.579336 135789 net.cpp:408] fire2/squeeze1x1_fire2/squeeze1x1_0_split -> fire2/squeeze1x1_fire2/squeeze1x1_0_split_1
I1016 15:52:47.579370 135789 net.cpp:150] Setting up fire2/squeeze1x1_fire2/squeeze1x1_0_split
I1016 15:52:47.579376 135789 net.cpp:157] Top shape: 128 16 56 56 (6422528)
I1016 15:52:47.579380 135789 net.cpp:157] Top shape: 128 16 56 56 (6422528)
I1016 15:52:47.579383 135789 net.cpp:165] Memory required for data: 1095809024
I1016 15:52:47.579386 135789 layer_factory.hpp:77] Creating layer fire2/expand1x1
I1016 15:52:47.579393 135789 net.cpp:100] Creating Layer fire2/expand1x1
I1016 15:52:47.579397 135789 net.cpp:434] fire2/expand1x1 <- fire2/squeeze1x1_fire2/squeeze1x1_0_split_0
I1016 15:52:47.579402 135789 net.cpp:408] fire2/expand1x1 -> fire2/expand1x1
I1016 15:52:47.580633 135789 net.cpp:150] Setting up fire2/expand1x1
I1016 15:52:47.580648 135789 net.cpp:157] Top shape: 128 64 56 56 (25690112)
I1016 15:52:47.580663 135789 net.cpp:165] Memory required for data: 1198569472
I1016 15:52:47.580672 135789 layer_factory.hpp:77] Creating layer fire2/relu_expand1x1
I1016 15:52:47.580680 135789 net.cpp:100] Creating Layer fire2/relu_expand1x1
I1016 15:52:47.580683 135789 net.cpp:434] fire2/relu_expand1x1 <- fire2/expand1x1
I1016 15:52:47.580689 135789 net.cpp:395] fire2/relu_expand1x1 -> fire2/expand1x1 (in-place)
I1016 15:52:47.581290 135789 net.cpp:150] Setting up fire2/relu_expand1x1
I1016 15:52:47.581303 135789 net.cpp:157] Top shape: 128 64 56 56 (25690112)
I1016 15:52:47.581318 135789 net.cpp:165] Memory required for data: 1301329920
I1016 15:52:47.581322 135789 layer_factory.hpp:77] Creating layer fire2/expand3x3
I1016 15:52:47.581332 135789 net.cpp:100] Creating Layer fire2/expand3x3
I1016 15:52:47.581336 135789 net.cpp:434] fire2/expand3x3 <- fire2/squeeze1x1_fire2/squeeze1x1_0_split_1
I1016 15:52:47.581342 135789 net.cpp:408] fire2/expand3x3 -> fire2/expand3x3
I1016 15:52:47.582676 135789 net.cpp:150] Setting up fire2/expand3x3
I1016 15:52:47.582691 135789 net.cpp:157] Top shape: 128 64 56 56 (25690112)
I1016 15:52:47.582721 135789 net.cpp:165] Memory required for data: 1404090368
I1016 15:52:47.582741 135789 layer_factory.hpp:77] Creating layer fire2/relu_expand3x3
I1016 15:52:47.582747 135789 net.cpp:100] Creating Layer fire2/relu_expand3x3
I1016 15:52:47.582751 135789 net.cpp:434] fire2/relu_expand3x3 <- fire2/expand3x3
I1016 15:52:47.582758 135789 net.cpp:395] fire2/relu_expand3x3 -> fire2/expand3x3 (in-place)
I1016 15:52:47.582950 135789 net.cpp:150] Setting up fire2/relu_expand3x3
I1016 15:52:47.582960 135789 net.cpp:157] Top shape: 128 64 56 56 (25690112)
I1016 15:52:47.582975 135789 net.cpp:165] Memory required for data: 1506850816
I1016 15:52:47.582978 135789 layer_factory.hpp:77] Creating layer fire2/concat
I1016 15:52:47.582988 135789 net.cpp:100] Creating Layer fire2/concat
I1016 15:52:47.582991 135789 net.cpp:434] fire2/concat <- fire2/expand1x1
I1016 15:52:47.582996 135789 net.cpp:434] fire2/concat <- fire2/expand3x3
I1016 15:52:47.583001 135789 net.cpp:408] fire2/concat -> fire2/concat
I1016 15:52:47.583027 135789 net.cpp:150] Setting up fire2/concat
I1016 15:52:47.583034 135789 net.cpp:157] Top shape: 128 128 56 56 (51380224)
I1016 15:52:47.583036 135789 net.cpp:165] Memory required for data: 1712371712
I1016 15:52:47.583039 135789 layer_factory.hpp:77] Creating layer fire3/squeeze1x1
I1016 15:52:47.583047 135789 net.cpp:100] Creating Layer fire3/squeeze1x1
I1016 15:52:47.583051 135789 net.cpp:434] fire3/squeeze1x1 <- fire2/concat
I1016 15:52:47.583056 135789 net.cpp:408] fire3/squeeze1x1 -> fire3/squeeze1x1
I1016 15:52:47.584403 135789 net.cpp:150] Setting up fire3/squeeze1x1
I1016 15:52:47.584417 135789 net.cpp:157] Top shape: 128 16 56 56 (6422528)
I1016 15:52:47.584432 135789 net.cpp:165] Memory required for data: 1738061824
I1016 15:52:47.584441 135789 layer_factory.hpp:77] Creating layer fire3/squeeze1x1_fire3/squeeze1x1_0_split
I1016 15:52:47.584450 135789 net.cpp:100] Creating Layer fire3/squeeze1x1_fire3/squeeze1x1_0_split
I1016 15:52:47.584455 135789 net.cpp:434] fire3/squeeze1x1_fire3/squeeze1x1_0_split <- fire3/squeeze1x1
I1016 15:52:47.584460 135789 net.cpp:408] fire3/squeeze1x1_fire3/squeeze1x1_0_split -> fire3/squeeze1x1_fire3/squeeze1x1_0_split_0
I1016 15:52:47.584473 135789 net.cpp:408] fire3/squeeze1x1_fire3/squeeze1x1_0_split -> fire3/squeeze1x1_fire3/squeeze1x1_0_split_1
I1016 15:52:47.584511 135789 net.cpp:150] Setting up fire3/squeeze1x1_fire3/squeeze1x1_0_split
I1016 15:52:47.584517 135789 net.cpp:157] Top shape: 128 16 56 56 (6422528)
I1016 15:52:47.584522 135789 net.cpp:157] Top shape: 128 16 56 56 (6422528)
I1016 15:52:47.584524 135789 net.cpp:165] Memory required for data: 1789442048
I1016 15:52:47.584527 135789 layer_factory.hpp:77] Creating layer fire3/expand1x1
I1016 15:52:47.584535 135789 net.cpp:100] Creating Layer fire3/expand1x1
I1016 15:52:47.584538 135789 net.cpp:434] fire3/expand1x1 <- fire3/squeeze1x1_fire3/squeeze1x1_0_split_0
I1016 15:52:47.584544 135789 net.cpp:408] fire3/expand1x1 -> fire3/expand1x1
I1016 15:52:47.585707 135789 net.cpp:150] Setting up fire3/expand1x1
I1016 15:52:47.585721 135789 net.cpp:157] Top shape: 128 64 56 56 (25690112)
I1016 15:52:47.585736 135789 net.cpp:165] Memory required for data: 1892202496
I1016 15:52:47.585742 135789 layer_factory.hpp:77] Creating layer fire3/relu_expand1x1
I1016 15:52:47.585748 135789 net.cpp:100] Creating Layer fire3/relu_expand1x1
I1016 15:52:47.585752 135789 net.cpp:434] fire3/relu_expand1x1 <- fire3/expand1x1
I1016 15:52:47.585759 135789 net.cpp:395] fire3/relu_expand1x1 -> fire3/expand1x1 (in-place)
I1016 15:52:47.585932 135789 net.cpp:150] Setting up fire3/relu_expand1x1
I1016 15:52:47.585942 135789 net.cpp:157] Top shape: 128 64 56 56 (25690112)
I1016 15:52:47.585957 135789 net.cpp:165] Memory required for data: 1994962944
I1016 15:52:47.585959 135789 layer_factory.hpp:77] Creating layer fire3/expand3x3
I1016 15:52:47.585968 135789 net.cpp:100] Creating Layer fire3/expand3x3
I1016 15:52:47.585973 135789 net.cpp:434] fire3/expand3x3 <- fire3/squeeze1x1_fire3/squeeze1x1_0_split_1
I1016 15:52:47.585978 135789 net.cpp:408] fire3/expand3x3 -> fire3/expand3x3
I1016 15:52:47.587352 135789 net.cpp:150] Setting up fire3/expand3x3
I1016 15:52:47.587366 135789 net.cpp:157] Top shape: 128 64 56 56 (25690112)
I1016 15:52:47.587384 135789 net.cpp:165] Memory required for data: 2097723392
I1016 15:52:47.587390 135789 layer_factory.hpp:77] Creating layer fire3/relu_expand3x3
I1016 15:52:47.587399 135789 net.cpp:100] Creating Layer fire3/relu_expand3x3
I1016 15:52:47.587402 135789 net.cpp:434] fire3/relu_expand3x3 <- fire3/expand3x3
I1016 15:52:47.587407 135789 net.cpp:395] fire3/relu_expand3x3 -> fire3/expand3x3 (in-place)
I1016 15:52:47.587805 135789 net.cpp:150] Setting up fire3/relu_expand3x3
I1016 15:52:47.587817 135789 net.cpp:157] Top shape: 128 64 56 56 (25690112)
I1016 15:52:47.587832 135789 net.cpp:165] Memory required for data: 2200483840
I1016 15:52:47.587836 135789 layer_factory.hpp:77] Creating layer fire3/concat
I1016 15:52:47.587842 135789 net.cpp:100] Creating Layer fire3/concat
I1016 15:52:47.587847 135789 net.cpp:434] fire3/concat <- fire3/expand1x1
I1016 15:52:47.587863 135789 net.cpp:434] fire3/concat <- fire3/expand3x3
I1016 15:52:47.587868 135789 net.cpp:408] fire3/concat -> fire3/concat
I1016 15:52:47.587896 135789 net.cpp:150] Setting up fire3/concat
I1016 15:52:47.587903 135789 net.cpp:157] Top shape: 128 128 56 56 (51380224)
I1016 15:52:47.587905 135789 net.cpp:165] Memory required for data: 2406004736
I1016 15:52:47.587908 135789 layer_factory.hpp:77] Creating layer pool3
I1016 15:52:47.587914 135789 net.cpp:100] Creating Layer pool3
I1016 15:52:47.587918 135789 net.cpp:434] pool3 <- fire3/concat
I1016 15:52:47.587924 135789 net.cpp:408] pool3 -> pool3
I1016 15:52:47.587960 135789 net.cpp:150] Setting up pool3
I1016 15:52:47.587966 135789 net.cpp:157] Top shape: 128 128 28 28 (12845056)
I1016 15:52:47.587970 135789 net.cpp:165] Memory required for data: 2457384960
I1016 15:52:47.587972 135789 layer_factory.hpp:77] Creating layer fire4/squeeze1x1
I1016 15:52:47.587980 135789 net.cpp:100] Creating Layer fire4/squeeze1x1
I1016 15:52:47.587983 135789 net.cpp:434] fire4/squeeze1x1 <- pool3
I1016 15:52:47.587988 135789 net.cpp:408] fire4/squeeze1x1 -> fire4/squeeze1x1
I1016 15:52:47.589038 135789 net.cpp:150] Setting up fire4/squeeze1x1
I1016 15:52:47.589052 135789 net.cpp:157] Top shape: 128 32 28 28 (3211264)
I1016 15:52:47.589067 135789 net.cpp:165] Memory required for data: 2470230016
I1016 15:52:47.589074 135789 layer_factory.hpp:77] Creating layer fire4/squeeze1x1_fire4/squeeze1x1_0_split
I1016 15:52:47.589079 135789 net.cpp:100] Creating Layer fire4/squeeze1x1_fire4/squeeze1x1_0_split
I1016 15:52:47.589083 135789 net.cpp:434] fire4/squeeze1x1_fire4/squeeze1x1_0_split <- fire4/squeeze1x1
I1016 15:52:47.589090 135789 net.cpp:408] fire4/squeeze1x1_fire4/squeeze1x1_0_split -> fire4/squeeze1x1_fire4/squeeze1x1_0_split_0
I1016 15:52:47.589097 135789 net.cpp:408] fire4/squeeze1x1_fire4/squeeze1x1_0_split -> fire4/squeeze1x1_fire4/squeeze1x1_0_split_1
I1016 15:52:47.589135 135789 net.cpp:150] Setting up fire4/squeeze1x1_fire4/squeeze1x1_0_split
I1016 15:52:47.589141 135789 net.cpp:157] Top shape: 128 32 28 28 (3211264)
I1016 15:52:47.589145 135789 net.cpp:157] Top shape: 128 32 28 28 (3211264)
I1016 15:52:47.589148 135789 net.cpp:165] Memory required for data: 2495920128
I1016 15:52:47.589151 135789 layer_factory.hpp:77] Creating layer fire4/expand1x1
I1016 15:52:47.589159 135789 net.cpp:100] Creating Layer fire4/expand1x1
I1016 15:52:47.589164 135789 net.cpp:434] fire4/expand1x1 <- fire4/squeeze1x1_fire4/squeeze1x1_0_split_0
I1016 15:52:47.589169 135789 net.cpp:408] fire4/expand1x1 -> fire4/expand1x1
I1016 15:52:47.590652 135789 net.cpp:150] Setting up fire4/expand1x1
I1016 15:52:47.590667 135789 net.cpp:157] Top shape: 128 128 28 28 (12845056)
I1016 15:52:47.590682 135789 net.cpp:165] Memory required for data: 2547300352
I1016 15:52:47.590690 135789 layer_factory.hpp:77] Creating layer fire4/relu_expand1x1
I1016 15:52:47.590698 135789 net.cpp:100] Creating Layer fire4/relu_expand1x1
I1016 15:52:47.590703 135789 net.cpp:434] fire4/relu_expand1x1 <- fire4/expand1x1
I1016 15:52:47.590718 135789 net.cpp:395] fire4/relu_expand1x1 -> fire4/expand1x1 (in-place)
I1016 15:52:47.592403 135789 net.cpp:150] Setting up fire4/relu_expand1x1
I1016 15:52:47.592432 135789 net.cpp:157] Top shape: 128 128 28 28 (12845056)
I1016 15:52:47.592437 135789 net.cpp:165] Memory required for data: 2598680576
I1016 15:52:47.592440 135789 layer_factory.hpp:77] Creating layer fire4/expand3x3
I1016 15:52:47.592448 135789 net.cpp:100] Creating Layer fire4/expand3x3
I1016 15:52:47.592453 135789 net.cpp:434] fire4/expand3x3 <- fire4/squeeze1x1_fire4/squeeze1x1_0_split_1
I1016 15:52:47.592460 135789 net.cpp:408] fire4/expand3x3 -> fire4/expand3x3
I1016 15:52:47.594461 135789 net.cpp:150] Setting up fire4/expand3x3
I1016 15:52:47.594476 135789 net.cpp:157] Top shape: 128 128 28 28 (12845056)
I1016 15:52:47.594491 135789 net.cpp:165] Memory required for data: 2650060800
I1016 15:52:47.594501 135789 layer_factory.hpp:77] Creating layer fire4/relu_expand3x3
I1016 15:52:47.594506 135789 net.cpp:100] Creating Layer fire4/relu_expand3x3
I1016 15:52:47.594511 135789 net.cpp:434] fire4/relu_expand3x3 <- fire4/expand3x3
I1016 15:52:47.594516 135789 net.cpp:395] fire4/relu_expand3x3 -> fire4/expand3x3 (in-place)
I1016 15:52:47.594908 135789 net.cpp:150] Setting up fire4/relu_expand3x3
I1016 15:52:47.594923 135789 net.cpp:157] Top shape: 128 128 28 28 (12845056)
I1016 15:52:47.594938 135789 net.cpp:165] Memory required for data: 2701441024
I1016 15:52:47.594940 135789 layer_factory.hpp:77] Creating layer fire4/concat
I1016 15:52:47.594959 135789 net.cpp:100] Creating Layer fire4/concat
I1016 15:52:47.594962 135789 net.cpp:434] fire4/concat <- fire4/expand1x1
I1016 15:52:47.594967 135789 net.cpp:434] fire4/concat <- fire4/expand3x3
I1016 15:52:47.594971 135789 net.cpp:408] fire4/concat -> fire4/concat
I1016 15:52:47.595000 135789 net.cpp:150] Setting up fire4/concat
I1016 15:52:47.595006 135789 net.cpp:157] Top shape: 128 256 28 28 (25690112)
I1016 15:52:47.595010 135789 net.cpp:165] Memory required for data: 2804201472
I1016 15:52:47.595012 135789 layer_factory.hpp:77] Creating layer fire5/squeeze1x1
I1016 15:52:47.595021 135789 net.cpp:100] Creating Layer fire5/squeeze1x1
I1016 15:52:47.595023 135789 net.cpp:434] fire5/squeeze1x1 <- fire4/concat
I1016 15:52:47.595029 135789 net.cpp:408] fire5/squeeze1x1 -> fire5/squeeze1x1
I1016 15:52:47.596305 135789 net.cpp:150] Setting up fire5/squeeze1x1
I1016 15:52:47.596319 135789 net.cpp:157] Top shape: 128 32 28 28 (3211264)
I1016 15:52:47.596334 135789 net.cpp:165] Memory required for data: 2817046528
I1016 15:52:47.596341 135789 layer_factory.hpp:77] Creating layer fire5/squeeze1x1_fire5/squeeze1x1_0_split
I1016 15:52:47.596348 135789 net.cpp:100] Creating Layer fire5/squeeze1x1_fire5/squeeze1x1_0_split
I1016 15:52:47.596350 135789 net.cpp:434] fire5/squeeze1x1_fire5/squeeze1x1_0_split <- fire5/squeeze1x1
I1016 15:52:47.596359 135789 net.cpp:408] fire5/squeeze1x1_fire5/squeeze1x1_0_split -> fire5/squeeze1x1_fire5/squeeze1x1_0_split_0
I1016 15:52:47.596365 135789 net.cpp:408] fire5/squeeze1x1_fire5/squeeze1x1_0_split -> fire5/squeeze1x1_fire5/squeeze1x1_0_split_1
I1016 15:52:47.596415 135789 net.cpp:150] Setting up fire5/squeeze1x1_fire5/squeeze1x1_0_split
I1016 15:52:47.596421 135789 net.cpp:157] Top shape: 128 32 28 28 (3211264)
I1016 15:52:47.596426 135789 net.cpp:157] Top shape: 128 32 28 28 (3211264)
I1016 15:52:47.596428 135789 net.cpp:165] Memory required for data: 2842736640
I1016 15:52:47.596431 135789 layer_factory.hpp:77] Creating layer fire5/expand1x1
I1016 15:52:47.596451 135789 net.cpp:100] Creating Layer fire5/expand1x1
I1016 15:52:47.596454 135789 net.cpp:434] fire5/expand1x1 <- fire5/squeeze1x1_fire5/squeeze1x1_0_split_0
I1016 15:52:47.596459 135789 net.cpp:408] fire5/expand1x1 -> fire5/expand1x1
I1016 15:52:47.597698 135789 net.cpp:150] Setting up fire5/expand1x1
I1016 15:52:47.597712 135789 net.cpp:157] Top shape: 128 128 28 28 (12845056)
I1016 15:52:47.597728 135789 net.cpp:165] Memory required for data: 2894116864
I1016 15:52:47.597744 135789 layer_factory.hpp:77] Creating layer fire5/relu_expand1x1
I1016 15:52:47.597751 135789 net.cpp:100] Creating Layer fire5/relu_expand1x1
I1016 15:52:47.597755 135789 net.cpp:434] fire5/relu_expand1x1 <- fire5/expand1x1
I1016 15:52:47.597762 135789 net.cpp:395] fire5/relu_expand1x1 -> fire5/expand1x1 (in-place)
I1016 15:52:47.597939 135789 net.cpp:150] Setting up fire5/relu_expand1x1
I1016 15:52:47.597949 135789 net.cpp:157] Top shape: 128 128 28 28 (12845056)
I1016 15:52:47.597962 135789 net.cpp:165] Memory required for data: 2945497088
I1016 15:52:47.597966 135789 layer_factory.hpp:77] Creating layer fire5/expand3x3
I1016 15:52:47.597975 135789 net.cpp:100] Creating Layer fire5/expand3x3
I1016 15:52:47.597980 135789 net.cpp:434] fire5/expand3x3 <- fire5/squeeze1x1_fire5/squeeze1x1_0_split_1
I1016 15:52:47.597986 135789 net.cpp:408] fire5/expand3x3 -> fire5/expand3x3
I1016 15:52:47.599469 135789 net.cpp:150] Setting up fire5/expand3x3
I1016 15:52:47.599483 135789 net.cpp:157] Top shape: 128 128 28 28 (12845056)
I1016 15:52:47.599498 135789 net.cpp:165] Memory required for data: 2996877312
I1016 15:52:47.599505 135789 layer_factory.hpp:77] Creating layer fire5/relu_expand3x3
I1016 15:52:47.599511 135789 net.cpp:100] Creating Layer fire5/relu_expand3x3
I1016 15:52:47.599514 135789 net.cpp:434] fire5/relu_expand3x3 <- fire5/expand3x3
I1016 15:52:47.599521 135789 net.cpp:395] fire5/relu_expand3x3 -> fire5/expand3x3 (in-place)
I1016 15:52:47.599694 135789 net.cpp:150] Setting up fire5/relu_expand3x3
I1016 15:52:47.599704 135789 net.cpp:157] Top shape: 128 128 28 28 (12845056)
I1016 15:52:47.599719 135789 net.cpp:165] Memory required for data: 3048257536
I1016 15:52:47.599722 135789 layer_factory.hpp:77] Creating layer fire5/concat
I1016 15:52:47.599731 135789 net.cpp:100] Creating Layer fire5/concat
I1016 15:52:47.599735 135789 net.cpp:434] fire5/concat <- fire5/expand1x1
I1016 15:52:47.599740 135789 net.cpp:434] fire5/concat <- fire5/expand3x3
I1016 15:52:47.599745 135789 net.cpp:408] fire5/concat -> fire5/concat
I1016 15:52:47.599772 135789 net.cpp:150] Setting up fire5/concat
I1016 15:52:47.599777 135789 net.cpp:157] Top shape: 128 256 28 28 (25690112)
I1016 15:52:47.599781 135789 net.cpp:165] Memory required for data: 3151017984
I1016 15:52:47.599783 135789 layer_factory.hpp:77] Creating layer pool5
I1016 15:52:47.599789 135789 net.cpp:100] Creating Layer pool5
I1016 15:52:47.599792 135789 net.cpp:434] pool5 <- fire5/concat
I1016 15:52:47.599799 135789 net.cpp:408] pool5 -> pool5
I1016 15:52:47.599845 135789 net.cpp:150] Setting up pool5
I1016 15:52:47.599851 135789 net.cpp:157] Top shape: 128 256 14 14 (6422528)
I1016 15:52:47.599854 135789 net.cpp:165] Memory required for data: 3176708096
I1016 15:52:47.599858 135789 layer_factory.hpp:77] Creating layer fire6/squeeze1x1
I1016 15:52:47.599867 135789 net.cpp:100] Creating Layer fire6/squeeze1x1
I1016 15:52:47.599870 135789 net.cpp:434] fire6/squeeze1x1 <- pool5
I1016 15:52:47.599875 135789 net.cpp:408] fire6/squeeze1x1 -> fire6/squeeze1x1
I1016 15:52:47.601171 135789 net.cpp:150] Setting up fire6/squeeze1x1
I1016 15:52:47.601186 135789 net.cpp:157] Top shape: 128 48 14 14 (1204224)
I1016 15:52:47.601200 135789 net.cpp:165] Memory required for data: 3181524992
I1016 15:52:47.601207 135789 layer_factory.hpp:77] Creating layer fire6/squeeze1x1_fire6/squeeze1x1_0_split
I1016 15:52:47.601214 135789 net.cpp:100] Creating Layer fire6/squeeze1x1_fire6/squeeze1x1_0_split
I1016 15:52:47.601218 135789 net.cpp:434] fire6/squeeze1x1_fire6/squeeze1x1_0_split <- fire6/squeeze1x1
I1016 15:52:47.601223 135789 net.cpp:408] fire6/squeeze1x1_fire6/squeeze1x1_0_split -> fire6/squeeze1x1_fire6/squeeze1x1_0_split_0
I1016 15:52:47.601232 135789 net.cpp:408] fire6/squeeze1x1_fire6/squeeze1x1_0_split -> fire6/squeeze1x1_fire6/squeeze1x1_0_split_1
I1016 15:52:47.601275 135789 net.cpp:150] Setting up fire6/squeeze1x1_fire6/squeeze1x1_0_split
I1016 15:52:47.601282 135789 net.cpp:157] Top shape: 128 48 14 14 (1204224)
I1016 15:52:47.601287 135789 net.cpp:157] Top shape: 128 48 14 14 (1204224)
I1016 15:52:47.601300 135789 net.cpp:165] Memory required for data: 3191158784
I1016 15:52:47.601305 135789 layer_factory.hpp:77] Creating layer fire6/expand1x1
I1016 15:52:47.601312 135789 net.cpp:100] Creating Layer fire6/expand1x1
I1016 15:52:47.601315 135789 net.cpp:434] fire6/expand1x1 <- fire6/squeeze1x1_fire6/squeeze1x1_0_split_0
I1016 15:52:47.601325 135789 net.cpp:408] fire6/expand1x1 -> fire6/expand1x1
I1016 15:52:47.602576 135789 net.cpp:150] Setting up fire6/expand1x1
I1016 15:52:47.602591 135789 net.cpp:157] Top shape: 128 192 14 14 (4816896)
I1016 15:52:47.602604 135789 net.cpp:165] Memory required for data: 3210426368
I1016 15:52:47.602612 135789 layer_factory.hpp:77] Creating layer fire6/relu_expand1x1
I1016 15:52:47.602620 135789 net.cpp:100] Creating Layer fire6/relu_expand1x1
I1016 15:52:47.602625 135789 net.cpp:434] fire6/relu_expand1x1 <- fire6/expand1x1
I1016 15:52:47.602630 135789 net.cpp:395] fire6/relu_expand1x1 -> fire6/expand1x1 (in-place)
I1016 15:52:47.603030 135789 net.cpp:150] Setting up fire6/relu_expand1x1
I1016 15:52:47.603057 135789 net.cpp:157] Top shape: 128 192 14 14 (4816896)
I1016 15:52:47.603072 135789 net.cpp:165] Memory required for data: 3229693952
I1016 15:52:47.603075 135789 layer_factory.hpp:77] Creating layer fire6/expand3x3
I1016 15:52:47.603083 135789 net.cpp:100] Creating Layer fire6/expand3x3
I1016 15:52:47.603087 135789 net.cpp:434] fire6/expand3x3 <- fire6/squeeze1x1_fire6/squeeze1x1_0_split_1
I1016 15:52:47.603096 135789 net.cpp:408] fire6/expand3x3 -> fire6/expand3x3
I1016 15:52:47.605545 135789 net.cpp:150] Setting up fire6/expand3x3
I1016 15:52:47.605572 135789 net.cpp:157] Top shape: 128 192 14 14 (4816896)
I1016 15:52:47.605576 135789 net.cpp:165] Memory required for data: 3248961536
I1016 15:52:47.605583 135789 layer_factory.hpp:77] Creating layer fire6/relu_expand3x3
I1016 15:52:47.605589 135789 net.cpp:100] Creating Layer fire6/relu_expand3x3
I1016 15:52:47.605593 135789 net.cpp:434] fire6/relu_expand3x3 <- fire6/expand3x3
I1016 15:52:47.605599 135789 net.cpp:395] fire6/relu_expand3x3 -> fire6/expand3x3 (in-place)
I1016 15:52:47.606045 135789 net.cpp:150] Setting up fire6/relu_expand3x3
I1016 15:52:47.606057 135789 net.cpp:157] Top shape: 128 192 14 14 (4816896)
I1016 15:52:47.606072 135789 net.cpp:165] Memory required for data: 3268229120
I1016 15:52:47.606076 135789 layer_factory.hpp:77] Creating layer fire6/concat
I1016 15:52:47.606083 135789 net.cpp:100] Creating Layer fire6/concat
I1016 15:52:47.606087 135789 net.cpp:434] fire6/concat <- fire6/expand1x1
I1016 15:52:47.606092 135789 net.cpp:434] fire6/concat <- fire6/expand3x3
I1016 15:52:47.606096 135789 net.cpp:408] fire6/concat -> fire6/concat
I1016 15:52:47.606139 135789 net.cpp:150] Setting up fire6/concat
I1016 15:52:47.606145 135789 net.cpp:157] Top shape: 128 384 14 14 (9633792)
I1016 15:52:47.606148 135789 net.cpp:165] Memory required for data: 3306764288
I1016 15:52:47.606153 135789 layer_factory.hpp:77] Creating layer fire7/squeeze1x1
I1016 15:52:47.606160 135789 net.cpp:100] Creating Layer fire7/squeeze1x1
I1016 15:52:47.606164 135789 net.cpp:434] fire7/squeeze1x1 <- fire6/concat
I1016 15:52:47.606170 135789 net.cpp:408] fire7/squeeze1x1 -> fire7/squeeze1x1
I1016 15:52:47.607763 135789 net.cpp:150] Setting up fire7/squeeze1x1
I1016 15:52:47.607777 135789 net.cpp:157] Top shape: 128 48 14 14 (1204224)
I1016 15:52:47.607792 135789 net.cpp:165] Memory required for data: 3311581184
I1016 15:52:47.607805 135789 layer_factory.hpp:77] Creating layer fire7/squeeze1x1_fire7/squeeze1x1_0_split
I1016 15:52:47.607811 135789 net.cpp:100] Creating Layer fire7/squeeze1x1_fire7/squeeze1x1_0_split
I1016 15:52:47.607815 135789 net.cpp:434] fire7/squeeze1x1_fire7/squeeze1x1_0_split <- fire7/squeeze1x1
I1016 15:52:47.607821 135789 net.cpp:408] fire7/squeeze1x1_fire7/squeeze1x1_0_split -> fire7/squeeze1x1_fire7/squeeze1x1_0_split_0
I1016 15:52:47.607830 135789 net.cpp:408] fire7/squeeze1x1_fire7/squeeze1x1_0_split -> fire7/squeeze1x1_fire7/squeeze1x1_0_split_1
I1016 15:52:47.607867 135789 net.cpp:150] Setting up fire7/squeeze1x1_fire7/squeeze1x1_0_split
I1016 15:52:47.607883 135789 net.cpp:157] Top shape: 128 48 14 14 (1204224)
I1016 15:52:47.607887 135789 net.cpp:157] Top shape: 128 48 14 14 (1204224)
I1016 15:52:47.607890 135789 net.cpp:165] Memory required for data: 3321214976
I1016 15:52:47.607893 135789 layer_factory.hpp:77] Creating layer fire7/expand1x1
I1016 15:52:47.607903 135789 net.cpp:100] Creating Layer fire7/expand1x1
I1016 15:52:47.607906 135789 net.cpp:434] fire7/expand1x1 <- fire7/squeeze1x1_fire7/squeeze1x1_0_split_0
I1016 15:52:47.607913 135789 net.cpp:408] fire7/expand1x1 -> fire7/expand1x1
I1016 15:52:47.609396 135789 net.cpp:150] Setting up fire7/expand1x1
I1016 15:52:47.609411 135789 net.cpp:157] Top shape: 128 192 14 14 (4816896)
I1016 15:52:47.609426 135789 net.cpp:165] Memory required for data: 3340482560
I1016 15:52:47.609432 135789 layer_factory.hpp:77] Creating layer fire7/relu_expand1x1
I1016 15:52:47.609438 135789 net.cpp:100] Creating Layer fire7/relu_expand1x1
I1016 15:52:47.609444 135789 net.cpp:434] fire7/relu_expand1x1 <- fire7/expand1x1
I1016 15:52:47.609449 135789 net.cpp:395] fire7/relu_expand1x1 -> fire7/expand1x1 (in-place)
I1016 15:52:47.609657 135789 net.cpp:150] Setting up fire7/relu_expand1x1
I1016 15:52:47.609666 135789 net.cpp:157] Top shape: 128 192 14 14 (4816896)
I1016 15:52:47.609681 135789 net.cpp:165] Memory required for data: 3359750144
I1016 15:52:47.609684 135789 layer_factory.hpp:77] Creating layer fire7/expand3x3
I1016 15:52:47.609694 135789 net.cpp:100] Creating Layer fire7/expand3x3
I1016 15:52:47.609696 135789 net.cpp:434] fire7/expand3x3 <- fire7/squeeze1x1_fire7/squeeze1x1_0_split_1
I1016 15:52:47.609704 135789 net.cpp:408] fire7/expand3x3 -> fire7/expand3x3
I1016 15:52:47.611605 135789 net.cpp:150] Setting up fire7/expand3x3
I1016 15:52:47.611619 135789 net.cpp:157] Top shape: 128 192 14 14 (4816896)
I1016 15:52:47.611634 135789 net.cpp:165] Memory required for data: 3379017728
I1016 15:52:47.611641 135789 layer_factory.hpp:77] Creating layer fire7/relu_expand3x3
I1016 15:52:47.611649 135789 net.cpp:100] Creating Layer fire7/relu_expand3x3
I1016 15:52:47.611652 135789 net.cpp:434] fire7/relu_expand3x3 <- fire7/expand3x3
I1016 15:52:47.611657 135789 net.cpp:395] fire7/relu_expand3x3 -> fire7/expand3x3 (in-place)
I1016 15:52:47.611834 135789 net.cpp:150] Setting up fire7/relu_expand3x3
I1016 15:52:47.611842 135789 net.cpp:157] Top shape: 128 192 14 14 (4816896)
I1016 15:52:47.611856 135789 net.cpp:165] Memory required for data: 3398285312
I1016 15:52:47.611860 135789 layer_factory.hpp:77] Creating layer fire7/concat
I1016 15:52:47.611866 135789 net.cpp:100] Creating Layer fire7/concat
I1016 15:52:47.611870 135789 net.cpp:434] fire7/concat <- fire7/expand1x1
I1016 15:52:47.611874 135789 net.cpp:434] fire7/concat <- fire7/expand3x3
I1016 15:52:47.611879 135789 net.cpp:408] fire7/concat -> fire7/concat
I1016 15:52:47.611907 135789 net.cpp:150] Setting up fire7/concat
I1016 15:52:47.611913 135789 net.cpp:157] Top shape: 128 384 14 14 (9633792)
I1016 15:52:47.611917 135789 net.cpp:165] Memory required for data: 3436820480
I1016 15:52:47.611919 135789 layer_factory.hpp:77] Creating layer fire8/squeeze1x1
I1016 15:52:47.611927 135789 net.cpp:100] Creating Layer fire8/squeeze1x1
I1016 15:52:47.611930 135789 net.cpp:434] fire8/squeeze1x1 <- fire7/concat
I1016 15:52:47.611937 135789 net.cpp:408] fire8/squeeze1x1 -> fire8/squeeze1x1
I1016 15:52:47.613392 135789 net.cpp:150] Setting up fire8/squeeze1x1
I1016 15:52:47.613407 135789 net.cpp:157] Top shape: 128 64 14 14 (1605632)
I1016 15:52:47.613421 135789 net.cpp:165] Memory required for data: 3443243008
I1016 15:52:47.613427 135789 layer_factory.hpp:77] Creating layer fire8/squeeze1x1_fire8/squeeze1x1_0_split
I1016 15:52:47.613433 135789 net.cpp:100] Creating Layer fire8/squeeze1x1_fire8/squeeze1x1_0_split
I1016 15:52:47.613437 135789 net.cpp:434] fire8/squeeze1x1_fire8/squeeze1x1_0_split <- fire8/squeeze1x1
I1016 15:52:47.613445 135789 net.cpp:408] fire8/squeeze1x1_fire8/squeeze1x1_0_split -> fire8/squeeze1x1_fire8/squeeze1x1_0_split_0
I1016 15:52:47.613464 135789 net.cpp:408] fire8/squeeze1x1_fire8/squeeze1x1_0_split -> fire8/squeeze1x1_fire8/squeeze1x1_0_split_1
I1016 15:52:47.613505 135789 net.cpp:150] Setting up fire8/squeeze1x1_fire8/squeeze1x1_0_split
I1016 15:52:47.613512 135789 net.cpp:157] Top shape: 128 64 14 14 (1605632)
I1016 15:52:47.613515 135789 net.cpp:157] Top shape: 128 64 14 14 (1605632)
I1016 15:52:47.613518 135789 net.cpp:165] Memory required for data: 3456088064
I1016 15:52:47.613521 135789 layer_factory.hpp:77] Creating layer fire8/expand1x1
I1016 15:52:47.613530 135789 net.cpp:100] Creating Layer fire8/expand1x1
I1016 15:52:47.613534 135789 net.cpp:434] fire8/expand1x1 <- fire8/squeeze1x1_fire8/squeeze1x1_0_split_0
I1016 15:52:47.613539 135789 net.cpp:408] fire8/expand1x1 -> fire8/expand1x1
I1016 15:52:47.615116 135789 net.cpp:150] Setting up fire8/expand1x1
I1016 15:52:47.615135 135789 net.cpp:157] Top shape: 128 256 14 14 (6422528)
I1016 15:52:47.615139 135789 net.cpp:165] Memory required for data: 3481778176
I1016 15:52:47.615146 135789 layer_factory.hpp:77] Creating layer fire8/relu_expand1x1
I1016 15:52:47.615152 135789 net.cpp:100] Creating Layer fire8/relu_expand1x1
I1016 15:52:47.615156 135789 net.cpp:434] fire8/relu_expand1x1 <- fire8/expand1x1
I1016 15:52:47.615162 135789 net.cpp:395] fire8/relu_expand1x1 -> fire8/expand1x1 (in-place)
I1016 15:52:47.615578 135789 net.cpp:150] Setting up fire8/relu_expand1x1
I1016 15:52:47.615592 135789 net.cpp:157] Top shape: 128 256 14 14 (6422528)
I1016 15:52:47.615607 135789 net.cpp:165] Memory required for data: 3507468288
I1016 15:52:47.615610 135789 layer_factory.hpp:77] Creating layer fire8/expand3x3
I1016 15:52:47.615631 135789 net.cpp:100] Creating Layer fire8/expand3x3
I1016 15:52:47.615636 135789 net.cpp:434] fire8/expand3x3 <- fire8/squeeze1x1_fire8/squeeze1x1_0_split_1
I1016 15:52:47.615643 135789 net.cpp:408] fire8/expand3x3 -> fire8/expand3x3
I1016 15:52:47.618494 135789 net.cpp:150] Setting up fire8/expand3x3
I1016 15:52:47.618510 135789 net.cpp:157] Top shape: 128 256 14 14 (6422528)
I1016 15:52:47.618525 135789 net.cpp:165] Memory required for data: 3533158400
I1016 15:52:47.618531 135789 layer_factory.hpp:77] Creating layer fire8/relu_expand3x3
I1016 15:52:47.618538 135789 net.cpp:100] Creating Layer fire8/relu_expand3x3
I1016 15:52:47.618542 135789 net.cpp:434] fire8/relu_expand3x3 <- fire8/expand3x3
I1016 15:52:47.618548 135789 net.cpp:395] fire8/relu_expand3x3 -> fire8/expand3x3 (in-place)
I1016 15:52:47.618947 135789 net.cpp:150] Setting up fire8/relu_expand3x3
I1016 15:52:47.618960 135789 net.cpp:157] Top shape: 128 256 14 14 (6422528)
I1016 15:52:47.618975 135789 net.cpp:165] Memory required for data: 3558848512
I1016 15:52:47.618978 135789 layer_factory.hpp:77] Creating layer fire8/concat
I1016 15:52:47.618985 135789 net.cpp:100] Creating Layer fire8/concat
I1016 15:52:47.618989 135789 net.cpp:434] fire8/concat <- fire8/expand1x1
I1016 15:52:47.618994 135789 net.cpp:434] fire8/concat <- fire8/expand3x3
I1016 15:52:47.618999 135789 net.cpp:408] fire8/concat -> fire8/concat
I1016 15:52:47.619040 135789 net.cpp:150] Setting up fire8/concat
I1016 15:52:47.619047 135789 net.cpp:157] Top shape: 128 512 14 14 (12845056)
I1016 15:52:47.619050 135789 net.cpp:165] Memory required for data: 3610228736
I1016 15:52:47.619053 135789 layer_factory.hpp:77] Creating layer fire9/squeeze1x1
I1016 15:52:47.619062 135789 net.cpp:100] Creating Layer fire9/squeeze1x1
I1016 15:52:47.619065 135789 net.cpp:434] fire9/squeeze1x1 <- fire8/concat
I1016 15:52:47.619071 135789 net.cpp:408] fire9/squeeze1x1 -> fire9/squeeze1x1
I1016 15:52:47.620585 135789 net.cpp:150] Setting up fire9/squeeze1x1
I1016 15:52:47.620599 135789 net.cpp:157] Top shape: 128 64 14 14 (1605632)
I1016 15:52:47.620615 135789 net.cpp:165] Memory required for data: 3616651264
I1016 15:52:47.620621 135789 layer_factory.hpp:77] Creating layer fire9/squeeze1x1_fire9/squeeze1x1_0_split
I1016 15:52:47.620627 135789 net.cpp:100] Creating Layer fire9/squeeze1x1_fire9/squeeze1x1_0_split
I1016 15:52:47.620632 135789 net.cpp:434] fire9/squeeze1x1_fire9/squeeze1x1_0_split <- fire9/squeeze1x1
I1016 15:52:47.620651 135789 net.cpp:408] fire9/squeeze1x1_fire9/squeeze1x1_0_split -> fire9/squeeze1x1_fire9/squeeze1x1_0_split_0
I1016 15:52:47.620659 135789 net.cpp:408] fire9/squeeze1x1_fire9/squeeze1x1_0_split -> fire9/squeeze1x1_fire9/squeeze1x1_0_split_1
I1016 15:52:47.620702 135789 net.cpp:150] Setting up fire9/squeeze1x1_fire9/squeeze1x1_0_split
I1016 15:52:47.620707 135789 net.cpp:157] Top shape: 128 64 14 14 (1605632)
I1016 15:52:47.620712 135789 net.cpp:157] Top shape: 128 64 14 14 (1605632)
I1016 15:52:47.620714 135789 net.cpp:165] Memory required for data: 3629496320
I1016 15:52:47.620718 135789 layer_factory.hpp:77] Creating layer fire9/expand1x1
I1016 15:52:47.620725 135789 net.cpp:100] Creating Layer fire9/expand1x1
I1016 15:52:47.620729 135789 net.cpp:434] fire9/expand1x1 <- fire9/squeeze1x1_fire9/squeeze1x1_0_split_0
I1016 15:52:47.620734 135789 net.cpp:408] fire9/expand1x1 -> fire9/expand1x1
I1016 15:52:47.622146 135789 net.cpp:150] Setting up fire9/expand1x1
I1016 15:52:47.622160 135789 net.cpp:157] Top shape: 128 256 14 14 (6422528)
I1016 15:52:47.622175 135789 net.cpp:165] Memory required for data: 3655186432
I1016 15:52:47.622184 135789 layer_factory.hpp:77] Creating layer fire9/relu_expand1x1
I1016 15:52:47.622190 135789 net.cpp:100] Creating Layer fire9/relu_expand1x1
I1016 15:52:47.622195 135789 net.cpp:434] fire9/relu_expand1x1 <- fire9/expand1x1
I1016 15:52:47.622200 135789 net.cpp:395] fire9/relu_expand1x1 -> fire9/expand1x1 (in-place)
I1016 15:52:47.622634 135789 net.cpp:150] Setting up fire9/relu_expand1x1
I1016 15:52:47.622648 135789 net.cpp:157] Top shape: 128 256 14 14 (6422528)
I1016 15:52:47.622661 135789 net.cpp:165] Memory required for data: 3680876544
I1016 15:52:47.622665 135789 layer_factory.hpp:77] Creating layer fire9/expand3x3
I1016 15:52:47.622674 135789 net.cpp:100] Creating Layer fire9/expand3x3
I1016 15:52:47.622678 135789 net.cpp:434] fire9/expand3x3 <- fire9/squeeze1x1_fire9/squeeze1x1_0_split_1
I1016 15:52:47.622686 135789 net.cpp:408] fire9/expand3x3 -> fire9/expand3x3
I1016 15:52:47.625740 135789 net.cpp:150] Setting up fire9/expand3x3
I1016 15:52:47.625756 135789 net.cpp:157] Top shape: 128 256 14 14 (6422528)
I1016 15:52:47.625771 135789 net.cpp:165] Memory required for data: 3706566656
I1016 15:52:47.625778 135789 layer_factory.hpp:77] Creating layer fire9/relu_expand3x3
I1016 15:52:47.625784 135789 net.cpp:100] Creating Layer fire9/relu_expand3x3
I1016 15:52:47.625788 135789 net.cpp:434] fire9/relu_expand3x3 <- fire9/expand3x3
I1016 15:52:47.625794 135789 net.cpp:395] fire9/relu_expand3x3 -> fire9/expand3x3 (in-place)
I1016 15:52:47.625980 135789 net.cpp:150] Setting up fire9/relu_expand3x3
I1016 15:52:47.625990 135789 net.cpp:157] Top shape: 128 256 14 14 (6422528)
I1016 15:52:47.626005 135789 net.cpp:165] Memory required for data: 3732256768
I1016 15:52:47.626008 135789 layer_factory.hpp:77] Creating layer fire9/concat
I1016 15:52:47.626014 135789 net.cpp:100] Creating Layer fire9/concat
I1016 15:52:47.626018 135789 net.cpp:434] fire9/concat <- fire9/expand1x1
I1016 15:52:47.626022 135789 net.cpp:434] fire9/concat <- fire9/expand3x3
I1016 15:52:47.626027 135789 net.cpp:408] fire9/concat -> fire9/concat
I1016 15:52:47.626057 135789 net.cpp:150] Setting up fire9/concat
I1016 15:52:47.626063 135789 net.cpp:157] Top shape: 128 512 14 14 (12845056)
I1016 15:52:47.626066 135789 net.cpp:165] Memory required for data: 3783636992
I1016 15:52:47.626070 135789 layer_factory.hpp:77] Creating layer drop9
I1016 15:52:47.626076 135789 net.cpp:100] Creating Layer drop9
I1016 15:52:47.626080 135789 net.cpp:434] drop9 <- fire9/concat
I1016 15:52:47.626085 135789 net.cpp:395] drop9 -> fire9/concat (in-place)
I1016 15:52:47.626124 135789 net.cpp:150] Setting up drop9
I1016 15:52:47.626130 135789 net.cpp:157] Top shape: 128 512 14 14 (12845056)
I1016 15:52:47.626133 135789 net.cpp:165] Memory required for data: 3835017216
I1016 15:52:47.626137 135789 layer_factory.hpp:77] Creating layer conv10_2626
I1016 15:52:47.626157 135789 net.cpp:100] Creating Layer conv10_2626
I1016 15:52:47.626162 135789 net.cpp:434] conv10_2626 <- fire9/concat
I1016 15:52:47.626166 135789 net.cpp:408] conv10_2626 -> conv10_2626
I1016 15:52:47.649929 135789 net.cpp:150] Setting up conv10_2626
I1016 15:52:47.649969 135789 net.cpp:157] Top shape: 128 2626 14 14 (65881088)
I1016 15:52:47.649974 135789 net.cpp:165] Memory required for data: 4098541568
I1016 15:52:47.649983 135789 layer_factory.hpp:77] Creating layer relu_conv10
I1016 15:52:47.650004 135789 net.cpp:100] Creating Layer relu_conv10
I1016 15:52:47.650010 135789 net.cpp:434] relu_conv10 <- conv10_2626
I1016 15:52:47.650018 135789 net.cpp:395] relu_conv10 -> conv10_2626 (in-place)
I1016 15:52:47.650445 135789 net.cpp:150] Setting up relu_conv10
I1016 15:52:47.650459 135789 net.cpp:157] Top shape: 128 2626 14 14 (65881088)
I1016 15:52:47.650473 135789 net.cpp:165] Memory required for data: 4362065920
I1016 15:52:47.650478 135789 layer_factory.hpp:77] Creating layer pool10
I1016 15:52:47.650501 135789 net.cpp:100] Creating Layer pool10
I1016 15:52:47.650506 135789 net.cpp:434] pool10 <- conv10_2626
I1016 15:52:47.650511 135789 net.cpp:408] pool10 -> pool10
I1016 15:52:47.650753 135789 net.cpp:150] Setting up pool10
I1016 15:52:47.650774 135789 net.cpp:157] Top shape: 128 2626 1 1 (336128)
I1016 15:52:47.650779 135789 net.cpp:165] Memory required for data: 4363410432
I1016 15:52:47.650781 135789 layer_factory.hpp:77] Creating layer loss
I1016 15:52:47.650799 135789 net.cpp:100] Creating Layer loss
I1016 15:52:47.650804 135789 net.cpp:434] loss <- pool10
I1016 15:52:47.650809 135789 net.cpp:434] loss <- label
I1016 15:52:47.650815 135789 net.cpp:408] loss -> loss
…
I1016 15:52:47.653671 135789 solver.cpp:181] Creating test net (#0) specified by net file: models/SqueezeNet/train_val.prototxt
I1016 15:52:47.653803 135789 net.cpp:322] The NetState phase (1) differed from the phase (0) specified by a rule in layer data
I1016 15:52:47.654211 135789 net.cpp:58] Initializing net from parameters: 
state {
  phase: TEST
}
layer {
  name: "data"
  type: "Data"
  top: "data"
  top: "label"
  include {
    phase: TEST
  }
  transform_param {
    crop_size: 227
    mean_file: "/share/zhh/mean.binaryproto"
  }
  data_param {
    source: "/share/front/test_lmdb"
    batch_size: 100
    backend: LMDB
  }
}
layer {
  name: "conv1"
  type: "Convolution"
  bottom: "data"
  top: "conv1"
  convolution_param {
    num_output: 64
    kernel_size: 3
    stride: 2
    weight_filler {
      type: "xavier"
    }
  }
}
layer {
  name: "relu_conv1"
  type: "ReLU"
  bottom: "conv1"
  top: "conv1"
}
layer {
  name: "pool1"
  type: "Pooling"
  bottom: "conv1"
  top: "pool1"
  pooling_param {
    pool: MAX
    kernel_size: 3
    stride: 2
  }
}
layer {
  name: "fire2/squeeze1x1"
  type: "Convolution"
  bottom: "pool1"
  top: "fire2/squeeze1x1"
  convolution_param {
    num_output: 16
    kernel_size: 1
    weight_filler {
      type: "xavier"
    }
  }
}
layer {
  name: "fire2/expand1x1"
  type: "Convolution"
  bottom: "fire2/squeeze1x1"
  top: "fire2/expand1x1"
  convolution_param {
    num_output: 64
    kernel_size: 1
    weight_filler {
      type: "xavier"
    }
  }
}
layer {
  name: "fire2/relu_expand1x1"
  type: "ReLU"
  bottom: "fire2/expand1x1"
  top: "fire2/expand1x1"
}
layer {
  name: "fire2/expand3x3"
  type: "Convolution"
  bottom: "fire2/squeeze1x1"
  top: "fire2/expand3x3"
  convolution_param {
    num_output: 64
    pad: 1
    kernel_size: 3
    weight_filler {
      type: "xavier"
    }
  }
}
layer {
  name: "fire2/relu_expand3x3"
  type: "ReLU"
  bottom: "fire2/expand3x3"
  top: "fire2/expand3x3"
}
layer {
  name: "fire2/concat"
  type: "Concat"
  bottom: "fire2/expand1x1"
  bottom: "fire2/expand3x3"
  top: "fire2/concat"
}
layer {
  name: "fire3/squeeze1x1"
  type: "Convolution"
  bottom: "fire2/concat"
  top: "fire3/squeeze1x1"
  convolution_param {
    num_output: 16
    kernel_size: 1
    weight_filler {
      type: "xavier"
    }
  }
}
layer {
  name: "fire3/expand1x1"
  type: "Convolution"
  bottom: "fire3/squeeze1x1"
  top: "fire3/expand1x1"
  convolution_param {
    num_output: 64
    kernel_size: 1
    weight_filler {
      type: "xavier"
    }
  }
}
layer {
  name: "fire3/relu_expand1x1"
  type: "ReLU"
  bottom: "fire3/expand1x1"
  top: "fire3/expand1x1"
}
layer {
  name: "fire3/expand3x3"
  type: "Convolution"
  bottom: "fire3/squeeze1x1"
  top: "fire3/expand3x3"
  convolution_param {
    num_output: 64
    pad: 1
    kernel_size: 3
    weight_filler {
      type: "xavier"
    }
  }
}
layer {
  name: "fire3/relu_expand3x3"
  type: "ReLU"
  bottom: "fire3/expand3x3"
  top: "fire3/expand3x3"
}
layer {
  name: "fire3/concat"
  type: "Concat"
  bottom: "fire3/expand1x1"
  bottom: "fire3/expand3x3"
  top: "fire3/concat"
}
layer {
  name: "pool3"
  type: "Pooling"
  bottom: "fire3/concat"
  top: "pool3"
  pooling_param {
    pool: MAX
    kernel_size: 3
    stride: 2
  }
}
layer {
  name: "fire4/squeeze1x1"
  type: "Convolution"
  bottom: "pool3"
  top: "fire4/squeeze1x1"
  convolution_param {
    num_output: 32
    kernel_size: 1
    weight_filler {
      type: "xavier"
    }
  }
}
layer {
  name: "fire4/expand1x1"
  type: "Convolution"
  bottom: "fire4/squeeze1x1"
  top: "fire4/expand1x1"
  convolution_param {
    num_output: 128
    kernel_size: 1
    weight_filler {
      type: "xavier"
    }
  }
}
layer {
  name: "fire4/relu_expand1x1"
  type: "ReLU"
  bottom: "fire4/expand1x1"
  top: "fire4/expand1x1"
}
layer {
  name: "fire4/expand3x3"
  type: "Convolution"
  bottom: "fire4/squeeze1x1"
  top: "fire4/expand3x3"
  convolution_param {
    num_output: 128
    pad: 1
    kernel_size: 3
    weight_filler {
      type: "xavier"
    }
  }
}
layer {
  name: "fire4/relu_expand3x3"
  type: "ReLU"
  bottom: "fire4/expand3x3"
  top: "fire4/expand3x3"
}
layer {
  name: "fire4/concat"
  type: "Concat"
  bottom: "fire4/expand1x1"
  bottom: "fire4/expand3x3"
  top: "fire4/concat"
}
layer {
  name: "fire5/squeeze1x1"
  type: "Convolution"
  bottom: "fire4/concat"
  top: "fire5/squeeze1x1"
  convolution_param {
    num_output: 32
    kernel_size: 1
    weight_filler {
      type: "xavier"
    }
  }
}
layer {
  name: "fire5/expand1x1"
  type: "Convolution"
  bottom: "fire5/squeeze1x1"
  top: "fire5/expand1x1"
  convolution_param {
    num_output: 128
    kernel_size: 1
    weight_filler {
      type: "xavier"
    }
  }
}
layer {
  name: "fire5/relu_expand1x1"
  type: "ReLU"
  bottom: "fire5/expand1x1"
  top: "fire5/expand1x1"
}
layer {
  name: "fire5/expand3x3"
  type: "Convolution"
  bottom: "fire5/squeeze1x1"
  top: "fire5/expand3x3"
  convolution_param {
    num_output: 128
    pad: 1
    kernel_size: 3
    weight_filler {
      type: "xavier"
    }
  }
}
layer {
  name: "fire5/relu_expand3x3"
  type: "ReLU"
  bottom: "fire5/expand3x3"
  top: "fire5/expand3x3"
}
layer {
  name: "fire5/concat"
  type: "Concat"
  bottom: "fire5/expand1x1"
  bottom: "fire5/expand3x3"
  top: "fire5/concat"
}
layer {
  name: "pool5"
  type: "Pooling"
  bottom: "fire5/concat"
  top: "pool5"
  pooling_param {
    pool: MAX
    kernel_size: 3
    stride: 2
  }
}
layer {
  name: "fire6/squeeze1x1"
  type: "Convolution"
  bottom: "pool5"
  top: "fire6/squeeze1x1"
  convolution_param {
    num_output: 48
    kernel_size: 1
    weight_filler {
      type: "xavier"
    }
  }
}
layer {
  name: "fire6/expand1x1"
  type: "Convolution"
  bottom: "fire6/squeeze1x1"
  top: "fire6/expand1x1"
  convolution_param {
    num_output: 192
    kernel_size: 1
    weight_filler {
      type: "xavier"
    }
  }
}
layer {
  name: "fire6/relu_expand1x1"
  type: "ReLU"
  bottom: "fire6/expand1x1"
  top: "fire6/expand1x1"
}
layer {
  name: "fire6/expand3x3"
  type: "Convolution"
  bottom: "fire6/squeeze1x1"
  top: "fire6/expand3x3"
  convolution_param {
    num_output: 192
    pad: 1
    kernel_size: 3
    weight_filler {
      type: "xavier"
    }
  }
}
layer {
  name: "fire6/relu_expand3x3"
  type: "ReLU"
  bottom: "fire6/expand3x3"
  top: "fire6/expand3x3"
}
layer {
  name: "fire6/concat"
  type: "Concat"
  bottom: "fire6/expand1x1"
  bottom: "fire6/expand3x3"
  top: "fire6/concat"
}
layer {
  name: "fire7/squeeze1x1"
  type: "Convolution"
  bottom: "fire6/concat"
  top: "fire7/squeeze1x1"
  convolution_param {
    num_output: 48
    kernel_size: 1
    weight_filler {
      type: "xavier"
    }
  }
}
layer {
  name: "fire7/expand1x1"
  type: "Convolution"
  bottom: "fire7/squeeze1x1"
  top: "fire7/expand1x1"
  convolution_param {
    num_output: 192
    kernel_size: 1
    weight_filler {
      type: "xavier"
    }
  }
}
layer {
  name: "fire7/relu_expand1x1"
  type: "ReLU"
  bottom: "fire7/expand1x1"
  top: "fire7/expand1x1"
}
layer {
  name: "fire7/expand3x3"
  type: "Convolution"
  bottom: "fire7/squeeze1x1"
  top: "fire7/expand3x3"
  convolution_param {
    num_output: 192
    pad: 1
    kernel_size: 3
    weight_filler {
      type: "xavier"
    }
  }
}
layer {
  name: "fire7/relu_expand3x3"
  type: "ReLU"
  bottom: "fire7/expand3x3"
  top: "fire7/expand3x3"
}
layer {
  name: "fire7/concat"
  type: "Concat"
  bottom: "fire7/expand1x1"
  bottom: "fire7/expand3x3"
  top: "fire7/concat"
}
layer {
  name: "fire8/squeeze1x1"
  type: "Convolution"
  bottom: "fire7/concat"
  top: "fire8/squeeze1x1"
  convolution_param {
    num_output: 64
    kernel_size: 1
    weight_filler {
      type: "xavier"
    }
  }
}
layer {
  name: "fire8/expand1x1"
  type: "Convolution"
  bottom: "fire8/squeeze1x1"
  top: "fire8/expand1x1"
  convolution_param {
    num_output: 256
    kernel_size: 1
    weight_filler {
      type: "xavier"
    }
  }
}
layer {
  name: "fire8/relu_expand1x1"
  type: "ReLU"
  bottom: "fire8/expand1x1"
  top: "fire8/expand1x1"
}
layer {
  name: "fire8/expand3x3"
  type: "Convolution"
  bottom: "fire8/squeeze1x1"
  top: "fire8/expand3x3"
  convolution_param {
    num_output: 256
    pad: 1
    kernel_size: 3
    weight_filler {
      type: "xavier"
    }
  }
}
layer {
  name: "fire8/relu_expand3x3"
  type: "ReLU"
  bottom: "fire8/expand3x3"
  top: "fire8/expand3x3"
}
layer {
  name: "fire8/concat"
  type: "Concat"
  bottom: "fire8/expand1x1"
  bottom: "fire8/expand3x3"
  top: "fire8/concat"
}
layer {
  name: "fire9/squeeze1x1"
  type: "Convolution"
  bottom: "fire8/concat"
  top: "fire9/squeeze1x1"
  convolution_param {
    num_output: 64
    kernel_size: 1
    weight_filler {
      type: "xavier"
    }
  }
}
layer {
  name: "fire9/expand1x1"
  type: "Convolution"
  bottom: "fire9/squeeze1x1"
  top: "fire9/expand1x1"
  convolution_param {
    num_output: 256
    kernel_size: 1
    weight_filler {
      type: "xavier"
    }
  }
}
layer {
  name: "fire9/relu_expand1x1"
  type: "ReLU"
  bottom: "fire9/expand1x1"
  top: "fire9/expand1x1"
}
layer {
  name: "fire9/expand3x3"
  type: "Convolution"
  bottom: "fire9/squeeze1x1"
  top: "fire9/expand3x3"
  convolution_param {
    num_output: 256
    pad: 1
    kernel_size: 3
    weight_filler {
      type: "xavier"
    }
  }
}
layer {
  name: "fire9/relu_expand3x3"
  type: "ReLU"
  bottom: "fire9/expand3x3"
  top: "fire9/expand3x3"
}
layer {
  name: "fire9/concat"
  type: "Concat"
  bottom: "fire9/expand1x1"
  bottom: "fire9/expand3x3"
  top: "fire9/concat"
}
layer {
  name: "drop9"
  type: "Dropout"
  bottom: "fire9/concat"
  top: "fire9/concat"
  dropout_param {
    dropout_ratio: 0.5
  }
}
layer {
  name: "conv10_2626"
  type: "Convolution"
  bottom: "fire9/concat"
  top: "conv10_2626"
  param {
    lr_mult: 10
    decay_mult: 1
  }
  convolution_param {
    num_output: 2626
    kernel_size: 1
    weight_filler {
      type: "gaussian"
      mean: 0
      std: 0.01
    }
  }
}
layer {
  name: "relu_conv10"
  type: "ReLU"
  bottom: "conv10_2626"
  top: "conv10_2626"
}
layer {
  name: "pool10"
  type: "Pooling"
  bottom: "conv10_2626"
  top: "pool10"
  pooling_param {
    pool: AVE
    global_pooling: true
  }
}
layer {
  name: "loss"
  type: "SoftmaxWithLoss"
  bottom: "pool10"
  bottom: "label"
  top: "loss"
}
layer {
  name: "accuracy"
  type: "Accuracy"
  bottom: "pool10"
  bottom: "label"
  top: "accuracy"
  include {
    phase: TEST
  }
}
I1016 15:52:47.654476 135789 layer_factory.hpp:77] Creating layer data
I1016 15:52:47.654583 135789 net.cpp:100] Creating Layer data
I1016 15:52:47.654603 135789 net.cpp:408] data -> data
I1016 15:52:47.654611 135789 net.cpp:408] data -> label
I1016 15:52:47.654619 135789 data_transformer.cpp:25] Loading mean file from: /share/zhh/mean.binaryproto
I1016 15:52:47.656167 135810 db_lmdb.cpp:35] Opened lmdb /share/front/test_lmdb
I1016 15:52:47.704675 135789 data_layer.cpp:41] output data size: 100,3,227,227
I1016 15:52:47.798001 135789 net.cpp:150] Setting up data
I1016 15:52:47.798034 135789 net.cpp:157] Top shape: 100 3 227 227 (15458700)
I1016 15:52:47.798040 135789 net.cpp:157] Top shape: 100 (100)
I1016 15:52:47.798043 135789 net.cpp:165] Memory required for data: 61835200
I1016 15:52:47.798050 135789 layer_factory.hpp:77] Creating layer label_data_1_split
I1016 15:52:47.798064 135789 net.cpp:100] Creating Layer label_data_1_split
I1016 15:52:47.798069 135789 net.cpp:434] label_data_1_split <- label
I1016 15:52:47.798089 135789 net.cpp:408] label_data_1_split -> label_data_1_split_0
I1016 15:52:47.798101 135789 net.cpp:408] label_data_1_split -> label_data_1_split_1
I1016 15:52:47.798365 135789 net.cpp:150] Setting up label_data_1_split
I1016 15:52:47.798382 135789 net.cpp:157] Top shape: 100 (100)
I1016 15:52:47.798388 135789 net.cpp:157] Top shape: 100 (100)
I1016 15:52:47.798390 135789 net.cpp:165] Memory required for data: 61836000
I1016 15:52:47.798395 135789 layer_factory.hpp:77] Creating layer conv1
I1016 15:52:47.798409 135789 net.cpp:100] Creating Layer conv1
I1016 15:52:47.798413 135789 net.cpp:434] conv1 <- data
I1016 15:52:47.798419 135789 net.cpp:408] conv1 -> conv1
I1016 15:52:47.800088 135789 net.cpp:150] Setting up conv1
I1016 15:52:47.800104 135789 net.cpp:157] Top shape: 100 64 113 113 (81721600)
I1016 15:52:47.800108 135789 net.cpp:165] Memory required for data: 388722400
I1016 15:52:47.800148 135789 layer_factory.hpp:77] Creating layer relu_conv1
I1016 15:52:47.800158 135789 net.cpp:100] Creating Layer relu_conv1
I1016 15:52:47.800161 135789 net.cpp:434] relu_conv1 <- conv1
I1016 15:52:47.800166 135789 net.cpp:395] relu_conv1 -> conv1 (in-place)
I1016 15:52:47.800365 135789 net.cpp:150] Setting up relu_conv1
I1016 15:52:47.800376 135789 net.cpp:157] Top shape: 100 64 113 113 (81721600)
I1016 15:52:47.800380 135789 net.cpp:165] Memory required for data: 715608800
I1016 15:52:47.800384 135789 layer_factory.hpp:77] Creating layer pool1
I1016 15:52:47.800392 135789 net.cpp:100] Creating Layer pool1
I1016 15:52:47.800396 135789 net.cpp:434] pool1 <- conv1
I1016 15:52:47.800402 135789 net.cpp:408] pool1 -> pool1
I1016 15:52:47.800494 135789 net.cpp:150] Setting up pool1
I1016 15:52:47.800503 135789 net.cpp:157] Top shape: 100 64 56 56 (20070400)
I1016 15:52:47.800519 135789 net.cpp:165] Memory required for data: 795890400
I1016 15:52:47.800523 135789 layer_factory.hpp:77] Creating layer fire2/squeeze1x1
I1016 15:52:47.800531 135789 net.cpp:100] Creating Layer fire2/squeeze1x1
I1016 15:52:47.800535 135789 net.cpp:434] fire2/squeeze1x1 <- pool1
I1016 15:52:47.800540 135789 net.cpp:408] fire2/squeeze1x1 -> fire2/squeeze1x1
I1016 15:52:47.810107 135789 net.cpp:150] Setting up fire2/squeeze1x1
I1016 15:52:47.810137 135789 net.cpp:157] Top shape: 100 16 56 56 (5017600)
I1016 15:52:47.810140 135789 net.cpp:165] Memory required for data: 815960800
I1016 15:52:47.810153 135789 layer_factory.hpp:77] Creating layer fire2/squeeze1x1_fire2/squeeze1x1_0_split
I1016 15:52:47.810174 135789 net.cpp:100] Creating Layer fire2/squeeze1x1_fire2/squeeze1x1_0_split
I1016 15:52:47.810179 135789 net.cpp:434] fire2/squeeze1x1_fire2/squeeze1x1_0_split <- fire2/squeeze1x1
I1016 15:52:47.810187 135789 net.cpp:408] fire2/squeeze1x1_fire2/squeeze1x1_0_split -> fire2/squeeze1x1_fire2/squeeze1x1_0_split_0
I1016 15:52:47.810196 135789 net.cpp:408] fire2/squeeze1x1_fire2/squeeze1x1_0_split -> fire2/squeeze1x1_fire2/squeeze1x1_0_split_1
I1016 15:52:47.810245 135789 net.cpp:150] Setting up fire2/squeeze1x1_fire2/squeeze1x1_0_split
I1016 15:52:47.810251 135789 net.cpp:157] Top shape: 100 16 56 56 (5017600)
I1016 15:52:47.810256 135789 net.cpp:157] Top shape: 100 16 56 56 (5017600)
I1016 15:52:47.810259 135789 net.cpp:165] Memory required for data: 856101600
I1016 15:52:47.810262 135789 layer_factory.hpp:77] Creating layer fire2/expand1x1
I1016 15:52:47.810273 135789 net.cpp:100] Creating Layer fire2/expand1x1
I1016 15:52:47.810276 135789 net.cpp:434] fire2/expand1x1 <- fire2/squeeze1x1_fire2/squeeze1x1_0_split_0
I1016 15:52:47.810282 135789 net.cpp:408] fire2/expand1x1 -> fire2/expand1x1
I1016 15:52:47.811585 135789 net.cpp:150] Setting up fire2/expand1x1
I1016 15:52:47.811600 135789 net.cpp:157] Top shape: 100 64 56 56 (20070400)
I1016 15:52:47.811604 135789 net.cpp:165] Memory required for data: 936383200
I1016 15:52:47.811625 135789 layer_factory.hpp:77] Creating layer fire2/relu_expand1x1
I1016 15:52:47.811635 135789 net.cpp:100] Creating Layer fire2/relu_expand1x1
I1016 15:52:47.811640 135789 net.cpp:434] fire2/relu_expand1x1 <- fire2/expand1x1
I1016 15:52:47.811645 135789 net.cpp:395] fire2/relu_expand1x1 -> fire2/expand1x1 (in-place)
I1016 15:52:47.811828 135789 net.cpp:150] Setting up fire2/relu_expand1x1
I1016 15:52:47.811839 135789 net.cpp:157] Top shape: 100 64 56 56 (20070400)
I1016 15:52:47.811843 135789 net.cpp:165] Memory required for data: 1016664800
I1016 15:52:47.811846 135789 layer_factory.hpp:77] Creating layer fire2/expand3x3
I1016 15:52:47.811856 135789 net.cpp:100] Creating Layer fire2/expand3x3
I1016 15:52:47.811859 135789 net.cpp:434] fire2/expand3x3 <- fire2/squeeze1x1_fire2/squeeze1x1_0_split_1
I1016 15:52:47.811866 135789 net.cpp:408] fire2/expand3x3 -> fire2/expand3x3
I1016 15:52:47.813273 135789 net.cpp:150] Setting up fire2/expand3x3
I1016 15:52:47.813289 135789 net.cpp:157] Top shape: 100 64 56 56 (20070400)
I1016 15:52:47.813293 135789 net.cpp:165] Memory required for data: 1096946400
I1016 15:52:47.813329 135789 layer_factory.hpp:77] Creating layer fire2/relu_expand3x3
I1016 15:52:47.813338 135789 net.cpp:100] Creating Layer fire2/relu_expand3x3
I1016 15:52:47.813341 135789 net.cpp:434] fire2/relu_expand3x3 <- fire2/expand3x3
I1016 15:52:47.813347 135789 net.cpp:395] fire2/relu_expand3x3 -> fire2/expand3x3 (in-place)
I1016 15:52:47.813761 135789 net.cpp:150] Setting up fire2/relu_expand3x3
I1016 15:52:47.813776 135789 net.cpp:157] Top shape: 100 64 56 56 (20070400)
I1016 15:52:47.813779 135789 net.cpp:165] Memory required for data: 1177228000
I1016 15:52:47.813783 135789 layer_factory.hpp:77] Creating layer fire2/concat
I1016 15:52:47.813789 135789 net.cpp:100] Creating Layer fire2/concat
I1016 15:52:47.813793 135789 net.cpp:434] fire2/concat <- fire2/expand1x1
I1016 15:52:47.813799 135789 net.cpp:434] fire2/concat <- fire2/expand3x3
I1016 15:52:47.813804 135789 net.cpp:408] fire2/concat -> fire2/concat
I1016 15:52:47.813838 135789 net.cpp:150] Setting up fire2/concat
I1016 15:52:47.813844 135789 net.cpp:157] Top shape: 100 128 56 56 (40140800)
I1016 15:52:47.813848 135789 net.cpp:165] Memory required for data: 1337791200
I1016 15:52:47.813851 135789 layer_factory.hpp:77] Creating layer fire3/squeeze1x1
I1016 15:52:47.813858 135789 net.cpp:100] Creating Layer fire3/squeeze1x1
I1016 15:52:47.813863 135789 net.cpp:434] fire3/squeeze1x1 <- fire2/concat
I1016 15:52:47.813868 135789 net.cpp:408] fire3/squeeze1x1 -> fire3/squeeze1x1
I1016 15:52:47.814986 135789 net.cpp:150] Setting up fire3/squeeze1x1
I1016 15:52:47.815001 135789 net.cpp:157] Top shape: 100 16 56 56 (5017600)
I1016 15:52:47.815004 135789 net.cpp:165] Memory required for data: 1357861600
I1016 15:52:47.815014 135789 layer_factory.hpp:77] Creating layer fire3/squeeze1x1_fire3/squeeze1x1_0_split
I1016 15:52:47.815033 135789 net.cpp:100] Creating Layer fire3/squeeze1x1_fire3/squeeze1x1_0_split
I1016 15:52:47.815037 135789 net.cpp:434] fire3/squeeze1x1_fire3/squeeze1x1_0_split <- fire3/squeeze1x1
I1016 15:52:47.815043 135789 net.cpp:408] fire3/squeeze1x1_fire3/squeeze1x1_0_split -> fire3/squeeze1x1_fire3/squeeze1x1_0_split_0
I1016 15:52:47.815050 135789 net.cpp:408] fire3/squeeze1x1_fire3/squeeze1x1_0_split -> fire3/squeeze1x1_fire3/squeeze1x1_0_split_1
I1016 15:52:47.815094 135789 net.cpp:150] Setting up fire3/squeeze1x1_fire3/squeeze1x1_0_split
I1016 15:52:47.815100 135789 net.cpp:157] Top shape: 100 16 56 56 (5017600)
I1016 15:52:47.815104 135789 net.cpp:157] Top shape: 100 16 56 56 (5017600)
I1016 15:52:47.815107 135789 net.cpp:165] Memory required for data: 1398002400
I1016 15:52:47.815111 135789 layer_factory.hpp:77] Creating layer fire3/expand1x1
I1016 15:52:47.815119 135789 net.cpp:100] Creating Layer fire3/expand1x1
I1016 15:52:47.815122 135789 net.cpp:434] fire3/expand1x1 <- fire3/squeeze1x1_fire3/squeeze1x1_0_split_0
I1016 15:52:47.815129 135789 net.cpp:408] fire3/expand1x1 -> fire3/expand1x1
I1016 15:52:47.816431 135789 net.cpp:150] Setting up fire3/expand1x1
I1016 15:52:47.816447 135789 net.cpp:157] Top shape: 100 64 56 56 (20070400)
I1016 15:52:47.816450 135789 net.cpp:165] Memory required for data: 1478284000
I1016 15:52:47.816457 135789 layer_factory.hpp:77] Creating layer fire3/relu_expand1x1
I1016 15:52:47.816476 135789 net.cpp:100] Creating Layer fire3/relu_expand1x1
I1016 15:52:47.816480 135789 net.cpp:434] fire3/relu_expand1x1 <- fire3/expand1x1
I1016 15:52:47.816486 135789 net.cpp:395] fire3/relu_expand1x1 -> fire3/expand1x1 (in-place)
I1016 15:52:47.816929 135789 net.cpp:150] Setting up fire3/relu_expand1x1
I1016 15:52:47.816943 135789 net.cpp:157] Top shape: 100 64 56 56 (20070400)
I1016 15:52:47.816947 135789 net.cpp:165] Memory required for data: 1558565600
I1016 15:52:47.816951 135789 layer_factory.hpp:77] Creating layer fire3/expand3x3
I1016 15:52:47.816973 135789 net.cpp:100] Creating Layer fire3/expand3x3
I1016 15:52:47.816977 135789 net.cpp:434] fire3/expand3x3 <- fire3/squeeze1x1_fire3/squeeze1x1_0_split_1
I1016 15:52:47.816984 135789 net.cpp:408] fire3/expand3x3 -> fire3/expand3x3
I1016 15:52:47.818346 135789 net.cpp:150] Setting up fire3/expand3x3
I1016 15:52:47.818361 135789 net.cpp:157] Top shape: 100 64 56 56 (20070400)
I1016 15:52:47.818366 135789 net.cpp:165] Memory required for data: 1638847200
I1016 15:52:47.818372 135789 layer_factory.hpp:77] Creating layer fire3/relu_expand3x3
I1016 15:52:47.818389 135789 net.cpp:100] Creating Layer fire3/relu_expand3x3
I1016 15:52:47.818393 135789 net.cpp:434] fire3/relu_expand3x3 <- fire3/expand3x3
I1016 15:52:47.818399 135789 net.cpp:395] fire3/relu_expand3x3 -> fire3/expand3x3 (in-place)
I1016 15:52:47.818857 135789 net.cpp:150] Setting up fire3/relu_expand3x3
I1016 15:52:47.818883 135789 net.cpp:157] Top shape: 100 64 56 56 (20070400)
I1016 15:52:47.818887 135789 net.cpp:165] Memory required for data: 1719128800
I1016 15:52:47.818891 135789 layer_factory.hpp:77] Creating layer fire3/concat
I1016 15:52:47.818908 135789 net.cpp:100] Creating Layer fire3/concat
I1016 15:52:47.818912 135789 net.cpp:434] fire3/concat <- fire3/expand1x1
I1016 15:52:47.818928 135789 net.cpp:434] fire3/concat <- fire3/expand3x3
I1016 15:52:47.818933 135789 net.cpp:408] fire3/concat -> fire3/concat
I1016 15:52:47.818969 135789 net.cpp:150] Setting up fire3/concat
I1016 15:52:47.818976 135789 net.cpp:157] Top shape: 100 128 56 56 (40140800)
I1016 15:52:47.818979 135789 net.cpp:165] Memory required for data: 1879692000
I1016 15:52:47.818982 135789 layer_factory.hpp:77] Creating layer pool3
I1016 15:52:47.818989 135789 net.cpp:100] Creating Layer pool3
I1016 15:52:47.818994 135789 net.cpp:434] pool3 <- fire3/concat
I1016 15:52:47.819008 135789 net.cpp:408] pool3 -> pool3
I1016 15:52:47.819051 135789 net.cpp:150] Setting up pool3
I1016 15:52:47.819056 135789 net.cpp:157] Top shape: 100 128 28 28 (10035200)
I1016 15:52:47.819059 135789 net.cpp:165] Memory required for data: 1919832800
I1016 15:52:47.819062 135789 layer_factory.hpp:77] Creating layer fire4/squeeze1x1
I1016 15:52:47.819069 135789 net.cpp:100] Creating Layer fire4/squeeze1x1
I1016 15:52:47.819073 135789 net.cpp:434] fire4/squeeze1x1 <- pool3
I1016 15:52:47.819078 135789 net.cpp:408] fire4/squeeze1x1 -> fire4/squeeze1x1
I1016 15:52:47.820379 135789 net.cpp:150] Setting up fire4/squeeze1x1
I1016 15:52:47.820405 135789 net.cpp:157] Top shape: 100 32 28 28 (2508800)
I1016 15:52:47.820410 135789 net.cpp:165] Memory required for data: 1929868000
I1016 15:52:47.820416 135789 layer_factory.hpp:77] Creating layer fire4/squeeze1x1_fire4/squeeze1x1_0_split
I1016 15:52:47.820433 135789 net.cpp:100] Creating Layer fire4/squeeze1x1_fire4/squeeze1x1_0_split
I1016 15:52:47.820438 135789 net.cpp:434] fire4/squeeze1x1_fire4/squeeze1x1_0_split <- fire4/squeeze1x1
I1016 15:52:47.820444 135789 net.cpp:408] fire4/squeeze1x1_fire4/squeeze1x1_0_split -> fire4/squeeze1x1_fire4/squeeze1x1_0_split_0
I1016 15:52:47.820451 135789 net.cpp:408] fire4/squeeze1x1_fire4/squeeze1x1_0_split -> fire4/squeeze1x1_fire4/squeeze1x1_0_split_1
I1016 15:52:47.820495 135789 net.cpp:150] Setting up fire4/squeeze1x1_fire4/squeeze1x1_0_split
I1016 15:52:47.820502 135789 net.cpp:157] Top shape: 100 32 28 28 (2508800)
I1016 15:52:47.820505 135789 net.cpp:157] Top shape: 100 32 28 28 (2508800)
I1016 15:52:47.820508 135789 net.cpp:165] Memory required for data: 1949938400
I1016 15:52:47.820511 135789 layer_factory.hpp:77] Creating layer fire4/expand1x1
I1016 15:52:47.820518 135789 net.cpp:100] Creating Layer fire4/expand1x1
I1016 15:52:47.820523 135789 net.cpp:434] fire4/expand1x1 <- fire4/squeeze1x1_fire4/squeeze1x1_0_split_0
I1016 15:52:47.820528 135789 net.cpp:408] fire4/expand1x1 -> fire4/expand1x1
I1016 15:52:47.821825 135789 net.cpp:150] Setting up fire4/expand1x1
I1016 15:52:47.821840 135789 net.cpp:157] Top shape: 100 128 28 28 (10035200)
I1016 15:52:47.821843 135789 net.cpp:165] Memory required for data: 1990079200
I1016 15:52:47.821853 135789 layer_factory.hpp:77] Creating layer fire4/relu_expand1x1
I1016 15:52:47.821861 135789 net.cpp:100] Creating Layer fire4/relu_expand1x1
I1016 15:52:47.821864 135789 net.cpp:434] fire4/relu_expand1x1 <- fire4/expand1x1
I1016 15:52:47.821882 135789 net.cpp:395] fire4/relu_expand1x1 -> fire4/expand1x1 (in-place)
I1016 15:52:47.822088 135789 net.cpp:150] Setting up fire4/relu_expand1x1
I1016 15:52:47.822098 135789 net.cpp:157] Top shape: 100 128 28 28 (10035200)
I1016 15:52:47.822101 135789 net.cpp:165] Memory required for data: 2030220000
I1016 15:52:47.822104 135789 layer_factory.hpp:77] Creating layer fire4/expand3x3
I1016 15:52:47.822113 135789 net.cpp:100] Creating Layer fire4/expand3x3
I1016 15:52:47.822118 135789 net.cpp:434] fire4/expand3x3 <- fire4/squeeze1x1_fire4/squeeze1x1_0_split_1
I1016 15:52:47.822124 135789 net.cpp:408] fire4/expand3x3 -> fire4/expand3x3
I1016 15:52:47.823791 135789 net.cpp:150] Setting up fire4/expand3x3
I1016 15:52:47.823807 135789 net.cpp:157] Top shape: 100 128 28 28 (10035200)
I1016 15:52:47.823809 135789 net.cpp:165] Memory required for data: 2070360800
I1016 15:52:47.823817 135789 layer_factory.hpp:77] Creating layer fire4/relu_expand3x3
I1016 15:52:47.823833 135789 net.cpp:100] Creating Layer fire4/relu_expand3x3
I1016 15:52:47.823838 135789 net.cpp:434] fire4/relu_expand3x3 <- fire4/expand3x3
I1016 15:52:47.823843 135789 net.cpp:395] fire4/relu_expand3x3 -> fire4/expand3x3 (in-place)
I1016 15:52:47.824271 135789 net.cpp:150] Setting up fire4/relu_expand3x3
I1016 15:52:47.824286 135789 net.cpp:157] Top shape: 100 128 28 28 (10035200)
I1016 15:52:47.824290 135789 net.cpp:165] Memory required for data: 2110501600
I1016 15:52:47.824295 135789 layer_factory.hpp:77] Creating layer fire4/concat
I1016 15:52:47.824301 135789 net.cpp:100] Creating Layer fire4/concat
I1016 15:52:47.824304 135789 net.cpp:434] fire4/concat <- fire4/expand1x1
I1016 15:52:47.824309 135789 net.cpp:434] fire4/concat <- fire4/expand3x3
I1016 15:52:47.824316 135789 net.cpp:408] fire4/concat -> fire4/concat
I1016 15:52:47.824349 135789 net.cpp:150] Setting up fire4/concat
I1016 15:52:47.824357 135789 net.cpp:157] Top shape: 100 256 28 28 (20070400)
I1016 15:52:47.824359 135789 net.cpp:165] Memory required for data: 2190783200
I1016 15:52:47.824362 135789 layer_factory.hpp:77] Creating layer fire5/squeeze1x1
I1016 15:52:47.824370 135789 net.cpp:100] Creating Layer fire5/squeeze1x1
I1016 15:52:47.824374 135789 net.cpp:434] fire5/squeeze1x1 <- fire4/concat
I1016 15:52:47.824379 135789 net.cpp:408] fire5/squeeze1x1 -> fire5/squeeze1x1
I1016 15:52:47.825531 135789 net.cpp:150] Setting up fire5/squeeze1x1
I1016 15:52:47.825546 135789 net.cpp:157] Top shape: 100 32 28 28 (2508800)
I1016 15:52:47.825549 135789 net.cpp:165] Memory required for data: 2200818400
I1016 15:52:47.825556 135789 layer_factory.hpp:77] Creating layer fire5/squeeze1x1_fire5/squeeze1x1_0_split
I1016 15:52:47.825574 135789 net.cpp:100] Creating Layer fire5/squeeze1x1_fire5/squeeze1x1_0_split
I1016 15:52:47.825578 135789 net.cpp:434] fire5/squeeze1x1_fire5/squeeze1x1_0_split <- fire5/squeeze1x1
I1016 15:52:47.825584 135789 net.cpp:408] fire5/squeeze1x1_fire5/squeeze1x1_0_split -> fire5/squeeze1x1_fire5/squeeze1x1_0_split_0
I1016 15:52:47.825592 135789 net.cpp:408] fire5/squeeze1x1_fire5/squeeze1x1_0_split -> fire5/squeeze1x1_fire5/squeeze1x1_0_split_1
I1016 15:52:47.825641 135789 net.cpp:150] Setting up fire5/squeeze1x1_fire5/squeeze1x1_0_split
I1016 15:52:47.825650 135789 net.cpp:157] Top shape: 100 32 28 28 (2508800)
I1016 15:52:47.825654 135789 net.cpp:157] Top shape: 100 32 28 28 (2508800)
I1016 15:52:47.825657 135789 net.cpp:165] Memory required for data: 2220888800
I1016 15:52:47.825671 135789 layer_factory.hpp:77] Creating layer fire5/expand1x1
I1016 15:52:47.825685 135789 net.cpp:100] Creating Layer fire5/expand1x1
I1016 15:52:47.825690 135789 net.cpp:434] fire5/expand1x1 <- fire5/squeeze1x1_fire5/squeeze1x1_0_split_0
I1016 15:52:47.825695 135789 net.cpp:408] fire5/expand1x1 -> fire5/expand1x1
I1016 15:52:47.827100 135789 net.cpp:150] Setting up fire5/expand1x1
I1016 15:52:47.827123 135789 net.cpp:157] Top shape: 100 128 28 28 (10035200)
I1016 15:52:47.827127 135789 net.cpp:165] Memory required for data: 2261029600
I1016 15:52:47.827134 135789 layer_factory.hpp:77] Creating layer fire5/relu_expand1x1
I1016 15:52:47.827162 135789 net.cpp:100] Creating Layer fire5/relu_expand1x1
I1016 15:52:47.827167 135789 net.cpp:434] fire5/relu_expand1x1 <- fire5/expand1x1
I1016 15:52:47.827174 135789 net.cpp:395] fire5/relu_expand1x1 -> fire5/expand1x1 (in-place)
I1016 15:52:47.827641 135789 net.cpp:150] Setting up fire5/relu_expand1x1
I1016 15:52:47.827666 135789 net.cpp:157] Top shape: 100 128 28 28 (10035200)
I1016 15:52:47.827668 135789 net.cpp:165] Memory required for data: 2301170400
I1016 15:52:47.827672 135789 layer_factory.hpp:77] Creating layer fire5/expand3x3
I1016 15:52:47.827693 135789 net.cpp:100] Creating Layer fire5/expand3x3
I1016 15:52:47.827697 135789 net.cpp:434] fire5/expand3x3 <- fire5/squeeze1x1_fire5/squeeze1x1_0_split_1
I1016 15:52:47.827705 135789 net.cpp:408] fire5/expand3x3 -> fire5/expand3x3
I1016 15:52:47.829246 135789 net.cpp:150] Setting up fire5/expand3x3
I1016 15:52:47.829260 135789 net.cpp:157] Top shape: 100 128 28 28 (10035200)
I1016 15:52:47.829263 135789 net.cpp:165] Memory required for data: 2341311200
I1016 15:52:47.829270 135789 layer_factory.hpp:77] Creating layer fire5/relu_expand3x3
I1016 15:52:47.829293 135789 net.cpp:100] Creating Layer fire5/relu_expand3x3
I1016 15:52:47.829296 135789 net.cpp:434] fire5/relu_expand3x3 <- fire5/expand3x3
I1016 15:52:47.829303 135789 net.cpp:395] fire5/relu_expand3x3 -> fire5/expand3x3 (in-place)
I1016 15:52:47.829768 135789 net.cpp:150] Setting up fire5/relu_expand3x3
I1016 15:52:47.829783 135789 net.cpp:157] Top shape: 100 128 28 28 (10035200)
I1016 15:52:47.829787 135789 net.cpp:165] Memory required for data: 2381452000
I1016 15:52:47.829790 135789 layer_factory.hpp:77] Creating layer fire5/concat
I1016 15:52:47.829809 135789 net.cpp:100] Creating Layer fire5/concat
I1016 15:52:47.829813 135789 net.cpp:434] fire5/concat <- fire5/expand1x1
I1016 15:52:47.829819 135789 net.cpp:434] fire5/concat <- fire5/expand3x3
I1016 15:52:47.829824 135789 net.cpp:408] fire5/concat -> fire5/concat
I1016 15:52:47.829871 135789 net.cpp:150] Setting up fire5/concat
I1016 15:52:47.829877 135789 net.cpp:157] Top shape: 100 256 28 28 (20070400)
I1016 15:52:47.829880 135789 net.cpp:165] Memory required for data: 2461733600
I1016 15:52:47.829885 135789 layer_factory.hpp:77] Creating layer pool5
I1016 15:52:47.829890 135789 net.cpp:100] Creating Layer pool5
I1016 15:52:47.829893 135789 net.cpp:434] pool5 <- fire5/concat
I1016 15:52:47.829900 135789 net.cpp:408] pool5 -> pool5
I1016 15:52:47.829946 135789 net.cpp:150] Setting up pool5
I1016 15:52:47.829958 135789 net.cpp:157] Top shape: 100 256 14 14 (5017600)
I1016 15:52:47.829962 135789 net.cpp:165] Memory required for data: 2481804000
I1016 15:52:47.829964 135789 layer_factory.hpp:77] Creating layer fire6/squeeze1x1
I1016 15:52:47.829974 135789 net.cpp:100] Creating Layer fire6/squeeze1x1
I1016 15:52:47.829977 135789 net.cpp:434] fire6/squeeze1x1 <- pool5
I1016 15:52:47.829983 135789 net.cpp:408] fire6/squeeze1x1 -> fire6/squeeze1x1
I1016 15:52:47.831506 135789 net.cpp:150] Setting up fire6/squeeze1x1
I1016 15:52:47.831521 135789 net.cpp:157] Top shape: 100 48 14 14 (940800)
I1016 15:52:47.831526 135789 net.cpp:165] Memory required for data: 2485567200
I1016 15:52:47.831532 135789 layer_factory.hpp:77] Creating layer fire6/squeeze1x1_fire6/squeeze1x1_0_split
I1016 15:52:47.831549 135789 net.cpp:100] Creating Layer fire6/squeeze1x1_fire6/squeeze1x1_0_split
I1016 15:52:47.831553 135789 net.cpp:434] fire6/squeeze1x1_fire6/squeeze1x1_0_split <- fire6/squeeze1x1
I1016 15:52:47.831562 135789 net.cpp:408] fire6/squeeze1x1_fire6/squeeze1x1_0_split -> fire6/squeeze1x1_fire6/squeeze1x1_0_split_0
I1016 15:52:47.831568 135789 net.cpp:408] fire6/squeeze1x1_fire6/squeeze1x1_0_split -> fire6/squeeze1x1_fire6/squeeze1x1_0_split_1
I1016 15:52:47.831620 135789 net.cpp:150] Setting up fire6/squeeze1x1_fire6/squeeze1x1_0_split
I1016 15:52:47.831629 135789 net.cpp:157] Top shape: 100 48 14 14 (940800)
I1016 15:52:47.831632 135789 net.cpp:157] Top shape: 100 48 14 14 (940800)
I1016 15:52:47.831635 135789 net.cpp:165] Memory required for data: 2493093600
I1016 15:52:47.831650 135789 layer_factory.hpp:77] Creating layer fire6/expand1x1
I1016 15:52:47.831660 135789 net.cpp:100] Creating Layer fire6/expand1x1
I1016 15:52:47.831665 135789 net.cpp:434] fire6/expand1x1 <- fire6/squeeze1x1_fire6/squeeze1x1_0_split_0
I1016 15:52:47.831670 135789 net.cpp:408] fire6/expand1x1 -> fire6/expand1x1
I1016 15:52:47.833166 135789 net.cpp:150] Setting up fire6/expand1x1
I1016 15:52:47.833181 135789 net.cpp:157] Top shape: 100 192 14 14 (3763200)
I1016 15:52:47.833184 135789 net.cpp:165] Memory required for data: 2508146400
I1016 15:52:47.833191 135789 layer_factory.hpp:77] Creating layer fire6/relu_expand1x1
I1016 15:52:47.833209 135789 net.cpp:100] Creating Layer fire6/relu_expand1x1
I1016 15:52:47.833214 135789 net.cpp:434] fire6/relu_expand1x1 <- fire6/expand1x1
I1016 15:52:47.833221 135789 net.cpp:395] fire6/relu_expand1x1 -> fire6/expand1x1 (in-place)
I1016 15:52:47.833438 135789 net.cpp:150] Setting up fire6/relu_expand1x1
I1016 15:52:47.833448 135789 net.cpp:157] Top shape: 100 192 14 14 (3763200)
I1016 15:52:47.833452 135789 net.cpp:165] Memory required for data: 2523199200
I1016 15:52:47.833456 135789 layer_factory.hpp:77] Creating layer fire6/expand3x3
I1016 15:52:47.833464 135789 net.cpp:100] Creating Layer fire6/expand3x3
I1016 15:52:47.833468 135789 net.cpp:434] fire6/expand3x3 <- fire6/squeeze1x1_fire6/squeeze1x1_0_split_1
I1016 15:52:47.833477 135789 net.cpp:408] fire6/expand3x3 -> fire6/expand3x3
I1016 15:52:47.835942 135789 net.cpp:150] Setting up fire6/expand3x3
I1016 15:52:47.835969 135789 net.cpp:157] Top shape: 100 192 14 14 (3763200)
I1016 15:52:47.835984 135789 net.cpp:165] Memory required for data: 2538252000
I1016 15:52:47.836002 135789 layer_factory.hpp:77] Creating layer fire6/relu_expand3x3
I1016 15:52:47.836009 135789 net.cpp:100] Creating Layer fire6/relu_expand3x3
I1016 15:52:47.836012 135789 net.cpp:434] fire6/relu_expand3x3 <- fire6/expand3x3
I1016 15:52:47.836019 135789 net.cpp:395] fire6/relu_expand3x3 -> fire6/expand3x3 (in-place)
I1016 15:52:47.836237 135789 net.cpp:150] Setting up fire6/relu_expand3x3
I1016 15:52:47.836249 135789 net.cpp:157] Top shape: 100 192 14 14 (3763200)
I1016 15:52:47.836253 135789 net.cpp:165] Memory required for data: 2553304800
I1016 15:52:47.836256 135789 layer_factory.hpp:77] Creating layer fire6/concat
I1016 15:52:47.836262 135789 net.cpp:100] Creating Layer fire6/concat
I1016 15:52:47.836266 135789 net.cpp:434] fire6/concat <- fire6/expand1x1
I1016 15:52:47.836272 135789 net.cpp:434] fire6/concat <- fire6/expand3x3
I1016 15:52:47.836279 135789 net.cpp:408] fire6/concat -> fire6/concat
I1016 15:52:47.836314 135789 net.cpp:150] Setting up fire6/concat
I1016 15:52:47.836320 135789 net.cpp:157] Top shape: 100 384 14 14 (7526400)
I1016 15:52:47.836323 135789 net.cpp:165] Memory required for data: 2583410400
I1016 15:52:47.836326 135789 layer_factory.hpp:77] Creating layer fire7/squeeze1x1
I1016 15:52:47.836336 135789 net.cpp:100] Creating Layer fire7/squeeze1x1
I1016 15:52:47.836341 135789 net.cpp:434] fire7/squeeze1x1 <- fire6/concat
I1016 15:52:47.836346 135789 net.cpp:408] fire7/squeeze1x1 -> fire7/squeeze1x1
I1016 15:52:47.837901 135789 net.cpp:150] Setting up fire7/squeeze1x1
I1016 15:52:47.837916 135789 net.cpp:157] Top shape: 100 48 14 14 (940800)
I1016 15:52:47.837920 135789 net.cpp:165] Memory required for data: 2587173600
I1016 15:52:47.837945 135789 layer_factory.hpp:77] Creating layer fire7/squeeze1x1_fire7/squeeze1x1_0_split
I1016 15:52:47.837952 135789 net.cpp:100] Creating Layer fire7/squeeze1x1_fire7/squeeze1x1_0_split
I1016 15:52:47.837956 135789 net.cpp:434] fire7/squeeze1x1_fire7/squeeze1x1_0_split <- fire7/squeeze1x1
I1016 15:52:47.837963 135789 net.cpp:408] fire7/squeeze1x1_fire7/squeeze1x1_0_split -> fire7/squeeze1x1_fire7/squeeze1x1_0_split_0
I1016 15:52:47.837970 135789 net.cpp:408] fire7/squeeze1x1_fire7/squeeze1x1_0_split -> fire7/squeeze1x1_fire7/squeeze1x1_0_split_1
I1016 15:52:47.838018 135789 net.cpp:150] Setting up fire7/squeeze1x1_fire7/squeeze1x1_0_split
I1016 15:52:47.838037 135789 net.cpp:157] Top shape: 100 48 14 14 (940800)
I1016 15:52:47.838042 135789 net.cpp:157] Top shape: 100 48 14 14 (940800)
I1016 15:52:47.838045 135789 net.cpp:165] Memory required for data: 2594700000
I1016 15:52:47.838048 135789 layer_factory.hpp:77] Creating layer fire7/expand1x1
I1016 15:52:47.838059 135789 net.cpp:100] Creating Layer fire7/expand1x1
I1016 15:52:47.838063 135789 net.cpp:434] fire7/expand1x1 <- fire7/squeeze1x1_fire7/squeeze1x1_0_split_0
I1016 15:52:47.838069 135789 net.cpp:408] fire7/expand1x1 -> fire7/expand1x1
I1016 15:52:47.839498 135789 net.cpp:150] Setting up fire7/expand1x1
I1016 15:52:47.839514 135789 net.cpp:157] Top shape: 100 192 14 14 (3763200)
I1016 15:52:47.839516 135789 net.cpp:165] Memory required for data: 2609752800
I1016 15:52:47.839524 135789 layer_factory.hpp:77] Creating layer fire7/relu_expand1x1
I1016 15:52:47.839545 135789 net.cpp:100] Creating Layer fire7/relu_expand1x1
I1016 15:52:47.839550 135789 net.cpp:434] fire7/relu_expand1x1 <- fire7/expand1x1
I1016 15:52:47.839555 135789 net.cpp:395] fire7/relu_expand1x1 -> fire7/expand1x1 (in-place)
I1016 15:52:47.840001 135789 net.cpp:150] Setting up fire7/relu_expand1x1
I1016 15:52:47.840014 135789 net.cpp:157] Top shape: 100 192 14 14 (3763200)
I1016 15:52:47.840018 135789 net.cpp:165] Memory required for data: 2624805600
I1016 15:52:47.840021 135789 layer_factory.hpp:77] Creating layer fire7/expand3x3
I1016 15:52:47.840044 135789 net.cpp:100] Creating Layer fire7/expand3x3
I1016 15:52:47.840049 135789 net.cpp:434] fire7/expand3x3 <- fire7/squeeze1x1_fire7/squeeze1x1_0_split_1
I1016 15:52:47.840054 135789 net.cpp:408] fire7/expand3x3 -> fire7/expand3x3
I1016 15:52:47.841930 135789 net.cpp:150] Setting up fire7/expand3x3
I1016 15:52:47.841956 135789 net.cpp:157] Top shape: 100 192 14 14 (3763200)
I1016 15:52:47.841960 135789 net.cpp:165] Memory required for data: 2639858400
I1016 15:52:47.841966 135789 layer_factory.hpp:77] Creating layer fire7/relu_expand3x3
I1016 15:52:47.841985 135789 net.cpp:100] Creating Layer fire7/relu_expand3x3
I1016 15:52:47.841990 135789 net.cpp:434] fire7/relu_expand3x3 <- fire7/expand3x3
I1016 15:52:47.841995 135789 net.cpp:395] fire7/relu_expand3x3 -> fire7/expand3x3 (in-place)
I1016 15:52:47.842420 135789 net.cpp:150] Setting up fire7/relu_expand3x3
I1016 15:52:47.842433 135789 net.cpp:157] Top shape: 100 192 14 14 (3763200)
I1016 15:52:47.842437 135789 net.cpp:165] Memory required for data: 2654911200
I1016 15:52:47.842440 135789 layer_factory.hpp:77] Creating layer fire7/concat
I1016 15:52:47.842459 135789 net.cpp:100] Creating Layer fire7/concat
I1016 15:52:47.842463 135789 net.cpp:434] fire7/concat <- fire7/expand1x1
I1016 15:52:47.842468 135789 net.cpp:434] fire7/concat <- fire7/expand3x3
I1016 15:52:47.842473 135789 net.cpp:408] fire7/concat -> fire7/concat
I1016 15:52:47.842510 135789 net.cpp:150] Setting up fire7/concat
I1016 15:52:47.842516 135789 net.cpp:157] Top shape: 100 384 14 14 (7526400)
I1016 15:52:47.842519 135789 net.cpp:165] Memory required for data: 2685016800
I1016 15:52:47.842522 135789 layer_factory.hpp:77] Creating layer fire8/squeeze1x1
I1016 15:52:47.842531 135789 net.cpp:100] Creating Layer fire8/squeeze1x1
I1016 15:52:47.842535 135789 net.cpp:434] fire8/squeeze1x1 <- fire7/concat
I1016 15:52:47.842540 135789 net.cpp:408] fire8/squeeze1x1 -> fire8/squeeze1x1
I1016 15:52:47.844612 135789 net.cpp:150] Setting up fire8/squeeze1x1
I1016 15:52:47.844627 135789 net.cpp:157] Top shape: 100 64 14 14 (1254400)
I1016 15:52:47.844631 135789 net.cpp:165] Memory required for data: 2690034400
I1016 15:52:47.844637 135789 layer_factory.hpp:77] Creating layer fire8/squeeze1x1_fire8/squeeze1x1_0_split
I1016 15:52:47.844655 135789 net.cpp:100] Creating Layer fire8/squeeze1x1_fire8/squeeze1x1_0_split
I1016 15:52:47.844660 135789 net.cpp:434] fire8/squeeze1x1_fire8/squeeze1x1_0_split <- fire8/squeeze1x1
I1016 15:52:47.844667 135789 net.cpp:408] fire8/squeeze1x1_fire8/squeeze1x1_0_split -> fire8/squeeze1x1_fire8/squeeze1x1_0_split_0
I1016 15:52:47.844686 135789 net.cpp:408] fire8/squeeze1x1_fire8/squeeze1x1_0_split -> fire8/squeeze1x1_fire8/squeeze1x1_0_split_1
I1016 15:52:47.844738 135789 net.cpp:150] Setting up fire8/squeeze1x1_fire8/squeeze1x1_0_split
I1016 15:52:47.844745 135789 net.cpp:157] Top shape: 100 64 14 14 (1254400)
I1016 15:52:47.844750 135789 net.cpp:157] Top shape: 100 64 14 14 (1254400)
I1016 15:52:47.844753 135789 net.cpp:165] Memory required for data: 2700069600
I1016 15:52:47.844756 135789 layer_factory.hpp:77] Creating layer fire8/expand1x1
I1016 15:52:47.844766 135789 net.cpp:100] Creating Layer fire8/expand1x1
I1016 15:52:47.844770 135789 net.cpp:434] fire8/expand1x1 <- fire8/squeeze1x1_fire8/squeeze1x1_0_split_0
I1016 15:52:47.844775 135789 net.cpp:408] fire8/expand1x1 -> fire8/expand1x1
I1016 15:52:47.846544 135789 net.cpp:150] Setting up fire8/expand1x1
I1016 15:52:47.846559 135789 net.cpp:157] Top shape: 100 256 14 14 (5017600)
I1016 15:52:47.846562 135789 net.cpp:165] Memory required for data: 2720140000
I1016 15:52:47.846570 135789 layer_factory.hpp:77] Creating layer fire8/relu_expand1x1
I1016 15:52:47.846588 135789 net.cpp:100] Creating Layer fire8/relu_expand1x1
I1016 15:52:47.846593 135789 net.cpp:434] fire8/relu_expand1x1 <- fire8/expand1x1
I1016 15:52:47.846601 135789 net.cpp:395] fire8/relu_expand1x1 -> fire8/expand1x1 (in-place)
I1016 15:52:47.846814 135789 net.cpp:150] Setting up fire8/relu_expand1x1
I1016 15:52:47.846825 135789 net.cpp:157] Top shape: 100 256 14 14 (5017600)
I1016 15:52:47.846829 135789 net.cpp:165] Memory required for data: 2740210400
I1016 15:52:47.846832 135789 layer_factory.hpp:77] Creating layer fire8/expand3x3
I1016 15:52:47.846843 135789 net.cpp:100] Creating Layer fire8/expand3x3
I1016 15:52:47.846846 135789 net.cpp:434] fire8/expand3x3 <- fire8/squeeze1x1_fire8/squeeze1x1_0_split_1
I1016 15:52:47.846853 135789 net.cpp:408] fire8/expand3x3 -> fire8/expand3x3
I1016 15:52:47.850095 135789 net.cpp:150] Setting up fire8/expand3x3
I1016 15:52:47.850111 135789 net.cpp:157] Top shape: 100 256 14 14 (5017600)
I1016 15:52:47.850116 135789 net.cpp:165] Memory required for data: 2760280800
I1016 15:52:47.850121 135789 layer_factory.hpp:77] Creating layer fire8/relu_expand3x3
I1016 15:52:47.850139 135789 net.cpp:100] Creating Layer fire8/relu_expand3x3
I1016 15:52:47.850143 135789 net.cpp:434] fire8/relu_expand3x3 <- fire8/expand3x3
I1016 15:52:47.850150 135789 net.cpp:395] fire8/relu_expand3x3 -> fire8/expand3x3 (in-place)
I1016 15:52:47.850338 135789 net.cpp:150] Setting up fire8/relu_expand3x3
I1016 15:52:47.850349 135789 net.cpp:157] Top shape: 100 256 14 14 (5017600)
I1016 15:52:47.850353 135789 net.cpp:165] Memory required for data: 2780351200
I1016 15:52:47.850356 135789 layer_factory.hpp:77] Creating layer fire8/concat
I1016 15:52:47.850361 135789 net.cpp:100] Creating Layer fire8/concat
I1016 15:52:47.850365 135789 net.cpp:434] fire8/concat <- fire8/expand1x1
I1016 15:52:47.850370 135789 net.cpp:434] fire8/concat <- fire8/expand3x3
I1016 15:52:47.850376 135789 net.cpp:408] fire8/concat -> fire8/concat
I1016 15:52:47.850412 135789 net.cpp:150] Setting up fire8/concat
I1016 15:52:47.850419 135789 net.cpp:157] Top shape: 100 512 14 14 (10035200)
I1016 15:52:47.850422 135789 net.cpp:165] Memory required for data: 2820492000
I1016 15:52:47.850425 135789 layer_factory.hpp:77] Creating layer fire9/squeeze1x1
I1016 15:52:47.850433 135789 net.cpp:100] Creating Layer fire9/squeeze1x1
I1016 15:52:47.850437 135789 net.cpp:434] fire9/squeeze1x1 <- fire8/concat
I1016 15:52:47.850443 135789 net.cpp:408] fire9/squeeze1x1 -> fire9/squeeze1x1
I1016 15:52:47.852077 135789 net.cpp:150] Setting up fire9/squeeze1x1
I1016 15:52:47.852090 135789 net.cpp:157] Top shape: 100 64 14 14 (1254400)
I1016 15:52:47.852094 135789 net.cpp:165] Memory required for data: 2825509600
I1016 15:52:47.852102 135789 layer_factory.hpp:77] Creating layer fire9/squeeze1x1_fire9/squeeze1x1_0_split
I1016 15:52:47.852119 135789 net.cpp:100] Creating Layer fire9/squeeze1x1_fire9/squeeze1x1_0_split
I1016 15:52:47.852135 135789 net.cpp:434] fire9/squeeze1x1_fire9/squeeze1x1_0_split <- fire9/squeeze1x1
I1016 15:52:47.852155 135789 net.cpp:408] fire9/squeeze1x1_fire9/squeeze1x1_0_split -> fire9/squeeze1x1_fire9/squeeze1x1_0_split_0
I1016 15:52:47.852164 135789 net.cpp:408] fire9/squeeze1x1_fire9/squeeze1x1_0_split -> fire9/squeeze1x1_fire9/squeeze1x1_0_split_1
I1016 15:52:47.852224 135789 net.cpp:150] Setting up fire9/squeeze1x1_fire9/squeeze1x1_0_split
I1016 15:52:47.852234 135789 net.cpp:157] Top shape: 100 64 14 14 (1254400)
I1016 15:52:47.852238 135789 net.cpp:157] Top shape: 100 64 14 14 (1254400)
I1016 15:52:47.852242 135789 net.cpp:165] Memory required for data: 2835544800
I1016 15:52:47.852246 135789 layer_factory.hpp:77] Creating layer fire9/expand1x1
I1016 15:52:47.852254 135789 net.cpp:100] Creating Layer fire9/expand1x1
I1016 15:52:47.852258 135789 net.cpp:434] fire9/expand1x1 <- fire9/squeeze1x1_fire9/squeeze1x1_0_split_0
I1016 15:52:47.852265 135789 net.cpp:408] fire9/expand1x1 -> fire9/expand1x1
I1016 15:52:47.854022 135789 net.cpp:150] Setting up fire9/expand1x1
I1016 15:52:47.854037 135789 net.cpp:157] Top shape: 100 256 14 14 (5017600)
I1016 15:52:47.854040 135789 net.cpp:165] Memory required for data: 2855615200
I1016 15:52:47.854046 135789 layer_factory.hpp:77] Creating layer fire9/relu_expand1x1
I1016 15:52:47.854064 135789 net.cpp:100] Creating Layer fire9/relu_expand1x1
I1016 15:52:47.854068 135789 net.cpp:434] fire9/relu_expand1x1 <- fire9/expand1x1
I1016 15:52:47.854074 135789 net.cpp:395] fire9/relu_expand1x1 -> fire9/expand1x1 (in-place)
I1016 15:52:47.854532 135789 net.cpp:150] Setting up fire9/relu_expand1x1
I1016 15:52:47.854547 135789 net.cpp:157] Top shape: 100 256 14 14 (5017600)
I1016 15:52:47.854550 135789 net.cpp:165] Memory required for data: 2875685600
I1016 15:52:47.854554 135789 layer_factory.hpp:77] Creating layer fire9/expand3x3
I1016 15:52:47.854575 135789 net.cpp:100] Creating Layer fire9/expand3x3
I1016 15:52:47.854579 135789 net.cpp:434] fire9/expand3x3 <- fire9/squeeze1x1_fire9/squeeze1x1_0_split_1
I1016 15:52:47.854586 135789 net.cpp:408] fire9/expand3x3 -> fire9/expand3x3
I1016 15:52:47.857846 135789 net.cpp:150] Setting up fire9/expand3x3
I1016 15:52:47.857872 135789 net.cpp:157] Top shape: 100 256 14 14 (5017600)
I1016 15:52:47.857877 135789 net.cpp:165] Memory required for data: 2895756000
I1016 15:52:47.857882 135789 layer_factory.hpp:77] Creating layer fire9/relu_expand3x3
I1016 15:52:47.857889 135789 net.cpp:100] Creating Layer fire9/relu_expand3x3
I1016 15:52:47.857893 135789 net.cpp:434] fire9/relu_expand3x3 <- fire9/expand3x3
I1016 15:52:47.857900 135789 net.cpp:395] fire9/relu_expand3x3 -> fire9/expand3x3 (in-place)
I1016 15:52:47.858338 135789 net.cpp:150] Setting up fire9/relu_expand3x3
I1016 15:52:47.858351 135789 net.cpp:157] Top shape: 100 256 14 14 (5017600)
I1016 15:52:47.858355 135789 net.cpp:165] Memory required for data: 2915826400
I1016 15:52:47.858358 135789 layer_factory.hpp:77] Creating layer fire9/concat
I1016 15:52:47.858376 135789 net.cpp:100] Creating Layer fire9/concat
I1016 15:52:47.858382 135789 net.cpp:434] fire9/concat <- fire9/expand1x1
I1016 15:52:47.858387 135789 net.cpp:434] fire9/concat <- fire9/expand3x3
I1016 15:52:47.858392 135789 net.cpp:408] fire9/concat -> fire9/concat
I1016 15:52:47.858429 135789 net.cpp:150] Setting up fire9/concat
I1016 15:52:47.858435 135789 net.cpp:157] Top shape: 100 512 14 14 (10035200)
I1016 15:52:47.858438 135789 net.cpp:165] Memory required for data: 2955967200
I1016 15:52:47.858443 135789 layer_factory.hpp:77] Creating layer drop9
I1016 15:52:47.858449 135789 net.cpp:100] Creating Layer drop9
I1016 15:52:47.858453 135789 net.cpp:434] drop9 <- fire9/concat
I1016 15:52:47.858459 135789 net.cpp:395] drop9 -> fire9/concat (in-place)
I1016 15:52:47.858489 135789 net.cpp:150] Setting up drop9
I1016 15:52:47.858494 135789 net.cpp:157] Top shape: 100 512 14 14 (10035200)
I1016 15:52:47.858497 135789 net.cpp:165] Memory required for data: 2996108000
I1016 15:52:47.858500 135789 layer_factory.hpp:77] Creating layer conv10_2626
I1016 15:52:47.858518 135789 net.cpp:100] Creating Layer conv10_2626
I1016 15:52:47.858533 135789 net.cpp:434] conv10_2626 <- fire9/concat
I1016 15:52:47.858541 135789 net.cpp:408] conv10_2626 -> conv10_2626
I1016 15:52:47.882776 135789 net.cpp:150] Setting up conv10_2626
I1016 15:52:47.882803 135789 net.cpp:157] Top shape: 100 2626 14 14 (51469600)
I1016 15:52:47.882808 135789 net.cpp:165] Memory required for data: 3201986400
I1016 15:52:47.882848 135789 layer_factory.hpp:77] Creating layer relu_conv10
I1016 15:52:47.882858 135789 net.cpp:100] Creating Layer relu_conv10
I1016 15:52:47.882863 135789 net.cpp:434] relu_conv10 <- conv10_2626
I1016 15:52:47.882874 135789 net.cpp:395] relu_conv10 -> conv10_2626 (in-place)
I1016 15:52:47.883086 135789 net.cpp:150] Setting up relu_conv10
I1016 15:52:47.883097 135789 net.cpp:157] Top shape: 100 2626 14 14 (51469600)
I1016 15:52:47.883100 135789 net.cpp:165] Memory required for data: 3407864800
I1016 15:52:47.883105 135789 layer_factory.hpp:77] Creating layer pool10
I1016 15:52:47.883112 135789 net.cpp:100] Creating Layer pool10
I1016 15:52:47.883116 135789 net.cpp:434] pool10 <- conv10_2626
I1016 15:52:47.883122 135789 net.cpp:408] pool10 -> pool10
I1016 15:52:47.883584 135789 net.cpp:150] Setting up pool10
I1016 15:52:47.883596 135789 net.cpp:157] Top shape: 100 2626 1 1 (262600)
I1016 15:52:47.883600 135789 net.cpp:165] Memory required for data: 3408915200
I1016 15:52:47.883605 135789 layer_factory.hpp:77] Creating layer pool10_pool10_0_split
I1016 15:52:47.883622 135789 net.cpp:100] Creating Layer pool10_pool10_0_split
I1016 15:52:47.883626 135789 net.cpp:434] pool10_pool10_0_split <- pool10
I1016 15:52:47.883632 135789 net.cpp:408] pool10_pool10_0_split -> pool10_pool10_0_split_0
I1016 15:52:47.883640 135789 net.cpp:408] pool10_pool10_0_split -> pool10_pool10_0_split_1
I1016 15:52:47.883690 135789 net.cpp:150] Setting up pool10_pool10_0_split
I1016 15:52:47.883698 135789 net.cpp:157] Top shape: 100 2626 1 1 (262600)
I1016 15:52:47.883702 135789 net.cpp:157] Top shape: 100 2626 1 1 (262600)
I1016 15:52:47.883705 135789 net.cpp:165] Memory required for data: 3411016000
I1016 15:52:47.883708 135789 layer_factory.hpp:77] Creating layer loss
I1016 15:52:47.883715 135789 net.cpp:100] Creating Layer loss
I1016 15:52:47.883719 135789 net.cpp:434] loss <- pool10_pool10_0_split_0
I1016 15:52:47.883724 135789 net.cpp:434] loss <- label_data_1_split_0
I1016 15:52:47.883728 135789 net.cpp:408] loss -> loss
…
