…
I1009 19:05:59.718271 129637 net.cpp:322] The NetState phase (0) differed from the phase (1) specified by a rule in layer data
I1009 19:05:59.718307 129637 net.cpp:322] The NetState phase (0) differed from the phase (1) specified by a rule in layer accuracy
I1009 19:05:59.718472 129637 net.cpp:49] Initializing net from parameters: 
name: "AlexNet"
state {
  phase: TRAIN
}
layer {
  name: "data"
  type: "Data"
  top: "data"
  top: "label"
  include {
    phase: TRAIN
  }
  transform_param {
    mirror: true
    crop_size: 227
    mean_file: "/share/zhh/mean.binaryproto"
  }
  data_param {
    source: "/share/front/train_lmdb"
    batch_size: 128
    backend: LMDB
  }
}
layer {
  name: "conv1"
  type: "Convolution"
  bottom: "data"
  top: "conv1"
  param {
    lr_mult: 1
    decay_mult: 1
  }
  param {
    lr_mult: 2
    decay_mult: 0
  }
  convolution_param {
    num_output: 96
    kernel_size: 11
    stride: 4
    weight_filler {
      type: "gaussian"
      std: 0.01
    }
    bias_filler {
      type: "constant"
      value: 0
    }
  }
}
layer {
  name: "relu1"
  type: "ReLU"
  bottom: "conv1"
  top: "conv1"
}
layer {
  name: "norm1"
  type: "LRN"
  bottom: "conv1"
  top: "norm1"
  lrn_param {
    local_size: 5
    alpha: 0.0001
    beta: 0.75
  }
}
layer {
  name: "pool1"
  type: "Pooling"
  bottom: "norm1"
  top: "pool1"
  pooling_param {
    pool: MAX
    kernel_size: 3
    stride: 2
  }
}
layer {
  name: "conv2"
  type: "Convolution"
  bottom: "pool1"
  top: "conv2"
  param {
    lr_mult: 1
    decay_mult: 1
  }
  param {
    lr_mult: 2
    decay_mult: 0
  }
  convolution_param {
    num_output: 256
    pad: 2
    kernel_size: 5
    group: 2
    weight_filler {
      type: "gaussian"
      std: 0.01
    }
    bias_filler {
      type: "constant"
      value: 0.1
    }
  }
}
layer {
  name: "relu2"
  type: "ReLU"
  bottom: "conv2"
  top: "conv2"
}
layer {
  name: "norm2"
  type: "LRN"
  bottom: "conv2"
  top: "norm2"
  lrn_param {
    local_size: 5
    alpha: 0.0001
    beta: 0.75
  }
}
layer {
  name: "pool2"
  type: "Pooling"
  bottom: "norm2"
  top: "pool2"
  pooling_param {
    pool: MAX
    kernel_size: 3
    stride: 2
  }
}
layer {
  name: "conv3"
  type: "Convolution"
  bottom: "pool2"
  top: "conv3"
  param {
    lr_mult: 1
    decay_mult: 1
  }
  param {
    lr_mult: 2
    decay_mult: 0
  }
  convolution_param {
    num_output: 384
    pad: 1
    kernel_size: 3
    weight_filler {
      type: "gaussian"
      std: 0.01
    }
    bias_filler {
      type: "constant"
      value: 0
    }
  }
}
layer {
  name: "relu3"
  type: "ReLU"
  bottom: "conv3"
  top: "conv3"
}
layer {
  name: "conv4"
  type: "Convolution"
  bottom: "conv3"
  top: "conv4"
  param {
    lr_mult: 1
    decay_mult: 1
  }
  param {
    lr_mult: 2
    decay_mult: 0
  }
  convolution_param {
    num_output: 384
    pad: 1
    kernel_size: 3
    group: 2
    weight_filler {
      type: "gaussian"
      std: 0.01
    }
    bias_filler {
      type: "constant"
      value: 0.1
    }
  }
}
layer {
  name: "relu4"
  type: "ReLU"
  bottom: "conv4"
  top: "conv4"
}
layer {
  name: "conv5"
  type: "Convolution"
  bottom: "conv4"
  top: "conv5"
  param {
    lr_mult: 1
    decay_mult: 1
  }
  param {
    lr_mult: 2
    decay_mult: 0
  }
  convolution_param {
    num_output: 256
    pad: 1
    kernel_size: 3
    group: 2
    weight_filler {
      type: "gaussian"
      std: 0.01
    }
    bias_filler {
      type: "constant"
      value: 0.1
    }
  }
}
layer {
  name: "relu5"
  type: "ReLU"
  bottom: "conv5"
  top: "conv5"
}
layer {
  name: "pool5"
  type: "Pooling"
  bottom: "conv5"
  top: "pool5"
  pooling_param {
    pool: MAX
    kernel_size: 3
    stride: 2
  }
}
layer {
  name: "fc6"
  type: "InnerProduct"
  bottom: "pool5"
  top: "fc6"
  param {
    lr_mult: 1
    decay_mult: 1
  }
  param {
    lr_mult: 2
    decay_mult: 0
  }
  inner_product_param {
    num_output: 4096
    weight_filler {
      type: "gaussian"
      std: 0.005
    }
    bias_filler {
      type: "constant"
      value: 0.1
    }
  }
}
layer {
  name: "relu6"
  type: "ReLU"
  bottom: "fc6"
  top: "fc6"
}
layer {
  name: "drop6"
  type: "Dropout"
  bottom: "fc6"
  top: "fc6"
  dropout_param {
    dropout_ratio: 0.5
  }
}
layer {
  name: "fc7"
  type: "InnerProduct"
  bottom: "fc6"
  top: "fc7"
  param {
    lr_mult: 1
    decay_mult: 1
  }
  param {
    lr_mult: 2
    decay_mult: 0
  }
  inner_product_param {
    num_output: 4096
    weight_filler {
      type: "gaussian"
      std: 0.005
    }
    bias_filler {
      type: "constant"
      value: 0.1
    }
  }
}
layer {
  name: "relu7"
  type: "ReLU"
  bottom: "fc7"
  top: "fc7"
}
layer {
  name: "drop7"
  type: "Dropout"
  bottom: "fc7"
  top: "fc7"
  dropout_param {
    dropout_ratio: 0.5
  }
}
layer {
  name: "fc8_car2626"
  type: "InnerProduct"
  bottom: "fc7"
  top: "fc8_car2626"
  param {
    lr_mult: 10
    decay_mult: 1
  }
  param {
    lr_mult: 20
    decay_mult: 0
  }
  inner_product_param {
    num_output: 2626
    weight_filler {
      type: "gaussian"
      std: 0.01
    }
    bias_filler {
      type: "constant"
      value: 0
    }
  }
}
layer {
  name: "loss"
  type: "SoftmaxWithLoss"
  bottom: "fc8_car2626"
  bottom: "label"
  top: "loss"
}
I1009 19:05:59.718637 129637 layer_factory.hpp:77] Creating layer data
I1009 19:05:59.719178 129637 net.cpp:106] Creating Layer data
I1009 19:05:59.719211 129637 net.cpp:411] data -> data
I1009 19:05:59.719259 129637 net.cpp:411] data -> label
I1009 19:05:59.719280 129637 data_transformer.cpp:25] Loading mean file from: /share/zhh/mean.binaryproto
I1009 19:05:59.720275 129657 db_lmdb.cpp:38] Opened lmdb /share/front/train_lmdb
I1009 19:05:59.735229 129637 data_layer.cpp:41] output data size: 128,3,227,227
I1009 19:05:59.895372 129637 net.cpp:150] Setting up data
I1009 19:05:59.895421 129637 net.cpp:157] Top shape: 128 3 227 227 (19787136)
I1009 19:05:59.895432 129637 net.cpp:157] Top shape: 128 (128)
I1009 19:05:59.895438 129637 net.cpp:165] Memory required for data: 79149056
I1009 19:05:59.895467 129637 layer_factory.hpp:77] Creating layer conv1
I1009 19:05:59.895500 129637 net.cpp:106] Creating Layer conv1
I1009 19:05:59.895509 129637 net.cpp:454] conv1 <- data
I1009 19:05:59.895531 129637 net.cpp:411] conv1 -> conv1
I1009 19:05:59.911692 129658 blocking_queue.cpp:50] Waiting for data
I1009 19:06:00.003748 129637 net.cpp:150] Setting up conv1
I1009 19:06:00.003782 129637 net.cpp:157] Top shape: 128 96 55 55 (37171200)
I1009 19:06:00.003790 129637 net.cpp:165] Memory required for data: 227833856
I1009 19:06:00.003819 129637 layer_factory.hpp:77] Creating layer relu1
I1009 19:06:00.003850 129637 net.cpp:106] Creating Layer relu1
I1009 19:06:00.003857 129637 net.cpp:454] relu1 <- conv1
I1009 19:06:00.003865 129637 net.cpp:397] relu1 -> conv1 (in-place)
I1009 19:06:00.004254 129637 net.cpp:150] Setting up relu1
I1009 19:06:00.004271 129637 net.cpp:157] Top shape: 128 96 55 55 (37171200)
I1009 19:06:00.004274 129637 net.cpp:165] Memory required for data: 376518656
I1009 19:06:00.004278 129637 layer_factory.hpp:77] Creating layer norm1
I1009 19:06:00.004290 129637 net.cpp:106] Creating Layer norm1
I1009 19:06:00.004297 129637 net.cpp:454] norm1 <- conv1
I1009 19:06:00.004308 129637 net.cpp:411] norm1 -> norm1
I1009 19:06:00.004513 129637 net.cpp:150] Setting up norm1
I1009 19:06:00.004528 129637 net.cpp:157] Top shape: 128 96 55 55 (37171200)
I1009 19:06:00.004535 129637 net.cpp:165] Memory required for data: 525203456
I1009 19:06:00.004542 129637 layer_factory.hpp:77] Creating layer pool1
I1009 19:06:00.004559 129637 net.cpp:106] Creating Layer pool1
I1009 19:06:00.004565 129637 net.cpp:454] pool1 <- norm1
I1009 19:06:00.004593 129637 net.cpp:411] pool1 -> pool1
I1009 19:06:00.005005 129637 net.cpp:150] Setting up pool1
I1009 19:06:00.005022 129637 net.cpp:157] Top shape: 128 96 27 27 (8957952)
I1009 19:06:00.005025 129637 net.cpp:165] Memory required for data: 561035264
I1009 19:06:00.005030 129637 layer_factory.hpp:77] Creating layer conv2
I1009 19:06:00.005043 129637 net.cpp:106] Creating Layer conv2
I1009 19:06:00.005048 129637 net.cpp:454] conv2 <- pool1
I1009 19:06:00.005055 129637 net.cpp:411] conv2 -> conv2
I1009 19:06:00.012769 129637 net.cpp:150] Setting up conv2
I1009 19:06:00.012787 129637 net.cpp:157] Top shape: 128 256 27 27 (23887872)
I1009 19:06:00.012804 129637 net.cpp:165] Memory required for data: 656586752
I1009 19:06:00.012816 129637 layer_factory.hpp:77] Creating layer relu2
I1009 19:06:00.012827 129637 net.cpp:106] Creating Layer relu2
I1009 19:06:00.012835 129637 net.cpp:454] relu2 <- conv2
I1009 19:06:00.012847 129637 net.cpp:397] relu2 -> conv2 (in-place)
I1009 19:06:00.013247 129637 net.cpp:150] Setting up relu2
I1009 19:06:00.013263 129637 net.cpp:157] Top shape: 128 256 27 27 (23887872)
I1009 19:06:00.013272 129637 net.cpp:165] Memory required for data: 752138240
I1009 19:06:00.013278 129637 layer_factory.hpp:77] Creating layer norm2
I1009 19:06:00.013294 129637 net.cpp:106] Creating Layer norm2
I1009 19:06:00.013300 129637 net.cpp:454] norm2 <- conv2
I1009 19:06:00.013306 129637 net.cpp:411] norm2 -> norm2
I1009 19:06:00.013506 129637 net.cpp:150] Setting up norm2
I1009 19:06:00.013519 129637 net.cpp:157] Top shape: 128 256 27 27 (23887872)
I1009 19:06:00.013523 129637 net.cpp:165] Memory required for data: 847689728
I1009 19:06:00.013527 129637 layer_factory.hpp:77] Creating layer pool2
I1009 19:06:00.013536 129637 net.cpp:106] Creating Layer pool2
I1009 19:06:00.013541 129637 net.cpp:454] pool2 <- norm2
I1009 19:06:00.013550 129637 net.cpp:411] pool2 -> pool2
I1009 19:06:00.013967 129637 net.cpp:150] Setting up pool2
I1009 19:06:00.013986 129637 net.cpp:157] Top shape: 128 256 13 13 (5537792)
I1009 19:06:00.013993 129637 net.cpp:165] Memory required for data: 869840896
I1009 19:06:00.014004 129637 layer_factory.hpp:77] Creating layer conv3
I1009 19:06:00.014019 129637 net.cpp:106] Creating Layer conv3
I1009 19:06:00.014024 129637 net.cpp:454] conv3 <- pool2
I1009 19:06:00.014031 129637 net.cpp:411] conv3 -> conv3
I1009 19:06:00.030545 129637 net.cpp:150] Setting up conv3
I1009 19:06:00.030565 129637 net.cpp:157] Top shape: 128 384 13 13 (8306688)
I1009 19:06:00.030580 129637 net.cpp:165] Memory required for data: 903067648
I1009 19:06:00.030592 129637 layer_factory.hpp:77] Creating layer relu3
I1009 19:06:00.030604 129637 net.cpp:106] Creating Layer relu3
I1009 19:06:00.030611 129637 net.cpp:454] relu3 <- conv3
I1009 19:06:00.030618 129637 net.cpp:397] relu3 -> conv3 (in-place)
I1009 19:06:00.030792 129637 net.cpp:150] Setting up relu3
I1009 19:06:00.030803 129637 net.cpp:157] Top shape: 128 384 13 13 (8306688)
I1009 19:06:00.030807 129637 net.cpp:165] Memory required for data: 936294400
I1009 19:06:00.030812 129637 layer_factory.hpp:77] Creating layer conv4
I1009 19:06:00.030822 129637 net.cpp:106] Creating Layer conv4
I1009 19:06:00.030829 129637 net.cpp:454] conv4 <- conv3
I1009 19:06:00.030843 129637 net.cpp:411] conv4 -> conv4
I1009 19:06:00.044298 129637 net.cpp:150] Setting up conv4
I1009 19:06:00.044318 129637 net.cpp:157] Top shape: 128 384 13 13 (8306688)
I1009 19:06:00.044325 129637 net.cpp:165] Memory required for data: 969521152
I1009 19:06:00.044337 129637 layer_factory.hpp:77] Creating layer relu4
I1009 19:06:00.044363 129637 net.cpp:106] Creating Layer relu4
I1009 19:06:00.044380 129637 net.cpp:454] relu4 <- conv4
I1009 19:06:00.044389 129637 net.cpp:397] relu4 -> conv4 (in-place)
I1009 19:06:00.044571 129637 net.cpp:150] Setting up relu4
I1009 19:06:00.044582 129637 net.cpp:157] Top shape: 128 384 13 13 (8306688)
I1009 19:06:00.044586 129637 net.cpp:165] Memory required for data: 1002747904
I1009 19:06:00.044590 129637 layer_factory.hpp:77] Creating layer conv5
I1009 19:06:00.044632 129637 net.cpp:106] Creating Layer conv5
I1009 19:06:00.044637 129637 net.cpp:454] conv5 <- conv4
I1009 19:06:00.044644 129637 net.cpp:411] conv5 -> conv5
I1009 19:06:00.054730 129637 net.cpp:150] Setting up conv5
I1009 19:06:00.054746 129637 net.cpp:157] Top shape: 128 256 13 13 (5537792)
I1009 19:06:00.054762 129637 net.cpp:165] Memory required for data: 1024899072
I1009 19:06:00.054774 129637 layer_factory.hpp:77] Creating layer relu5
I1009 19:06:00.054780 129637 net.cpp:106] Creating Layer relu5
I1009 19:06:00.054783 129637 net.cpp:454] relu5 <- conv5
I1009 19:06:00.054790 129637 net.cpp:397] relu5 -> conv5 (in-place)
I1009 19:06:00.054980 129637 net.cpp:150] Setting up relu5
I1009 19:06:00.054991 129637 net.cpp:157] Top shape: 128 256 13 13 (5537792)
I1009 19:06:00.055006 129637 net.cpp:165] Memory required for data: 1047050240
I1009 19:06:00.055011 129637 layer_factory.hpp:77] Creating layer pool5
I1009 19:06:00.055019 129637 net.cpp:106] Creating Layer pool5
I1009 19:06:00.055023 129637 net.cpp:454] pool5 <- conv5
I1009 19:06:00.055029 129637 net.cpp:411] pool5 -> pool5
I1009 19:06:00.055467 129637 net.cpp:150] Setting up pool5
I1009 19:06:00.055482 129637 net.cpp:157] Top shape: 128 256 6 6 (1179648)
I1009 19:06:00.055498 129637 net.cpp:165] Memory required for data: 1051768832
I1009 19:06:00.055502 129637 layer_factory.hpp:77] Creating layer fc6
I1009 19:06:00.055516 129637 net.cpp:106] Creating Layer fc6
I1009 19:06:00.055521 129637 net.cpp:454] fc6 <- pool5
I1009 19:06:00.055528 129637 net.cpp:411] fc6 -> fc6
I1009 19:06:00.715860 129637 net.cpp:150] Setting up fc6
I1009 19:06:00.715906 129637 net.cpp:157] Top shape: 128 4096 (524288)
I1009 19:06:00.715912 129637 net.cpp:165] Memory required for data: 1053865984
I1009 19:06:00.715922 129637 layer_factory.hpp:77] Creating layer relu6
I1009 19:06:00.715932 129637 net.cpp:106] Creating Layer relu6
I1009 19:06:00.715937 129637 net.cpp:454] relu6 <- fc6
I1009 19:06:00.715945 129637 net.cpp:397] relu6 -> fc6 (in-place)
I1009 19:06:00.716207 129637 net.cpp:150] Setting up relu6
I1009 19:06:00.716219 129637 net.cpp:157] Top shape: 128 4096 (524288)
I1009 19:06:00.716238 129637 net.cpp:165] Memory required for data: 1055963136
I1009 19:06:00.716241 129637 layer_factory.hpp:77] Creating layer drop6
I1009 19:06:00.716255 129637 net.cpp:106] Creating Layer drop6
I1009 19:06:00.716259 129637 net.cpp:454] drop6 <- fc6
I1009 19:06:00.716264 129637 net.cpp:397] drop6 -> fc6 (in-place)
I1009 19:06:00.716291 129637 net.cpp:150] Setting up drop6
I1009 19:06:00.716300 129637 net.cpp:157] Top shape: 128 4096 (524288)
I1009 19:06:00.716303 129637 net.cpp:165] Memory required for data: 1058060288
I1009 19:06:00.716307 129637 layer_factory.hpp:77] Creating layer fc7
I1009 19:06:00.716317 129637 net.cpp:106] Creating Layer fc7
I1009 19:06:00.716321 129637 net.cpp:454] fc7 <- fc6
I1009 19:06:00.716328 129637 net.cpp:411] fc7 -> fc7
I1009 19:06:00.998471 129637 net.cpp:150] Setting up fc7
I1009 19:06:00.998514 129637 net.cpp:157] Top shape: 128 4096 (524288)
I1009 19:06:00.998518 129637 net.cpp:165] Memory required for data: 1060157440
I1009 19:06:00.998528 129637 layer_factory.hpp:77] Creating layer relu7
I1009 19:06:00.998538 129637 net.cpp:106] Creating Layer relu7
I1009 19:06:00.998543 129637 net.cpp:454] relu7 <- fc7
I1009 19:06:00.998550 129637 net.cpp:397] relu7 -> fc7 (in-place)
I1009 19:06:00.999020 129637 net.cpp:150] Setting up relu7
I1009 19:06:00.999034 129637 net.cpp:157] Top shape: 128 4096 (524288)
I1009 19:06:00.999050 129637 net.cpp:165] Memory required for data: 1062254592
I1009 19:06:00.999053 129637 layer_factory.hpp:77] Creating layer drop7
I1009 19:06:00.999060 129637 net.cpp:106] Creating Layer drop7
I1009 19:06:00.999066 129637 net.cpp:454] drop7 <- fc7
I1009 19:06:00.999073 129637 net.cpp:397] drop7 -> fc7 (in-place)
I1009 19:06:00.999097 129637 net.cpp:150] Setting up drop7
I1009 19:06:00.999106 129637 net.cpp:157] Top shape: 128 4096 (524288)
I1009 19:06:00.999122 129637 net.cpp:165] Memory required for data: 1064351744
I1009 19:06:00.999126 129637 layer_factory.hpp:77] Creating layer fc8_car2626
I1009 19:06:00.999152 129637 net.cpp:106] Creating Layer fc8_car2626
I1009 19:06:00.999161 129637 net.cpp:454] fc8_car2626 <- fc7
I1009 19:06:00.999168 129637 net.cpp:411] fc8_car2626 -> fc8_car2626
I1009 19:06:01.176302 129637 net.cpp:150] Setting up fc8_car2626
I1009 19:06:01.176352 129637 net.cpp:157] Top shape: 128 2626 (336128)
I1009 19:06:01.176357 129637 net.cpp:165] Memory required for data: 1065696256
I1009 19:06:01.176369 129637 layer_factory.hpp:77] Creating layer loss
I1009 19:06:01.176379 129637 net.cpp:106] Creating Layer loss
I1009 19:06:01.176384 129637 net.cpp:454] loss <- fc8_car2626
I1009 19:06:01.176393 129637 net.cpp:454] loss <- label
I1009 19:06:01.176400 129637 net.cpp:411] loss -> loss
…
I1009 19:06:01.179350 129637 solver.cpp:181] Creating test net (#0) specified by net file: /share/zhh/myimage/train_val_year.prototxt
I1009 19:06:01.179394 129637 net.cpp:322] The NetState phase (1) differed from the phase (0) specified by a rule in layer data
I1009 19:06:01.179592 129637 net.cpp:49] Initializing net from parameters: 
name: "AlexNet"
state {
  phase: TEST
}
layer {
  name: "data"
  type: "Data"
  top: "data"
  top: "label"
  include {
    phase: TEST
  }
  transform_param {
    mirror: false
    crop_size: 227
    mean_file: "/share/zhh/mean.binaryproto"
  }
  data_param {
    source: "/share/front/test_lmdb"
    batch_size: 100
    backend: LMDB
  }
}
layer {
  name: "conv1"
  type: "Convolution"
  bottom: "data"
  top: "conv1"
  param {
    lr_mult: 1
    decay_mult: 1
  }
  param {
    lr_mult: 2
    decay_mult: 0
  }
  convolution_param {
    num_output: 96
    kernel_size: 11
    stride: 4
    weight_filler {
      type: "gaussian"
      std: 0.01
    }
    bias_filler {
      type: "constant"
      value: 0
    }
  }
}
layer {
  name: "relu1"
  type: "ReLU"
  bottom: "conv1"
  top: "conv1"
}
layer {
  name: "norm1"
  type: "LRN"
  bottom: "conv1"
  top: "norm1"
  lrn_param {
    local_size: 5
    alpha: 0.0001
    beta: 0.75
  }
}
layer {
  name: "pool1"
  type: "Pooling"
  bottom: "norm1"
  top: "pool1"
  pooling_param {
    pool: MAX
    kernel_size: 3
    stride: 2
  }
}
layer {
  name: "conv2"
  type: "Convolution"
  bottom: "pool1"
  top: "conv2"
  param {
    lr_mult: 1
    decay_mult: 1
  }
  param {
    lr_mult: 2
    decay_mult: 0
  }
  convolution_param {
    num_output: 256
    pad: 2
    kernel_size: 5
    group: 2
    weight_filler {
      type: "gaussian"
      std: 0.01
    }
    bias_filler {
      type: "constant"
      value: 0.1
    }
  }
}
layer {
  name: "relu2"
  type: "ReLU"
  bottom: "conv2"
  top: "conv2"
}
layer {
  name: "norm2"
  type: "LRN"
  bottom: "conv2"
  top: "norm2"
  lrn_param {
    local_size: 5
    alpha: 0.0001
    beta: 0.75
  }
}
layer {
  name: "pool2"
  type: "Pooling"
  bottom: "norm2"
  top: "pool2"
  pooling_param {
    pool: MAX
    kernel_size: 3
    stride: 2
  }
}
layer {
  name: "conv3"
  type: "Convolution"
  bottom: "pool2"
  top: "conv3"
  param {
    lr_mult: 1
    decay_mult: 1
  }
  param {
    lr_mult: 2
    decay_mult: 0
  }
  convolution_param {
    num_output: 384
    pad: 1
    kernel_size: 3
    weight_filler {
      type: "gaussian"
      std: 0.01
    }
    bias_filler {
      type: "constant"
      value: 0
    }
  }
}
layer {
  name: "relu3"
  type: "ReLU"
  bottom: "conv3"
  top: "conv3"
}
layer {
  name: "conv4"
  type: "Convolution"
  bottom: "conv3"
  top: "conv4"
  param {
    lr_mult: 1
    decay_mult: 1
  }
  param {
    lr_mult: 2
    decay_mult: 0
  }
  convolution_param {
    num_output: 384
    pad: 1
    kernel_size: 3
    group: 2
    weight_filler {
      type: "gaussian"
      std: 0.01
    }
    bias_filler {
      type: "constant"
      value: 0.1
    }
  }
}
layer {
  name: "relu4"
  type: "ReLU"
  bottom: "conv4"
  top: "conv4"
}
layer {
  name: "conv5"
  type: "Convolution"
  bottom: "conv4"
  top: "conv5"
  param {
    lr_mult: 1
    decay_mult: 1
  }
  param {
    lr_mult: 2
    decay_mult: 0
  }
  convolution_param {
    num_output: 256
    pad: 1
    kernel_size: 3
    group: 2
    weight_filler {
      type: "gaussian"
      std: 0.01
    }
    bias_filler {
      type: "constant"
      value: 0.1
    }
  }
}
layer {
  name: "relu5"
  type: "ReLU"
  bottom: "conv5"
  top: "conv5"
}
layer {
  name: "pool5"
  type: "Pooling"
  bottom: "conv5"
  top: "pool5"
  pooling_param {
    pool: MAX
    kernel_size: 3
    stride: 2
  }
}
layer {
  name: "fc6"
  type: "InnerProduct"
  bottom: "pool5"
  top: "fc6"
  param {
    lr_mult: 1
    decay_mult: 1
  }
  param {
    lr_mult: 2
    decay_mult: 0
  }
  inner_product_param {
    num_output: 4096
    weight_filler {
      type: "gaussian"
      std: 0.005
    }
    bias_filler {
      type: "constant"
      value: 0.1
    }
  }
}
layer {
  name: "relu6"
  type: "ReLU"
  bottom: "fc6"
  top: "fc6"
}
layer {
  name: "drop6"
  type: "Dropout"
  bottom: "fc6"
  top: "fc6"
  dropout_param {
    dropout_ratio: 0.5
  }
}
layer {
  name: "fc7"
  type: "InnerProduct"
  bottom: "fc6"
  top: "fc7"
  param {
    lr_mult: 1
    decay_mult: 1
  }
  param {
    lr_mult: 2
    decay_mult: 0
  }
  inner_product_param {
    num_output: 4096
    weight_filler {
      type: "gaussian"
      std: 0.005
    }
    bias_filler {
      type: "constant"
      value: 0.1
    }
  }
}
layer {
  name: "relu7"
  type: "ReLU"
  bottom: "fc7"
  top: "fc7"
}
layer {
  name: "drop7"
  type: "Dropout"
  bottom: "fc7"
  top: "fc7"
  dropout_param {
    dropout_ratio: 0.5
  }
}
layer {
  name: "fc8_car2626"
  type: "InnerProduct"
  bottom: "fc7"
  top: "fc8_car2626"
  param {
    lr_mult: 10
    decay_mult: 1
  }
  param {
    lr_mult: 20
    decay_mult: 0
  }
  inner_product_param {
    num_output: 2626
    weight_filler {
      type: "gaussian"
      std: 0.01
    }
    bias_filler {
      type: "constant"
      value: 0
    }
  }
}
layer {
  name: "accuracy"
  type: "Accuracy"
  bottom: "fc8_car2626"
  bottom: "label"
  top: "accuracy"
  include {
    phase: TEST
  }
}
layer {
  name: "loss"
  type: "SoftmaxWithLoss"
  bottom: "fc8_car2626"
  bottom: "label"
  top: "loss"
}
I1009 19:06:01.179738 129637 layer_factory.hpp:77] Creating layer data
I1009 19:06:01.179888 129637 net.cpp:106] Creating Layer data
I1009 19:06:01.179913 129637 net.cpp:411] data -> data
I1009 19:06:01.179935 129637 net.cpp:411] data -> label
I1009 19:06:01.179944 129637 data_transformer.cpp:25] Loading mean file from: /share/zhh/mean.binaryproto
I1009 19:06:01.182353 129659 db_lmdb.cpp:38] Opened lmdb /share/front/test_lmdb
I1009 19:06:01.182818 129637 data_layer.cpp:41] output data size: 100,3,227,227
I1009 19:06:01.284732 129637 net.cpp:150] Setting up data
I1009 19:06:01.284765 129637 net.cpp:157] Top shape: 100 3 227 227 (15458700)
I1009 19:06:01.284775 129637 net.cpp:157] Top shape: 100 (100)
I1009 19:06:01.284781 129637 net.cpp:165] Memory required for data: 61835200
I1009 19:06:01.284791 129637 layer_factory.hpp:77] Creating layer label_data_1_split
I1009 19:06:01.284811 129637 net.cpp:106] Creating Layer label_data_1_split
I1009 19:06:01.284816 129637 net.cpp:454] label_data_1_split <- label
I1009 19:06:01.284823 129637 net.cpp:411] label_data_1_split -> label_data_1_split_0
I1009 19:06:01.284835 129637 net.cpp:411] label_data_1_split -> label_data_1_split_1
I1009 19:06:01.284936 129637 net.cpp:150] Setting up label_data_1_split
I1009 19:06:01.284946 129637 net.cpp:157] Top shape: 100 (100)
I1009 19:06:01.284951 129637 net.cpp:157] Top shape: 100 (100)
I1009 19:06:01.284955 129637 net.cpp:165] Memory required for data: 61836000
I1009 19:06:01.284958 129637 layer_factory.hpp:77] Creating layer conv1
I1009 19:06:01.284972 129637 net.cpp:106] Creating Layer conv1
I1009 19:06:01.284976 129637 net.cpp:454] conv1 <- data
I1009 19:06:01.284983 129637 net.cpp:411] conv1 -> conv1
I1009 19:06:01.287117 129637 net.cpp:150] Setting up conv1
I1009 19:06:01.287135 129637 net.cpp:157] Top shape: 100 96 55 55 (29040000)
I1009 19:06:01.287140 129637 net.cpp:165] Memory required for data: 177996000
I1009 19:06:01.287153 129637 layer_factory.hpp:77] Creating layer relu1
I1009 19:06:01.287161 129637 net.cpp:106] Creating Layer relu1
I1009 19:06:01.287165 129637 net.cpp:454] relu1 <- conv1
I1009 19:06:01.287171 129637 net.cpp:397] relu1 -> conv1 (in-place)
I1009 19:06:01.287799 129637 net.cpp:150] Setting up relu1
I1009 19:06:01.287814 129637 net.cpp:157] Top shape: 100 96 55 55 (29040000)
I1009 19:06:01.287818 129637 net.cpp:165] Memory required for data: 294156000
I1009 19:06:01.287822 129637 layer_factory.hpp:77] Creating layer norm1
I1009 19:06:01.287832 129637 net.cpp:106] Creating Layer norm1
I1009 19:06:01.287837 129637 net.cpp:454] norm1 <- conv1
I1009 19:06:01.287842 129637 net.cpp:411] norm1 -> norm1
I1009 19:06:01.296066 129637 net.cpp:150] Setting up norm1
I1009 19:06:01.296100 129637 net.cpp:157] Top shape: 100 96 55 55 (29040000)
I1009 19:06:01.296120 129637 net.cpp:165] Memory required for data: 410316000
I1009 19:06:01.296155 129637 layer_factory.hpp:77] Creating layer pool1
I1009 19:06:01.296166 129637 net.cpp:106] Creating Layer pool1
I1009 19:06:01.296170 129637 net.cpp:454] pool1 <- norm1
I1009 19:06:01.296180 129637 net.cpp:411] pool1 -> pool1
I1009 19:06:01.303979 129637 net.cpp:150] Setting up pool1
I1009 19:06:01.304009 129637 net.cpp:157] Top shape: 100 96 27 27 (6998400)
I1009 19:06:01.304014 129637 net.cpp:165] Memory required for data: 438309600
I1009 19:06:01.304020 129637 layer_factory.hpp:77] Creating layer conv2
I1009 19:06:01.304039 129637 net.cpp:106] Creating Layer conv2
I1009 19:06:01.304045 129637 net.cpp:454] conv2 <- pool1
I1009 19:06:01.304056 129637 net.cpp:411] conv2 -> conv2
I1009 19:06:01.338037 129637 net.cpp:150] Setting up conv2
I1009 19:06:01.338081 129637 net.cpp:157] Top shape: 100 256 27 27 (18662400)
I1009 19:06:01.338086 129637 net.cpp:165] Memory required for data: 512959200
I1009 19:06:01.338104 129637 layer_factory.hpp:77] Creating layer relu2
I1009 19:06:01.338138 129637 net.cpp:106] Creating Layer relu2
I1009 19:06:01.338145 129637 net.cpp:454] relu2 <- conv2
I1009 19:06:01.338155 129637 net.cpp:397] relu2 -> conv2 (in-place)
I1009 19:06:01.338352 129637 net.cpp:150] Setting up relu2
I1009 19:06:01.338363 129637 net.cpp:157] Top shape: 100 256 27 27 (18662400)
I1009 19:06:01.338379 129637 net.cpp:165] Memory required for data: 587608800
I1009 19:06:01.338383 129637 layer_factory.hpp:77] Creating layer norm2
I1009 19:06:01.338394 129637 net.cpp:106] Creating Layer norm2
I1009 19:06:01.338398 129637 net.cpp:454] norm2 <- conv2
I1009 19:06:01.338408 129637 net.cpp:411] norm2 -> norm2
I1009 19:06:01.339040 129637 net.cpp:150] Setting up norm2
I1009 19:06:01.339069 129637 net.cpp:157] Top shape: 100 256 27 27 (18662400)
I1009 19:06:01.339074 129637 net.cpp:165] Memory required for data: 662258400
I1009 19:06:01.339078 129637 layer_factory.hpp:77] Creating layer pool2
I1009 19:06:01.339087 129637 net.cpp:106] Creating Layer pool2
I1009 19:06:01.339093 129637 net.cpp:454] pool2 <- norm2
I1009 19:06:01.339100 129637 net.cpp:411] pool2 -> pool2
I1009 19:06:01.339311 129637 net.cpp:150] Setting up pool2
I1009 19:06:01.339323 129637 net.cpp:157] Top shape: 100 256 13 13 (4326400)
I1009 19:06:01.339337 129637 net.cpp:165] Memory required for data: 679564000
I1009 19:06:01.339341 129637 layer_factory.hpp:77] Creating layer conv3
I1009 19:06:01.339354 129637 net.cpp:106] Creating Layer conv3
I1009 19:06:01.339359 129637 net.cpp:454] conv3 <- pool2
I1009 19:06:01.339365 129637 net.cpp:411] conv3 -> conv3
I1009 19:06:01.357885 129637 net.cpp:150] Setting up conv3
I1009 19:06:01.357924 129637 net.cpp:157] Top shape: 100 384 13 13 (6489600)
I1009 19:06:01.357929 129637 net.cpp:165] Memory required for data: 705522400
I1009 19:06:01.357942 129637 layer_factory.hpp:77] Creating layer relu3
I1009 19:06:01.357952 129637 net.cpp:106] Creating Layer relu3
I1009 19:06:01.357957 129637 net.cpp:454] relu3 <- conv3
I1009 19:06:01.357964 129637 net.cpp:397] relu3 -> conv3 (in-place)
I1009 19:06:01.359172 129637 net.cpp:150] Setting up relu3
I1009 19:06:01.359200 129637 net.cpp:157] Top shape: 100 384 13 13 (6489600)
I1009 19:06:01.359205 129637 net.cpp:165] Memory required for data: 731480800
I1009 19:06:01.359210 129637 layer_factory.hpp:77] Creating layer conv4
I1009 19:06:01.359221 129637 net.cpp:106] Creating Layer conv4
I1009 19:06:01.359226 129637 net.cpp:454] conv4 <- conv3
I1009 19:06:01.359233 129637 net.cpp:411] conv4 -> conv4
I1009 19:06:01.371923 129637 net.cpp:150] Setting up conv4
I1009 19:06:01.371955 129637 net.cpp:157] Top shape: 100 384 13 13 (6489600)
I1009 19:06:01.371960 129637 net.cpp:165] Memory required for data: 757439200
I1009 19:06:01.371984 129637 layer_factory.hpp:77] Creating layer relu4
I1009 19:06:01.371994 129637 net.cpp:106] Creating Layer relu4
I1009 19:06:01.371997 129637 net.cpp:454] relu4 <- conv4
I1009 19:06:01.372004 129637 net.cpp:397] relu4 -> conv4 (in-place)
I1009 19:06:01.372413 129637 net.cpp:150] Setting up relu4
I1009 19:06:01.372427 129637 net.cpp:157] Top shape: 100 384 13 13 (6489600)
I1009 19:06:01.372442 129637 net.cpp:165] Memory required for data: 783397600
I1009 19:06:01.372447 129637 layer_factory.hpp:77] Creating layer conv5
I1009 19:06:01.372457 129637 net.cpp:106] Creating Layer conv5
I1009 19:06:01.372459 129637 net.cpp:454] conv5 <- conv4
I1009 19:06:01.372467 129637 net.cpp:411] conv5 -> conv5
I1009 19:06:01.382563 129637 net.cpp:150] Setting up conv5
I1009 19:06:01.382591 129637 net.cpp:157] Top shape: 100 256 13 13 (4326400)
I1009 19:06:01.382596 129637 net.cpp:165] Memory required for data: 800703200
I1009 19:06:01.382609 129637 layer_factory.hpp:77] Creating layer relu5
I1009 19:06:01.382619 129637 net.cpp:106] Creating Layer relu5
I1009 19:06:01.382623 129637 net.cpp:454] relu5 <- conv5
I1009 19:06:01.382630 129637 net.cpp:397] relu5 -> conv5 (in-place)
I1009 19:06:01.383003 129637 net.cpp:150] Setting up relu5
I1009 19:06:01.383018 129637 net.cpp:157] Top shape: 100 256 13 13 (4326400)
I1009 19:06:01.383038 129637 net.cpp:165] Memory required for data: 818008800
I1009 19:06:01.383044 129637 layer_factory.hpp:77] Creating layer pool5
I1009 19:06:01.383054 129637 net.cpp:106] Creating Layer pool5
I1009 19:06:01.383059 129637 net.cpp:454] pool5 <- conv5
I1009 19:06:01.383064 129637 net.cpp:411] pool5 -> pool5
I1009 19:06:01.383262 129637 net.cpp:150] Setting up pool5
I1009 19:06:01.383275 129637 net.cpp:157] Top shape: 100 256 6 6 (921600)
I1009 19:06:01.383278 129637 net.cpp:165] Memory required for data: 821695200
I1009 19:06:01.383281 129637 layer_factory.hpp:77] Creating layer fc6
I1009 19:06:01.383290 129637 net.cpp:106] Creating Layer fc6
I1009 19:06:01.383293 129637 net.cpp:454] fc6 <- pool5
I1009 19:06:01.383299 129637 net.cpp:411] fc6 -> fc6
I1009 19:06:02.071789 129637 net.cpp:150] Setting up fc6
I1009 19:06:02.071835 129637 net.cpp:157] Top shape: 100 4096 (409600)
I1009 19:06:02.071840 129637 net.cpp:165] Memory required for data: 823333600
I1009 19:06:02.071849 129637 layer_factory.hpp:77] Creating layer relu6
I1009 19:06:02.071862 129637 net.cpp:106] Creating Layer relu6
I1009 19:06:02.071867 129637 net.cpp:454] relu6 <- fc6
I1009 19:06:02.071874 129637 net.cpp:397] relu6 -> fc6 (in-place)
I1009 19:06:02.072384 129637 net.cpp:150] Setting up relu6
I1009 19:06:02.072398 129637 net.cpp:157] Top shape: 100 4096 (409600)
I1009 19:06:02.072414 129637 net.cpp:165] Memory required for data: 824972000
I1009 19:06:02.072418 129637 layer_factory.hpp:77] Creating layer drop6
I1009 19:06:02.072425 129637 net.cpp:106] Creating Layer drop6
I1009 19:06:02.072429 129637 net.cpp:454] drop6 <- fc6
I1009 19:06:02.072435 129637 net.cpp:397] drop6 -> fc6 (in-place)
I1009 19:06:02.072468 129637 net.cpp:150] Setting up drop6
I1009 19:06:02.072475 129637 net.cpp:157] Top shape: 100 4096 (409600)
I1009 19:06:02.072479 129637 net.cpp:165] Memory required for data: 826610400
I1009 19:06:02.072482 129637 layer_factory.hpp:77] Creating layer fc7
I1009 19:06:02.072491 129637 net.cpp:106] Creating Layer fc7
I1009 19:06:02.072497 129637 net.cpp:454] fc7 <- fc6
I1009 19:06:02.072515 129637 net.cpp:411] fc7 -> fc7
I1009 19:06:02.352017 129637 net.cpp:150] Setting up fc7
I1009 19:06:02.352058 129637 net.cpp:157] Top shape: 100 4096 (409600)
I1009 19:06:02.352063 129637 net.cpp:165] Memory required for data: 828248800
I1009 19:06:02.352073 129637 layer_factory.hpp:77] Creating layer relu7
I1009 19:06:02.352083 129637 net.cpp:106] Creating Layer relu7
I1009 19:06:02.352088 129637 net.cpp:454] relu7 <- fc7
I1009 19:06:02.352097 129637 net.cpp:397] relu7 -> fc7 (in-place)
I1009 19:06:02.352339 129637 net.cpp:150] Setting up relu7
I1009 19:06:02.352349 129637 net.cpp:157] Top shape: 100 4096 (409600)
I1009 19:06:02.352365 129637 net.cpp:165] Memory required for data: 829887200
I1009 19:06:02.352368 129637 layer_factory.hpp:77] Creating layer drop7
I1009 19:06:02.352376 129637 net.cpp:106] Creating Layer drop7
I1009 19:06:02.352380 129637 net.cpp:454] drop7 <- fc7
I1009 19:06:02.352385 129637 net.cpp:397] drop7 -> fc7 (in-place)
I1009 19:06:02.352416 129637 net.cpp:150] Setting up drop7
I1009 19:06:02.352423 129637 net.cpp:157] Top shape: 100 4096 (409600)
I1009 19:06:02.352439 129637 net.cpp:165] Memory required for data: 831525600
I1009 19:06:02.352442 129637 layer_factory.hpp:77] Creating layer fc8_car2626
I1009 19:06:02.352450 129637 net.cpp:106] Creating Layer fc8_car2626
I1009 19:06:02.352454 129637 net.cpp:454] fc8_car2626 <- fc7
I1009 19:06:02.352460 129637 net.cpp:411] fc8_car2626 -> fc8_car2626
I1009 19:06:02.584578 129637 net.cpp:150] Setting up fc8_car2626
I1009 19:06:02.584651 129637 net.cpp:157] Top shape: 100 2626 (262600)
I1009 19:06:02.584661 129637 net.cpp:165] Memory required for data: 832576000
I1009 19:06:02.584683 129637 layer_factory.hpp:77] Creating layer fc8_car2626_fc8_car2626_0_split
I1009 19:06:02.584707 129637 net.cpp:106] Creating Layer fc8_car2626_fc8_car2626_0_split
I1009 19:06:02.584719 129637 net.cpp:454] fc8_car2626_fc8_car2626_0_split <- fc8_car2626
I1009 19:06:02.584738 129637 net.cpp:411] fc8_car2626_fc8_car2626_0_split -> fc8_car2626_fc8_car2626_0_split_0
I1009 19:06:02.584796 129637 net.cpp:411] fc8_car2626_fc8_car2626_0_split -> fc8_car2626_fc8_car2626_0_split_1
I1009 19:06:02.584904 129637 net.cpp:150] Setting up fc8_car2626_fc8_car2626_0_split
I1009 19:06:02.584930 129637 net.cpp:157] Top shape: 100 2626 (262600)
I1009 19:06:02.584941 129637 net.cpp:157] Top shape: 100 2626 (262600)
I1009 19:06:02.584949 129637 net.cpp:165] Memory required for data: 834676800
I1009 19:06:02.584957 129637 layer_factory.hpp:77] Creating layer accuracy
I1009 19:06:02.584975 129637 net.cpp:106] Creating Layer accuracy
I1009 19:06:02.584983 129637 net.cpp:454] accuracy <- fc8_car2626_fc8_car2626_0_split_0
I1009 19:06:02.584995 129637 net.cpp:454] accuracy <- label_data_1_split_0
I1009 19:06:02.585007 129637 net.cpp:411] accuracy -> accuracy
…
