…
I1019 13:48:55.891242 109343 net.cpp:322] The NetState phase (0) differed from the phase (1) specified by a rule in layer data
I1019 13:48:55.891311 109343 net.cpp:322] The NetState phase (0) differed from the phase (1) specified by a rule in layer accuracy
I1019 13:48:55.891831 109343 net.cpp:58] Initializing net from parameters: 
state {
  phase: TRAIN
  level: 0
  stage: ""
}
layer {
  name: "data"
  type: "Data"
  top: "data"
  top: "label"
  include {
    phase: TRAIN
  }
  transform_param {
    crop_size: 227
    mean_file: "/share/zhh/mean.binaryproto"
  }
  data_param {
    source: "/share/front/train_lmdb"
    batch_size: 128
    backend: LMDB
  }
}
layer {
  name: "conv1"
  type: "Convolution"
  bottom: "data"
  top: "conv1"
  convolution_param {
    num_output: 64
    kernel_size: 3
    stride: 2
    weight_filler {
      type: "xavier"
    }
  }
}
layer {
  name: "relu_conv1"
  type: "ReLU"
  bottom: "conv1"
  top: "conv1"
}
layer {
  name: "pool1"
  type: "Pooling"
  bottom: "conv1"
  top: "pool1"
  pooling_param {
    pool: MAX
    kernel_size: 3
    stride: 2
  }
}
layer {
  name: "fire2/squeeze1x1"
  type: "Convolution"
  bottom: "pool1"
  top: "fire2/squeeze1x1"
  convolution_param {
    num_output: 16
    kernel_size: 1
    weight_filler {
      type: "xavier"
    }
  }
}
layer {
  name: "fire2/expand1x1"
  type: "Convolution"
  bottom: "fire2/squeeze1x1"
  top: "fire2/expand1x1"
  convolution_param {
    num_output: 64
    kernel_size: 1
    weight_filler {
      type: "xavier"
    }
  }
}
layer {
  name: "fire2/relu_expand1x1"
  type: "ReLU"
  bottom: "fire2/expand1x1"
  top: "fire2/expand1x1"
}
layer {
  name: "fire2/expand3x3"
  type: "Convolution"
  bottom: "fire2/squeeze1x1"
  top: "fire2/expand3x3"
  convolution_param {
    num_output: 64
    pad: 1
    kernel_size: 3
    weight_filler {
      type: "xavier"
    }
  }
}
layer {
  name: "fire2/relu_expand3x3"
  type: "ReLU"
  bottom: "fire2/expand3x3"
  top: "fire2/expand3x3"
}
layer {
  name: "fire2/concat"
  type: "Concat"
  bottom: "fire2/expand1x1"
  bottom: "fire2/expand3x3"
  top: "fire2/concat"
}
layer {
  name: "fire3/squeeze1x1"
  type: "Convolution"
  bottom: "fire2/concat"
  top: "fire3/squeeze1x1"
  convolution_param {
    num_output: 16
    kernel_size: 1
    weight_filler {
      type: "xavier"
    }
  }
}
layer {
  name: "fire3/expand1x1"
  type: "Convolution"
  bottom: "fire3/squeeze1x1"
  top: "fire3/expand1x1"
  convolution_param {
    num_output: 64
    kernel_size: 1
    weight_filler {
      type: "xavier"
    }
  }
}
layer {
  name: "fire3/relu_expand1x1"
  type: "ReLU"
  bottom: "fire3/expand1x1"
  top: "fire3/expand1x1"
}
layer {
  name: "fire3/expand3x3"
  type: "Convolution"
  bottom: "fire3/squeeze1x1"
  top: "fire3/expand3x3"
  convolution_param {
    num_output: 64
    pad: 1
    kernel_size: 3
    weight_filler {
      type: "xavier"
    }
  }
}
layer {
  name: "fire3/relu_expand3x3"
  type: "ReLU"
  bottom: "fire3/expand3x3"
  top: "fire3/expand3x3"
}
layer {
  name: "fire3/concat"
  type: "Concat"
  bottom: "fire3/expand1x1"
  bottom: "fire3/expand3x3"
  top: "fire3/concat"
}
layer {
  name: "pool3"
  type: "Pooling"
  bottom: "fire3/concat"
  top: "pool3"
  pooling_param {
    pool: MAX
    kernel_size: 3
    stride: 2
  }
}
layer {
  name: "fire4/squeeze1x1"
  type: "Convolution"
  bottom: "pool3"
  top: "fire4/squeeze1x1"
  convolution_param {
    num_output: 32
    kernel_size: 1
    weight_filler {
      type: "xavier"
    }
  }
}
layer {
  name: "fire4/expand1x1"
  type: "Convolution"
  bottom: "fire4/squeeze1x1"
  top: "fire4/expand1x1"
  convolution_param {
    num_output: 128
    kernel_size: 1
    weight_filler {
      type: "xavier"
    }
  }
}
layer {
  name: "fire4/relu_expand1x1"
  type: "ReLU"
  bottom: "fire4/expand1x1"
  top: "fire4/expand1x1"
}
layer {
  name: "fire4/expand3x3"
  type: "Convolution"
  bottom: "fire4/squeeze1x1"
  top: "fire4/expand3x3"
  convolution_param {
    num_output: 128
    pad: 1
    kernel_size: 3
    weight_filler {
      type: "xavier"
    }
  }
}
layer {
  name: "fire4/relu_expand3x3"
  type: "ReLU"
  bottom: "fire4/expand3x3"
  top: "fire4/expand3x3"
}
layer {
  name: "fire4/concat"
  type: "Concat"
  bottom: "fire4/expand1x1"
  bottom: "fire4/expand3x3"
  top: "fire4/concat"
}
layer {
  name: "fire5/squeeze1x1"
  type: "Convolution"
  bottom: "fire4/concat"
  top: "fire5/squeeze1x1"
  convolution_param {
    num_output: 32
    kernel_size: 1
    weight_filler {
      type: "xavier"
    }
  }
}
layer {
  name: "fire5/expand1x1"
  type: "Convolution"
  bottom: "fire5/squeeze1x1"
  top: "fire5/expand1x1"
  convolution_param {
    num_output: 128
    kernel_size: 1
    weight_filler {
      type: "xavier"
    }
  }
}
layer {
  name: "fire5/relu_expand1x1"
  type: "ReLU"
  bottom: "fire5/expand1x1"
  top: "fire5/expand1x1"
}
layer {
  name: "fire5/expand3x3"
  type: "Convolution"
  bottom: "fire5/squeeze1x1"
  top: "fire5/expand3x3"
  convolution_param {
    num_output: 128
    pad: 1
    kernel_size: 3
    weight_filler {
      type: "xavier"
    }
  }
}
layer {
  name: "fire5/relu_expand3x3"
  type: "ReLU"
  bottom: "fire5/expand3x3"
  top: "fire5/expand3x3"
}
layer {
  name: "fire5/concat"
  type: "Concat"
  bottom: "fire5/expand1x1"
  bottom: "fire5/expand3x3"
  top: "fire5/concat"
}
layer {
  name: "pool5"
  type: "Pooling"
  bottom: "fire5/concat"
  top: "pool5"
  pooling_param {
    pool: MAX
    kernel_size: 3
    stride: 2
  }
}
layer {
  name: "fire6/squeeze1x1"
  type: "Convolution"
  bottom: "pool5"
  top: "fire6/squeeze1x1"
  convolution_param {
    num_output: 48
    kernel_size: 1
    weight_filler {
      type: "xavier"
    }
  }
}
layer {
  name: "fire6/expand1x1"
  type: "Convolution"
  bottom: "fire6/squeeze1x1"
  top: "fire6/expand1x1"
  convolution_param {
    num_output: 192
    kernel_size: 1
    weight_filler {
      type: "xavier"
    }
  }
}
layer {
  name: "fire6/relu_expand1x1"
  type: "ReLU"
  bottom: "fire6/expand1x1"
  top: "fire6/expand1x1"
}
layer {
  name: "fire6/expand3x3"
  type: "Convolution"
  bottom: "fire6/squeeze1x1"
  top: "fire6/expand3x3"
  convolution_param {
    num_output: 192
    pad: 1
    kernel_size: 3
    weight_filler {
      type: "xavier"
    }
  }
}
layer {
  name: "fire6/relu_expand3x3"
  type: "ReLU"
  bottom: "fire6/expand3x3"
  top: "fire6/expand3x3"
}
layer {
  name: "fire6/concat"
  type: "Concat"
  bottom: "fire6/expand1x1"
  bottom: "fire6/expand3x3"
  top: "fire6/concat"
}
layer {
  name: "fire7/squeeze1x1"
  type: "Convolution"
  bottom: "fire6/concat"
  top: "fire7/squeeze1x1"
  convolution_param {
    num_output: 48
    kernel_size: 1
    weight_filler {
      type: "xavier"
    }
  }
}
layer {
  name: "fire7/expand1x1"
  type: "Convolution"
  bottom: "fire7/squeeze1x1"
  top: "fire7/expand1x1"
  convolution_param {
    num_output: 192
    kernel_size: 1
    weight_filler {
      type: "xavier"
    }
  }
}
layer {
  name: "fire7/relu_expand1x1"
  type: "ReLU"
  bottom: "fire7/expand1x1"
  top: "fire7/expand1x1"
}
layer {
  name: "fire7/expand3x3"
  type: "Convolution"
  bottom: "fire7/squeeze1x1"
  top: "fire7/expand3x3"
  convolution_param {
    num_output: 192
    pad: 1
    kernel_size: 3
    weight_filler {
      type: "xavier"
    }
  }
}
layer {
  name: "fire7/relu_expand3x3"
  type: "ReLU"
  bottom: "fire7/expand3x3"
  top: "fire7/expand3x3"
}
layer {
  name: "fire7/concat"
  type: "Concat"
  bottom: "fire7/expand1x1"
  bottom: "fire7/expand3x3"
  top: "fire7/concat"
}
layer {
  name: "fire8/squeeze1x1"
  type: "Convolution"
  bottom: "fire7/concat"
  top: "fire8/squeeze1x1"
  convolution_param {
    num_output: 64
    kernel_size: 1
    weight_filler {
      type: "xavier"
    }
  }
}
layer {
  name: "fire8/expand1x1"
  type: "Convolution"
  bottom: "fire8/squeeze1x1"
  top: "fire8/expand1x1"
  convolution_param {
    num_output: 256
    kernel_size: 1
    weight_filler {
      type: "xavier"
    }
  }
}
layer {
  name: "fire8/relu_expand1x1"
  type: "ReLU"
  bottom: "fire8/expand1x1"
  top: "fire8/expand1x1"
}
layer {
  name: "fire8/expand3x3"
  type: "Convolution"
  bottom: "fire8/squeeze1x1"
  top: "fire8/expand3x3"
  convolution_param {
    num_output: 256
    pad: 1
    kernel_size: 3
    weight_filler {
      type: "xavier"
    }
  }
}
layer {
  name: "fire8/relu_expand3x3"
  type: "ReLU"
  bottom: "fire8/expand3x3"
  top: "fire8/expand3x3"
}
layer {
  name: "fire8/concat"
  type: "Concat"
  bottom: "fire8/expand1x1"
  bottom: "fire8/expand3x3"
  top: "fire8/concat"
}
layer {
  name: "fire9/squeeze1x1"
  type: "Convolution"
  bottom: "fire8/concat"
  top: "fire9/squeeze1x1"
  convolution_param {
    num_output: 64
    kernel_size: 1
    weight_filler {
      type: "xavier"
    }
  }
}
layer {
  name: "fire9/expand1x1"
  type: "Convolution"
  bottom: "fire9/squeeze1x1"
  top: "fire9/expand1x1"
  convolution_param {
    num_output: 256
    kernel_size: 1
    weight_filler {
      type: "xavier"
    }
  }
}
layer {
  name: "fire9/relu_expand1x1"
  type: "ReLU"
  bottom: "fire9/expand1x1"
  top: "fire9/expand1x1"
}
layer {
  name: "fire9/expand3x3"
  type: "Convolution"
  bottom: "fire9/squeeze1x1"
  top: "fire9/expand3x3"
  convolution_param {
    num_output: 256
    pad: 1
    kernel_size: 3
    weight_filler {
      type: "xavier"
    }
  }
}
layer {
  name: "fire9/relu_expand3x3"
  type: "ReLU"
  bottom: "fire9/expand3x3"
  top: "fire9/expand3x3"
}
layer {
  name: "fire9/concat"
  type: "Concat"
  bottom: "fire9/expand1x1"
  bottom: "fire9/expand3x3"
  top: "fire9/concat"
}
layer {
  name: "drop9"
  type: "Dropout"
  bottom: "fire9/concat"
  top: "fire9/concat"
  dropout_param {
    dropout_ratio: 0.5
  }
}
layer {
  name: "conv10_2626"
  type: "Convolution"
  bottom: "fire9/concat"
  top: "conv10_2626"
  param {
    lr_mult: 1
    decay_mult: 1
  }
  convolution_param {
    num_output: 2626
    kernel_size: 1
    weight_filler {
      type: "gaussian"
      mean: 0
      std: 0.01
    }
  }
}
layer {
  name: "relu_conv10"
  type: "ReLU"
  bottom: "conv10_2626"
  top: "conv10_2626"
}
layer {
  name: "pool10"
  type: "Pooling"
  bottom: "conv10_2626"
  top: "pool10"
  pooling_param {
    pool: AVE
    global_pooling: true
  }
}
layer {
  name: "loss"
  type: "SoftmaxWithLoss"
  bottom: "pool10"
  bottom: "label"
  top: "loss"
}
I1019 13:48:55.892279 109343 layer_factory.hpp:77] Creating layer data
I1019 13:48:55.892607 109343 net.cpp:100] Creating Layer data
I1019 13:48:55.892657 109343 net.cpp:408] data -> data
I1019 13:48:55.892714 109343 net.cpp:408] data -> label
I1019 13:48:55.892736 109343 data_transformer.cpp:25] Loading mean file from: /share/zhh/mean.binaryproto
I1019 13:48:55.911650 109361 db_lmdb.cpp:35] Opened lmdb /share/front/train_lmdb
I1019 13:48:56.000133 109343 data_layer.cpp:41] output data size: 128,3,227,227
I1019 13:48:56.116287 109343 net.cpp:150] Setting up data
I1019 13:48:56.116345 109343 net.cpp:157] Top shape: 128 3 227 227 (19787136)
I1019 13:48:56.116353 109343 net.cpp:157] Top shape: 128 (128)
I1019 13:48:56.116355 109343 net.cpp:165] Memory required for data: 79149056
I1019 13:48:56.116365 109343 layer_factory.hpp:77] Creating layer conv1
I1019 13:48:56.116395 109343 net.cpp:100] Creating Layer conv1
I1019 13:48:56.116401 109343 net.cpp:434] conv1 <- data
I1019 13:48:56.116416 109343 net.cpp:408] conv1 -> conv1
I1019 13:48:56.160066 109363 blocking_queue.cpp:50] Waiting for data
I1019 13:48:56.717619 109343 net.cpp:150] Setting up conv1
I1019 13:48:56.717664 109343 net.cpp:157] Top shape: 128 64 113 113 (104603648)
I1019 13:48:56.717689 109343 net.cpp:165] Memory required for data: 497563648
I1019 13:48:56.717716 109343 layer_factory.hpp:77] Creating layer relu_conv1
I1019 13:48:56.717736 109343 net.cpp:100] Creating Layer relu_conv1
I1019 13:48:56.717744 109343 net.cpp:434] relu_conv1 <- conv1
I1019 13:48:56.717758 109343 net.cpp:395] relu_conv1 -> conv1 (in-place)
I1019 13:48:56.718204 109343 net.cpp:150] Setting up relu_conv1
I1019 13:48:56.718221 109343 net.cpp:157] Top shape: 128 64 113 113 (104603648)
I1019 13:48:56.718225 109343 net.cpp:165] Memory required for data: 915978240
I1019 13:48:56.718231 109343 layer_factory.hpp:77] Creating layer pool1
I1019 13:48:56.718243 109343 net.cpp:100] Creating Layer pool1
I1019 13:48:56.718248 109343 net.cpp:434] pool1 <- conv1
I1019 13:48:56.718256 109343 net.cpp:408] pool1 -> pool1
I1019 13:48:56.718317 109343 net.cpp:150] Setting up pool1
I1019 13:48:56.718327 109343 net.cpp:157] Top shape: 128 64 56 56 (25690112)
I1019 13:48:56.718332 109343 net.cpp:165] Memory required for data: 1018738688
I1019 13:48:56.718334 109343 layer_factory.hpp:77] Creating layer fire2/squeeze1x1
I1019 13:48:56.718349 109343 net.cpp:100] Creating Layer fire2/squeeze1x1
I1019 13:48:56.718354 109343 net.cpp:434] fire2/squeeze1x1 <- pool1
I1019 13:48:56.718363 109343 net.cpp:408] fire2/squeeze1x1 -> fire2/squeeze1x1
I1019 13:48:56.720026 109343 net.cpp:150] Setting up fire2/squeeze1x1
I1019 13:48:56.720046 109343 net.cpp:157] Top shape: 128 16 56 56 (6422528)
I1019 13:48:56.720051 109343 net.cpp:165] Memory required for data: 1044428800
I1019 13:48:56.720062 109343 layer_factory.hpp:77] Creating layer fire2/squeeze1x1_fire2/squeeze1x1_0_split
I1019 13:48:56.720113 109343 net.cpp:100] Creating Layer fire2/squeeze1x1_fire2/squeeze1x1_0_split
I1019 13:48:56.720130 109343 net.cpp:434] fire2/squeeze1x1_fire2/squeeze1x1_0_split <- fire2/squeeze1x1
I1019 13:48:56.720140 109343 net.cpp:408] fire2/squeeze1x1_fire2/squeeze1x1_0_split -> fire2/squeeze1x1_fire2/squeeze1x1_0_split_0
I1019 13:48:56.720149 109343 net.cpp:408] fire2/squeeze1x1_fire2/squeeze1x1_0_split -> fire2/squeeze1x1_fire2/squeeze1x1_0_split_1
I1019 13:48:56.720194 109343 net.cpp:150] Setting up fire2/squeeze1x1_fire2/squeeze1x1_0_split
I1019 13:48:56.720219 109343 net.cpp:157] Top shape: 128 16 56 56 (6422528)
I1019 13:48:56.720226 109343 net.cpp:157] Top shape: 128 16 56 56 (6422528)
I1019 13:48:56.720229 109343 net.cpp:165] Memory required for data: 1095809024
I1019 13:48:56.720233 109343 layer_factory.hpp:77] Creating layer fire2/expand1x1
I1019 13:48:56.720243 109343 net.cpp:100] Creating Layer fire2/expand1x1
I1019 13:48:56.720247 109343 net.cpp:434] fire2/expand1x1 <- fire2/squeeze1x1_fire2/squeeze1x1_0_split_0
I1019 13:48:56.720257 109343 net.cpp:408] fire2/expand1x1 -> fire2/expand1x1
I1019 13:48:56.721539 109343 net.cpp:150] Setting up fire2/expand1x1
I1019 13:48:56.721556 109343 net.cpp:157] Top shape: 128 64 56 56 (25690112)
I1019 13:48:56.721561 109343 net.cpp:165] Memory required for data: 1198569472
I1019 13:48:56.721580 109343 layer_factory.hpp:77] Creating layer fire2/relu_expand1x1
I1019 13:48:56.721587 109343 net.cpp:100] Creating Layer fire2/relu_expand1x1
I1019 13:48:56.721591 109343 net.cpp:434] fire2/relu_expand1x1 <- fire2/expand1x1
I1019 13:48:56.721601 109343 net.cpp:395] fire2/relu_expand1x1 -> fire2/expand1x1 (in-place)
I1019 13:48:56.722010 109343 net.cpp:150] Setting up fire2/relu_expand1x1
I1019 13:48:56.722026 109343 net.cpp:157] Top shape: 128 64 56 56 (25690112)
I1019 13:48:56.722030 109343 net.cpp:165] Memory required for data: 1301329920
I1019 13:48:56.722035 109343 layer_factory.hpp:77] Creating layer fire2/expand3x3
I1019 13:48:56.722048 109343 net.cpp:100] Creating Layer fire2/expand3x3
I1019 13:48:56.722054 109343 net.cpp:434] fire2/expand3x3 <- fire2/squeeze1x1_fire2/squeeze1x1_0_split_1
I1019 13:48:56.722060 109343 net.cpp:408] fire2/expand3x3 -> fire2/expand3x3
I1019 13:48:56.723469 109343 net.cpp:150] Setting up fire2/expand3x3
I1019 13:48:56.723486 109343 net.cpp:157] Top shape: 128 64 56 56 (25690112)
I1019 13:48:56.723512 109343 net.cpp:165] Memory required for data: 1404090368
I1019 13:48:56.723521 109343 layer_factory.hpp:77] Creating layer fire2/relu_expand3x3
I1019 13:48:56.723528 109343 net.cpp:100] Creating Layer fire2/relu_expand3x3
I1019 13:48:56.723533 109343 net.cpp:434] fire2/relu_expand3x3 <- fire2/expand3x3
I1019 13:48:56.723542 109343 net.cpp:395] fire2/relu_expand3x3 -> fire2/expand3x3 (in-place)
I1019 13:48:56.723747 109343 net.cpp:150] Setting up fire2/relu_expand3x3
I1019 13:48:56.723759 109343 net.cpp:157] Top shape: 128 64 56 56 (25690112)
I1019 13:48:56.723763 109343 net.cpp:165] Memory required for data: 1506850816
I1019 13:48:56.723767 109343 layer_factory.hpp:77] Creating layer fire2/concat
I1019 13:48:56.723778 109343 net.cpp:100] Creating Layer fire2/concat
I1019 13:48:56.723783 109343 net.cpp:434] fire2/concat <- fire2/expand1x1
I1019 13:48:56.723788 109343 net.cpp:434] fire2/concat <- fire2/expand3x3
I1019 13:48:56.723794 109343 net.cpp:408] fire2/concat -> fire2/concat
I1019 13:48:56.729910 109343 net.cpp:150] Setting up fire2/concat
I1019 13:48:56.729941 109343 net.cpp:157] Top shape: 128 128 56 56 (51380224)
I1019 13:48:56.729948 109343 net.cpp:165] Memory required for data: 1712371712
I1019 13:48:56.729956 109343 layer_factory.hpp:77] Creating layer fire3/squeeze1x1
I1019 13:48:56.729979 109343 net.cpp:100] Creating Layer fire3/squeeze1x1
I1019 13:48:56.729992 109343 net.cpp:434] fire3/squeeze1x1 <- fire2/concat
I1019 13:48:56.730005 109343 net.cpp:408] fire3/squeeze1x1 -> fire3/squeeze1x1
I1019 13:48:56.731494 109343 net.cpp:150] Setting up fire3/squeeze1x1
I1019 13:48:56.731513 109343 net.cpp:157] Top shape: 128 16 56 56 (6422528)
I1019 13:48:56.731524 109343 net.cpp:165] Memory required for data: 1738061824
I1019 13:48:56.731536 109343 layer_factory.hpp:77] Creating layer fire3/squeeze1x1_fire3/squeeze1x1_0_split
I1019 13:48:56.731544 109343 net.cpp:100] Creating Layer fire3/squeeze1x1_fire3/squeeze1x1_0_split
I1019 13:48:56.731549 109343 net.cpp:434] fire3/squeeze1x1_fire3/squeeze1x1_0_split <- fire3/squeeze1x1
I1019 13:48:56.731562 109343 net.cpp:408] fire3/squeeze1x1_fire3/squeeze1x1_0_split -> fire3/squeeze1x1_fire3/squeeze1x1_0_split_0
I1019 13:48:56.731570 109343 net.cpp:408] fire3/squeeze1x1_fire3/squeeze1x1_0_split -> fire3/squeeze1x1_fire3/squeeze1x1_0_split_1
I1019 13:48:56.731616 109343 net.cpp:150] Setting up fire3/squeeze1x1_fire3/squeeze1x1_0_split
I1019 13:48:56.731624 109343 net.cpp:157] Top shape: 128 16 56 56 (6422528)
I1019 13:48:56.731629 109343 net.cpp:157] Top shape: 128 16 56 56 (6422528)
I1019 13:48:56.731633 109343 net.cpp:165] Memory required for data: 1789442048
I1019 13:48:56.731637 109343 layer_factory.hpp:77] Creating layer fire3/expand1x1
I1019 13:48:56.731647 109343 net.cpp:100] Creating Layer fire3/expand1x1
I1019 13:48:56.731652 109343 net.cpp:434] fire3/expand1x1 <- fire3/squeeze1x1_fire3/squeeze1x1_0_split_0
I1019 13:48:56.731659 109343 net.cpp:408] fire3/expand1x1 -> fire3/expand1x1
I1019 13:48:56.732996 109343 net.cpp:150] Setting up fire3/expand1x1
I1019 13:48:56.733014 109343 net.cpp:157] Top shape: 128 64 56 56 (25690112)
I1019 13:48:56.733026 109343 net.cpp:165] Memory required for data: 1892202496
I1019 13:48:56.733033 109343 layer_factory.hpp:77] Creating layer fire3/relu_expand1x1
I1019 13:48:56.733043 109343 net.cpp:100] Creating Layer fire3/relu_expand1x1
I1019 13:48:56.733048 109343 net.cpp:434] fire3/relu_expand1x1 <- fire3/expand1x1
I1019 13:48:56.733055 109343 net.cpp:395] fire3/relu_expand1x1 -> fire3/expand1x1 (in-place)
I1019 13:48:56.733263 109343 net.cpp:150] Setting up fire3/relu_expand1x1
I1019 13:48:56.733274 109343 net.cpp:157] Top shape: 128 64 56 56 (25690112)
I1019 13:48:56.733278 109343 net.cpp:165] Memory required for data: 1994962944
I1019 13:48:56.733289 109343 layer_factory.hpp:77] Creating layer fire3/expand3x3
I1019 13:48:56.733299 109343 net.cpp:100] Creating Layer fire3/expand3x3
I1019 13:48:56.733304 109343 net.cpp:434] fire3/expand3x3 <- fire3/squeeze1x1_fire3/squeeze1x1_0_split_1
I1019 13:48:56.733325 109343 net.cpp:408] fire3/expand3x3 -> fire3/expand3x3
I1019 13:48:56.734714 109343 net.cpp:150] Setting up fire3/expand3x3
I1019 13:48:56.734731 109343 net.cpp:157] Top shape: 128 64 56 56 (25690112)
I1019 13:48:56.734735 109343 net.cpp:165] Memory required for data: 2097723392
I1019 13:48:56.734743 109343 layer_factory.hpp:77] Creating layer fire3/relu_expand3x3
I1019 13:48:56.734755 109343 net.cpp:100] Creating Layer fire3/relu_expand3x3
I1019 13:48:56.734760 109343 net.cpp:434] fire3/relu_expand3x3 <- fire3/expand3x3
I1019 13:48:56.734767 109343 net.cpp:395] fire3/relu_expand3x3 -> fire3/expand3x3 (in-place)
I1019 13:48:56.735182 109343 net.cpp:150] Setting up fire3/relu_expand3x3
I1019 13:48:56.735198 109343 net.cpp:157] Top shape: 128 64 56 56 (25690112)
I1019 13:48:56.735201 109343 net.cpp:165] Memory required for data: 2200483840
I1019 13:48:56.735206 109343 layer_factory.hpp:77] Creating layer fire3/concat
I1019 13:48:56.735214 109343 net.cpp:100] Creating Layer fire3/concat
I1019 13:48:56.735219 109343 net.cpp:434] fire3/concat <- fire3/expand1x1
I1019 13:48:56.735225 109343 net.cpp:434] fire3/concat <- fire3/expand3x3
I1019 13:48:56.735231 109343 net.cpp:408] fire3/concat -> fire3/concat
I1019 13:48:56.735265 109343 net.cpp:150] Setting up fire3/concat
I1019 13:48:56.735275 109343 net.cpp:157] Top shape: 128 128 56 56 (51380224)
I1019 13:48:56.735277 109343 net.cpp:165] Memory required for data: 2406004736
I1019 13:48:56.735281 109343 layer_factory.hpp:77] Creating layer pool3
I1019 13:48:56.735290 109343 net.cpp:100] Creating Layer pool3
I1019 13:48:56.735293 109343 net.cpp:434] pool3 <- fire3/concat
I1019 13:48:56.735299 109343 net.cpp:408] pool3 -> pool3
I1019 13:48:56.735345 109343 net.cpp:150] Setting up pool3
I1019 13:48:56.735354 109343 net.cpp:157] Top shape: 128 128 28 28 (12845056)
I1019 13:48:56.735358 109343 net.cpp:165] Memory required for data: 2457384960
I1019 13:48:56.735363 109343 layer_factory.hpp:77] Creating layer fire4/squeeze1x1
I1019 13:48:56.735373 109343 net.cpp:100] Creating Layer fire4/squeeze1x1
I1019 13:48:56.735376 109343 net.cpp:434] fire4/squeeze1x1 <- pool3
I1019 13:48:56.735384 109343 net.cpp:408] fire4/squeeze1x1 -> fire4/squeeze1x1
I1019 13:48:56.736534 109343 net.cpp:150] Setting up fire4/squeeze1x1
I1019 13:48:56.736553 109343 net.cpp:157] Top shape: 128 32 28 28 (3211264)
I1019 13:48:56.736558 109343 net.cpp:165] Memory required for data: 2470230016
I1019 13:48:56.736565 109343 layer_factory.hpp:77] Creating layer fire4/squeeze1x1_fire4/squeeze1x1_0_split
I1019 13:48:56.736573 109343 net.cpp:100] Creating Layer fire4/squeeze1x1_fire4/squeeze1x1_0_split
I1019 13:48:56.736578 109343 net.cpp:434] fire4/squeeze1x1_fire4/squeeze1x1_0_split <- fire4/squeeze1x1
I1019 13:48:56.736585 109343 net.cpp:408] fire4/squeeze1x1_fire4/squeeze1x1_0_split -> fire4/squeeze1x1_fire4/squeeze1x1_0_split_0
I1019 13:48:56.736594 109343 net.cpp:408] fire4/squeeze1x1_fire4/squeeze1x1_0_split -> fire4/squeeze1x1_fire4/squeeze1x1_0_split_1
I1019 13:48:56.736639 109343 net.cpp:150] Setting up fire4/squeeze1x1_fire4/squeeze1x1_0_split
I1019 13:48:56.736647 109343 net.cpp:157] Top shape: 128 32 28 28 (3211264)
I1019 13:48:56.736652 109343 net.cpp:157] Top shape: 128 32 28 28 (3211264)
I1019 13:48:56.736656 109343 net.cpp:165] Memory required for data: 2495920128
I1019 13:48:56.736660 109343 layer_factory.hpp:77] Creating layer fire4/expand1x1
I1019 13:48:56.736672 109343 net.cpp:100] Creating Layer fire4/expand1x1
I1019 13:48:56.736677 109343 net.cpp:434] fire4/expand1x1 <- fire4/squeeze1x1_fire4/squeeze1x1_0_split_0
I1019 13:48:56.736685 109343 net.cpp:408] fire4/expand1x1 -> fire4/expand1x1
I1019 13:48:56.738282 109343 net.cpp:150] Setting up fire4/expand1x1
I1019 13:48:56.738299 109343 net.cpp:157] Top shape: 128 128 28 28 (12845056)
I1019 13:48:56.738304 109343 net.cpp:165] Memory required for data: 2547300352
I1019 13:48:56.738318 109343 layer_factory.hpp:77] Creating layer fire4/relu_expand1x1
I1019 13:48:56.738327 109343 net.cpp:100] Creating Layer fire4/relu_expand1x1
I1019 13:48:56.738344 109343 net.cpp:434] fire4/relu_expand1x1 <- fire4/expand1x1
I1019 13:48:56.738353 109343 net.cpp:395] fire4/relu_expand1x1 -> fire4/expand1x1 (in-place)
I1019 13:48:56.738785 109343 net.cpp:150] Setting up fire4/relu_expand1x1
I1019 13:48:56.738801 109343 net.cpp:157] Top shape: 128 128 28 28 (12845056)
I1019 13:48:56.738806 109343 net.cpp:165] Memory required for data: 2598680576
I1019 13:48:56.738809 109343 layer_factory.hpp:77] Creating layer fire4/expand3x3
I1019 13:48:56.738821 109343 net.cpp:100] Creating Layer fire4/expand3x3
I1019 13:48:56.738826 109343 net.cpp:434] fire4/expand3x3 <- fire4/squeeze1x1_fire4/squeeze1x1_0_split_1
I1019 13:48:56.738834 109343 net.cpp:408] fire4/expand3x3 -> fire4/expand3x3
I1019 13:48:56.741133 109343 net.cpp:150] Setting up fire4/expand3x3
I1019 13:48:56.741152 109343 net.cpp:157] Top shape: 128 128 28 28 (12845056)
I1019 13:48:56.741156 109343 net.cpp:165] Memory required for data: 2650060800
I1019 13:48:56.741165 109343 layer_factory.hpp:77] Creating layer fire4/relu_expand3x3
I1019 13:48:56.741174 109343 net.cpp:100] Creating Layer fire4/relu_expand3x3
I1019 13:48:56.741179 109343 net.cpp:434] fire4/relu_expand3x3 <- fire4/expand3x3
I1019 13:48:56.741186 109343 net.cpp:395] fire4/relu_expand3x3 -> fire4/expand3x3 (in-place)
I1019 13:48:56.741600 109343 net.cpp:150] Setting up fire4/relu_expand3x3
I1019 13:48:56.741616 109343 net.cpp:157] Top shape: 128 128 28 28 (12845056)
I1019 13:48:56.741621 109343 net.cpp:165] Memory required for data: 2701441024
I1019 13:48:56.741626 109343 layer_factory.hpp:77] Creating layer fire4/concat
I1019 13:48:56.741632 109343 net.cpp:100] Creating Layer fire4/concat
I1019 13:48:56.741636 109343 net.cpp:434] fire4/concat <- fire4/expand1x1
I1019 13:48:56.741642 109343 net.cpp:434] fire4/concat <- fire4/expand3x3
I1019 13:48:56.741648 109343 net.cpp:408] fire4/concat -> fire4/concat
I1019 13:48:56.741686 109343 net.cpp:150] Setting up fire4/concat
I1019 13:48:56.741693 109343 net.cpp:157] Top shape: 128 256 28 28 (25690112)
I1019 13:48:56.741698 109343 net.cpp:165] Memory required for data: 2804201472
I1019 13:48:56.741701 109343 layer_factory.hpp:77] Creating layer fire5/squeeze1x1
I1019 13:48:56.741711 109343 net.cpp:100] Creating Layer fire5/squeeze1x1
I1019 13:48:56.741716 109343 net.cpp:434] fire5/squeeze1x1 <- fire4/concat
I1019 13:48:56.741722 109343 net.cpp:408] fire5/squeeze1x1 -> fire5/squeeze1x1
I1019 13:48:56.743113 109343 net.cpp:150] Setting up fire5/squeeze1x1
I1019 13:48:56.743131 109343 net.cpp:157] Top shape: 128 32 28 28 (3211264)
I1019 13:48:56.743144 109343 net.cpp:165] Memory required for data: 2817046528
I1019 13:48:56.743152 109343 layer_factory.hpp:77] Creating layer fire5/squeeze1x1_fire5/squeeze1x1_0_split
I1019 13:48:56.743160 109343 net.cpp:100] Creating Layer fire5/squeeze1x1_fire5/squeeze1x1_0_split
I1019 13:48:56.743165 109343 net.cpp:434] fire5/squeeze1x1_fire5/squeeze1x1_0_split <- fire5/squeeze1x1
I1019 13:48:56.743171 109343 net.cpp:408] fire5/squeeze1x1_fire5/squeeze1x1_0_split -> fire5/squeeze1x1_fire5/squeeze1x1_0_split_0
I1019 13:48:56.743180 109343 net.cpp:408] fire5/squeeze1x1_fire5/squeeze1x1_0_split -> fire5/squeeze1x1_fire5/squeeze1x1_0_split_1
I1019 13:48:56.743228 109343 net.cpp:150] Setting up fire5/squeeze1x1_fire5/squeeze1x1_0_split
I1019 13:48:56.743240 109343 net.cpp:157] Top shape: 128 32 28 28 (3211264)
I1019 13:48:56.743245 109343 net.cpp:157] Top shape: 128 32 28 28 (3211264)
I1019 13:48:56.743249 109343 net.cpp:165] Memory required for data: 2842736640
I1019 13:48:56.743253 109343 layer_factory.hpp:77] Creating layer fire5/expand1x1
I1019 13:48:56.743263 109343 net.cpp:100] Creating Layer fire5/expand1x1
I1019 13:48:56.743268 109343 net.cpp:434] fire5/expand1x1 <- fire5/squeeze1x1_fire5/squeeze1x1_0_split_0
I1019 13:48:56.743276 109343 net.cpp:408] fire5/expand1x1 -> fire5/expand1x1
I1019 13:48:56.744663 109343 net.cpp:150] Setting up fire5/expand1x1
I1019 13:48:56.744680 109343 net.cpp:157] Top shape: 128 128 28 28 (12845056)
I1019 13:48:56.744685 109343 net.cpp:165] Memory required for data: 2894116864
I1019 13:48:56.744709 109343 layer_factory.hpp:77] Creating layer fire5/relu_expand1x1
I1019 13:48:56.744729 109343 net.cpp:100] Creating Layer fire5/relu_expand1x1
I1019 13:48:56.744734 109343 net.cpp:434] fire5/relu_expand1x1 <- fire5/expand1x1
I1019 13:48:56.744747 109343 net.cpp:395] fire5/relu_expand1x1 -> fire5/expand1x1 (in-place)
I1019 13:48:56.744951 109343 net.cpp:150] Setting up fire5/relu_expand1x1
I1019 13:48:56.744962 109343 net.cpp:157] Top shape: 128 128 28 28 (12845056)
I1019 13:48:56.744966 109343 net.cpp:165] Memory required for data: 2945497088
I1019 13:48:56.744976 109343 layer_factory.hpp:77] Creating layer fire5/expand3x3
I1019 13:48:56.744987 109343 net.cpp:100] Creating Layer fire5/expand3x3
I1019 13:48:56.744992 109343 net.cpp:434] fire5/expand3x3 <- fire5/squeeze1x1_fire5/squeeze1x1_0_split_1
I1019 13:48:56.744998 109343 net.cpp:408] fire5/expand3x3 -> fire5/expand3x3
I1019 13:48:56.746672 109343 net.cpp:150] Setting up fire5/expand3x3
I1019 13:48:56.746690 109343 net.cpp:157] Top shape: 128 128 28 28 (12845056)
I1019 13:48:56.746693 109343 net.cpp:165] Memory required for data: 2996877312
I1019 13:48:56.746701 109343 layer_factory.hpp:77] Creating layer fire5/relu_expand3x3
I1019 13:48:56.746712 109343 net.cpp:100] Creating Layer fire5/relu_expand3x3
I1019 13:48:56.746717 109343 net.cpp:434] fire5/relu_expand3x3 <- fire5/expand3x3
I1019 13:48:56.746723 109343 net.cpp:395] fire5/relu_expand3x3 -> fire5/expand3x3 (in-place)
I1019 13:48:56.746919 109343 net.cpp:150] Setting up fire5/relu_expand3x3
I1019 13:48:56.746930 109343 net.cpp:157] Top shape: 128 128 28 28 (12845056)
I1019 13:48:56.746934 109343 net.cpp:165] Memory required for data: 3048257536
I1019 13:48:56.746942 109343 layer_factory.hpp:77] Creating layer fire5/concat
I1019 13:48:56.746953 109343 net.cpp:100] Creating Layer fire5/concat
I1019 13:48:56.746958 109343 net.cpp:434] fire5/concat <- fire5/expand1x1
I1019 13:48:56.746963 109343 net.cpp:434] fire5/concat <- fire5/expand3x3
I1019 13:48:56.746968 109343 net.cpp:408] fire5/concat -> fire5/concat
I1019 13:48:56.747001 109343 net.cpp:150] Setting up fire5/concat
I1019 13:48:56.747007 109343 net.cpp:157] Top shape: 128 256 28 28 (25690112)
I1019 13:48:56.747011 109343 net.cpp:165] Memory required for data: 3151017984
I1019 13:48:56.747015 109343 layer_factory.hpp:77] Creating layer pool5
I1019 13:48:56.747023 109343 net.cpp:100] Creating Layer pool5
I1019 13:48:56.747027 109343 net.cpp:434] pool5 <- fire5/concat
I1019 13:48:56.747033 109343 net.cpp:408] pool5 -> pool5
I1019 13:48:56.747076 109343 net.cpp:150] Setting up pool5
I1019 13:48:56.747086 109343 net.cpp:157] Top shape: 128 256 14 14 (6422528)
I1019 13:48:56.747088 109343 net.cpp:165] Memory required for data: 3176708096
I1019 13:48:56.747092 109343 layer_factory.hpp:77] Creating layer fire6/squeeze1x1
I1019 13:48:56.747102 109343 net.cpp:100] Creating Layer fire6/squeeze1x1
I1019 13:48:56.747107 109343 net.cpp:434] fire6/squeeze1x1 <- pool5
I1019 13:48:56.747112 109343 net.cpp:408] fire6/squeeze1x1 -> fire6/squeeze1x1
I1019 13:48:56.748525 109343 net.cpp:150] Setting up fire6/squeeze1x1
I1019 13:48:56.748543 109343 net.cpp:157] Top shape: 128 48 14 14 (1204224)
I1019 13:48:56.748548 109343 net.cpp:165] Memory required for data: 3181524992
I1019 13:48:56.748559 109343 layer_factory.hpp:77] Creating layer fire6/squeeze1x1_fire6/squeeze1x1_0_split
I1019 13:48:56.748566 109343 net.cpp:100] Creating Layer fire6/squeeze1x1_fire6/squeeze1x1_0_split
I1019 13:48:56.748582 109343 net.cpp:434] fire6/squeeze1x1_fire6/squeeze1x1_0_split <- fire6/squeeze1x1
I1019 13:48:56.748590 109343 net.cpp:408] fire6/squeeze1x1_fire6/squeeze1x1_0_split -> fire6/squeeze1x1_fire6/squeeze1x1_0_split_0
I1019 13:48:56.748600 109343 net.cpp:408] fire6/squeeze1x1_fire6/squeeze1x1_0_split -> fire6/squeeze1x1_fire6/squeeze1x1_0_split_1
I1019 13:48:56.748657 109343 net.cpp:150] Setting up fire6/squeeze1x1_fire6/squeeze1x1_0_split
I1019 13:48:56.748667 109343 net.cpp:157] Top shape: 128 48 14 14 (1204224)
I1019 13:48:56.748672 109343 net.cpp:157] Top shape: 128 48 14 14 (1204224)
I1019 13:48:56.748687 109343 net.cpp:165] Memory required for data: 3191158784
I1019 13:48:56.748692 109343 layer_factory.hpp:77] Creating layer fire6/expand1x1
I1019 13:48:56.748703 109343 net.cpp:100] Creating Layer fire6/expand1x1
I1019 13:48:56.748708 109343 net.cpp:434] fire6/expand1x1 <- fire6/squeeze1x1_fire6/squeeze1x1_0_split_0
I1019 13:48:56.748714 109343 net.cpp:408] fire6/expand1x1 -> fire6/expand1x1
I1019 13:48:56.750102 109343 net.cpp:150] Setting up fire6/expand1x1
I1019 13:48:56.750120 109343 net.cpp:157] Top shape: 128 192 14 14 (4816896)
I1019 13:48:56.750125 109343 net.cpp:165] Memory required for data: 3210426368
I1019 13:48:56.750139 109343 layer_factory.hpp:77] Creating layer fire6/relu_expand1x1
I1019 13:48:56.750146 109343 net.cpp:100] Creating Layer fire6/relu_expand1x1
I1019 13:48:56.750152 109343 net.cpp:434] fire6/relu_expand1x1 <- fire6/expand1x1
I1019 13:48:56.750159 109343 net.cpp:395] fire6/relu_expand1x1 -> fire6/expand1x1 (in-place)
I1019 13:48:56.750568 109343 net.cpp:150] Setting up fire6/relu_expand1x1
I1019 13:48:56.750586 109343 net.cpp:157] Top shape: 128 192 14 14 (4816896)
I1019 13:48:56.750589 109343 net.cpp:165] Memory required for data: 3229693952
I1019 13:48:56.750596 109343 layer_factory.hpp:77] Creating layer fire6/expand3x3
I1019 13:48:56.750607 109343 net.cpp:100] Creating Layer fire6/expand3x3
I1019 13:48:56.750612 109343 net.cpp:434] fire6/expand3x3 <- fire6/squeeze1x1_fire6/squeeze1x1_0_split_1
I1019 13:48:56.750619 109343 net.cpp:408] fire6/expand3x3 -> fire6/expand3x3
I1019 13:48:56.753365 109343 net.cpp:150] Setting up fire6/expand3x3
I1019 13:48:56.753382 109343 net.cpp:157] Top shape: 128 192 14 14 (4816896)
I1019 13:48:56.753386 109343 net.cpp:165] Memory required for data: 3248961536
I1019 13:48:56.753396 109343 layer_factory.hpp:77] Creating layer fire6/relu_expand3x3
I1019 13:48:56.753404 109343 net.cpp:100] Creating Layer fire6/relu_expand3x3
I1019 13:48:56.753409 109343 net.cpp:434] fire6/relu_expand3x3 <- fire6/expand3x3
I1019 13:48:56.753417 109343 net.cpp:395] fire6/relu_expand3x3 -> fire6/expand3x3 (in-place)
I1019 13:48:56.753829 109343 net.cpp:150] Setting up fire6/relu_expand3x3
I1019 13:48:56.753844 109343 net.cpp:157] Top shape: 128 192 14 14 (4816896)
I1019 13:48:56.753847 109343 net.cpp:165] Memory required for data: 3268229120
I1019 13:48:56.753854 109343 layer_factory.hpp:77] Creating layer fire6/concat
I1019 13:48:56.753860 109343 net.cpp:100] Creating Layer fire6/concat
I1019 13:48:56.753865 109343 net.cpp:434] fire6/concat <- fire6/expand1x1
I1019 13:48:56.753871 109343 net.cpp:434] fire6/concat <- fire6/expand3x3
I1019 13:48:56.753876 109343 net.cpp:408] fire6/concat -> fire6/concat
I1019 13:48:56.753912 109343 net.cpp:150] Setting up fire6/concat
I1019 13:48:56.753919 109343 net.cpp:157] Top shape: 128 384 14 14 (9633792)
I1019 13:48:56.753923 109343 net.cpp:165] Memory required for data: 3306764288
I1019 13:48:56.753927 109343 layer_factory.hpp:77] Creating layer fire7/squeeze1x1
I1019 13:48:56.753937 109343 net.cpp:100] Creating Layer fire7/squeeze1x1
I1019 13:48:56.753942 109343 net.cpp:434] fire7/squeeze1x1 <- fire6/concat
I1019 13:48:56.753948 109343 net.cpp:408] fire7/squeeze1x1 -> fire7/squeeze1x1
I1019 13:48:56.755661 109343 net.cpp:150] Setting up fire7/squeeze1x1
I1019 13:48:56.755678 109343 net.cpp:157] Top shape: 128 48 14 14 (1204224)
I1019 13:48:56.755682 109343 net.cpp:165] Memory required for data: 3311581184
I1019 13:48:56.755702 109343 layer_factory.hpp:77] Creating layer fire7/squeeze1x1_fire7/squeeze1x1_0_split
I1019 13:48:56.755709 109343 net.cpp:100] Creating Layer fire7/squeeze1x1_fire7/squeeze1x1_0_split
I1019 13:48:56.755715 109343 net.cpp:434] fire7/squeeze1x1_fire7/squeeze1x1_0_split <- fire7/squeeze1x1
I1019 13:48:56.755722 109343 net.cpp:408] fire7/squeeze1x1_fire7/squeeze1x1_0_split -> fire7/squeeze1x1_fire7/squeeze1x1_0_split_0
I1019 13:48:56.755734 109343 net.cpp:408] fire7/squeeze1x1_fire7/squeeze1x1_0_split -> fire7/squeeze1x1_fire7/squeeze1x1_0_split_1
I1019 13:48:56.755794 109343 net.cpp:150] Setting up fire7/squeeze1x1_fire7/squeeze1x1_0_split
I1019 13:48:56.755815 109343 net.cpp:157] Top shape: 128 48 14 14 (1204224)
I1019 13:48:56.755820 109343 net.cpp:157] Top shape: 128 48 14 14 (1204224)
I1019 13:48:56.755822 109343 net.cpp:165] Memory required for data: 3321214976
I1019 13:48:56.755826 109343 layer_factory.hpp:77] Creating layer fire7/expand1x1
I1019 13:48:56.755836 109343 net.cpp:100] Creating Layer fire7/expand1x1
I1019 13:48:56.755839 109343 net.cpp:434] fire7/expand1x1 <- fire7/squeeze1x1_fire7/squeeze1x1_0_split_0
I1019 13:48:56.755847 109343 net.cpp:408] fire7/expand1x1 -> fire7/expand1x1
I1019 13:48:56.757411 109343 net.cpp:150] Setting up fire7/expand1x1
I1019 13:48:56.757428 109343 net.cpp:157] Top shape: 128 192 14 14 (4816896)
I1019 13:48:56.757432 109343 net.cpp:165] Memory required for data: 3340482560
I1019 13:48:56.757441 109343 layer_factory.hpp:77] Creating layer fire7/relu_expand1x1
I1019 13:48:56.757448 109343 net.cpp:100] Creating Layer fire7/relu_expand1x1
I1019 13:48:56.757453 109343 net.cpp:434] fire7/relu_expand1x1 <- fire7/expand1x1
I1019 13:48:56.757462 109343 net.cpp:395] fire7/relu_expand1x1 -> fire7/expand1x1 (in-place)
I1019 13:48:56.757683 109343 net.cpp:150] Setting up fire7/relu_expand1x1
I1019 13:48:56.757696 109343 net.cpp:157] Top shape: 128 192 14 14 (4816896)
I1019 13:48:56.757699 109343 net.cpp:165] Memory required for data: 3359750144
I1019 13:48:56.757704 109343 layer_factory.hpp:77] Creating layer fire7/expand3x3
I1019 13:48:56.757720 109343 net.cpp:100] Creating Layer fire7/expand3x3
I1019 13:48:56.757727 109343 net.cpp:434] fire7/expand3x3 <- fire7/squeeze1x1_fire7/squeeze1x1_0_split_1
I1019 13:48:56.757735 109343 net.cpp:408] fire7/expand3x3 -> fire7/expand3x3
I1019 13:48:56.760011 109343 net.cpp:150] Setting up fire7/expand3x3
I1019 13:48:56.760028 109343 net.cpp:157] Top shape: 128 192 14 14 (4816896)
I1019 13:48:56.760033 109343 net.cpp:165] Memory required for data: 3379017728
I1019 13:48:56.760043 109343 layer_factory.hpp:77] Creating layer fire7/relu_expand3x3
I1019 13:48:56.760051 109343 net.cpp:100] Creating Layer fire7/relu_expand3x3
I1019 13:48:56.760054 109343 net.cpp:434] fire7/relu_expand3x3 <- fire7/expand3x3
I1019 13:48:56.760061 109343 net.cpp:395] fire7/relu_expand3x3 -> fire7/expand3x3 (in-place)
I1019 13:48:56.760264 109343 net.cpp:150] Setting up fire7/relu_expand3x3
I1019 13:48:56.760278 109343 net.cpp:157] Top shape: 128 192 14 14 (4816896)
I1019 13:48:56.760282 109343 net.cpp:165] Memory required for data: 3398285312
I1019 13:48:56.760288 109343 layer_factory.hpp:77] Creating layer fire7/concat
I1019 13:48:56.760294 109343 net.cpp:100] Creating Layer fire7/concat
I1019 13:48:56.760298 109343 net.cpp:434] fire7/concat <- fire7/expand1x1
I1019 13:48:56.760304 109343 net.cpp:434] fire7/concat <- fire7/expand3x3
I1019 13:48:56.760310 109343 net.cpp:408] fire7/concat -> fire7/concat
I1019 13:48:56.760344 109343 net.cpp:150] Setting up fire7/concat
I1019 13:48:56.760350 109343 net.cpp:157] Top shape: 128 384 14 14 (9633792)
I1019 13:48:56.760354 109343 net.cpp:165] Memory required for data: 3436820480
I1019 13:48:56.760357 109343 layer_factory.hpp:77] Creating layer fire8/squeeze1x1
I1019 13:48:56.760366 109343 net.cpp:100] Creating Layer fire8/squeeze1x1
I1019 13:48:56.760370 109343 net.cpp:434] fire8/squeeze1x1 <- fire7/concat
I1019 13:48:56.760380 109343 net.cpp:408] fire8/squeeze1x1 -> fire8/squeeze1x1
I1019 13:48:56.761996 109343 net.cpp:150] Setting up fire8/squeeze1x1
I1019 13:48:56.762013 109343 net.cpp:157] Top shape: 128 64 14 14 (1605632)
I1019 13:48:56.762018 109343 net.cpp:165] Memory required for data: 3443243008
I1019 13:48:56.762025 109343 layer_factory.hpp:77] Creating layer fire8/squeeze1x1_fire8/squeeze1x1_0_split
I1019 13:48:56.762033 109343 net.cpp:100] Creating Layer fire8/squeeze1x1_fire8/squeeze1x1_0_split
I1019 13:48:56.762039 109343 net.cpp:434] fire8/squeeze1x1_fire8/squeeze1x1_0_split <- fire8/squeeze1x1
I1019 13:48:56.762046 109343 net.cpp:408] fire8/squeeze1x1_fire8/squeeze1x1_0_split -> fire8/squeeze1x1_fire8/squeeze1x1_0_split_0
I1019 13:48:56.762076 109343 net.cpp:408] fire8/squeeze1x1_fire8/squeeze1x1_0_split -> fire8/squeeze1x1_fire8/squeeze1x1_0_split_1
I1019 13:48:56.762135 109343 net.cpp:150] Setting up fire8/squeeze1x1_fire8/squeeze1x1_0_split
I1019 13:48:56.762145 109343 net.cpp:157] Top shape: 128 64 14 14 (1605632)
I1019 13:48:56.762150 109343 net.cpp:157] Top shape: 128 64 14 14 (1605632)
I1019 13:48:56.762152 109343 net.cpp:165] Memory required for data: 3456088064
I1019 13:48:56.762157 109343 layer_factory.hpp:77] Creating layer fire8/expand1x1
I1019 13:48:56.762166 109343 net.cpp:100] Creating Layer fire8/expand1x1
I1019 13:48:56.762172 109343 net.cpp:434] fire8/expand1x1 <- fire8/squeeze1x1_fire8/squeeze1x1_0_split_0
I1019 13:48:56.762179 109343 net.cpp:408] fire8/expand1x1 -> fire8/expand1x1
I1019 13:48:56.764008 109343 net.cpp:150] Setting up fire8/expand1x1
I1019 13:48:56.764029 109343 net.cpp:157] Top shape: 128 256 14 14 (6422528)
I1019 13:48:56.764034 109343 net.cpp:165] Memory required for data: 3481778176
I1019 13:48:56.764045 109343 layer_factory.hpp:77] Creating layer fire8/relu_expand1x1
I1019 13:48:56.764053 109343 net.cpp:100] Creating Layer fire8/relu_expand1x1
I1019 13:48:56.764060 109343 net.cpp:434] fire8/relu_expand1x1 <- fire8/expand1x1
I1019 13:48:56.764067 109343 net.cpp:395] fire8/relu_expand1x1 -> fire8/expand1x1 (in-place)
I1019 13:48:56.764544 109343 net.cpp:150] Setting up fire8/relu_expand1x1
I1019 13:48:56.764561 109343 net.cpp:157] Top shape: 128 256 14 14 (6422528)
I1019 13:48:56.764565 109343 net.cpp:165] Memory required for data: 3507468288
I1019 13:48:56.764569 109343 layer_factory.hpp:77] Creating layer fire8/expand3x3
I1019 13:48:56.764580 109343 net.cpp:100] Creating Layer fire8/expand3x3
I1019 13:48:56.764586 109343 net.cpp:434] fire8/expand3x3 <- fire8/squeeze1x1_fire8/squeeze1x1_0_split_1
I1019 13:48:56.764596 109343 net.cpp:408] fire8/expand3x3 -> fire8/expand3x3
I1019 13:48:56.767699 109343 net.cpp:150] Setting up fire8/expand3x3
I1019 13:48:56.767717 109343 net.cpp:157] Top shape: 128 256 14 14 (6422528)
I1019 13:48:56.767729 109343 net.cpp:165] Memory required for data: 3533158400
I1019 13:48:56.767737 109343 layer_factory.hpp:77] Creating layer fire8/relu_expand3x3
I1019 13:48:56.767750 109343 net.cpp:100] Creating Layer fire8/relu_expand3x3
I1019 13:48:56.767756 109343 net.cpp:434] fire8/relu_expand3x3 <- fire8/expand3x3
I1019 13:48:56.767766 109343 net.cpp:395] fire8/relu_expand3x3 -> fire8/expand3x3 (in-place)
I1019 13:48:56.768221 109343 net.cpp:150] Setting up fire8/relu_expand3x3
I1019 13:48:56.768240 109343 net.cpp:157] Top shape: 128 256 14 14 (6422528)
I1019 13:48:56.768250 109343 net.cpp:165] Memory required for data: 3558848512
I1019 13:48:56.768255 109343 layer_factory.hpp:77] Creating layer fire8/concat
I1019 13:48:56.768261 109343 net.cpp:100] Creating Layer fire8/concat
I1019 13:48:56.768266 109343 net.cpp:434] fire8/concat <- fire8/expand1x1
I1019 13:48:56.768272 109343 net.cpp:434] fire8/concat <- fire8/expand3x3
I1019 13:48:56.768277 109343 net.cpp:408] fire8/concat -> fire8/concat
I1019 13:48:56.768321 109343 net.cpp:150] Setting up fire8/concat
I1019 13:48:56.768328 109343 net.cpp:157] Top shape: 128 512 14 14 (12845056)
I1019 13:48:56.768332 109343 net.cpp:165] Memory required for data: 3610228736
I1019 13:48:56.768335 109343 layer_factory.hpp:77] Creating layer fire9/squeeze1x1
I1019 13:48:56.768345 109343 net.cpp:100] Creating Layer fire9/squeeze1x1
I1019 13:48:56.768349 109343 net.cpp:434] fire9/squeeze1x1 <- fire8/concat
I1019 13:48:56.768357 109343 net.cpp:408] fire9/squeeze1x1 -> fire9/squeeze1x1
I1019 13:48:56.769865 109343 net.cpp:150] Setting up fire9/squeeze1x1
I1019 13:48:56.769893 109343 net.cpp:157] Top shape: 128 64 14 14 (1605632)
I1019 13:48:56.769897 109343 net.cpp:165] Memory required for data: 3616651264
I1019 13:48:56.769904 109343 layer_factory.hpp:77] Creating layer fire9/squeeze1x1_fire9/squeeze1x1_0_split
I1019 13:48:56.769911 109343 net.cpp:100] Creating Layer fire9/squeeze1x1_fire9/squeeze1x1_0_split
I1019 13:48:56.769937 109343 net.cpp:434] fire9/squeeze1x1_fire9/squeeze1x1_0_split <- fire9/squeeze1x1
I1019 13:48:56.769944 109343 net.cpp:408] fire9/squeeze1x1_fire9/squeeze1x1_0_split -> fire9/squeeze1x1_fire9/squeeze1x1_0_split_0
I1019 13:48:56.769951 109343 net.cpp:408] fire9/squeeze1x1_fire9/squeeze1x1_0_split -> fire9/squeeze1x1_fire9/squeeze1x1_0_split_1
I1019 13:48:56.769995 109343 net.cpp:150] Setting up fire9/squeeze1x1_fire9/squeeze1x1_0_split
I1019 13:48:56.770004 109343 net.cpp:157] Top shape: 128 64 14 14 (1605632)
I1019 13:48:56.770007 109343 net.cpp:157] Top shape: 128 64 14 14 (1605632)
I1019 13:48:56.770010 109343 net.cpp:165] Memory required for data: 3629496320
I1019 13:48:56.770014 109343 layer_factory.hpp:77] Creating layer fire9/expand1x1
I1019 13:48:56.770023 109343 net.cpp:100] Creating Layer fire9/expand1x1
I1019 13:48:56.770027 109343 net.cpp:434] fire9/expand1x1 <- fire9/squeeze1x1_fire9/squeeze1x1_0_split_0
I1019 13:48:56.770035 109343 net.cpp:408] fire9/expand1x1 -> fire9/expand1x1
I1019 13:48:56.771406 109343 net.cpp:150] Setting up fire9/expand1x1
I1019 13:48:56.771420 109343 net.cpp:157] Top shape: 128 256 14 14 (6422528)
I1019 13:48:56.771435 109343 net.cpp:165] Memory required for data: 3655186432
I1019 13:48:56.771442 109343 layer_factory.hpp:77] Creating layer fire9/relu_expand1x1
I1019 13:48:56.771450 109343 net.cpp:100] Creating Layer fire9/relu_expand1x1
I1019 13:48:56.771455 109343 net.cpp:434] fire9/relu_expand1x1 <- fire9/expand1x1
I1019 13:48:56.771459 109343 net.cpp:395] fire9/relu_expand1x1 -> fire9/expand1x1 (in-place)
I1019 13:48:56.771847 109343 net.cpp:150] Setting up fire9/relu_expand1x1
I1019 13:48:56.771859 109343 net.cpp:157] Top shape: 128 256 14 14 (6422528)
I1019 13:48:56.771874 109343 net.cpp:165] Memory required for data: 3680876544
I1019 13:48:56.771878 109343 layer_factory.hpp:77] Creating layer fire9/expand3x3
I1019 13:48:56.771886 109343 net.cpp:100] Creating Layer fire9/expand3x3
I1019 13:48:56.771891 109343 net.cpp:434] fire9/expand3x3 <- fire9/squeeze1x1_fire9/squeeze1x1_0_split_1
I1019 13:48:56.771898 109343 net.cpp:408] fire9/expand3x3 -> fire9/expand3x3
I1019 13:48:56.774811 109343 net.cpp:150] Setting up fire9/expand3x3
I1019 13:48:56.774827 109343 net.cpp:157] Top shape: 128 256 14 14 (6422528)
I1019 13:48:56.774843 109343 net.cpp:165] Memory required for data: 3706566656
I1019 13:48:56.774849 109343 layer_factory.hpp:77] Creating layer fire9/relu_expand3x3
I1019 13:48:56.774857 109343 net.cpp:100] Creating Layer fire9/relu_expand3x3
I1019 13:48:56.774860 109343 net.cpp:434] fire9/relu_expand3x3 <- fire9/expand3x3
I1019 13:48:56.774866 109343 net.cpp:395] fire9/relu_expand3x3 -> fire9/expand3x3 (in-place)
I1019 13:48:56.775063 109343 net.cpp:150] Setting up fire9/relu_expand3x3
I1019 13:48:56.775074 109343 net.cpp:157] Top shape: 128 256 14 14 (6422528)
I1019 13:48:56.775087 109343 net.cpp:165] Memory required for data: 3732256768
I1019 13:48:56.775090 109343 layer_factory.hpp:77] Creating layer fire9/concat
I1019 13:48:56.775096 109343 net.cpp:100] Creating Layer fire9/concat
I1019 13:48:56.775100 109343 net.cpp:434] fire9/concat <- fire9/expand1x1
I1019 13:48:56.775104 109343 net.cpp:434] fire9/concat <- fire9/expand3x3
I1019 13:48:56.775111 109343 net.cpp:408] fire9/concat -> fire9/concat
I1019 13:48:56.775140 109343 net.cpp:150] Setting up fire9/concat
I1019 13:48:56.775146 109343 net.cpp:157] Top shape: 128 512 14 14 (12845056)
I1019 13:48:56.775148 109343 net.cpp:165] Memory required for data: 3783636992
I1019 13:48:56.775151 109343 layer_factory.hpp:77] Creating layer drop9
I1019 13:48:56.775158 109343 net.cpp:100] Creating Layer drop9
I1019 13:48:56.775162 109343 net.cpp:434] drop9 <- fire9/concat
I1019 13:48:56.775167 109343 net.cpp:395] drop9 -> fire9/concat (in-place)
I1019 13:48:56.775195 109343 net.cpp:150] Setting up drop9
I1019 13:48:56.775200 109343 net.cpp:157] Top shape: 128 512 14 14 (12845056)
I1019 13:48:56.775204 109343 net.cpp:165] Memory required for data: 3835017216
I1019 13:48:56.775207 109343 layer_factory.hpp:77] Creating layer conv10_2626
I1019 13:48:56.775228 109343 net.cpp:100] Creating Layer conv10_2626
I1019 13:48:56.775233 109343 net.cpp:434] conv10_2626 <- fire9/concat
I1019 13:48:56.775239 109343 net.cpp:408] conv10_2626 -> conv10_2626
I1019 13:48:56.798285 109343 net.cpp:150] Setting up conv10_2626
I1019 13:48:56.798323 109343 net.cpp:157] Top shape: 128 2626 14 14 (65881088)
I1019 13:48:56.798327 109343 net.cpp:165] Memory required for data: 4098541568
I1019 13:48:56.798336 109343 layer_factory.hpp:77] Creating layer relu_conv10
I1019 13:48:56.798355 109343 net.cpp:100] Creating Layer relu_conv10
I1019 13:48:56.798360 109343 net.cpp:434] relu_conv10 <- conv10_2626
I1019 13:48:56.798379 109343 net.cpp:395] relu_conv10 -> conv10_2626 (in-place)
I1019 13:48:56.798773 109343 net.cpp:150] Setting up relu_conv10
I1019 13:48:56.798786 109343 net.cpp:157] Top shape: 128 2626 14 14 (65881088)
I1019 13:48:56.798799 109343 net.cpp:165] Memory required for data: 4362065920
I1019 13:48:56.798804 109343 layer_factory.hpp:77] Creating layer pool10
I1019 13:48:56.798815 109343 net.cpp:100] Creating Layer pool10
I1019 13:48:56.798820 109343 net.cpp:434] pool10 <- conv10_2626
I1019 13:48:56.798825 109343 net.cpp:408] pool10 -> pool10
I1019 13:48:56.799041 109343 net.cpp:150] Setting up pool10
I1019 13:48:56.799053 109343 net.cpp:157] Top shape: 128 2626 1 1 (336128)
I1019 13:48:56.799068 109343 net.cpp:165] Memory required for data: 4363410432
I1019 13:48:56.799072 109343 layer_factory.hpp:77] Creating layer loss
I1019 13:48:56.799077 109343 net.cpp:100] Creating Layer loss
I1019 13:48:56.799082 109343 net.cpp:434] loss <- pool10
I1019 13:48:56.799087 109343 net.cpp:434] loss <- label
I1019 13:48:56.799093 109343 net.cpp:408] loss -> loss
…
I1019 13:48:56.801862 109343 solver.cpp:181] Creating test net (#0) specified by net file: models/SqueezeNet/train_val.prototxt
I1019 13:48:56.801954 109343 net.cpp:322] The NetState phase (1) differed from the phase (0) specified by a rule in layer data
I1019 13:48:56.802304 109343 net.cpp:58] Initializing net from parameters: 
state {
  phase: TEST
}
layer {
  name: "data"
  type: "Data"
  top: "data"
  top: "label"
  include {
    phase: TEST
  }
  transform_param {
    crop_size: 227
    mean_file: "/share/zhh/mean.binaryproto"
  }
  data_param {
    source: "/share/front/test_lmdb"
    batch_size: 100
    backend: LMDB
  }
}
layer {
  name: "conv1"
  type: "Convolution"
  bottom: "data"
  top: "conv1"
  convolution_param {
    num_output: 64
    kernel_size: 3
    stride: 2
    weight_filler {
      type: "xavier"
    }
  }
}
layer {
  name: "relu_conv1"
  type: "ReLU"
  bottom: "conv1"
  top: "conv1"
}
layer {
  name: "pool1"
  type: "Pooling"
  bottom: "conv1"
  top: "pool1"
  pooling_param {
    pool: MAX
    kernel_size: 3
    stride: 2
  }
}
layer {
  name: "fire2/squeeze1x1"
  type: "Convolution"
  bottom: "pool1"
  top: "fire2/squeeze1x1"
  convolution_param {
    num_output: 16
    kernel_size: 1
    weight_filler {
      type: "xavier"
    }
  }
}
layer {
  name: "fire2/expand1x1"
  type: "Convolution"
  bottom: "fire2/squeeze1x1"
  top: "fire2/expand1x1"
  convolution_param {
    num_output: 64
    kernel_size: 1
    weight_filler {
      type: "xavier"
    }
  }
}
layer {
  name: "fire2/relu_expand1x1"
  type: "ReLU"
  bottom: "fire2/expand1x1"
  top: "fire2/expand1x1"
}
layer {
  name: "fire2/expand3x3"
  type: "Convolution"
  bottom: "fire2/squeeze1x1"
  top: "fire2/expand3x3"
  convolution_param {
    num_output: 64
    pad: 1
    kernel_size: 3
    weight_filler {
      type: "xavier"
    }
  }
}
layer {
  name: "fire2/relu_expand3x3"
  type: "ReLU"
  bottom: "fire2/expand3x3"
  top: "fire2/expand3x3"
}
layer {
  name: "fire2/concat"
  type: "Concat"
  bottom: "fire2/expand1x1"
  bottom: "fire2/expand3x3"
  top: "fire2/concat"
}
layer {
  name: "fire3/squeeze1x1"
  type: "Convolution"
  bottom: "fire2/concat"
  top: "fire3/squeeze1x1"
  convolution_param {
    num_output: 16
    kernel_size: 1
    weight_filler {
      type: "xavier"
    }
  }
}
layer {
  name: "fire3/expand1x1"
  type: "Convolution"
  bottom: "fire3/squeeze1x1"
  top: "fire3/expand1x1"
  convolution_param {
    num_output: 64
    kernel_size: 1
    weight_filler {
      type: "xavier"
    }
  }
}
layer {
  name: "fire3/relu_expand1x1"
  type: "ReLU"
  bottom: "fire3/expand1x1"
  top: "fire3/expand1x1"
}
layer {
  name: "fire3/expand3x3"
  type: "Convolution"
  bottom: "fire3/squeeze1x1"
  top: "fire3/expand3x3"
  convolution_param {
    num_output: 64
    pad: 1
    kernel_size: 3
    weight_filler {
      type: "xavier"
    }
  }
}
layer {
  name: "fire3/relu_expand3x3"
  type: "ReLU"
  bottom: "fire3/expand3x3"
  top: "fire3/expand3x3"
}
layer {
  name: "fire3/concat"
  type: "Concat"
  bottom: "fire3/expand1x1"
  bottom: "fire3/expand3x3"
  top: "fire3/concat"
}
layer {
  name: "pool3"
  type: "Pooling"
  bottom: "fire3/concat"
  top: "pool3"
  pooling_param {
    pool: MAX
    kernel_size: 3
    stride: 2
  }
}
layer {
  name: "fire4/squeeze1x1"
  type: "Convolution"
  bottom: "pool3"
  top: "fire4/squeeze1x1"
  convolution_param {
    num_output: 32
    kernel_size: 1
    weight_filler {
      type: "xavier"
    }
  }
}
layer {
  name: "fire4/expand1x1"
  type: "Convolution"
  bottom: "fire4/squeeze1x1"
  top: "fire4/expand1x1"
  convolution_param {
    num_output: 128
    kernel_size: 1
    weight_filler {
      type: "xavier"
    }
  }
}
layer {
  name: "fire4/relu_expand1x1"
  type: "ReLU"
  bottom: "fire4/expand1x1"
  top: "fire4/expand1x1"
}
layer {
  name: "fire4/expand3x3"
  type: "Convolution"
  bottom: "fire4/squeeze1x1"
  top: "fire4/expand3x3"
  convolution_param {
    num_output: 128
    pad: 1
    kernel_size: 3
    weight_filler {
      type: "xavier"
    }
  }
}
layer {
  name: "fire4/relu_expand3x3"
  type: "ReLU"
  bottom: "fire4/expand3x3"
  top: "fire4/expand3x3"
}
layer {
  name: "fire4/concat"
  type: "Concat"
  bottom: "fire4/expand1x1"
  bottom: "fire4/expand3x3"
  top: "fire4/concat"
}
layer {
  name: "fire5/squeeze1x1"
  type: "Convolution"
  bottom: "fire4/concat"
  top: "fire5/squeeze1x1"
  convolution_param {
    num_output: 32
    kernel_size: 1
    weight_filler {
      type: "xavier"
    }
  }
}
layer {
  name: "fire5/expand1x1"
  type: "Convolution"
  bottom: "fire5/squeeze1x1"
  top: "fire5/expand1x1"
  convolution_param {
    num_output: 128
    kernel_size: 1
    weight_filler {
      type: "xavier"
    }
  }
}
layer {
  name: "fire5/relu_expand1x1"
  type: "ReLU"
  bottom: "fire5/expand1x1"
  top: "fire5/expand1x1"
}
layer {
  name: "fire5/expand3x3"
  type: "Convolution"
  bottom: "fire5/squeeze1x1"
  top: "fire5/expand3x3"
  convolution_param {
    num_output: 128
    pad: 1
    kernel_size: 3
    weight_filler {
      type: "xavier"
    }
  }
}
layer {
  name: "fire5/relu_expand3x3"
  type: "ReLU"
  bottom: "fire5/expand3x3"
  top: "fire5/expand3x3"
}
layer {
  name: "fire5/concat"
  type: "Concat"
  bottom: "fire5/expand1x1"
  bottom: "fire5/expand3x3"
  top: "fire5/concat"
}
layer {
  name: "pool5"
  type: "Pooling"
  bottom: "fire5/concat"
  top: "pool5"
  pooling_param {
    pool: MAX
    kernel_size: 3
    stride: 2
  }
}
layer {
  name: "fire6/squeeze1x1"
  type: "Convolution"
  bottom: "pool5"
  top: "fire6/squeeze1x1"
  convolution_param {
    num_output: 48
    kernel_size: 1
    weight_filler {
      type: "xavier"
    }
  }
}
layer {
  name: "fire6/expand1x1"
  type: "Convolution"
  bottom: "fire6/squeeze1x1"
  top: "fire6/expand1x1"
  convolution_param {
    num_output: 192
    kernel_size: 1
    weight_filler {
      type: "xavier"
    }
  }
}
layer {
  name: "fire6/relu_expand1x1"
  type: "ReLU"
  bottom: "fire6/expand1x1"
  top: "fire6/expand1x1"
}
layer {
  name: "fire6/expand3x3"
  type: "Convolution"
  bottom: "fire6/squeeze1x1"
  top: "fire6/expand3x3"
  convolution_param {
    num_output: 192
    pad: 1
    kernel_size: 3
    weight_filler {
      type: "xavier"
    }
  }
}
layer {
  name: "fire6/relu_expand3x3"
  type: "ReLU"
  bottom: "fire6/expand3x3"
  top: "fire6/expand3x3"
}
layer {
  name: "fire6/concat"
  type: "Concat"
  bottom: "fire6/expand1x1"
  bottom: "fire6/expand3x3"
  top: "fire6/concat"
}
layer {
  name: "fire7/squeeze1x1"
  type: "Convolution"
  bottom: "fire6/concat"
  top: "fire7/squeeze1x1"
  convolution_param {
    num_output: 48
    kernel_size: 1
    weight_filler {
      type: "xavier"
    }
  }
}
layer {
  name: "fire7/expand1x1"
  type: "Convolution"
  bottom: "fire7/squeeze1x1"
  top: "fire7/expand1x1"
  convolution_param {
    num_output: 192
    kernel_size: 1
    weight_filler {
      type: "xavier"
    }
  }
}
layer {
  name: "fire7/relu_expand1x1"
  type: "ReLU"
  bottom: "fire7/expand1x1"
  top: "fire7/expand1x1"
}
layer {
  name: "fire7/expand3x3"
  type: "Convolution"
  bottom: "fire7/squeeze1x1"
  top: "fire7/expand3x3"
  convolution_param {
    num_output: 192
    pad: 1
    kernel_size: 3
    weight_filler {
      type: "xavier"
    }
  }
}
layer {
  name: "fire7/relu_expand3x3"
  type: "ReLU"
  bottom: "fire7/expand3x3"
  top: "fire7/expand3x3"
}
layer {
  name: "fire7/concat"
  type: "Concat"
  bottom: "fire7/expand1x1"
  bottom: "fire7/expand3x3"
  top: "fire7/concat"
}
layer {
  name: "fire8/squeeze1x1"
  type: "Convolution"
  bottom: "fire7/concat"
  top: "fire8/squeeze1x1"
  convolution_param {
    num_output: 64
    kernel_size: 1
    weight_filler {
      type: "xavier"
    }
  }
}
layer {
  name: "fire8/expand1x1"
  type: "Convolution"
  bottom: "fire8/squeeze1x1"
  top: "fire8/expand1x1"
  convolution_param {
    num_output: 256
    kernel_size: 1
    weight_filler {
      type: "xavier"
    }
  }
}
layer {
  name: "fire8/relu_expand1x1"
  type: "ReLU"
  bottom: "fire8/expand1x1"
  top: "fire8/expand1x1"
}
layer {
  name: "fire8/expand3x3"
  type: "Convolution"
  bottom: "fire8/squeeze1x1"
  top: "fire8/expand3x3"
  convolution_param {
    num_output: 256
    pad: 1
    kernel_size: 3
    weight_filler {
      type: "xavier"
    }
  }
}
layer {
  name: "fire8/relu_expand3x3"
  type: "ReLU"
  bottom: "fire8/expand3x3"
  top: "fire8/expand3x3"
}
layer {
  name: "fire8/concat"
  type: "Concat"
  bottom: "fire8/expand1x1"
  bottom: "fire8/expand3x3"
  top: "fire8/concat"
}
layer {
  name: "fire9/squeeze1x1"
  type: "Convolution"
  bottom: "fire8/concat"
  top: "fire9/squeeze1x1"
  convolution_param {
    num_output: 64
    kernel_size: 1
    weight_filler {
      type: "xavier"
    }
  }
}
layer {
  name: "fire9/expand1x1"
  type: "Convolution"
  bottom: "fire9/squeeze1x1"
  top: "fire9/expand1x1"
  convolution_param {
    num_output: 256
    kernel_size: 1
    weight_filler {
      type: "xavier"
    }
  }
}
layer {
  name: "fire9/relu_expand1x1"
  type: "ReLU"
  bottom: "fire9/expand1x1"
  top: "fire9/expand1x1"
}
layer {
  name: "fire9/expand3x3"
  type: "Convolution"
  bottom: "fire9/squeeze1x1"
  top: "fire9/expand3x3"
  convolution_param {
    num_output: 256
    pad: 1
    kernel_size: 3
    weight_filler {
      type: "xavier"
    }
  }
}
layer {
  name: "fire9/relu_expand3x3"
  type: "ReLU"
  bottom: "fire9/expand3x3"
  top: "fire9/expand3x3"
}
layer {
  name: "fire9/concat"
  type: "Concat"
  bottom: "fire9/expand1x1"
  bottom: "fire9/expand3x3"
  top: "fire9/concat"
}
layer {
  name: "drop9"
  type: "Dropout"
  bottom: "fire9/concat"
  top: "fire9/concat"
  dropout_param {
    dropout_ratio: 0.5
  }
}
layer {
  name: "conv10_2626"
  type: "Convolution"
  bottom: "fire9/concat"
  top: "conv10_2626"
  param {
    lr_mult: 1
    decay_mult: 1
  }
  convolution_param {
    num_output: 2626
    kernel_size: 1
    weight_filler {
      type: "gaussian"
      mean: 0
      std: 0.01
    }
  }
}
layer {
  name: "relu_conv10"
  type: "ReLU"
  bottom: "conv10_2626"
  top: "conv10_2626"
}
layer {
  name: "pool10"
  type: "Pooling"
  bottom: "conv10_2626"
  top: "pool10"
  pooling_param {
    pool: AVE
    global_pooling: true
  }
}
layer {
  name: "loss"
  type: "SoftmaxWithLoss"
  bottom: "pool10"
  bottom: "label"
  top: "loss"
}
layer {
  name: "accuracy"
  type: "Accuracy"
  bottom: "pool10"
  bottom: "label"
  top: "accuracy"
  include {
    phase: TEST
  }
}
I1019 13:48:56.802558 109343 layer_factory.hpp:77] Creating layer data
I1019 13:48:56.802670 109343 net.cpp:100] Creating Layer data
I1019 13:48:56.802691 109343 net.cpp:408] data -> data
I1019 13:48:56.802702 109343 net.cpp:408] data -> label
I1019 13:48:56.802711 109343 data_transformer.cpp:25] Loading mean file from: /share/zhh/mean.binaryproto
I1019 13:48:56.813240 109364 db_lmdb.cpp:35] Opened lmdb /share/front/test_lmdb
I1019 13:48:56.813771 109343 data_layer.cpp:41] output data size: 100,3,227,227
I1019 13:48:56.901888 109343 net.cpp:150] Setting up data
I1019 13:48:56.901932 109343 net.cpp:157] Top shape: 100 3 227 227 (15458700)
I1019 13:48:56.901938 109343 net.cpp:157] Top shape: 100 (100)
I1019 13:48:56.901942 109343 net.cpp:165] Memory required for data: 61835200
I1019 13:48:56.901948 109343 layer_factory.hpp:77] Creating layer label_data_1_split
I1019 13:48:56.901962 109343 net.cpp:100] Creating Layer label_data_1_split
I1019 13:48:56.901968 109343 net.cpp:434] label_data_1_split <- label
I1019 13:48:56.901975 109343 net.cpp:408] label_data_1_split -> label_data_1_split_0
I1019 13:48:56.901988 109343 net.cpp:408] label_data_1_split -> label_data_1_split_1
I1019 13:48:56.902129 109343 net.cpp:150] Setting up label_data_1_split
I1019 13:48:56.902140 109343 net.cpp:157] Top shape: 100 (100)
I1019 13:48:56.902145 109343 net.cpp:157] Top shape: 100 (100)
I1019 13:48:56.902148 109343 net.cpp:165] Memory required for data: 61836000
I1019 13:48:56.902151 109343 layer_factory.hpp:77] Creating layer conv1
I1019 13:48:56.902164 109343 net.cpp:100] Creating Layer conv1
I1019 13:48:56.902168 109343 net.cpp:434] conv1 <- data
I1019 13:48:56.902174 109343 net.cpp:408] conv1 -> conv1
I1019 13:48:56.903802 109343 net.cpp:150] Setting up conv1
I1019 13:48:56.903818 109343 net.cpp:157] Top shape: 100 64 113 113 (81721600)
I1019 13:48:56.903849 109343 net.cpp:165] Memory required for data: 388722400
I1019 13:48:56.903863 109343 layer_factory.hpp:77] Creating layer relu_conv1
I1019 13:48:56.903872 109343 net.cpp:100] Creating Layer relu_conv1
I1019 13:48:56.903877 109343 net.cpp:434] relu_conv1 <- conv1
I1019 13:48:56.903882 109343 net.cpp:395] relu_conv1 -> conv1 (in-place)
I1019 13:48:56.909246 109343 net.cpp:150] Setting up relu_conv1
I1019 13:48:56.909277 109343 net.cpp:157] Top shape: 100 64 113 113 (81721600)
I1019 13:48:56.909281 109343 net.cpp:165] Memory required for data: 715608800
I1019 13:48:56.909286 109343 layer_factory.hpp:77] Creating layer pool1
I1019 13:48:56.909296 109343 net.cpp:100] Creating Layer pool1
I1019 13:48:56.909301 109343 net.cpp:434] pool1 <- conv1
I1019 13:48:56.909308 109343 net.cpp:408] pool1 -> pool1
I1019 13:48:56.909384 109343 net.cpp:150] Setting up pool1
I1019 13:48:56.909392 109343 net.cpp:157] Top shape: 100 64 56 56 (20070400)
I1019 13:48:56.909396 109343 net.cpp:165] Memory required for data: 795890400
I1019 13:48:56.909399 109343 layer_factory.hpp:77] Creating layer fire2/squeeze1x1
I1019 13:48:56.909409 109343 net.cpp:100] Creating Layer fire2/squeeze1x1
I1019 13:48:56.909413 109343 net.cpp:434] fire2/squeeze1x1 <- pool1
I1019 13:48:56.909418 109343 net.cpp:408] fire2/squeeze1x1 -> fire2/squeeze1x1
I1019 13:48:56.910722 109343 net.cpp:150] Setting up fire2/squeeze1x1
I1019 13:48:56.910737 109343 net.cpp:157] Top shape: 100 16 56 56 (5017600)
I1019 13:48:56.910753 109343 net.cpp:165] Memory required for data: 815960800
I1019 13:48:56.910764 109343 layer_factory.hpp:77] Creating layer fire2/squeeze1x1_fire2/squeeze1x1_0_split
I1019 13:48:56.910771 109343 net.cpp:100] Creating Layer fire2/squeeze1x1_fire2/squeeze1x1_0_split
I1019 13:48:56.910775 109343 net.cpp:434] fire2/squeeze1x1_fire2/squeeze1x1_0_split <- fire2/squeeze1x1
I1019 13:48:56.910781 109343 net.cpp:408] fire2/squeeze1x1_fire2/squeeze1x1_0_split -> fire2/squeeze1x1_fire2/squeeze1x1_0_split_0
I1019 13:48:56.910789 109343 net.cpp:408] fire2/squeeze1x1_fire2/squeeze1x1_0_split -> fire2/squeeze1x1_fire2/squeeze1x1_0_split_1
I1019 13:48:56.910845 109343 net.cpp:150] Setting up fire2/squeeze1x1_fire2/squeeze1x1_0_split
I1019 13:48:56.910853 109343 net.cpp:157] Top shape: 100 16 56 56 (5017600)
I1019 13:48:56.910858 109343 net.cpp:157] Top shape: 100 16 56 56 (5017600)
I1019 13:48:56.910861 109343 net.cpp:165] Memory required for data: 856101600
I1019 13:48:56.910864 109343 layer_factory.hpp:77] Creating layer fire2/expand1x1
I1019 13:48:56.910872 109343 net.cpp:100] Creating Layer fire2/expand1x1
I1019 13:48:56.910879 109343 net.cpp:434] fire2/expand1x1 <- fire2/squeeze1x1_fire2/squeeze1x1_0_split_0
I1019 13:48:56.910886 109343 net.cpp:408] fire2/expand1x1 -> fire2/expand1x1
I1019 13:48:56.912070 109343 net.cpp:150] Setting up fire2/expand1x1
I1019 13:48:56.912084 109343 net.cpp:157] Top shape: 100 64 56 56 (20070400)
I1019 13:48:56.912099 109343 net.cpp:165] Memory required for data: 936383200
I1019 13:48:56.912109 109343 layer_factory.hpp:77] Creating layer fire2/relu_expand1x1
I1019 13:48:56.912118 109343 net.cpp:100] Creating Layer fire2/relu_expand1x1
I1019 13:48:56.912123 109343 net.cpp:434] fire2/relu_expand1x1 <- fire2/expand1x1
I1019 13:48:56.912128 109343 net.cpp:395] fire2/relu_expand1x1 -> fire2/expand1x1 (in-place)
I1019 13:48:56.912350 109343 net.cpp:150] Setting up fire2/relu_expand1x1
I1019 13:48:56.912361 109343 net.cpp:157] Top shape: 100 64 56 56 (20070400)
I1019 13:48:56.912376 109343 net.cpp:165] Memory required for data: 1016664800
I1019 13:48:56.912380 109343 layer_factory.hpp:77] Creating layer fire2/expand3x3
I1019 13:48:56.912389 109343 net.cpp:100] Creating Layer fire2/expand3x3
I1019 13:48:56.912394 109343 net.cpp:434] fire2/expand3x3 <- fire2/squeeze1x1_fire2/squeeze1x1_0_split_1
I1019 13:48:56.912400 109343 net.cpp:408] fire2/expand3x3 -> fire2/expand3x3
I1019 13:48:56.913691 109343 net.cpp:150] Setting up fire2/expand3x3
I1019 13:48:56.913704 109343 net.cpp:157] Top shape: 100 64 56 56 (20070400)
I1019 13:48:56.913735 109343 net.cpp:165] Memory required for data: 1096946400
I1019 13:48:56.913754 109343 layer_factory.hpp:77] Creating layer fire2/relu_expand3x3
I1019 13:48:56.913761 109343 net.cpp:100] Creating Layer fire2/relu_expand3x3
I1019 13:48:56.913766 109343 net.cpp:434] fire2/relu_expand3x3 <- fire2/expand3x3
I1019 13:48:56.913771 109343 net.cpp:395] fire2/relu_expand3x3 -> fire2/expand3x3 (in-place)
I1019 13:48:56.914161 109343 net.cpp:150] Setting up fire2/relu_expand3x3
I1019 13:48:56.914175 109343 net.cpp:157] Top shape: 100 64 56 56 (20070400)
I1019 13:48:56.914191 109343 net.cpp:165] Memory required for data: 1177228000
I1019 13:48:56.914194 109343 layer_factory.hpp:77] Creating layer fire2/concat
I1019 13:48:56.914201 109343 net.cpp:100] Creating Layer fire2/concat
I1019 13:48:56.914204 109343 net.cpp:434] fire2/concat <- fire2/expand1x1
I1019 13:48:56.914211 109343 net.cpp:434] fire2/concat <- fire2/expand3x3
I1019 13:48:56.914216 109343 net.cpp:408] fire2/concat -> fire2/concat
I1019 13:48:56.914255 109343 net.cpp:150] Setting up fire2/concat
I1019 13:48:56.914263 109343 net.cpp:157] Top shape: 100 128 56 56 (40140800)
I1019 13:48:56.914265 109343 net.cpp:165] Memory required for data: 1337791200
I1019 13:48:56.914268 109343 layer_factory.hpp:77] Creating layer fire3/squeeze1x1
I1019 13:48:56.914276 109343 net.cpp:100] Creating Layer fire3/squeeze1x1
I1019 13:48:56.914280 109343 net.cpp:434] fire3/squeeze1x1 <- fire2/concat
I1019 13:48:56.914285 109343 net.cpp:408] fire3/squeeze1x1 -> fire3/squeeze1x1
I1019 13:48:56.915318 109343 net.cpp:150] Setting up fire3/squeeze1x1
I1019 13:48:56.915343 109343 net.cpp:157] Top shape: 100 16 56 56 (5017600)
I1019 13:48:56.915357 109343 net.cpp:165] Memory required for data: 1357861600
I1019 13:48:56.915367 109343 layer_factory.hpp:77] Creating layer fire3/squeeze1x1_fire3/squeeze1x1_0_split
I1019 13:48:56.915374 109343 net.cpp:100] Creating Layer fire3/squeeze1x1_fire3/squeeze1x1_0_split
I1019 13:48:56.915379 109343 net.cpp:434] fire3/squeeze1x1_fire3/squeeze1x1_0_split <- fire3/squeeze1x1
I1019 13:48:56.915395 109343 net.cpp:408] fire3/squeeze1x1_fire3/squeeze1x1_0_split -> fire3/squeeze1x1_fire3/squeeze1x1_0_split_0
I1019 13:48:56.915402 109343 net.cpp:408] fire3/squeeze1x1_fire3/squeeze1x1_0_split -> fire3/squeeze1x1_fire3/squeeze1x1_0_split_1
I1019 13:48:56.915446 109343 net.cpp:150] Setting up fire3/squeeze1x1_fire3/squeeze1x1_0_split
I1019 13:48:56.915453 109343 net.cpp:157] Top shape: 100 16 56 56 (5017600)
I1019 13:48:56.915457 109343 net.cpp:157] Top shape: 100 16 56 56 (5017600)
I1019 13:48:56.915462 109343 net.cpp:165] Memory required for data: 1398002400
I1019 13:48:56.915464 109343 layer_factory.hpp:77] Creating layer fire3/expand1x1
I1019 13:48:56.915472 109343 net.cpp:100] Creating Layer fire3/expand1x1
I1019 13:48:56.915475 109343 net.cpp:434] fire3/expand1x1 <- fire3/squeeze1x1_fire3/squeeze1x1_0_split_0
I1019 13:48:56.915482 109343 net.cpp:408] fire3/expand1x1 -> fire3/expand1x1
I1019 13:48:56.916699 109343 net.cpp:150] Setting up fire3/expand1x1
I1019 13:48:56.916714 109343 net.cpp:157] Top shape: 100 64 56 56 (20070400)
I1019 13:48:56.916730 109343 net.cpp:165] Memory required for data: 1478284000
I1019 13:48:56.916738 109343 layer_factory.hpp:77] Creating layer fire3/relu_expand1x1
I1019 13:48:56.916744 109343 net.cpp:100] Creating Layer fire3/relu_expand1x1
I1019 13:48:56.916749 109343 net.cpp:434] fire3/relu_expand1x1 <- fire3/expand1x1
I1019 13:48:56.916755 109343 net.cpp:395] fire3/relu_expand1x1 -> fire3/expand1x1 (in-place)
I1019 13:48:56.917140 109343 net.cpp:150] Setting up fire3/relu_expand1x1
I1019 13:48:56.917153 109343 net.cpp:157] Top shape: 100 64 56 56 (20070400)
I1019 13:48:56.917170 109343 net.cpp:165] Memory required for data: 1558565600
I1019 13:48:56.917173 109343 layer_factory.hpp:77] Creating layer fire3/expand3x3
I1019 13:48:56.917184 109343 net.cpp:100] Creating Layer fire3/expand3x3
I1019 13:48:56.917188 109343 net.cpp:434] fire3/expand3x3 <- fire3/squeeze1x1_fire3/squeeze1x1_0_split_1
I1019 13:48:56.917196 109343 net.cpp:408] fire3/expand3x3 -> fire3/expand3x3
I1019 13:48:56.918514 109343 net.cpp:150] Setting up fire3/expand3x3
I1019 13:48:56.918529 109343 net.cpp:157] Top shape: 100 64 56 56 (20070400)
I1019 13:48:56.918534 109343 net.cpp:165] Memory required for data: 1638847200
I1019 13:48:56.918540 109343 layer_factory.hpp:77] Creating layer fire3/relu_expand3x3
I1019 13:48:56.918546 109343 net.cpp:100] Creating Layer fire3/relu_expand3x3
I1019 13:48:56.918562 109343 net.cpp:434] fire3/relu_expand3x3 <- fire3/expand3x3
I1019 13:48:56.918568 109343 net.cpp:395] fire3/relu_expand3x3 -> fire3/expand3x3 (in-place)
I1019 13:48:56.918984 109343 net.cpp:150] Setting up fire3/relu_expand3x3
I1019 13:48:56.918998 109343 net.cpp:157] Top shape: 100 64 56 56 (20070400)
I1019 13:48:56.919003 109343 net.cpp:165] Memory required for data: 1719128800
I1019 13:48:56.919005 109343 layer_factory.hpp:77] Creating layer fire3/concat
I1019 13:48:56.919013 109343 net.cpp:100] Creating Layer fire3/concat
I1019 13:48:56.919016 109343 net.cpp:434] fire3/concat <- fire3/expand1x1
I1019 13:48:56.919023 109343 net.cpp:434] fire3/concat <- fire3/expand3x3
I1019 13:48:56.919028 109343 net.cpp:408] fire3/concat -> fire3/concat
I1019 13:48:56.919062 109343 net.cpp:150] Setting up fire3/concat
I1019 13:48:56.919075 109343 net.cpp:157] Top shape: 100 128 56 56 (40140800)
I1019 13:48:56.919078 109343 net.cpp:165] Memory required for data: 1879692000
I1019 13:48:56.919081 109343 layer_factory.hpp:77] Creating layer pool3
I1019 13:48:56.919088 109343 net.cpp:100] Creating Layer pool3
I1019 13:48:56.919092 109343 net.cpp:434] pool3 <- fire3/concat
I1019 13:48:56.919097 109343 net.cpp:408] pool3 -> pool3
I1019 13:48:56.919142 109343 net.cpp:150] Setting up pool3
I1019 13:48:56.919148 109343 net.cpp:157] Top shape: 100 128 28 28 (10035200)
I1019 13:48:56.919152 109343 net.cpp:165] Memory required for data: 1919832800
I1019 13:48:56.919154 109343 layer_factory.hpp:77] Creating layer fire4/squeeze1x1
I1019 13:48:56.919162 109343 net.cpp:100] Creating Layer fire4/squeeze1x1
I1019 13:48:56.919167 109343 net.cpp:434] fire4/squeeze1x1 <- pool3
I1019 13:48:56.919172 109343 net.cpp:408] fire4/squeeze1x1 -> fire4/squeeze1x1
I1019 13:48:56.920439 109343 net.cpp:150] Setting up fire4/squeeze1x1
I1019 13:48:56.920454 109343 net.cpp:157] Top shape: 100 32 28 28 (2508800)
I1019 13:48:56.920459 109343 net.cpp:165] Memory required for data: 1929868000
I1019 13:48:56.920464 109343 layer_factory.hpp:77] Creating layer fire4/squeeze1x1_fire4/squeeze1x1_0_split
I1019 13:48:56.920483 109343 net.cpp:100] Creating Layer fire4/squeeze1x1_fire4/squeeze1x1_0_split
I1019 13:48:56.920487 109343 net.cpp:434] fire4/squeeze1x1_fire4/squeeze1x1_0_split <- fire4/squeeze1x1
I1019 13:48:56.920493 109343 net.cpp:408] fire4/squeeze1x1_fire4/squeeze1x1_0_split -> fire4/squeeze1x1_fire4/squeeze1x1_0_split_0
I1019 13:48:56.920500 109343 net.cpp:408] fire4/squeeze1x1_fire4/squeeze1x1_0_split -> fire4/squeeze1x1_fire4/squeeze1x1_0_split_1
I1019 13:48:56.920547 109343 net.cpp:150] Setting up fire4/squeeze1x1_fire4/squeeze1x1_0_split
I1019 13:48:56.920553 109343 net.cpp:157] Top shape: 100 32 28 28 (2508800)
I1019 13:48:56.920560 109343 net.cpp:157] Top shape: 100 32 28 28 (2508800)
I1019 13:48:56.920563 109343 net.cpp:165] Memory required for data: 1949938400
I1019 13:48:56.920567 109343 layer_factory.hpp:77] Creating layer fire4/expand1x1
I1019 13:48:56.920574 109343 net.cpp:100] Creating Layer fire4/expand1x1
I1019 13:48:56.920578 109343 net.cpp:434] fire4/expand1x1 <- fire4/squeeze1x1_fire4/squeeze1x1_0_split_0
I1019 13:48:56.920583 109343 net.cpp:408] fire4/expand1x1 -> fire4/expand1x1
I1019 13:48:56.921849 109343 net.cpp:150] Setting up fire4/expand1x1
I1019 13:48:56.921864 109343 net.cpp:157] Top shape: 100 128 28 28 (10035200)
I1019 13:48:56.921867 109343 net.cpp:165] Memory required for data: 1990079200
I1019 13:48:56.921890 109343 layer_factory.hpp:77] Creating layer fire4/relu_expand1x1
I1019 13:48:56.921896 109343 net.cpp:100] Creating Layer fire4/relu_expand1x1
I1019 13:48:56.921900 109343 net.cpp:434] fire4/relu_expand1x1 <- fire4/expand1x1
I1019 13:48:56.921921 109343 net.cpp:395] fire4/relu_expand1x1 -> fire4/expand1x1 (in-place)
I1019 13:48:56.922111 109343 net.cpp:150] Setting up fire4/relu_expand1x1
I1019 13:48:56.922122 109343 net.cpp:157] Top shape: 100 128 28 28 (10035200)
I1019 13:48:56.922125 109343 net.cpp:165] Memory required for data: 2030220000
I1019 13:48:56.922128 109343 layer_factory.hpp:77] Creating layer fire4/expand3x3
I1019 13:48:56.922137 109343 net.cpp:100] Creating Layer fire4/expand3x3
I1019 13:48:56.922142 109343 net.cpp:434] fire4/expand3x3 <- fire4/squeeze1x1_fire4/squeeze1x1_0_split_1
I1019 13:48:56.922148 109343 net.cpp:408] fire4/expand3x3 -> fire4/expand3x3
I1019 13:48:56.923738 109343 net.cpp:150] Setting up fire4/expand3x3
I1019 13:48:56.923753 109343 net.cpp:157] Top shape: 100 128 28 28 (10035200)
I1019 13:48:56.923758 109343 net.cpp:165] Memory required for data: 2070360800
I1019 13:48:56.923775 109343 layer_factory.hpp:77] Creating layer fire4/relu_expand3x3
I1019 13:48:56.923782 109343 net.cpp:100] Creating Layer fire4/relu_expand3x3
I1019 13:48:56.923786 109343 net.cpp:434] fire4/relu_expand3x3 <- fire4/expand3x3
I1019 13:48:56.923792 109343 net.cpp:395] fire4/relu_expand3x3 -> fire4/expand3x3 (in-place)
I1019 13:48:56.924175 109343 net.cpp:150] Setting up fire4/relu_expand3x3
I1019 13:48:56.924190 109343 net.cpp:157] Top shape: 100 128 28 28 (10035200)
I1019 13:48:56.924193 109343 net.cpp:165] Memory required for data: 2110501600
I1019 13:48:56.924202 109343 layer_factory.hpp:77] Creating layer fire4/concat
I1019 13:48:56.924211 109343 net.cpp:100] Creating Layer fire4/concat
I1019 13:48:56.924214 109343 net.cpp:434] fire4/concat <- fire4/expand1x1
I1019 13:48:56.924219 109343 net.cpp:434] fire4/concat <- fire4/expand3x3
I1019 13:48:56.924226 109343 net.cpp:408] fire4/concat -> fire4/concat
I1019 13:48:56.924262 109343 net.cpp:150] Setting up fire4/concat
I1019 13:48:56.924271 109343 net.cpp:157] Top shape: 100 256 28 28 (20070400)
I1019 13:48:56.924274 109343 net.cpp:165] Memory required for data: 2190783200
I1019 13:48:56.924278 109343 layer_factory.hpp:77] Creating layer fire5/squeeze1x1
I1019 13:48:56.924285 109343 net.cpp:100] Creating Layer fire5/squeeze1x1
I1019 13:48:56.924290 109343 net.cpp:434] fire5/squeeze1x1 <- fire4/concat
I1019 13:48:56.924295 109343 net.cpp:408] fire5/squeeze1x1 -> fire5/squeeze1x1
I1019 13:48:56.925398 109343 net.cpp:150] Setting up fire5/squeeze1x1
I1019 13:48:56.925413 109343 net.cpp:157] Top shape: 100 32 28 28 (2508800)
I1019 13:48:56.925417 109343 net.cpp:165] Memory required for data: 2200818400
I1019 13:48:56.925423 109343 layer_factory.hpp:77] Creating layer fire5/squeeze1x1_fire5/squeeze1x1_0_split
I1019 13:48:56.925442 109343 net.cpp:100] Creating Layer fire5/squeeze1x1_fire5/squeeze1x1_0_split
I1019 13:48:56.925446 109343 net.cpp:434] fire5/squeeze1x1_fire5/squeeze1x1_0_split <- fire5/squeeze1x1
I1019 13:48:56.925452 109343 net.cpp:408] fire5/squeeze1x1_fire5/squeeze1x1_0_split -> fire5/squeeze1x1_fire5/squeeze1x1_0_split_0
I1019 13:48:56.925460 109343 net.cpp:408] fire5/squeeze1x1_fire5/squeeze1x1_0_split -> fire5/squeeze1x1_fire5/squeeze1x1_0_split_1
I1019 13:48:56.925510 109343 net.cpp:150] Setting up fire5/squeeze1x1_fire5/squeeze1x1_0_split
I1019 13:48:56.925518 109343 net.cpp:157] Top shape: 100 32 28 28 (2508800)
I1019 13:48:56.925523 109343 net.cpp:157] Top shape: 100 32 28 28 (2508800)
I1019 13:48:56.925525 109343 net.cpp:165] Memory required for data: 2220888800
I1019 13:48:56.925529 109343 layer_factory.hpp:77] Creating layer fire5/expand1x1
I1019 13:48:56.925536 109343 net.cpp:100] Creating Layer fire5/expand1x1
I1019 13:48:56.925540 109343 net.cpp:434] fire5/expand1x1 <- fire5/squeeze1x1_fire5/squeeze1x1_0_split_0
I1019 13:48:56.925547 109343 net.cpp:408] fire5/expand1x1 -> fire5/expand1x1
I1019 13:48:56.926882 109343 net.cpp:150] Setting up fire5/expand1x1
I1019 13:48:56.926898 109343 net.cpp:157] Top shape: 100 128 28 28 (10035200)
I1019 13:48:56.926901 109343 net.cpp:165] Memory required for data: 2261029600
I1019 13:48:56.926933 109343 layer_factory.hpp:77] Creating layer fire5/relu_expand1x1
I1019 13:48:56.926939 109343 net.cpp:100] Creating Layer fire5/relu_expand1x1
I1019 13:48:56.926944 109343 net.cpp:434] fire5/relu_expand1x1 <- fire5/expand1x1
I1019 13:48:56.926950 109343 net.cpp:395] fire5/relu_expand1x1 -> fire5/expand1x1 (in-place)
I1019 13:48:56.927357 109343 net.cpp:150] Setting up fire5/relu_expand1x1
I1019 13:48:56.927372 109343 net.cpp:157] Top shape: 100 128 28 28 (10035200)
I1019 13:48:56.927376 109343 net.cpp:165] Memory required for data: 2301170400
I1019 13:48:56.927379 109343 layer_factory.hpp:77] Creating layer fire5/expand3x3
I1019 13:48:56.927392 109343 net.cpp:100] Creating Layer fire5/expand3x3
I1019 13:48:56.927397 109343 net.cpp:434] fire5/expand3x3 <- fire5/squeeze1x1_fire5/squeeze1x1_0_split_1
I1019 13:48:56.927402 109343 net.cpp:408] fire5/expand3x3 -> fire5/expand3x3
I1019 13:48:56.928871 109343 net.cpp:150] Setting up fire5/expand3x3
I1019 13:48:56.928887 109343 net.cpp:157] Top shape: 100 128 28 28 (10035200)
I1019 13:48:56.928891 109343 net.cpp:165] Memory required for data: 2341311200
I1019 13:48:56.928899 109343 layer_factory.hpp:77] Creating layer fire5/relu_expand3x3
I1019 13:48:56.928922 109343 net.cpp:100] Creating Layer fire5/relu_expand3x3
I1019 13:48:56.928927 109343 net.cpp:434] fire5/relu_expand3x3 <- fire5/expand3x3
I1019 13:48:56.928935 109343 net.cpp:395] fire5/relu_expand3x3 -> fire5/expand3x3 (in-place)
I1019 13:48:56.929342 109343 net.cpp:150] Setting up fire5/relu_expand3x3
I1019 13:48:56.929355 109343 net.cpp:157] Top shape: 100 128 28 28 (10035200)
I1019 13:48:56.929359 109343 net.cpp:165] Memory required for data: 2381452000
I1019 13:48:56.929363 109343 layer_factory.hpp:77] Creating layer fire5/concat
I1019 13:48:56.929370 109343 net.cpp:100] Creating Layer fire5/concat
I1019 13:48:56.929374 109343 net.cpp:434] fire5/concat <- fire5/expand1x1
I1019 13:48:56.929379 109343 net.cpp:434] fire5/concat <- fire5/expand3x3
I1019 13:48:56.929384 109343 net.cpp:408] fire5/concat -> fire5/concat
I1019 13:48:56.929422 109343 net.cpp:150] Setting up fire5/concat
I1019 13:48:56.929430 109343 net.cpp:157] Top shape: 100 256 28 28 (20070400)
I1019 13:48:56.929433 109343 net.cpp:165] Memory required for data: 2461733600
I1019 13:48:56.929437 109343 layer_factory.hpp:77] Creating layer pool5
I1019 13:48:56.929445 109343 net.cpp:100] Creating Layer pool5
I1019 13:48:56.929450 109343 net.cpp:434] pool5 <- fire5/concat
I1019 13:48:56.929455 109343 net.cpp:408] pool5 -> pool5
I1019 13:48:56.929503 109343 net.cpp:150] Setting up pool5
I1019 13:48:56.929510 109343 net.cpp:157] Top shape: 100 256 14 14 (5017600)
I1019 13:48:56.929513 109343 net.cpp:165] Memory required for data: 2481804000
I1019 13:48:56.929517 109343 layer_factory.hpp:77] Creating layer fire6/squeeze1x1
I1019 13:48:56.929527 109343 net.cpp:100] Creating Layer fire6/squeeze1x1
I1019 13:48:56.929530 109343 net.cpp:434] fire6/squeeze1x1 <- pool5
I1019 13:48:56.929535 109343 net.cpp:408] fire6/squeeze1x1 -> fire6/squeeze1x1
I1019 13:48:56.930984 109343 net.cpp:150] Setting up fire6/squeeze1x1
I1019 13:48:56.931000 109343 net.cpp:157] Top shape: 100 48 14 14 (940800)
I1019 13:48:56.931005 109343 net.cpp:165] Memory required for data: 2485567200
I1019 13:48:56.931023 109343 layer_factory.hpp:77] Creating layer fire6/squeeze1x1_fire6/squeeze1x1_0_split
I1019 13:48:56.931033 109343 net.cpp:100] Creating Layer fire6/squeeze1x1_fire6/squeeze1x1_0_split
I1019 13:48:56.931038 109343 net.cpp:434] fire6/squeeze1x1_fire6/squeeze1x1_0_split <- fire6/squeeze1x1
I1019 13:48:56.931043 109343 net.cpp:408] fire6/squeeze1x1_fire6/squeeze1x1_0_split -> fire6/squeeze1x1_fire6/squeeze1x1_0_split_0
I1019 13:48:56.931051 109343 net.cpp:408] fire6/squeeze1x1_fire6/squeeze1x1_0_split -> fire6/squeeze1x1_fire6/squeeze1x1_0_split_1
I1019 13:48:56.931107 109343 net.cpp:150] Setting up fire6/squeeze1x1_fire6/squeeze1x1_0_split
I1019 13:48:56.931114 109343 net.cpp:157] Top shape: 100 48 14 14 (940800)
I1019 13:48:56.931118 109343 net.cpp:157] Top shape: 100 48 14 14 (940800)
I1019 13:48:56.931138 109343 net.cpp:165] Memory required for data: 2493093600
I1019 13:48:56.931141 109343 layer_factory.hpp:77] Creating layer fire6/expand1x1
I1019 13:48:56.931150 109343 net.cpp:100] Creating Layer fire6/expand1x1
I1019 13:48:56.931155 109343 net.cpp:434] fire6/expand1x1 <- fire6/squeeze1x1_fire6/squeeze1x1_0_split_0
I1019 13:48:56.931161 109343 net.cpp:408] fire6/expand1x1 -> fire6/expand1x1
I1019 13:48:56.932607 109343 net.cpp:150] Setting up fire6/expand1x1
I1019 13:48:56.932622 109343 net.cpp:157] Top shape: 100 192 14 14 (3763200)
I1019 13:48:56.932632 109343 net.cpp:165] Memory required for data: 2508146400
I1019 13:48:56.932639 109343 layer_factory.hpp:77] Creating layer fire6/relu_expand1x1
I1019 13:48:56.932647 109343 net.cpp:100] Creating Layer fire6/relu_expand1x1
I1019 13:48:56.932663 109343 net.cpp:434] fire6/relu_expand1x1 <- fire6/expand1x1
I1019 13:48:56.932669 109343 net.cpp:395] fire6/relu_expand1x1 -> fire6/expand1x1 (in-place)
I1019 13:48:56.932857 109343 net.cpp:150] Setting up fire6/relu_expand1x1
I1019 13:48:56.932868 109343 net.cpp:157] Top shape: 100 192 14 14 (3763200)
I1019 13:48:56.932871 109343 net.cpp:165] Memory required for data: 2523199200
I1019 13:48:56.932874 109343 layer_factory.hpp:77] Creating layer fire6/expand3x3
I1019 13:48:56.932886 109343 net.cpp:100] Creating Layer fire6/expand3x3
I1019 13:48:56.932891 109343 net.cpp:434] fire6/expand3x3 <- fire6/squeeze1x1_fire6/squeeze1x1_0_split_1
I1019 13:48:56.932898 109343 net.cpp:408] fire6/expand3x3 -> fire6/expand3x3
I1019 13:48:56.935276 109343 net.cpp:150] Setting up fire6/expand3x3
I1019 13:48:56.935292 109343 net.cpp:157] Top shape: 100 192 14 14 (3763200)
I1019 13:48:56.935294 109343 net.cpp:165] Memory required for data: 2538252000
I1019 13:48:56.935302 109343 layer_factory.hpp:77] Creating layer fire6/relu_expand3x3
I1019 13:48:56.935318 109343 net.cpp:100] Creating Layer fire6/relu_expand3x3
I1019 13:48:56.935323 109343 net.cpp:434] fire6/relu_expand3x3 <- fire6/expand3x3
I1019 13:48:56.935330 109343 net.cpp:395] fire6/relu_expand3x3 -> fire6/expand3x3 (in-place)
I1019 13:48:56.935534 109343 net.cpp:150] Setting up fire6/relu_expand3x3
I1019 13:48:56.935544 109343 net.cpp:157] Top shape: 100 192 14 14 (3763200)
I1019 13:48:56.935547 109343 net.cpp:165] Memory required for data: 2553304800
I1019 13:48:56.935551 109343 layer_factory.hpp:77] Creating layer fire6/concat
I1019 13:48:56.935557 109343 net.cpp:100] Creating Layer fire6/concat
I1019 13:48:56.935561 109343 net.cpp:434] fire6/concat <- fire6/expand1x1
I1019 13:48:56.935565 109343 net.cpp:434] fire6/concat <- fire6/expand3x3
I1019 13:48:56.935572 109343 net.cpp:408] fire6/concat -> fire6/concat
I1019 13:48:56.935621 109343 net.cpp:150] Setting up fire6/concat
I1019 13:48:56.935628 109343 net.cpp:157] Top shape: 100 384 14 14 (7526400)
I1019 13:48:56.935631 109343 net.cpp:165] Memory required for data: 2583410400
I1019 13:48:56.935634 109343 layer_factory.hpp:77] Creating layer fire7/squeeze1x1
I1019 13:48:56.935643 109343 net.cpp:100] Creating Layer fire7/squeeze1x1
I1019 13:48:56.935648 109343 net.cpp:434] fire7/squeeze1x1 <- fire6/concat
I1019 13:48:56.935653 109343 net.cpp:408] fire7/squeeze1x1 -> fire7/squeeze1x1
I1019 13:48:56.937189 109343 net.cpp:150] Setting up fire7/squeeze1x1
I1019 13:48:56.937203 109343 net.cpp:157] Top shape: 100 48 14 14 (940800)
I1019 13:48:56.937207 109343 net.cpp:165] Memory required for data: 2587173600
I1019 13:48:56.937233 109343 layer_factory.hpp:77] Creating layer fire7/squeeze1x1_fire7/squeeze1x1_0_split
I1019 13:48:56.937242 109343 net.cpp:100] Creating Layer fire7/squeeze1x1_fire7/squeeze1x1_0_split
I1019 13:48:56.937245 109343 net.cpp:434] fire7/squeeze1x1_fire7/squeeze1x1_0_split <- fire7/squeeze1x1
I1019 13:48:56.937252 109343 net.cpp:408] fire7/squeeze1x1_fire7/squeeze1x1_0_split -> fire7/squeeze1x1_fire7/squeeze1x1_0_split_0
I1019 13:48:56.937258 109343 net.cpp:408] fire7/squeeze1x1_fire7/squeeze1x1_0_split -> fire7/squeeze1x1_fire7/squeeze1x1_0_split_1
I1019 13:48:56.937319 109343 net.cpp:150] Setting up fire7/squeeze1x1_fire7/squeeze1x1_0_split
I1019 13:48:56.937341 109343 net.cpp:157] Top shape: 100 48 14 14 (940800)
I1019 13:48:56.937345 109343 net.cpp:157] Top shape: 100 48 14 14 (940800)
I1019 13:48:56.937350 109343 net.cpp:165] Memory required for data: 2594700000
I1019 13:48:56.937352 109343 layer_factory.hpp:77] Creating layer fire7/expand1x1
I1019 13:48:56.937362 109343 net.cpp:100] Creating Layer fire7/expand1x1
I1019 13:48:56.937366 109343 net.cpp:434] fire7/expand1x1 <- fire7/squeeze1x1_fire7/squeeze1x1_0_split_0
I1019 13:48:56.937372 109343 net.cpp:408] fire7/expand1x1 -> fire7/expand1x1
I1019 13:48:56.938829 109343 net.cpp:150] Setting up fire7/expand1x1
I1019 13:48:56.938843 109343 net.cpp:157] Top shape: 100 192 14 14 (3763200)
I1019 13:48:56.938848 109343 net.cpp:165] Memory required for data: 2609752800
I1019 13:48:56.938853 109343 layer_factory.hpp:77] Creating layer fire7/relu_expand1x1
I1019 13:48:56.938874 109343 net.cpp:100] Creating Layer fire7/relu_expand1x1
I1019 13:48:56.938877 109343 net.cpp:434] fire7/relu_expand1x1 <- fire7/expand1x1
I1019 13:48:56.938884 109343 net.cpp:395] fire7/relu_expand1x1 -> fire7/expand1x1 (in-place)
I1019 13:48:56.939303 109343 net.cpp:150] Setting up fire7/relu_expand1x1
I1019 13:48:56.939317 109343 net.cpp:157] Top shape: 100 192 14 14 (3763200)
I1019 13:48:56.939321 109343 net.cpp:165] Memory required for data: 2624805600
I1019 13:48:56.939324 109343 layer_factory.hpp:77] Creating layer fire7/expand3x3
I1019 13:48:56.939334 109343 net.cpp:100] Creating Layer fire7/expand3x3
I1019 13:48:56.939339 109343 net.cpp:434] fire7/expand3x3 <- fire7/squeeze1x1_fire7/squeeze1x1_0_split_1
I1019 13:48:56.939347 109343 net.cpp:408] fire7/expand3x3 -> fire7/expand3x3
I1019 13:48:56.941284 109343 net.cpp:150] Setting up fire7/expand3x3
I1019 13:48:56.941299 109343 net.cpp:157] Top shape: 100 192 14 14 (3763200)
I1019 13:48:56.941303 109343 net.cpp:165] Memory required for data: 2639858400
I1019 13:48:56.941309 109343 layer_factory.hpp:77] Creating layer fire7/relu_expand3x3
I1019 13:48:56.941315 109343 net.cpp:100] Creating Layer fire7/relu_expand3x3
I1019 13:48:56.941331 109343 net.cpp:434] fire7/relu_expand3x3 <- fire7/expand3x3
I1019 13:48:56.941337 109343 net.cpp:395] fire7/relu_expand3x3 -> fire7/expand3x3 (in-place)
I1019 13:48:56.941733 109343 net.cpp:150] Setting up fire7/relu_expand3x3
I1019 13:48:56.941746 109343 net.cpp:157] Top shape: 100 192 14 14 (3763200)
I1019 13:48:56.941751 109343 net.cpp:165] Memory required for data: 2654911200
I1019 13:48:56.941753 109343 layer_factory.hpp:77] Creating layer fire7/concat
I1019 13:48:56.941761 109343 net.cpp:100] Creating Layer fire7/concat
I1019 13:48:56.941766 109343 net.cpp:434] fire7/concat <- fire7/expand1x1
I1019 13:48:56.941771 109343 net.cpp:434] fire7/concat <- fire7/expand3x3
I1019 13:48:56.941776 109343 net.cpp:408] fire7/concat -> fire7/concat
I1019 13:48:56.941812 109343 net.cpp:150] Setting up fire7/concat
I1019 13:48:56.941820 109343 net.cpp:157] Top shape: 100 384 14 14 (7526400)
I1019 13:48:56.941823 109343 net.cpp:165] Memory required for data: 2685016800
I1019 13:48:56.941826 109343 layer_factory.hpp:77] Creating layer fire8/squeeze1x1
I1019 13:48:56.941835 109343 net.cpp:100] Creating Layer fire8/squeeze1x1
I1019 13:48:56.941839 109343 net.cpp:434] fire8/squeeze1x1 <- fire7/concat
I1019 13:48:56.941850 109343 net.cpp:408] fire8/squeeze1x1 -> fire8/squeeze1x1
I1019 13:48:56.943903 109343 net.cpp:150] Setting up fire8/squeeze1x1
I1019 13:48:56.943918 109343 net.cpp:157] Top shape: 100 64 14 14 (1254400)
I1019 13:48:56.943922 109343 net.cpp:165] Memory required for data: 2690034400
I1019 13:48:56.943929 109343 layer_factory.hpp:77] Creating layer fire8/squeeze1x1_fire8/squeeze1x1_0_split
I1019 13:48:56.943948 109343 net.cpp:100] Creating Layer fire8/squeeze1x1_fire8/squeeze1x1_0_split
I1019 13:48:56.943953 109343 net.cpp:434] fire8/squeeze1x1_fire8/squeeze1x1_0_split <- fire8/squeeze1x1
I1019 13:48:56.943958 109343 net.cpp:408] fire8/squeeze1x1_fire8/squeeze1x1_0_split -> fire8/squeeze1x1_fire8/squeeze1x1_0_split_0
I1019 13:48:56.943979 109343 net.cpp:408] fire8/squeeze1x1_fire8/squeeze1x1_0_split -> fire8/squeeze1x1_fire8/squeeze1x1_0_split_1
I1019 13:48:56.944030 109343 net.cpp:150] Setting up fire8/squeeze1x1_fire8/squeeze1x1_0_split
I1019 13:48:56.944037 109343 net.cpp:157] Top shape: 100 64 14 14 (1254400)
I1019 13:48:56.944042 109343 net.cpp:157] Top shape: 100 64 14 14 (1254400)
I1019 13:48:56.944046 109343 net.cpp:165] Memory required for data: 2700069600
I1019 13:48:56.944048 109343 layer_factory.hpp:77] Creating layer fire8/expand1x1
I1019 13:48:56.944059 109343 net.cpp:100] Creating Layer fire8/expand1x1
I1019 13:48:56.944063 109343 net.cpp:434] fire8/expand1x1 <- fire8/squeeze1x1_fire8/squeeze1x1_0_split_0
I1019 13:48:56.944069 109343 net.cpp:408] fire8/expand1x1 -> fire8/expand1x1
I1019 13:48:56.945847 109343 net.cpp:150] Setting up fire8/expand1x1
I1019 13:48:56.945861 109343 net.cpp:157] Top shape: 100 256 14 14 (5017600)
I1019 13:48:56.945865 109343 net.cpp:165] Memory required for data: 2720140000
I1019 13:48:56.945885 109343 layer_factory.hpp:77] Creating layer fire8/relu_expand1x1
I1019 13:48:56.945893 109343 net.cpp:100] Creating Layer fire8/relu_expand1x1
I1019 13:48:56.945897 109343 net.cpp:434] fire8/relu_expand1x1 <- fire8/expand1x1
I1019 13:48:56.945902 109343 net.cpp:395] fire8/relu_expand1x1 -> fire8/expand1x1 (in-place)
I1019 13:48:56.946101 109343 net.cpp:150] Setting up fire8/relu_expand1x1
I1019 13:48:56.946113 109343 net.cpp:157] Top shape: 100 256 14 14 (5017600)
I1019 13:48:56.946117 109343 net.cpp:165] Memory required for data: 2740210400
I1019 13:48:56.946120 109343 layer_factory.hpp:77] Creating layer fire8/expand3x3
I1019 13:48:56.946130 109343 net.cpp:100] Creating Layer fire8/expand3x3
I1019 13:48:56.946133 109343 net.cpp:434] fire8/expand3x3 <- fire8/squeeze1x1_fire8/squeeze1x1_0_split_1
I1019 13:48:56.946141 109343 net.cpp:408] fire8/expand3x3 -> fire8/expand3x3
I1019 13:48:56.949329 109343 net.cpp:150] Setting up fire8/expand3x3
I1019 13:48:56.949357 109343 net.cpp:157] Top shape: 100 256 14 14 (5017600)
I1019 13:48:56.949360 109343 net.cpp:165] Memory required for data: 2760280800
I1019 13:48:56.949378 109343 layer_factory.hpp:77] Creating layer fire8/relu_expand3x3
I1019 13:48:56.949388 109343 net.cpp:100] Creating Layer fire8/relu_expand3x3
I1019 13:48:56.949393 109343 net.cpp:434] fire8/relu_expand3x3 <- fire8/expand3x3
I1019 13:48:56.949398 109343 net.cpp:395] fire8/relu_expand3x3 -> fire8/expand3x3 (in-place)
I1019 13:48:56.949586 109343 net.cpp:150] Setting up fire8/relu_expand3x3
I1019 13:48:56.949599 109343 net.cpp:157] Top shape: 100 256 14 14 (5017600)
I1019 13:48:56.949602 109343 net.cpp:165] Memory required for data: 2780351200
I1019 13:48:56.949605 109343 layer_factory.hpp:77] Creating layer fire8/concat
I1019 13:48:56.949611 109343 net.cpp:100] Creating Layer fire8/concat
I1019 13:48:56.949615 109343 net.cpp:434] fire8/concat <- fire8/expand1x1
I1019 13:48:56.949620 109343 net.cpp:434] fire8/concat <- fire8/expand3x3
I1019 13:48:56.949625 109343 net.cpp:408] fire8/concat -> fire8/concat
I1019 13:48:56.949662 109343 net.cpp:150] Setting up fire8/concat
I1019 13:48:56.949669 109343 net.cpp:157] Top shape: 100 512 14 14 (10035200)
I1019 13:48:56.949673 109343 net.cpp:165] Memory required for data: 2820492000
I1019 13:48:56.949676 109343 layer_factory.hpp:77] Creating layer fire9/squeeze1x1
I1019 13:48:56.949684 109343 net.cpp:100] Creating Layer fire9/squeeze1x1
I1019 13:48:56.949688 109343 net.cpp:434] fire9/squeeze1x1 <- fire8/concat
I1019 13:48:56.949694 109343 net.cpp:408] fire9/squeeze1x1 -> fire9/squeeze1x1
I1019 13:48:56.951318 109343 net.cpp:150] Setting up fire9/squeeze1x1
I1019 13:48:56.951333 109343 net.cpp:157] Top shape: 100 64 14 14 (1254400)
I1019 13:48:56.951335 109343 net.cpp:165] Memory required for data: 2825509600
I1019 13:48:56.951354 109343 layer_factory.hpp:77] Creating layer fire9/squeeze1x1_fire9/squeeze1x1_0_split
I1019 13:48:56.951360 109343 net.cpp:100] Creating Layer fire9/squeeze1x1_fire9/squeeze1x1_0_split
I1019 13:48:56.951366 109343 net.cpp:434] fire9/squeeze1x1_fire9/squeeze1x1_0_split <- fire9/squeeze1x1
I1019 13:48:56.951385 109343 net.cpp:408] fire9/squeeze1x1_fire9/squeeze1x1_0_split -> fire9/squeeze1x1_fire9/squeeze1x1_0_split_0
I1019 13:48:56.951395 109343 net.cpp:408] fire9/squeeze1x1_fire9/squeeze1x1_0_split -> fire9/squeeze1x1_fire9/squeeze1x1_0_split_1
I1019 13:48:56.951447 109343 net.cpp:150] Setting up fire9/squeeze1x1_fire9/squeeze1x1_0_split
I1019 13:48:56.951455 109343 net.cpp:157] Top shape: 100 64 14 14 (1254400)
I1019 13:48:56.951459 109343 net.cpp:157] Top shape: 100 64 14 14 (1254400)
I1019 13:48:56.951463 109343 net.cpp:165] Memory required for data: 2835544800
I1019 13:48:56.951467 109343 layer_factory.hpp:77] Creating layer fire9/expand1x1
I1019 13:48:56.951474 109343 net.cpp:100] Creating Layer fire9/expand1x1
I1019 13:48:56.951478 109343 net.cpp:434] fire9/expand1x1 <- fire9/squeeze1x1_fire9/squeeze1x1_0_split_0
I1019 13:48:56.951485 109343 net.cpp:408] fire9/expand1x1 -> fire9/expand1x1
I1019 13:48:56.953235 109343 net.cpp:150] Setting up fire9/expand1x1
I1019 13:48:56.953250 109343 net.cpp:157] Top shape: 100 256 14 14 (5017600)
I1019 13:48:56.953254 109343 net.cpp:165] Memory required for data: 2855615200
I1019 13:48:56.953261 109343 layer_factory.hpp:77] Creating layer fire9/relu_expand1x1
I1019 13:48:56.953279 109343 net.cpp:100] Creating Layer fire9/relu_expand1x1
I1019 13:48:56.953284 109343 net.cpp:434] fire9/relu_expand1x1 <- fire9/expand1x1
I1019 13:48:56.953290 109343 net.cpp:395] fire9/relu_expand1x1 -> fire9/expand1x1 (in-place)
I1019 13:48:56.953701 109343 net.cpp:150] Setting up fire9/relu_expand1x1
I1019 13:48:56.953714 109343 net.cpp:157] Top shape: 100 256 14 14 (5017600)
I1019 13:48:56.953717 109343 net.cpp:165] Memory required for data: 2875685600
I1019 13:48:56.953722 109343 layer_factory.hpp:77] Creating layer fire9/expand3x3
I1019 13:48:56.953732 109343 net.cpp:100] Creating Layer fire9/expand3x3
I1019 13:48:56.953737 109343 net.cpp:434] fire9/expand3x3 <- fire9/squeeze1x1_fire9/squeeze1x1_0_split_1
I1019 13:48:56.953743 109343 net.cpp:408] fire9/expand3x3 -> fire9/expand3x3
I1019 13:48:56.957006 109343 net.cpp:150] Setting up fire9/expand3x3
I1019 13:48:56.957022 109343 net.cpp:157] Top shape: 100 256 14 14 (5017600)
I1019 13:48:56.957026 109343 net.cpp:165] Memory required for data: 2895756000
I1019 13:48:56.957033 109343 layer_factory.hpp:77] Creating layer fire9/relu_expand3x3
I1019 13:48:56.957042 109343 net.cpp:100] Creating Layer fire9/relu_expand3x3
I1019 13:48:56.957046 109343 net.cpp:434] fire9/relu_expand3x3 <- fire9/expand3x3
I1019 13:48:56.957052 109343 net.cpp:395] fire9/relu_expand3x3 -> fire9/expand3x3 (in-place)
I1019 13:48:56.957489 109343 net.cpp:150] Setting up fire9/relu_expand3x3
I1019 13:48:56.957504 109343 net.cpp:157] Top shape: 100 256 14 14 (5017600)
I1019 13:48:56.957507 109343 net.cpp:165] Memory required for data: 2915826400
I1019 13:48:56.957511 109343 layer_factory.hpp:77] Creating layer fire9/concat
I1019 13:48:56.957518 109343 net.cpp:100] Creating Layer fire9/concat
I1019 13:48:56.957523 109343 net.cpp:434] fire9/concat <- fire9/expand1x1
I1019 13:48:56.957528 109343 net.cpp:434] fire9/concat <- fire9/expand3x3
I1019 13:48:56.957533 109343 net.cpp:408] fire9/concat -> fire9/concat
I1019 13:48:56.957571 109343 net.cpp:150] Setting up fire9/concat
I1019 13:48:56.957579 109343 net.cpp:157] Top shape: 100 512 14 14 (10035200)
I1019 13:48:56.957582 109343 net.cpp:165] Memory required for data: 2955967200
I1019 13:48:56.957586 109343 layer_factory.hpp:77] Creating layer drop9
I1019 13:48:56.957592 109343 net.cpp:100] Creating Layer drop9
I1019 13:48:56.957595 109343 net.cpp:434] drop9 <- fire9/concat
I1019 13:48:56.957602 109343 net.cpp:395] drop9 -> fire9/concat (in-place)
I1019 13:48:56.957631 109343 net.cpp:150] Setting up drop9
I1019 13:48:56.957640 109343 net.cpp:157] Top shape: 100 512 14 14 (10035200)
I1019 13:48:56.957643 109343 net.cpp:165] Memory required for data: 2996108000
I1019 13:48:56.957646 109343 layer_factory.hpp:77] Creating layer conv10_2626
I1019 13:48:56.957674 109343 net.cpp:100] Creating Layer conv10_2626
I1019 13:48:56.957684 109343 net.cpp:434] conv10_2626 <- fire9/concat
I1019 13:48:56.957691 109343 net.cpp:408] conv10_2626 -> conv10_2626
I1019 13:48:56.982152 109343 net.cpp:150] Setting up conv10_2626
I1019 13:48:56.982179 109343 net.cpp:157] Top shape: 100 2626 14 14 (51469600)
I1019 13:48:56.982183 109343 net.cpp:165] Memory required for data: 3201986400
I1019 13:48:56.982193 109343 layer_factory.hpp:77] Creating layer relu_conv10
I1019 13:48:56.982214 109343 net.cpp:100] Creating Layer relu_conv10
I1019 13:48:56.982219 109343 net.cpp:434] relu_conv10 <- conv10_2626
I1019 13:48:56.982226 109343 net.cpp:395] relu_conv10 -> conv10_2626 (in-place)
I1019 13:48:56.982421 109343 net.cpp:150] Setting up relu_conv10
I1019 13:48:56.982432 109343 net.cpp:157] Top shape: 100 2626 14 14 (51469600)
I1019 13:48:56.982435 109343 net.cpp:165] Memory required for data: 3407864800
I1019 13:48:56.982439 109343 layer_factory.hpp:77] Creating layer pool10
I1019 13:48:56.982446 109343 net.cpp:100] Creating Layer pool10
I1019 13:48:56.982450 109343 net.cpp:434] pool10 <- conv10_2626
I1019 13:48:56.982457 109343 net.cpp:408] pool10 -> pool10
I1019 13:48:56.982908 109343 net.cpp:150] Setting up pool10
I1019 13:48:56.982923 109343 net.cpp:157] Top shape: 100 2626 1 1 (262600)
I1019 13:48:56.982938 109343 net.cpp:165] Memory required for data: 3408915200
I1019 13:48:56.982941 109343 layer_factory.hpp:77] Creating layer pool10_pool10_0_split
I1019 13:48:56.982949 109343 net.cpp:100] Creating Layer pool10_pool10_0_split
I1019 13:48:56.982952 109343 net.cpp:434] pool10_pool10_0_split <- pool10
I1019 13:48:56.982959 109343 net.cpp:408] pool10_pool10_0_split -> pool10_pool10_0_split_0
I1019 13:48:56.982966 109343 net.cpp:408] pool10_pool10_0_split -> pool10_pool10_0_split_1
I1019 13:48:56.983017 109343 net.cpp:150] Setting up pool10_pool10_0_split
I1019 13:48:56.983024 109343 net.cpp:157] Top shape: 100 2626 1 1 (262600)
I1019 13:48:56.983028 109343 net.cpp:157] Top shape: 100 2626 1 1 (262600)
I1019 13:48:56.983031 109343 net.cpp:165] Memory required for data: 3411016000
I1019 13:48:56.983034 109343 layer_factory.hpp:77] Creating layer loss
I1019 13:48:56.983042 109343 net.cpp:100] Creating Layer loss
I1019 13:48:56.983045 109343 net.cpp:434] loss <- pool10_pool10_0_split_0
I1019 13:48:56.983050 109343 net.cpp:434] loss <- label_data_1_split_0
I1019 13:48:56.983055 109343 net.cpp:408] loss -> loss
…
