…
I1012 18:33:48.023272 109031 net.cpp:322] The NetState phase (0) differed from the phase (1) specified by a rule in layer data
I1012 18:33:48.023324 109031 net.cpp:322] The NetState phase (0) differed from the phase (1) specified by a rule in layer accuracy
I1012 18:33:48.023547 109031 net.cpp:49] Initializing net from parameters: 
state {
  phase: TRAIN
}
layer {
  name: "data"
  type: "Data"
  top: "data"
  top: "label"
  include {
    phase: TRAIN
  }
  transform_param {
    crop_size: 227
    mean_file: "/share/zhh/mean.binaryproto"
  }
  data_param {
    source: "/share/front/train_lmdb"
    batch_size: 128
    backend: LMDB
  }
}
layer {
  name: "conv1"
  type: "Convolution"
  bottom: "data"
  top: "conv1"
  convolution_param {
    num_output: 64
    kernel_size: 3
    stride: 2
    weight_filler {
      type: "xavier"
    }
  }
}
layer {
  name: "relu_conv1"
  type: "ReLU"
  bottom: "conv1"
  top: "conv1"
}
layer {
  name: "pool1"
  type: "Pooling"
  bottom: "conv1"
  top: "pool1"
  pooling_param {
    pool: MAX
    kernel_size: 3
    stride: 2
  }
}
layer {
  name: "fire2/squeeze1x1"
  type: "Convolution"
  bottom: "pool1"
  top: "fire2/squeeze1x1"
  convolution_param {
    num_output: 16
    kernel_size: 1
    weight_filler {
      type: "xavier"
    }
  }
}
layer {
  name: "fire2/relu_squeeze1x1"
  type: "ReLU"
  bottom: "fire2/squeeze1x1"
  top: "fire2/squeeze1x1"
}
layer {
  name: "fire2/expand1x1"
  type: "Convolution"
  bottom: "fire2/squeeze1x1"
  top: "fire2/expand1x1"
  convolution_param {
    num_output: 64
    kernel_size: 1
    weight_filler {
      type: "xavier"
    }
  }
}
layer {
  name: "fire2/relu_expand1x1"
  type: "ReLU"
  bottom: "fire2/expand1x1"
  top: "fire2/expand1x1"
}
layer {
  name: "fire2/expand3x3"
  type: "Convolution"
  bottom: "fire2/squeeze1x1"
  top: "fire2/expand3x3"
  convolution_param {
    num_output: 64
    pad: 1
    kernel_size: 3
    weight_filler {
      type: "xavier"
    }
  }
}
layer {
  name: "fire2/relu_expand3x3"
  type: "ReLU"
  bottom: "fire2/expand3x3"
  top: "fire2/expand3x3"
}
layer {
  name: "fire2/concat"
  type: "Concat"
  bottom: "fire2/expand1x1"
  bottom: "fire2/expand3x3"
  top: "fire2/concat"
}
layer {
  name: "fire3/squeeze1x1"
  type: "Convolution"
  bottom: "fire2/concat"
  top: "fire3/squeeze1x1"
  convolution_param {
    num_output: 16
    kernel_size: 1
    weight_filler {
      type: "xavier"
    }
  }
}
layer {
  name: "fire3/relu_squeeze1x1"
  type: "ReLU"
  bottom: "fire3/squeeze1x1"
  top: "fire3/squeeze1x1"
}
layer {
  name: "fire3/expand1x1"
  type: "Convolution"
  bottom: "fire3/squeeze1x1"
  top: "fire3/expand1x1"
  convolution_param {
    num_output: 64
    kernel_size: 1
    weight_filler {
      type: "xavier"
    }
  }
}
layer {
  name: "fire3/relu_expand1x1"
  type: "ReLU"
  bottom: "fire3/expand1x1"
  top: "fire3/expand1x1"
}
layer {
  name: "fire3/expand3x3"
  type: "Convolution"
  bottom: "fire3/squeeze1x1"
  top: "fire3/expand3x3"
  convolution_param {
    num_output: 64
    pad: 1
    kernel_size: 3
    weight_filler {
      type: "xavier"
    }
  }
}
layer {
  name: "fire3/relu_expand3x3"
  type: "ReLU"
  bottom: "fire3/expand3x3"
  top: "fire3/expand3x3"
}
layer {
  name: "fire3/concat"
  type: "Concat"
  bottom: "fire3/expand1x1"
  bottom: "fire3/expand3x3"
  top: "fire3/concat"
}
layer {
  name: "pool3"
  type: "Pooling"
  bottom: "fire3/concat"
  top: "pool3"
  pooling_param {
    pool: MAX
    kernel_size: 3
    stride: 2
  }
}
layer {
  name: "fire4/squeeze1x1"
  type: "Convolution"
  bottom: "pool3"
  top: "fire4/squeeze1x1"
  convolution_param {
    num_output: 32
    kernel_size: 1
    weight_filler {
      type: "xavier"
    }
  }
}
layer {
  name: "fire4/relu_squeeze1x1"
  type: "ReLU"
  bottom: "fire4/squeeze1x1"
  top: "fire4/squeeze1x1"
}
layer {
  name: "fire4/expand1x1"
  type: "Convolution"
  bottom: "fire4/squeeze1x1"
  top: "fire4/expand1x1"
  convolution_param {
    num_output: 128
    kernel_size: 1
    weight_filler {
      type: "xavier"
    }
  }
}
layer {
  name: "fire4/relu_expand1x1"
  type: "ReLU"
  bottom: "fire4/expand1x1"
  top: "fire4/expand1x1"
}
layer {
  name: "fire4/expand3x3"
  type: "Convolution"
  bottom: "fire4/squeeze1x1"
  top: "fire4/expand3x3"
  convolution_param {
    num_output: 128
    pad: 1
    kernel_size: 3
    weight_filler {
      type: "xavier"
    }
  }
}
layer {
  name: "fire4/relu_expand3x3"
  type: "ReLU"
  bottom: "fire4/expand3x3"
  top: "fire4/expand3x3"
}
layer {
  name: "fire4/concat"
  type: "Concat"
  bottom: "fire4/expand1x1"
  bottom: "fire4/expand3x3"
  top: "fire4/concat"
}
layer {
  name: "fire5/squeeze1x1"
  type: "Convolution"
  bottom: "fire4/concat"
  top: "fire5/squeeze1x1"
  convolution_param {
    num_output: 32
    kernel_size: 1
    weight_filler {
      type: "xavier"
    }
  }
}
layer {
  name: "fire5/relu_squeeze1x1"
  type: "ReLU"
  bottom: "fire5/squeeze1x1"
  top: "fire5/squeeze1x1"
}
layer {
  name: "fire5/expand1x1"
  type: "Convolution"
  bottom: "fire5/squeeze1x1"
  top: "fire5/expand1x1"
  convolution_param {
    num_output: 128
    kernel_size: 1
    weight_filler {
      type: "xavier"
    }
  }
}
layer {
  name: "fire5/relu_expand1x1"
  type: "ReLU"
  bottom: "fire5/expand1x1"
  top: "fire5/expand1x1"
}
layer {
  name: "fire5/expand3x3"
  type: "Convolution"
  bottom: "fire5/squeeze1x1"
  top: "fire5/expand3x3"
  convolution_param {
    num_output: 128
    pad: 1
    kernel_size: 3
    weight_filler {
      type: "xavier"
    }
  }
}
layer {
  name: "fire5/relu_expand3x3"
  type: "ReLU"
  bottom: "fire5/expand3x3"
  top: "fire5/expand3x3"
}
layer {
  name: "fire5/concat"
  type: "Concat"
  bottom: "fire5/expand1x1"
  bottom: "fire5/expand3x3"
  top: "fire5/concat"
}
layer {
  name: "pool5"
  type: "Pooling"
  bottom: "fire5/concat"
  top: "pool5"
  pooling_param {
    pool: MAX
    kernel_size: 3
    stride: 2
  }
}
layer {
  name: "fire6/squeeze1x1"
  type: "Convolution"
  bottom: "pool5"
  top: "fire6/squeeze1x1"
  convolution_param {
    num_output: 48
    kernel_size: 1
    weight_filler {
      type: "xavier"
    }
  }
}
layer {
  name: "fire6/relu_squeeze1x1"
  type: "ReLU"
  bottom: "fire6/squeeze1x1"
  top: "fire6/squeeze1x1"
}
layer {
  name: "fire6/expand1x1"
  type: "Convolution"
  bottom: "fire6/squeeze1x1"
  top: "fire6/expand1x1"
  convolution_param {
    num_output: 192
    kernel_size: 1
    weight_filler {
      type: "xavier"
    }
  }
}
layer {
  name: "fire6/relu_expand1x1"
  type: "ReLU"
  bottom: "fire6/expand1x1"
  top: "fire6/expand1x1"
}
layer {
  name: "fire6/expand3x3"
  type: "Convolution"
  bottom: "fire6/squeeze1x1"
  top: "fire6/expand3x3"
  convolution_param {
    num_output: 192
    pad: 1
    kernel_size: 3
    weight_filler {
      type: "xavier"
    }
  }
}
layer {
  name: "fire6/relu_expand3x3"
  type: "ReLU"
  bottom: "fire6/expand3x3"
  top: "fire6/expand3x3"
}
layer {
  name: "fire6/concat"
  type: "Concat"
  bottom: "fire6/expand1x1"
  bottom: "fire6/expand3x3"
  top: "fire6/concat"
}
layer {
  name: "fire7/squeeze1x1"
  type: "Convolution"
  bottom: "fire6/concat"
  top: "fire7/squeeze1x1"
  convolution_param {
    num_output: 48
    kernel_size: 1
    weight_filler {
      type: "xavier"
    }
  }
}
layer {
  name: "fire7/relu_squeeze1x1"
  type: "ReLU"
  bottom: "fire7/squeeze1x1"
  top: "fire7/squeeze1x1"
}
layer {
  name: "fire7/expand1x1"
  type: "Convolution"
  bottom: "fire7/squeeze1x1"
  top: "fire7/expand1x1"
  convolution_param {
    num_output: 192
    kernel_size: 1
    weight_filler {
      type: "xavier"
    }
  }
}
layer {
  name: "fire7/relu_expand1x1"
  type: "ReLU"
  bottom: "fire7/expand1x1"
  top: "fire7/expand1x1"
}
layer {
  name: "fire7/expand3x3"
  type: "Convolution"
  bottom: "fire7/squeeze1x1"
  top: "fire7/expand3x3"
  convolution_param {
    num_output: 192
    pad: 1
    kernel_size: 3
    weight_filler {
      type: "xavier"
    }
  }
}
layer {
  name: "fire7/relu_expand3x3"
  type: "ReLU"
  bottom: "fire7/expand3x3"
  top: "fire7/expand3x3"
}
layer {
  name: "fire7/concat"
  type: "Concat"
  bottom: "fire7/expand1x1"
  bottom: "fire7/expand3x3"
  top: "fire7/concat"
}
layer {
  name: "fire8/squeeze1x1"
  type: "Convolution"
  bottom: "fire7/concat"
  top: "fire8/squeeze1x1"
  convolution_param {
    num_output: 64
    kernel_size: 1
    weight_filler {
      type: "xavier"
    }
  }
}
layer {
  name: "fire8/relu_squeeze1x1"
  type: "ReLU"
  bottom: "fire8/squeeze1x1"
  top: "fire8/squeeze1x1"
}
layer {
  name: "fire8/expand1x1"
  type: "Convolution"
  bottom: "fire8/squeeze1x1"
  top: "fire8/expand1x1"
  convolution_param {
    num_output: 256
    kernel_size: 1
    weight_filler {
      type: "xavier"
    }
  }
}
layer {
  name: "fire8/relu_expand1x1"
  type: "ReLU"
  bottom: "fire8/expand1x1"
  top: "fire8/expand1x1"
}
layer {
  name: "fire8/expand3x3"
  type: "Convolution"
  bottom: "fire8/squeeze1x1"
  top: "fire8/expand3x3"
  convolution_param {
    num_output: 256
    pad: 1
    kernel_size: 3
    weight_filler {
      type: "xavier"
    }
  }
}
layer {
  name: "fire8/relu_expand3x3"
  type: "ReLU"
  bottom: "fire8/expand3x3"
  top: "fire8/expand3x3"
}
layer {
  name: "fire8/concat"
  type: "Concat"
  bottom: "fire8/expand1x1"
  bottom: "fire8/expand3x3"
  top: "fire8/concat"
}
layer {
  name: "fire9/squeeze1x1"
  type: "Convolution"
  bottom: "fire8/concat"
  top: "fire9/squeeze1x1"
  convolution_param {
    num_output: 64
    kernel_size: 1
    weight_filler {
      type: "xavier"
    }
  }
}
layer {
  name: "fire9/relu_squeeze1x1"
  type: "ReLU"
  bottom: "fire9/squeeze1x1"
  top: "fire9/squeeze1x1"
}
layer {
  name: "fire9/expand1x1"
  type: "Convolution"
  bottom: "fire9/squeeze1x1"
  top: "fire9/expand1x1"
  convolution_param {
    num_output: 256
    kernel_size: 1
    weight_filler {
      type: "xavier"
    }
  }
}
layer {
  name: "fire9/relu_expand1x1"
  type: "ReLU"
  bottom: "fire9/expand1x1"
  top: "fire9/expand1x1"
}
layer {
  name: "fire9/expand3x3"
  type: "Convolution"
  bottom: "fire9/squeeze1x1"
  top: "fire9/expand3x3"
  convolution_param {
    num_output: 256
    pad: 1
    kernel_size: 3
    weight_filler {
      type: "xavier"
    }
  }
}
layer {
  name: "fire9/relu_expand3x3"
  type: "ReLU"
  bottom: "fire9/expand3x3"
  top: "fire9/expand3x3"
}
layer {
  name: "fire9/concat"
  type: "Concat"
  bottom: "fire9/expand1x1"
  bottom: "fire9/expand3x3"
  top: "fire9/concat"
}
layer {
  name: "drop9"
  type: "Dropout"
  bottom: "fire9/concat"
  top: "fire9/concat"
  dropout_param {
    dropout_ratio: 0.5
  }
}
layer {
  name: "conv10_2626"
  type: "Convolution"
  bottom: "fire9/concat"
  top: "conv10_2626"
  param {
    lr_mult: 10
    decay_mult: 1
  }
  convolution_param {
    num_output: 2626
    kernel_size: 1
    weight_filler {
      type: "gaussian"
      mean: 0
      std: 0.01
    }
  }
}
layer {
  name: "relu_conv10"
  type: "ReLU"
  bottom: "conv10_2626"
  top: "conv10_2626"
}
layer {
  name: "pool10"
  type: "Pooling"
  bottom: "conv10_2626"
  top: "pool10"
  pooling_param {
    pool: AVE
    global_pooling: true
  }
}
layer {
  name: "loss"
  type: "SoftmaxWithLoss"
  bottom: "pool10"
  bottom: "label"
  top: "loss"
}
I1012 18:33:48.023844 109031 layer_factory.hpp:77] Creating layer data
I1012 18:33:48.024106 109031 net.cpp:106] Creating Layer data
I1012 18:33:48.024132 109031 net.cpp:411] data -> data
I1012 18:33:48.024175 109031 net.cpp:411] data -> label
I1012 18:33:48.024189 109031 data_transformer.cpp:25] Loading mean file from: /share/zhh/mean.binaryproto
I1012 18:33:48.025182 109053 db_lmdb.cpp:38] Opened lmdb /share/front/train_lmdb
I1012 18:33:48.038604 109031 data_layer.cpp:41] output data size: 128,3,227,227
I1012 18:33:48.159797 109031 net.cpp:150] Setting up data
I1012 18:33:48.159834 109031 net.cpp:157] Top shape: 128 3 227 227 (19787136)
I1012 18:33:48.159840 109031 net.cpp:157] Top shape: 128 (128)
I1012 18:33:48.159844 109031 net.cpp:165] Memory required for data: 79149056
I1012 18:33:48.159853 109031 layer_factory.hpp:77] Creating layer conv1
I1012 18:33:48.159904 109031 net.cpp:106] Creating Layer conv1
I1012 18:33:48.159910 109031 net.cpp:454] conv1 <- data
I1012 18:33:48.159924 109031 net.cpp:411] conv1 -> conv1
I1012 18:33:48.175317 109054 blocking_queue.cpp:50] Waiting for data
I1012 18:33:48.265774 109031 net.cpp:150] Setting up conv1
I1012 18:33:48.265817 109031 net.cpp:157] Top shape: 128 64 113 113 (104603648)
I1012 18:33:48.265822 109031 net.cpp:165] Memory required for data: 497563648
I1012 18:33:48.265844 109031 layer_factory.hpp:77] Creating layer relu_conv1
I1012 18:33:48.265857 109031 net.cpp:106] Creating Layer relu_conv1
I1012 18:33:48.265864 109031 net.cpp:454] relu_conv1 <- conv1
I1012 18:33:48.265883 109031 net.cpp:397] relu_conv1 -> conv1 (in-place)
I1012 18:33:48.266250 109031 net.cpp:150] Setting up relu_conv1
I1012 18:33:48.266263 109031 net.cpp:157] Top shape: 128 64 113 113 (104603648)
I1012 18:33:48.266279 109031 net.cpp:165] Memory required for data: 915978240
I1012 18:33:48.266283 109031 layer_factory.hpp:77] Creating layer pool1
I1012 18:33:48.266294 109031 net.cpp:106] Creating Layer pool1
I1012 18:33:48.266296 109031 net.cpp:454] pool1 <- conv1
I1012 18:33:48.266302 109031 net.cpp:411] pool1 -> pool1
I1012 18:33:48.266491 109031 net.cpp:150] Setting up pool1
I1012 18:33:48.266501 109031 net.cpp:157] Top shape: 128 64 56 56 (25690112)
I1012 18:33:48.266516 109031 net.cpp:165] Memory required for data: 1018738688
I1012 18:33:48.266520 109031 layer_factory.hpp:77] Creating layer fire2/squeeze1x1
I1012 18:33:48.266532 109031 net.cpp:106] Creating Layer fire2/squeeze1x1
I1012 18:33:48.266536 109031 net.cpp:454] fire2/squeeze1x1 <- pool1
I1012 18:33:48.266541 109031 net.cpp:411] fire2/squeeze1x1 -> fire2/squeeze1x1
I1012 18:33:48.268087 109031 net.cpp:150] Setting up fire2/squeeze1x1
I1012 18:33:48.268115 109031 net.cpp:157] Top shape: 128 16 56 56 (6422528)
I1012 18:33:48.268118 109031 net.cpp:165] Memory required for data: 1044428800
I1012 18:33:48.268127 109031 layer_factory.hpp:77] Creating layer fire2/relu_squeeze1x1
I1012 18:33:48.268133 109031 net.cpp:106] Creating Layer fire2/relu_squeeze1x1
I1012 18:33:48.268137 109031 net.cpp:454] fire2/relu_squeeze1x1 <- fire2/squeeze1x1
I1012 18:33:48.268142 109031 net.cpp:397] fire2/relu_squeeze1x1 -> fire2/squeeze1x1 (in-place)
I1012 18:33:48.268316 109031 net.cpp:150] Setting up fire2/relu_squeeze1x1
I1012 18:33:48.268326 109031 net.cpp:157] Top shape: 128 16 56 56 (6422528)
I1012 18:33:48.268340 109031 net.cpp:165] Memory required for data: 1070118912
I1012 18:33:48.268344 109031 layer_factory.hpp:77] Creating layer fire2/squeeze1x1_fire2/relu_squeeze1x1_0_split
I1012 18:33:48.268355 109031 net.cpp:106] Creating Layer fire2/squeeze1x1_fire2/relu_squeeze1x1_0_split
I1012 18:33:48.268359 109031 net.cpp:454] fire2/squeeze1x1_fire2/relu_squeeze1x1_0_split <- fire2/squeeze1x1
I1012 18:33:48.268364 109031 net.cpp:411] fire2/squeeze1x1_fire2/relu_squeeze1x1_0_split -> fire2/squeeze1x1_fire2/relu_squeeze1x1_0_split_0
I1012 18:33:48.268371 109031 net.cpp:411] fire2/squeeze1x1_fire2/relu_squeeze1x1_0_split -> fire2/squeeze1x1_fire2/relu_squeeze1x1_0_split_1
I1012 18:33:48.268406 109031 net.cpp:150] Setting up fire2/squeeze1x1_fire2/relu_squeeze1x1_0_split
I1012 18:33:48.268411 109031 net.cpp:157] Top shape: 128 16 56 56 (6422528)
I1012 18:33:48.268415 109031 net.cpp:157] Top shape: 128 16 56 56 (6422528)
I1012 18:33:48.268419 109031 net.cpp:165] Memory required for data: 1121499136
I1012 18:33:48.268421 109031 layer_factory.hpp:77] Creating layer fire2/expand1x1
I1012 18:33:48.268429 109031 net.cpp:106] Creating Layer fire2/expand1x1
I1012 18:33:48.268434 109031 net.cpp:454] fire2/expand1x1 <- fire2/squeeze1x1_fire2/relu_squeeze1x1_0_split_0
I1012 18:33:48.268437 109031 net.cpp:411] fire2/expand1x1 -> fire2/expand1x1
I1012 18:33:48.269615 109031 net.cpp:150] Setting up fire2/expand1x1
I1012 18:33:48.269629 109031 net.cpp:157] Top shape: 128 64 56 56 (25690112)
I1012 18:33:48.269644 109031 net.cpp:165] Memory required for data: 1224259584
I1012 18:33:48.269656 109031 layer_factory.hpp:77] Creating layer fire2/relu_expand1x1
I1012 18:33:48.269664 109031 net.cpp:106] Creating Layer fire2/relu_expand1x1
I1012 18:33:48.269667 109031 net.cpp:454] fire2/relu_expand1x1 <- fire2/expand1x1
I1012 18:33:48.269672 109031 net.cpp:397] fire2/relu_expand1x1 -> fire2/expand1x1 (in-place)
I1012 18:33:48.270051 109031 net.cpp:150] Setting up fire2/relu_expand1x1
I1012 18:33:48.270064 109031 net.cpp:157] Top shape: 128 64 56 56 (25690112)
I1012 18:33:48.270079 109031 net.cpp:165] Memory required for data: 1327020032
I1012 18:33:48.270083 109031 layer_factory.hpp:77] Creating layer fire2/expand3x3
I1012 18:33:48.270094 109031 net.cpp:106] Creating Layer fire2/expand3x3
I1012 18:33:48.270098 109031 net.cpp:454] fire2/expand3x3 <- fire2/squeeze1x1_fire2/relu_squeeze1x1_0_split_1
I1012 18:33:48.270104 109031 net.cpp:411] fire2/expand3x3 -> fire2/expand3x3
I1012 18:33:48.271361 109031 net.cpp:150] Setting up fire2/expand3x3
I1012 18:33:48.271375 109031 net.cpp:157] Top shape: 128 64 56 56 (25690112)
I1012 18:33:48.271391 109031 net.cpp:165] Memory required for data: 1429780480
I1012 18:33:48.271397 109031 layer_factory.hpp:77] Creating layer fire2/relu_expand3x3
I1012 18:33:48.271402 109031 net.cpp:106] Creating Layer fire2/relu_expand3x3
I1012 18:33:48.271406 109031 net.cpp:454] fire2/relu_expand3x3 <- fire2/expand3x3
I1012 18:33:48.271416 109031 net.cpp:397] fire2/relu_expand3x3 -> fire2/expand3x3 (in-place)
I1012 18:33:48.271598 109031 net.cpp:150] Setting up fire2/relu_expand3x3
I1012 18:33:48.271608 109031 net.cpp:157] Top shape: 128 64 56 56 (25690112)
I1012 18:33:48.271623 109031 net.cpp:165] Memory required for data: 1532540928
I1012 18:33:48.271626 109031 layer_factory.hpp:77] Creating layer fire2/concat
I1012 18:33:48.271636 109031 net.cpp:106] Creating Layer fire2/concat
I1012 18:33:48.271641 109031 net.cpp:454] fire2/concat <- fire2/expand1x1
I1012 18:33:48.271646 109031 net.cpp:454] fire2/concat <- fire2/expand3x3
I1012 18:33:48.271651 109031 net.cpp:411] fire2/concat -> fire2/concat
I1012 18:33:48.271677 109031 net.cpp:150] Setting up fire2/concat
I1012 18:33:48.271682 109031 net.cpp:157] Top shape: 128 128 56 56 (51380224)
I1012 18:33:48.271687 109031 net.cpp:165] Memory required for data: 1738061824
I1012 18:33:48.271689 109031 layer_factory.hpp:77] Creating layer fire3/squeeze1x1
I1012 18:33:48.271698 109031 net.cpp:106] Creating Layer fire3/squeeze1x1
I1012 18:33:48.271703 109031 net.cpp:454] fire3/squeeze1x1 <- fire2/concat
I1012 18:33:48.271708 109031 net.cpp:411] fire3/squeeze1x1 -> fire3/squeeze1x1
I1012 18:33:48.273376 109031 net.cpp:150] Setting up fire3/squeeze1x1
I1012 18:33:48.273413 109031 net.cpp:157] Top shape: 128 16 56 56 (6422528)
I1012 18:33:48.273422 109031 net.cpp:165] Memory required for data: 1763751936
I1012 18:33:48.273445 109031 layer_factory.hpp:77] Creating layer fire3/relu_squeeze1x1
I1012 18:33:48.273463 109031 net.cpp:106] Creating Layer fire3/relu_squeeze1x1
I1012 18:33:48.273471 109031 net.cpp:454] fire3/relu_squeeze1x1 <- fire3/squeeze1x1
I1012 18:33:48.273486 109031 net.cpp:397] fire3/relu_squeeze1x1 -> fire3/squeeze1x1 (in-place)
I1012 18:33:48.273855 109031 net.cpp:150] Setting up fire3/relu_squeeze1x1
I1012 18:33:48.273877 109031 net.cpp:157] Top shape: 128 16 56 56 (6422528)
I1012 18:33:48.273885 109031 net.cpp:165] Memory required for data: 1789442048
I1012 18:33:48.273892 109031 layer_factory.hpp:77] Creating layer fire3/squeeze1x1_fire3/relu_squeeze1x1_0_split
I1012 18:33:48.273906 109031 net.cpp:106] Creating Layer fire3/squeeze1x1_fire3/relu_squeeze1x1_0_split
I1012 18:33:48.273914 109031 net.cpp:454] fire3/squeeze1x1_fire3/relu_squeeze1x1_0_split <- fire3/squeeze1x1
I1012 18:33:48.273926 109031 net.cpp:411] fire3/squeeze1x1_fire3/relu_squeeze1x1_0_split -> fire3/squeeze1x1_fire3/relu_squeeze1x1_0_split_0
I1012 18:33:48.278906 109031 net.cpp:411] fire3/squeeze1x1_fire3/relu_squeeze1x1_0_split -> fire3/squeeze1x1_fire3/relu_squeeze1x1_0_split_1
I1012 18:33:48.279022 109031 net.cpp:150] Setting up fire3/squeeze1x1_fire3/relu_squeeze1x1_0_split
I1012 18:33:48.279042 109031 net.cpp:157] Top shape: 128 16 56 56 (6422528)
I1012 18:33:48.279052 109031 net.cpp:157] Top shape: 128 16 56 56 (6422528)
I1012 18:33:48.279057 109031 net.cpp:165] Memory required for data: 1840822272
I1012 18:33:48.279064 109031 layer_factory.hpp:77] Creating layer fire3/expand1x1
I1012 18:33:48.279083 109031 net.cpp:106] Creating Layer fire3/expand1x1
I1012 18:33:48.279091 109031 net.cpp:454] fire3/expand1x1 <- fire3/squeeze1x1_fire3/relu_squeeze1x1_0_split_0
I1012 18:33:48.279104 109031 net.cpp:411] fire3/expand1x1 -> fire3/expand1x1
I1012 18:33:48.281215 109031 net.cpp:150] Setting up fire3/expand1x1
I1012 18:33:48.281247 109031 net.cpp:157] Top shape: 128 64 56 56 (25690112)
I1012 18:33:48.281257 109031 net.cpp:165] Memory required for data: 1943582720
I1012 18:33:48.281275 109031 layer_factory.hpp:77] Creating layer fire3/relu_expand1x1
I1012 18:33:48.281296 109031 net.cpp:106] Creating Layer fire3/relu_expand1x1
I1012 18:33:48.281306 109031 net.cpp:454] fire3/relu_expand1x1 <- fire3/expand1x1
I1012 18:33:48.281321 109031 net.cpp:397] fire3/relu_expand1x1 -> fire3/expand1x1 (in-place)
I1012 18:33:48.282004 109031 net.cpp:150] Setting up fire3/relu_expand1x1
I1012 18:33:48.282034 109031 net.cpp:157] Top shape: 128 64 56 56 (25690112)
I1012 18:33:48.282044 109031 net.cpp:165] Memory required for data: 2046343168
I1012 18:33:48.282054 109031 layer_factory.hpp:77] Creating layer fire3/expand3x3
I1012 18:33:48.282073 109031 net.cpp:106] Creating Layer fire3/expand3x3
I1012 18:33:48.282083 109031 net.cpp:454] fire3/expand3x3 <- fire3/squeeze1x1_fire3/relu_squeeze1x1_0_split_1
I1012 18:33:48.282102 109031 net.cpp:411] fire3/expand3x3 -> fire3/expand3x3
I1012 18:33:48.284469 109031 net.cpp:150] Setting up fire3/expand3x3
I1012 18:33:48.284499 109031 net.cpp:157] Top shape: 128 64 56 56 (25690112)
I1012 18:33:48.284509 109031 net.cpp:165] Memory required for data: 2149103616
I1012 18:33:48.284525 109031 layer_factory.hpp:77] Creating layer fire3/relu_expand3x3
I1012 18:33:48.284539 109031 net.cpp:106] Creating Layer fire3/relu_expand3x3
I1012 18:33:48.284550 109031 net.cpp:454] fire3/relu_expand3x3 <- fire3/expand3x3
I1012 18:33:48.284564 109031 net.cpp:397] fire3/relu_expand3x3 -> fire3/expand3x3 (in-place)
I1012 18:33:48.284932 109031 net.cpp:150] Setting up fire3/relu_expand3x3
I1012 18:33:48.284957 109031 net.cpp:157] Top shape: 128 64 56 56 (25690112)
I1012 18:33:48.284971 109031 net.cpp:165] Memory required for data: 2251864064
I1012 18:33:48.284981 109031 layer_factory.hpp:77] Creating layer fire3/concat
I1012 18:33:48.284993 109031 net.cpp:106] Creating Layer fire3/concat
I1012 18:33:48.285002 109031 net.cpp:454] fire3/concat <- fire3/expand1x1
I1012 18:33:48.285015 109031 net.cpp:454] fire3/concat <- fire3/expand3x3
I1012 18:33:48.285028 109031 net.cpp:411] fire3/concat -> fire3/concat
I1012 18:33:48.285085 109031 net.cpp:150] Setting up fire3/concat
I1012 18:33:48.285100 109031 net.cpp:157] Top shape: 128 128 56 56 (51380224)
I1012 18:33:48.285109 109031 net.cpp:165] Memory required for data: 2457384960
I1012 18:33:48.285117 109031 layer_factory.hpp:77] Creating layer pool3
I1012 18:33:48.285133 109031 net.cpp:106] Creating Layer pool3
I1012 18:33:48.285143 109031 net.cpp:454] pool3 <- fire3/concat
I1012 18:33:48.285156 109031 net.cpp:411] pool3 -> pool3
I1012 18:33:48.286209 109031 net.cpp:150] Setting up pool3
I1012 18:33:48.286238 109031 net.cpp:157] Top shape: 128 128 28 28 (12845056)
I1012 18:33:48.286252 109031 net.cpp:165] Memory required for data: 2508765184
I1012 18:33:48.286262 109031 layer_factory.hpp:77] Creating layer fire4/squeeze1x1
I1012 18:33:48.286280 109031 net.cpp:106] Creating Layer fire4/squeeze1x1
I1012 18:33:48.286291 109031 net.cpp:454] fire4/squeeze1x1 <- pool3
I1012 18:33:48.286334 109031 net.cpp:411] fire4/squeeze1x1 -> fire4/squeeze1x1
I1012 18:33:48.288319 109031 net.cpp:150] Setting up fire4/squeeze1x1
I1012 18:33:48.288350 109031 net.cpp:157] Top shape: 128 32 28 28 (3211264)
I1012 18:33:48.288365 109031 net.cpp:165] Memory required for data: 2521610240
I1012 18:33:48.288381 109031 layer_factory.hpp:77] Creating layer fire4/relu_squeeze1x1
I1012 18:33:48.288396 109031 net.cpp:106] Creating Layer fire4/relu_squeeze1x1
I1012 18:33:48.288406 109031 net.cpp:454] fire4/relu_squeeze1x1 <- fire4/squeeze1x1
I1012 18:33:48.288424 109031 net.cpp:397] fire4/relu_squeeze1x1 -> fire4/squeeze1x1 (in-place)
I1012 18:33:48.289084 109031 net.cpp:150] Setting up fire4/relu_squeeze1x1
I1012 18:33:48.289110 109031 net.cpp:157] Top shape: 128 32 28 28 (3211264)
I1012 18:33:48.289119 109031 net.cpp:165] Memory required for data: 2534455296
I1012 18:33:48.289129 109031 layer_factory.hpp:77] Creating layer fire4/squeeze1x1_fire4/relu_squeeze1x1_0_split
I1012 18:33:48.289142 109031 net.cpp:106] Creating Layer fire4/squeeze1x1_fire4/relu_squeeze1x1_0_split
I1012 18:33:48.289152 109031 net.cpp:454] fire4/squeeze1x1_fire4/relu_squeeze1x1_0_split <- fire4/squeeze1x1
I1012 18:33:48.289167 109031 net.cpp:411] fire4/squeeze1x1_fire4/relu_squeeze1x1_0_split -> fire4/squeeze1x1_fire4/relu_squeeze1x1_0_split_0
I1012 18:33:48.289183 109031 net.cpp:411] fire4/squeeze1x1_fire4/relu_squeeze1x1_0_split -> fire4/squeeze1x1_fire4/relu_squeeze1x1_0_split_1
I1012 18:33:48.289269 109031 net.cpp:150] Setting up fire4/squeeze1x1_fire4/relu_squeeze1x1_0_split
I1012 18:33:48.289284 109031 net.cpp:157] Top shape: 128 32 28 28 (3211264)
I1012 18:33:48.289294 109031 net.cpp:157] Top shape: 128 32 28 28 (3211264)
I1012 18:33:48.289304 109031 net.cpp:165] Memory required for data: 2560145408
I1012 18:33:48.289311 109031 layer_factory.hpp:77] Creating layer fire4/expand1x1
I1012 18:33:48.289331 109031 net.cpp:106] Creating Layer fire4/expand1x1
I1012 18:33:48.289341 109031 net.cpp:454] fire4/expand1x1 <- fire4/squeeze1x1_fire4/relu_squeeze1x1_0_split_0
I1012 18:33:48.289357 109031 net.cpp:411] fire4/expand1x1 -> fire4/expand1x1
I1012 18:33:48.291595 109031 net.cpp:150] Setting up fire4/expand1x1
I1012 18:33:48.291625 109031 net.cpp:157] Top shape: 128 128 28 28 (12845056)
I1012 18:33:48.291640 109031 net.cpp:165] Memory required for data: 2611525632
I1012 18:33:48.291666 109031 layer_factory.hpp:77] Creating layer fire4/relu_expand1x1
I1012 18:33:48.291681 109031 net.cpp:106] Creating Layer fire4/relu_expand1x1
I1012 18:33:48.291692 109031 net.cpp:454] fire4/relu_expand1x1 <- fire4/expand1x1
I1012 18:33:48.291707 109031 net.cpp:397] fire4/relu_expand1x1 -> fire4/expand1x1 (in-place)
I1012 18:33:48.292086 109031 net.cpp:150] Setting up fire4/relu_expand1x1
I1012 18:33:48.292109 109031 net.cpp:157] Top shape: 128 128 28 28 (12845056)
I1012 18:33:48.292117 109031 net.cpp:165] Memory required for data: 2662905856
I1012 18:33:48.292126 109031 layer_factory.hpp:77] Creating layer fire4/expand3x3
I1012 18:33:48.292160 109031 net.cpp:106] Creating Layer fire4/expand3x3
I1012 18:33:48.292170 109031 net.cpp:454] fire4/expand3x3 <- fire4/squeeze1x1_fire4/relu_squeeze1x1_0_split_1
I1012 18:33:48.292183 109031 net.cpp:411] fire4/expand3x3 -> fire4/expand3x3
I1012 18:33:48.296027 109031 net.cpp:150] Setting up fire4/expand3x3
I1012 18:33:48.296066 109031 net.cpp:157] Top shape: 128 128 28 28 (12845056)
I1012 18:33:48.296074 109031 net.cpp:165] Memory required for data: 2714286080
I1012 18:33:48.296089 109031 layer_factory.hpp:77] Creating layer fire4/relu_expand3x3
I1012 18:33:48.296109 109031 net.cpp:106] Creating Layer fire4/relu_expand3x3
I1012 18:33:48.296118 109031 net.cpp:454] fire4/relu_expand3x3 <- fire4/expand3x3
I1012 18:33:48.296131 109031 net.cpp:397] fire4/relu_expand3x3 -> fire4/expand3x3 (in-place)
I1012 18:33:48.296777 109031 net.cpp:150] Setting up fire4/relu_expand3x3
I1012 18:33:48.296802 109031 net.cpp:157] Top shape: 128 128 28 28 (12845056)
I1012 18:33:48.296811 109031 net.cpp:165] Memory required for data: 2765666304
I1012 18:33:48.296849 109031 layer_factory.hpp:77] Creating layer fire4/concat
I1012 18:33:48.296862 109031 net.cpp:106] Creating Layer fire4/concat
I1012 18:33:48.296872 109031 net.cpp:454] fire4/concat <- fire4/expand1x1
I1012 18:33:48.296885 109031 net.cpp:454] fire4/concat <- fire4/expand3x3
I1012 18:33:48.296896 109031 net.cpp:411] fire4/concat -> fire4/concat
I1012 18:33:48.296955 109031 net.cpp:150] Setting up fire4/concat
I1012 18:33:48.296969 109031 net.cpp:157] Top shape: 128 256 28 28 (25690112)
I1012 18:33:48.296977 109031 net.cpp:165] Memory required for data: 2868426752
I1012 18:33:48.296985 109031 layer_factory.hpp:77] Creating layer fire5/squeeze1x1
I1012 18:33:48.297004 109031 net.cpp:106] Creating Layer fire5/squeeze1x1
I1012 18:33:48.297013 109031 net.cpp:454] fire5/squeeze1x1 <- fire4/concat
I1012 18:33:48.297029 109031 net.cpp:411] fire5/squeeze1x1 -> fire5/squeeze1x1
I1012 18:33:48.298956 109031 net.cpp:150] Setting up fire5/squeeze1x1
I1012 18:33:48.298985 109031 net.cpp:157] Top shape: 128 32 28 28 (3211264)
I1012 18:33:48.299003 109031 net.cpp:165] Memory required for data: 2881271808
I1012 18:33:48.299018 109031 layer_factory.hpp:77] Creating layer fire5/relu_squeeze1x1
I1012 18:33:48.299031 109031 net.cpp:106] Creating Layer fire5/relu_squeeze1x1
I1012 18:33:48.299041 109031 net.cpp:454] fire5/relu_squeeze1x1 <- fire5/squeeze1x1
I1012 18:33:48.299054 109031 net.cpp:397] fire5/relu_squeeze1x1 -> fire5/squeeze1x1 (in-place)
I1012 18:33:48.299693 109031 net.cpp:150] Setting up fire5/relu_squeeze1x1
I1012 18:33:48.299718 109031 net.cpp:157] Top shape: 128 32 28 28 (3211264)
I1012 18:33:48.299727 109031 net.cpp:165] Memory required for data: 2894116864
I1012 18:33:48.299736 109031 layer_factory.hpp:77] Creating layer fire5/squeeze1x1_fire5/relu_squeeze1x1_0_split
I1012 18:33:48.299751 109031 net.cpp:106] Creating Layer fire5/squeeze1x1_fire5/relu_squeeze1x1_0_split
I1012 18:33:48.299760 109031 net.cpp:454] fire5/squeeze1x1_fire5/relu_squeeze1x1_0_split <- fire5/squeeze1x1
I1012 18:33:48.299773 109031 net.cpp:411] fire5/squeeze1x1_fire5/relu_squeeze1x1_0_split -> fire5/squeeze1x1_fire5/relu_squeeze1x1_0_split_0
I1012 18:33:48.299789 109031 net.cpp:411] fire5/squeeze1x1_fire5/relu_squeeze1x1_0_split -> fire5/squeeze1x1_fire5/relu_squeeze1x1_0_split_1
I1012 18:33:48.299871 109031 net.cpp:150] Setting up fire5/squeeze1x1_fire5/relu_squeeze1x1_0_split
I1012 18:33:48.299885 109031 net.cpp:157] Top shape: 128 32 28 28 (3211264)
I1012 18:33:48.299895 109031 net.cpp:157] Top shape: 128 32 28 28 (3211264)
I1012 18:33:48.299902 109031 net.cpp:165] Memory required for data: 2919806976
I1012 18:33:48.299909 109031 layer_factory.hpp:77] Creating layer fire5/expand1x1
I1012 18:33:48.299933 109031 net.cpp:106] Creating Layer fire5/expand1x1
I1012 18:33:48.299950 109031 net.cpp:454] fire5/expand1x1 <- fire5/squeeze1x1_fire5/relu_squeeze1x1_0_split_0
I1012 18:33:48.299973 109031 net.cpp:411] fire5/expand1x1 -> fire5/expand1x1
I1012 18:33:48.302085 109031 net.cpp:150] Setting up fire5/expand1x1
I1012 18:33:48.302114 109031 net.cpp:157] Top shape: 128 128 28 28 (12845056)
I1012 18:33:48.302125 109031 net.cpp:165] Memory required for data: 2971187200
I1012 18:33:48.302140 109031 layer_factory.hpp:77] Creating layer fire5/relu_expand1x1
I1012 18:33:48.302155 109031 net.cpp:106] Creating Layer fire5/relu_expand1x1
I1012 18:33:48.302165 109031 net.cpp:454] fire5/relu_expand1x1 <- fire5/expand1x1
I1012 18:33:48.302176 109031 net.cpp:397] fire5/relu_expand1x1 -> fire5/expand1x1 (in-place)
I1012 18:33:48.302521 109031 net.cpp:150] Setting up fire5/relu_expand1x1
I1012 18:33:48.302541 109031 net.cpp:157] Top shape: 128 128 28 28 (12845056)
I1012 18:33:48.302549 109031 net.cpp:165] Memory required for data: 3022567424
I1012 18:33:48.302557 109031 layer_factory.hpp:77] Creating layer fire5/expand3x3
I1012 18:33:48.302577 109031 net.cpp:106] Creating Layer fire5/expand3x3
I1012 18:33:48.302587 109031 net.cpp:454] fire5/expand3x3 <- fire5/squeeze1x1_fire5/relu_squeeze1x1_0_split_1
I1012 18:33:48.302599 109031 net.cpp:411] fire5/expand3x3 -> fire5/expand3x3
I1012 18:33:48.305328 109031 net.cpp:150] Setting up fire5/expand3x3
I1012 18:33:48.305354 109031 net.cpp:157] Top shape: 128 128 28 28 (12845056)
I1012 18:33:48.305369 109031 net.cpp:165] Memory required for data: 3073947648
I1012 18:33:48.305383 109031 layer_factory.hpp:77] Creating layer fire5/relu_expand3x3
I1012 18:33:48.305400 109031 net.cpp:106] Creating Layer fire5/relu_expand3x3
I1012 18:33:48.305409 109031 net.cpp:454] fire5/relu_expand3x3 <- fire5/expand3x3
I1012 18:33:48.305421 109031 net.cpp:397] fire5/relu_expand3x3 -> fire5/expand3x3 (in-place)
I1012 18:33:48.306015 109031 net.cpp:150] Setting up fire5/relu_expand3x3
I1012 18:33:48.306038 109031 net.cpp:157] Top shape: 128 128 28 28 (12845056)
I1012 18:33:48.306047 109031 net.cpp:165] Memory required for data: 3125327872
I1012 18:33:48.306056 109031 layer_factory.hpp:77] Creating layer fire5/concat
I1012 18:33:48.306069 109031 net.cpp:106] Creating Layer fire5/concat
I1012 18:33:48.306078 109031 net.cpp:454] fire5/concat <- fire5/expand1x1
I1012 18:33:48.306089 109031 net.cpp:454] fire5/concat <- fire5/expand3x3
I1012 18:33:48.306100 109031 net.cpp:411] fire5/concat -> fire5/concat
I1012 18:33:48.306162 109031 net.cpp:150] Setting up fire5/concat
I1012 18:33:48.306175 109031 net.cpp:157] Top shape: 128 256 28 28 (25690112)
I1012 18:33:48.306183 109031 net.cpp:165] Memory required for data: 3228088320
I1012 18:33:48.306190 109031 layer_factory.hpp:77] Creating layer pool5
I1012 18:33:48.306203 109031 net.cpp:106] Creating Layer pool5
I1012 18:33:48.306211 109031 net.cpp:454] pool5 <- fire5/concat
I1012 18:33:48.306223 109031 net.cpp:411] pool5 -> pool5
I1012 18:33:48.306592 109031 net.cpp:150] Setting up pool5
I1012 18:33:48.306610 109031 net.cpp:157] Top shape: 128 256 14 14 (6422528)
I1012 18:33:48.306618 109031 net.cpp:165] Memory required for data: 3253778432
I1012 18:33:48.306625 109031 layer_factory.hpp:77] Creating layer fire6/squeeze1x1
I1012 18:33:48.306643 109031 net.cpp:106] Creating Layer fire6/squeeze1x1
I1012 18:33:48.306650 109031 net.cpp:454] fire6/squeeze1x1 <- pool5
I1012 18:33:48.306663 109031 net.cpp:411] fire6/squeeze1x1 -> fire6/squeeze1x1
I1012 18:33:48.310595 109031 net.cpp:150] Setting up fire6/squeeze1x1
I1012 18:33:48.310627 109031 net.cpp:157] Top shape: 128 48 14 14 (1204224)
I1012 18:33:48.310644 109031 net.cpp:165] Memory required for data: 3258595328
I1012 18:33:48.310659 109031 layer_factory.hpp:77] Creating layer fire6/relu_squeeze1x1
I1012 18:33:48.310673 109031 net.cpp:106] Creating Layer fire6/relu_squeeze1x1
I1012 18:33:48.310683 109031 net.cpp:454] fire6/relu_squeeze1x1 <- fire6/squeeze1x1
I1012 18:33:48.310695 109031 net.cpp:397] fire6/relu_squeeze1x1 -> fire6/squeeze1x1 (in-place)
I1012 18:33:48.311020 109031 net.cpp:150] Setting up fire6/relu_squeeze1x1
I1012 18:33:48.311039 109031 net.cpp:157] Top shape: 128 48 14 14 (1204224)
I1012 18:33:48.311048 109031 net.cpp:165] Memory required for data: 3263412224
I1012 18:33:48.311055 109031 layer_factory.hpp:77] Creating layer fire6/squeeze1x1_fire6/relu_squeeze1x1_0_split
I1012 18:33:48.311069 109031 net.cpp:106] Creating Layer fire6/squeeze1x1_fire6/relu_squeeze1x1_0_split
I1012 18:33:48.311077 109031 net.cpp:454] fire6/squeeze1x1_fire6/relu_squeeze1x1_0_split <- fire6/squeeze1x1
I1012 18:33:48.311089 109031 net.cpp:411] fire6/squeeze1x1_fire6/relu_squeeze1x1_0_split -> fire6/squeeze1x1_fire6/relu_squeeze1x1_0_split_0
I1012 18:33:48.311103 109031 net.cpp:411] fire6/squeeze1x1_fire6/relu_squeeze1x1_0_split -> fire6/squeeze1x1_fire6/relu_squeeze1x1_0_split_1
I1012 18:33:48.311192 109031 net.cpp:150] Setting up fire6/squeeze1x1_fire6/relu_squeeze1x1_0_split
I1012 18:33:48.311206 109031 net.cpp:157] Top shape: 128 48 14 14 (1204224)
I1012 18:33:48.311218 109031 net.cpp:157] Top shape: 128 48 14 14 (1204224)
I1012 18:33:48.311225 109031 net.cpp:165] Memory required for data: 3273046016
I1012 18:33:48.311233 109031 layer_factory.hpp:77] Creating layer fire6/expand1x1
I1012 18:33:48.311250 109031 net.cpp:106] Creating Layer fire6/expand1x1
I1012 18:33:48.311278 109031 net.cpp:454] fire6/expand1x1 <- fire6/squeeze1x1_fire6/relu_squeeze1x1_0_split_0
I1012 18:33:48.311291 109031 net.cpp:411] fire6/expand1x1 -> fire6/expand1x1
I1012 18:33:48.314013 109031 net.cpp:150] Setting up fire6/expand1x1
I1012 18:33:48.314040 109031 net.cpp:157] Top shape: 128 192 14 14 (4816896)
I1012 18:33:48.314054 109031 net.cpp:165] Memory required for data: 3292313600
I1012 18:33:48.314069 109031 layer_factory.hpp:77] Creating layer fire6/relu_expand1x1
I1012 18:33:48.314086 109031 net.cpp:106] Creating Layer fire6/relu_expand1x1
I1012 18:33:48.314096 109031 net.cpp:454] fire6/relu_expand1x1 <- fire6/expand1x1
I1012 18:33:48.314108 109031 net.cpp:397] fire6/relu_expand1x1 -> fire6/expand1x1 (in-place)
I1012 18:33:48.314725 109031 net.cpp:150] Setting up fire6/relu_expand1x1
I1012 18:33:48.314749 109031 net.cpp:157] Top shape: 128 192 14 14 (4816896)
I1012 18:33:48.314756 109031 net.cpp:165] Memory required for data: 3311581184
I1012 18:33:48.314764 109031 layer_factory.hpp:77] Creating layer fire6/expand3x3
I1012 18:33:48.314781 109031 net.cpp:106] Creating Layer fire6/expand3x3
I1012 18:33:48.314791 109031 net.cpp:454] fire6/expand3x3 <- fire6/squeeze1x1_fire6/relu_squeeze1x1_0_split_1
I1012 18:33:48.314807 109031 net.cpp:411] fire6/expand3x3 -> fire6/expand3x3
I1012 18:33:48.319275 109031 net.cpp:150] Setting up fire6/expand3x3
I1012 18:33:48.319303 109031 net.cpp:157] Top shape: 128 192 14 14 (4816896)
I1012 18:33:48.319320 109031 net.cpp:165] Memory required for data: 3330848768
I1012 18:33:48.319337 109031 layer_factory.hpp:77] Creating layer fire6/relu_expand3x3
I1012 18:33:48.319350 109031 net.cpp:106] Creating Layer fire6/relu_expand3x3
I1012 18:33:48.319360 109031 net.cpp:454] fire6/relu_expand3x3 <- fire6/expand3x3
I1012 18:33:48.319375 109031 net.cpp:397] fire6/relu_expand3x3 -> fire6/expand3x3 (in-place)
I1012 18:33:48.319707 109031 net.cpp:150] Setting up fire6/relu_expand3x3
I1012 18:33:48.319725 109031 net.cpp:157] Top shape: 128 192 14 14 (4816896)
I1012 18:33:48.319733 109031 net.cpp:165] Memory required for data: 3350116352
I1012 18:33:48.319741 109031 layer_factory.hpp:77] Creating layer fire6/concat
I1012 18:33:48.319751 109031 net.cpp:106] Creating Layer fire6/concat
I1012 18:33:48.319761 109031 net.cpp:454] fire6/concat <- fire6/expand1x1
I1012 18:33:48.319772 109031 net.cpp:454] fire6/concat <- fire6/expand3x3
I1012 18:33:48.319784 109031 net.cpp:411] fire6/concat -> fire6/concat
I1012 18:33:48.319839 109031 net.cpp:150] Setting up fire6/concat
I1012 18:33:48.319851 109031 net.cpp:157] Top shape: 128 384 14 14 (9633792)
I1012 18:33:48.319859 109031 net.cpp:165] Memory required for data: 3388651520
I1012 18:33:48.319864 109031 layer_factory.hpp:77] Creating layer fire7/squeeze1x1
I1012 18:33:48.319892 109031 net.cpp:106] Creating Layer fire7/squeeze1x1
I1012 18:33:48.319901 109031 net.cpp:454] fire7/squeeze1x1 <- fire6/concat
I1012 18:33:48.319912 109031 net.cpp:411] fire7/squeeze1x1 -> fire7/squeeze1x1
I1012 18:33:48.322214 109031 net.cpp:150] Setting up fire7/squeeze1x1
I1012 18:33:48.322240 109031 net.cpp:157] Top shape: 128 48 14 14 (1204224)
I1012 18:33:48.322255 109031 net.cpp:165] Memory required for data: 3393468416
I1012 18:33:48.322281 109031 layer_factory.hpp:77] Creating layer fire7/relu_squeeze1x1
I1012 18:33:48.322294 109031 net.cpp:106] Creating Layer fire7/relu_squeeze1x1
I1012 18:33:48.322304 109031 net.cpp:454] fire7/relu_squeeze1x1 <- fire7/squeeze1x1
I1012 18:33:48.322316 109031 net.cpp:397] fire7/relu_squeeze1x1 -> fire7/squeeze1x1 (in-place)
I1012 18:33:48.322630 109031 net.cpp:150] Setting up fire7/relu_squeeze1x1
I1012 18:33:48.322650 109031 net.cpp:157] Top shape: 128 48 14 14 (1204224)
I1012 18:33:48.322659 109031 net.cpp:165] Memory required for data: 3398285312
I1012 18:33:48.322665 109031 layer_factory.hpp:77] Creating layer fire7/squeeze1x1_fire7/relu_squeeze1x1_0_split
I1012 18:33:48.322676 109031 net.cpp:106] Creating Layer fire7/squeeze1x1_fire7/relu_squeeze1x1_0_split
I1012 18:33:48.322685 109031 net.cpp:454] fire7/squeeze1x1_fire7/relu_squeeze1x1_0_split <- fire7/squeeze1x1
I1012 18:33:48.322715 109031 net.cpp:411] fire7/squeeze1x1_fire7/relu_squeeze1x1_0_split -> fire7/squeeze1x1_fire7/relu_squeeze1x1_0_split_0
I1012 18:33:48.322731 109031 net.cpp:411] fire7/squeeze1x1_fire7/relu_squeeze1x1_0_split -> fire7/squeeze1x1_fire7/relu_squeeze1x1_0_split_1
I1012 18:33:48.322809 109031 net.cpp:150] Setting up fire7/squeeze1x1_fire7/relu_squeeze1x1_0_split
I1012 18:33:48.322824 109031 net.cpp:157] Top shape: 128 48 14 14 (1204224)
I1012 18:33:48.322832 109031 net.cpp:157] Top shape: 128 48 14 14 (1204224)
I1012 18:33:48.322844 109031 net.cpp:165] Memory required for data: 3407919104
I1012 18:33:48.322850 109031 layer_factory.hpp:77] Creating layer fire7/expand1x1
I1012 18:33:48.322867 109031 net.cpp:106] Creating Layer fire7/expand1x1
I1012 18:33:48.322876 109031 net.cpp:454] fire7/expand1x1 <- fire7/squeeze1x1_fire7/relu_squeeze1x1_0_split_0
I1012 18:33:48.322890 109031 net.cpp:411] fire7/expand1x1 -> fire7/expand1x1
I1012 18:33:48.325345 109031 net.cpp:150] Setting up fire7/expand1x1
I1012 18:33:48.325372 109031 net.cpp:157] Top shape: 128 192 14 14 (4816896)
I1012 18:33:48.325386 109031 net.cpp:165] Memory required for data: 3427186688
I1012 18:33:48.325399 109031 layer_factory.hpp:77] Creating layer fire7/relu_expand1x1
I1012 18:33:48.325412 109031 net.cpp:106] Creating Layer fire7/relu_expand1x1
I1012 18:33:48.325422 109031 net.cpp:454] fire7/relu_expand1x1 <- fire7/expand1x1
I1012 18:33:48.325434 109031 net.cpp:397] fire7/relu_expand1x1 -> fire7/expand1x1 (in-place)
I1012 18:33:48.326050 109031 net.cpp:150] Setting up fire7/relu_expand1x1
I1012 18:33:48.326074 109031 net.cpp:157] Top shape: 128 192 14 14 (4816896)
I1012 18:33:48.326082 109031 net.cpp:165] Memory required for data: 3446454272
I1012 18:33:48.326092 109031 layer_factory.hpp:77] Creating layer fire7/expand3x3
I1012 18:33:48.326112 109031 net.cpp:106] Creating Layer fire7/expand3x3
I1012 18:33:48.326122 109031 net.cpp:454] fire7/expand3x3 <- fire7/squeeze1x1_fire7/relu_squeeze1x1_0_split_1
I1012 18:33:48.326135 109031 net.cpp:411] fire7/expand3x3 -> fire7/expand3x3
I1012 18:33:48.329489 109031 net.cpp:150] Setting up fire7/expand3x3
I1012 18:33:48.329515 109031 net.cpp:157] Top shape: 128 192 14 14 (4816896)
I1012 18:33:48.329532 109031 net.cpp:165] Memory required for data: 3465721856
I1012 18:33:48.329545 109031 layer_factory.hpp:77] Creating layer fire7/relu_expand3x3
I1012 18:33:48.329557 109031 net.cpp:106] Creating Layer fire7/relu_expand3x3
I1012 18:33:48.329566 109031 net.cpp:454] fire7/relu_expand3x3 <- fire7/expand3x3
I1012 18:33:48.329577 109031 net.cpp:397] fire7/relu_expand3x3 -> fire7/expand3x3 (in-place)
I1012 18:33:48.329872 109031 net.cpp:150] Setting up fire7/relu_expand3x3
I1012 18:33:48.329888 109031 net.cpp:157] Top shape: 128 192 14 14 (4816896)
I1012 18:33:48.329895 109031 net.cpp:165] Memory required for data: 3484989440
I1012 18:33:48.329902 109031 layer_factory.hpp:77] Creating layer fire7/concat
I1012 18:33:48.329912 109031 net.cpp:106] Creating Layer fire7/concat
I1012 18:33:48.329921 109031 net.cpp:454] fire7/concat <- fire7/expand1x1
I1012 18:33:48.329928 109031 net.cpp:454] fire7/concat <- fire7/expand3x3
I1012 18:33:48.329938 109031 net.cpp:411] fire7/concat -> fire7/concat
I1012 18:33:48.329989 109031 net.cpp:150] Setting up fire7/concat
I1012 18:33:48.330001 109031 net.cpp:157] Top shape: 128 384 14 14 (9633792)
I1012 18:33:48.330008 109031 net.cpp:165] Memory required for data: 3523524608
I1012 18:33:48.330014 109031 layer_factory.hpp:77] Creating layer fire8/squeeze1x1
I1012 18:33:48.330029 109031 net.cpp:106] Creating Layer fire8/squeeze1x1
I1012 18:33:48.330037 109031 net.cpp:454] fire8/squeeze1x1 <- fire7/concat
I1012 18:33:48.330050 109031 net.cpp:411] fire8/squeeze1x1 -> fire8/squeeze1x1
I1012 18:33:48.332525 109031 net.cpp:150] Setting up fire8/squeeze1x1
I1012 18:33:48.332554 109031 net.cpp:157] Top shape: 128 64 14 14 (1605632)
I1012 18:33:48.332569 109031 net.cpp:165] Memory required for data: 3529947136
I1012 18:33:48.332583 109031 layer_factory.hpp:77] Creating layer fire8/relu_squeeze1x1
I1012 18:33:48.332617 109031 net.cpp:106] Creating Layer fire8/relu_squeeze1x1
I1012 18:33:48.332626 109031 net.cpp:454] fire8/relu_squeeze1x1 <- fire8/squeeze1x1
I1012 18:33:48.332638 109031 net.cpp:397] fire8/relu_squeeze1x1 -> fire8/squeeze1x1 (in-place)
I1012 18:33:48.332947 109031 net.cpp:150] Setting up fire8/relu_squeeze1x1
I1012 18:33:48.332965 109031 net.cpp:157] Top shape: 128 64 14 14 (1605632)
I1012 18:33:48.332973 109031 net.cpp:165] Memory required for data: 3536369664
I1012 18:33:48.332983 109031 layer_factory.hpp:77] Creating layer fire8/squeeze1x1_fire8/relu_squeeze1x1_0_split
I1012 18:33:48.332994 109031 net.cpp:106] Creating Layer fire8/squeeze1x1_fire8/relu_squeeze1x1_0_split
I1012 18:33:48.333003 109031 net.cpp:454] fire8/squeeze1x1_fire8/relu_squeeze1x1_0_split <- fire8/squeeze1x1
I1012 18:33:48.333012 109031 net.cpp:411] fire8/squeeze1x1_fire8/relu_squeeze1x1_0_split -> fire8/squeeze1x1_fire8/relu_squeeze1x1_0_split_0
I1012 18:33:48.333025 109031 net.cpp:411] fire8/squeeze1x1_fire8/relu_squeeze1x1_0_split -> fire8/squeeze1x1_fire8/relu_squeeze1x1_0_split_1
I1012 18:33:48.333106 109031 net.cpp:150] Setting up fire8/squeeze1x1_fire8/relu_squeeze1x1_0_split
I1012 18:33:48.333127 109031 net.cpp:157] Top shape: 128 64 14 14 (1605632)
I1012 18:33:48.333135 109031 net.cpp:157] Top shape: 128 64 14 14 (1605632)
I1012 18:33:48.333142 109031 net.cpp:165] Memory required for data: 3549214720
I1012 18:33:48.333148 109031 layer_factory.hpp:77] Creating layer fire8/expand1x1
I1012 18:33:48.333164 109031 net.cpp:106] Creating Layer fire8/expand1x1
I1012 18:33:48.333173 109031 net.cpp:454] fire8/expand1x1 <- fire8/squeeze1x1_fire8/relu_squeeze1x1_0_split_0
I1012 18:33:48.333184 109031 net.cpp:411] fire8/expand1x1 -> fire8/expand1x1
I1012 18:33:48.335305 109031 net.cpp:150] Setting up fire8/expand1x1
I1012 18:33:48.335330 109031 net.cpp:157] Top shape: 128 256 14 14 (6422528)
I1012 18:33:48.335345 109031 net.cpp:165] Memory required for data: 3574904832
I1012 18:33:48.335358 109031 layer_factory.hpp:77] Creating layer fire8/relu_expand1x1
I1012 18:33:48.335371 109031 net.cpp:106] Creating Layer fire8/relu_expand1x1
I1012 18:33:48.335378 109031 net.cpp:454] fire8/relu_expand1x1 <- fire8/expand1x1
I1012 18:33:48.335392 109031 net.cpp:397] fire8/relu_expand1x1 -> fire8/expand1x1 (in-place)
I1012 18:33:48.335980 109031 net.cpp:150] Setting up fire8/relu_expand1x1
I1012 18:33:48.336004 109031 net.cpp:157] Top shape: 128 256 14 14 (6422528)
I1012 18:33:48.336019 109031 net.cpp:165] Memory required for data: 3600594944
I1012 18:33:48.336024 109031 layer_factory.hpp:77] Creating layer fire8/expand3x3
I1012 18:33:48.336042 109031 net.cpp:106] Creating Layer fire8/expand3x3
I1012 18:33:48.336051 109031 net.cpp:454] fire8/expand3x3 <- fire8/squeeze1x1_fire8/relu_squeeze1x1_0_split_1
I1012 18:33:48.336066 109031 net.cpp:411] fire8/expand3x3 -> fire8/expand3x3
I1012 18:33:48.341006 109031 net.cpp:150] Setting up fire8/expand3x3
I1012 18:33:48.341030 109031 net.cpp:157] Top shape: 128 256 14 14 (6422528)
I1012 18:33:48.341048 109031 net.cpp:165] Memory required for data: 3626285056
I1012 18:33:48.341059 109031 layer_factory.hpp:77] Creating layer fire8/relu_expand3x3
I1012 18:33:48.341073 109031 net.cpp:106] Creating Layer fire8/relu_expand3x3
I1012 18:33:48.341081 109031 net.cpp:454] fire8/relu_expand3x3 <- fire8/expand3x3
I1012 18:33:48.341094 109031 net.cpp:397] fire8/relu_expand3x3 -> fire8/expand3x3 (in-place)
I1012 18:33:48.341373 109031 net.cpp:150] Setting up fire8/relu_expand3x3
I1012 18:33:48.341389 109031 net.cpp:157] Top shape: 128 256 14 14 (6422528)
I1012 18:33:48.341397 109031 net.cpp:165] Memory required for data: 3651975168
I1012 18:33:48.341403 109031 layer_factory.hpp:77] Creating layer fire8/concat
I1012 18:33:48.341413 109031 net.cpp:106] Creating Layer fire8/concat
I1012 18:33:48.341420 109031 net.cpp:454] fire8/concat <- fire8/expand1x1
I1012 18:33:48.341428 109031 net.cpp:454] fire8/concat <- fire8/expand3x3
I1012 18:33:48.341440 109031 net.cpp:411] fire8/concat -> fire8/concat
I1012 18:33:48.341506 109031 net.cpp:150] Setting up fire8/concat
I1012 18:33:48.341517 109031 net.cpp:157] Top shape: 128 512 14 14 (12845056)
I1012 18:33:48.341524 109031 net.cpp:165] Memory required for data: 3703355392
I1012 18:33:48.341531 109031 layer_factory.hpp:77] Creating layer fire9/squeeze1x1
I1012 18:33:48.341549 109031 net.cpp:106] Creating Layer fire9/squeeze1x1
I1012 18:33:48.341557 109031 net.cpp:454] fire9/squeeze1x1 <- fire8/concat
I1012 18:33:48.341574 109031 net.cpp:411] fire9/squeeze1x1 -> fire9/squeeze1x1
I1012 18:33:48.344131 109031 net.cpp:150] Setting up fire9/squeeze1x1
I1012 18:33:48.344154 109031 net.cpp:157] Top shape: 128 64 14 14 (1605632)
I1012 18:33:48.344161 109031 net.cpp:165] Memory required for data: 3709777920
I1012 18:33:48.344172 109031 layer_factory.hpp:77] Creating layer fire9/relu_squeeze1x1
I1012 18:33:48.344184 109031 net.cpp:106] Creating Layer fire9/relu_squeeze1x1
I1012 18:33:48.344195 109031 net.cpp:454] fire9/relu_squeeze1x1 <- fire9/squeeze1x1
I1012 18:33:48.344204 109031 net.cpp:397] fire9/relu_squeeze1x1 -> fire9/squeeze1x1 (in-place)
I1012 18:33:48.344506 109031 net.cpp:150] Setting up fire9/relu_squeeze1x1
I1012 18:33:48.344524 109031 net.cpp:157] Top shape: 128 64 14 14 (1605632)
I1012 18:33:48.344530 109031 net.cpp:165] Memory required for data: 3716200448
I1012 18:33:48.344537 109031 layer_factory.hpp:77] Creating layer fire9/squeeze1x1_fire9/relu_squeeze1x1_0_split
I1012 18:33:48.344553 109031 net.cpp:106] Creating Layer fire9/squeeze1x1_fire9/relu_squeeze1x1_0_split
I1012 18:33:48.344560 109031 net.cpp:454] fire9/squeeze1x1_fire9/relu_squeeze1x1_0_split <- fire9/squeeze1x1
I1012 18:33:48.344570 109031 net.cpp:411] fire9/squeeze1x1_fire9/relu_squeeze1x1_0_split -> fire9/squeeze1x1_fire9/relu_squeeze1x1_0_split_0
I1012 18:33:48.344581 109031 net.cpp:411] fire9/squeeze1x1_fire9/relu_squeeze1x1_0_split -> fire9/squeeze1x1_fire9/relu_squeeze1x1_0_split_1
I1012 18:33:48.344652 109031 net.cpp:150] Setting up fire9/squeeze1x1_fire9/relu_squeeze1x1_0_split
I1012 18:33:48.344666 109031 net.cpp:157] Top shape: 128 64 14 14 (1605632)
I1012 18:33:48.344673 109031 net.cpp:157] Top shape: 128 64 14 14 (1605632)
I1012 18:33:48.344678 109031 net.cpp:165] Memory required for data: 3729045504
I1012 18:33:48.344684 109031 layer_factory.hpp:77] Creating layer fire9/expand1x1
I1012 18:33:48.344701 109031 net.cpp:106] Creating Layer fire9/expand1x1
I1012 18:33:48.344707 109031 net.cpp:454] fire9/expand1x1 <- fire9/squeeze1x1_fire9/relu_squeeze1x1_0_split_0
I1012 18:33:48.344715 109031 net.cpp:411] fire9/expand1x1 -> fire9/expand1x1
I1012 18:33:48.347445 109031 net.cpp:150] Setting up fire9/expand1x1
I1012 18:33:48.347472 109031 net.cpp:157] Top shape: 128 256 14 14 (6422528)
I1012 18:33:48.347479 109031 net.cpp:165] Memory required for data: 3754735616
I1012 18:33:48.347491 109031 layer_factory.hpp:77] Creating layer fire9/relu_expand1x1
I1012 18:33:48.347509 109031 net.cpp:106] Creating Layer fire9/relu_expand1x1
I1012 18:33:48.347517 109031 net.cpp:454] fire9/relu_expand1x1 <- fire9/expand1x1
I1012 18:33:48.347532 109031 net.cpp:397] fire9/relu_expand1x1 -> fire9/expand1x1 (in-place)
I1012 18:33:48.348103 109031 net.cpp:150] Setting up fire9/relu_expand1x1
I1012 18:33:48.348129 109031 net.cpp:157] Top shape: 128 256 14 14 (6422528)
I1012 18:33:48.348136 109031 net.cpp:165] Memory required for data: 3780425728
I1012 18:33:48.348150 109031 layer_factory.hpp:77] Creating layer fire9/expand3x3
I1012 18:33:48.348166 109031 net.cpp:106] Creating Layer fire9/expand3x3
I1012 18:33:48.348176 109031 net.cpp:454] fire9/expand3x3 <- fire9/squeeze1x1_fire9/relu_squeeze1x1_0_split_1
I1012 18:33:48.348188 109031 net.cpp:411] fire9/expand3x3 -> fire9/expand3x3
I1012 18:33:48.352870 109031 net.cpp:150] Setting up fire9/expand3x3
I1012 18:33:48.352895 109031 net.cpp:157] Top shape: 128 256 14 14 (6422528)
I1012 18:33:48.352900 109031 net.cpp:165] Memory required for data: 3806115840
I1012 18:33:48.352910 109031 layer_factory.hpp:77] Creating layer fire9/relu_expand3x3
I1012 18:33:48.352921 109031 net.cpp:106] Creating Layer fire9/relu_expand3x3
I1012 18:33:48.352943 109031 net.cpp:454] fire9/relu_expand3x3 <- fire9/expand3x3
I1012 18:33:48.352953 109031 net.cpp:397] fire9/relu_expand3x3 -> fire9/expand3x3 (in-place)
I1012 18:33:48.353224 109031 net.cpp:150] Setting up fire9/relu_expand3x3
I1012 18:33:48.353240 109031 net.cpp:157] Top shape: 128 256 14 14 (6422528)
I1012 18:33:48.353245 109031 net.cpp:165] Memory required for data: 3831805952
I1012 18:33:48.353250 109031 layer_factory.hpp:77] Creating layer fire9/concat
I1012 18:33:48.353258 109031 net.cpp:106] Creating Layer fire9/concat
I1012 18:33:48.353265 109031 net.cpp:454] fire9/concat <- fire9/expand1x1
I1012 18:33:48.353271 109031 net.cpp:454] fire9/concat <- fire9/expand3x3
I1012 18:33:48.353279 109031 net.cpp:411] fire9/concat -> fire9/concat
I1012 18:33:48.353325 109031 net.cpp:150] Setting up fire9/concat
I1012 18:33:48.353338 109031 net.cpp:157] Top shape: 128 512 14 14 (12845056)
I1012 18:33:48.353344 109031 net.cpp:165] Memory required for data: 3883186176
I1012 18:33:48.353349 109031 layer_factory.hpp:77] Creating layer drop9
I1012 18:33:48.353358 109031 net.cpp:106] Creating Layer drop9
I1012 18:33:48.353363 109031 net.cpp:454] drop9 <- fire9/concat
I1012 18:33:48.353371 109031 net.cpp:397] drop9 -> fire9/concat (in-place)
I1012 18:33:48.353415 109031 net.cpp:150] Setting up drop9
I1012 18:33:48.353425 109031 net.cpp:157] Top shape: 128 512 14 14 (12845056)
I1012 18:33:48.353430 109031 net.cpp:165] Memory required for data: 3934566400
I1012 18:33:48.353435 109031 layer_factory.hpp:77] Creating layer conv10_2626
I1012 18:33:48.353448 109031 net.cpp:106] Creating Layer conv10_2626
I1012 18:33:48.353454 109031 net.cpp:454] conv10_2626 <- fire9/concat
I1012 18:33:48.353462 109031 net.cpp:411] conv10_2626 -> conv10_2626
I1012 18:33:48.388852 109031 net.cpp:150] Setting up conv10_2626
I1012 18:33:48.388873 109031 net.cpp:157] Top shape: 128 2626 14 14 (65881088)
I1012 18:33:48.388878 109031 net.cpp:165] Memory required for data: 4198090752
I1012 18:33:48.388888 109031 layer_factory.hpp:77] Creating layer relu_conv10
I1012 18:33:48.388900 109031 net.cpp:106] Creating Layer relu_conv10
I1012 18:33:48.388905 109031 net.cpp:454] relu_conv10 <- conv10_2626
I1012 18:33:48.388912 109031 net.cpp:397] relu_conv10 -> conv10_2626 (in-place)
I1012 18:33:48.389143 109031 net.cpp:150] Setting up relu_conv10
I1012 18:33:48.389158 109031 net.cpp:157] Top shape: 128 2626 14 14 (65881088)
I1012 18:33:48.389161 109031 net.cpp:165] Memory required for data: 4461615104
I1012 18:33:48.389166 109031 layer_factory.hpp:77] Creating layer pool10
I1012 18:33:48.389175 109031 net.cpp:106] Creating Layer pool10
I1012 18:33:48.389180 109031 net.cpp:454] pool10 <- conv10_2626
I1012 18:33:48.389189 109031 net.cpp:411] pool10 -> pool10
I1012 18:33:48.389683 109031 net.cpp:150] Setting up pool10
I1012 18:33:48.389700 109031 net.cpp:157] Top shape: 128 2626 1 1 (336128)
I1012 18:33:48.389705 109031 net.cpp:165] Memory required for data: 4462959616
I1012 18:33:48.389710 109031 layer_factory.hpp:77] Creating layer loss
I1012 18:33:48.389719 109031 net.cpp:106] Creating Layer loss
I1012 18:33:48.389724 109031 net.cpp:454] loss <- pool10
I1012 18:33:48.389739 109031 net.cpp:454] loss <- label
I1012 18:33:48.389750 109031 net.cpp:411] loss -> loss
…
I1012 18:33:48.393095 109031 solver.cpp:181] Creating test net (#0) specified by net file: models/SqueezeNet/train_val.prototxt
I1012 18:33:48.393194 109031 net.cpp:322] The NetState phase (1) differed from the phase (0) specified by a rule in layer data
I1012 18:33:48.393530 109031 net.cpp:49] Initializing net from parameters: 
state {
  phase: TEST
}
layer {
  name: "data"
  type: "Data"
  top: "data"
  top: "label"
  include {
    phase: TEST
  }
  transform_param {
    crop_size: 227
    mean_file: "/share/zhh/mean.binaryproto"
  }
  data_param {
    source: "/share/front/test_lmdb"
    batch_size: 100
    backend: LMDB
  }
}
layer {
  name: "conv1"
  type: "Convolution"
  bottom: "data"
  top: "conv1"
  convolution_param {
    num_output: 64
    kernel_size: 3
    stride: 2
    weight_filler {
      type: "xavier"
    }
  }
}
layer {
  name: "relu_conv1"
  type: "ReLU"
  bottom: "conv1"
  top: "conv1"
}
layer {
  name: "pool1"
  type: "Pooling"
  bottom: "conv1"
  top: "pool1"
  pooling_param {
    pool: MAX
    kernel_size: 3
    stride: 2
  }
}
layer {
  name: "fire2/squeeze1x1"
  type: "Convolution"
  bottom: "pool1"
  top: "fire2/squeeze1x1"
  convolution_param {
    num_output: 16
    kernel_size: 1
    weight_filler {
      type: "xavier"
    }
  }
}
layer {
  name: "fire2/relu_squeeze1x1"
  type: "ReLU"
  bottom: "fire2/squeeze1x1"
  top: "fire2/squeeze1x1"
}
layer {
  name: "fire2/expand1x1"
  type: "Convolution"
  bottom: "fire2/squeeze1x1"
  top: "fire2/expand1x1"
  convolution_param {
    num_output: 64
    kernel_size: 1
    weight_filler {
      type: "xavier"
    }
  }
}
layer {
  name: "fire2/relu_expand1x1"
  type: "ReLU"
  bottom: "fire2/expand1x1"
  top: "fire2/expand1x1"
}
layer {
  name: "fire2/expand3x3"
  type: "Convolution"
  bottom: "fire2/squeeze1x1"
  top: "fire2/expand3x3"
  convolution_param {
    num_output: 64
    pad: 1
    kernel_size: 3
    weight_filler {
      type: "xavier"
    }
  }
}
layer {
  name: "fire2/relu_expand3x3"
  type: "ReLU"
  bottom: "fire2/expand3x3"
  top: "fire2/expand3x3"
}
layer {
  name: "fire2/concat"
  type: "Concat"
  bottom: "fire2/expand1x1"
  bottom: "fire2/expand3x3"
  top: "fire2/concat"
}
layer {
  name: "fire3/squeeze1x1"
  type: "Convolution"
  bottom: "fire2/concat"
  top: "fire3/squeeze1x1"
  convolution_param {
    num_output: 16
    kernel_size: 1
    weight_filler {
      type: "xavier"
    }
  }
}
layer {
  name: "fire3/relu_squeeze1x1"
  type: "ReLU"
  bottom: "fire3/squeeze1x1"
  top: "fire3/squeeze1x1"
}
layer {
  name: "fire3/expand1x1"
  type: "Convolution"
  bottom: "fire3/squeeze1x1"
  top: "fire3/expand1x1"
  convolution_param {
    num_output: 64
    kernel_size: 1
    weight_filler {
      type: "xavier"
    }
  }
}
layer {
  name: "fire3/relu_expand1x1"
  type: "ReLU"
  bottom: "fire3/expand1x1"
  top: "fire3/expand1x1"
}
layer {
  name: "fire3/expand3x3"
  type: "Convolution"
  bottom: "fire3/squeeze1x1"
  top: "fire3/expand3x3"
  convolution_param {
    num_output: 64
    pad: 1
    kernel_size: 3
    weight_filler {
      type: "xavier"
    }
  }
}
layer {
  name: "fire3/relu_expand3x3"
  type: "ReLU"
  bottom: "fire3/expand3x3"
  top: "fire3/expand3x3"
}
layer {
  name: "fire3/concat"
  type: "Concat"
  bottom: "fire3/expand1x1"
  bottom: "fire3/expand3x3"
  top: "fire3/concat"
}
layer {
  name: "pool3"
  type: "Pooling"
  bottom: "fire3/concat"
  top: "pool3"
  pooling_param {
    pool: MAX
    kernel_size: 3
    stride: 2
  }
}
layer {
  name: "fire4/squeeze1x1"
  type: "Convolution"
  bottom: "pool3"
  top: "fire4/squeeze1x1"
  convolution_param {
    num_output: 32
    kernel_size: 1
    weight_filler {
      type: "xavier"
    }
  }
}
layer {
  name: "fire4/relu_squeeze1x1"
  type: "ReLU"
  bottom: "fire4/squeeze1x1"
  top: "fire4/squeeze1x1"
}
layer {
  name: "fire4/expand1x1"
  type: "Convolution"
  bottom: "fire4/squeeze1x1"
  top: "fire4/expand1x1"
  convolution_param {
    num_output: 128
    kernel_size: 1
    weight_filler {
      type: "xavier"
    }
  }
}
layer {
  name: "fire4/relu_expand1x1"
  type: "ReLU"
  bottom: "fire4/expand1x1"
  top: "fire4/expand1x1"
}
layer {
  name: "fire4/expand3x3"
  type: "Convolution"
  bottom: "fire4/squeeze1x1"
  top: "fire4/expand3x3"
  convolution_param {
    num_output: 128
    pad: 1
    kernel_size: 3
    weight_filler {
      type: "xavier"
    }
  }
}
layer {
  name: "fire4/relu_expand3x3"
  type: "ReLU"
  bottom: "fire4/expand3x3"
  top: "fire4/expand3x3"
}
layer {
  name: "fire4/concat"
  type: "Concat"
  bottom: "fire4/expand1x1"
  bottom: "fire4/expand3x3"
  top: "fire4/concat"
}
layer {
  name: "fire5/squeeze1x1"
  type: "Convolution"
  bottom: "fire4/concat"
  top: "fire5/squeeze1x1"
  convolution_param {
    num_output: 32
    kernel_size: 1
    weight_filler {
      type: "xavier"
    }
  }
}
layer {
  name: "fire5/relu_squeeze1x1"
  type: "ReLU"
  bottom: "fire5/squeeze1x1"
  top: "fire5/squeeze1x1"
}
layer {
  name: "fire5/expand1x1"
  type: "Convolution"
  bottom: "fire5/squeeze1x1"
  top: "fire5/expand1x1"
  convolution_param {
    num_output: 128
    kernel_size: 1
    weight_filler {
      type: "xavier"
    }
  }
}
layer {
  name: "fire5/relu_expand1x1"
  type: "ReLU"
  bottom: "fire5/expand1x1"
  top: "fire5/expand1x1"
}
layer {
  name: "fire5/expand3x3"
  type: "Convolution"
  bottom: "fire5/squeeze1x1"
  top: "fire5/expand3x3"
  convolution_param {
    num_output: 128
    pad: 1
    kernel_size: 3
    weight_filler {
      type: "xavier"
    }
  }
}
layer {
  name: "fire5/relu_expand3x3"
  type: "ReLU"
  bottom: "fire5/expand3x3"
  top: "fire5/expand3x3"
}
layer {
  name: "fire5/concat"
  type: "Concat"
  bottom: "fire5/expand1x1"
  bottom: "fire5/expand3x3"
  top: "fire5/concat"
}
layer {
  name: "pool5"
  type: "Pooling"
  bottom: "fire5/concat"
  top: "pool5"
  pooling_param {
    pool: MAX
    kernel_size: 3
    stride: 2
  }
}
layer {
  name: "fire6/squeeze1x1"
  type: "Convolution"
  bottom: "pool5"
  top: "fire6/squeeze1x1"
  convolution_param {
    num_output: 48
    kernel_size: 1
    weight_filler {
      type: "xavier"
    }
  }
}
layer {
  name: "fire6/relu_squeeze1x1"
  type: "ReLU"
  bottom: "fire6/squeeze1x1"
  top: "fire6/squeeze1x1"
}
layer {
  name: "fire6/expand1x1"
  type: "Convolution"
  bottom: "fire6/squeeze1x1"
  top: "fire6/expand1x1"
  convolution_param {
    num_output: 192
    kernel_size: 1
    weight_filler {
      type: "xavier"
    }
  }
}
layer {
  name: "fire6/relu_expand1x1"
  type: "ReLU"
  bottom: "fire6/expand1x1"
  top: "fire6/expand1x1"
}
layer {
  name: "fire6/expand3x3"
  type: "Convolution"
  bottom: "fire6/squeeze1x1"
  top: "fire6/expand3x3"
  convolution_param {
    num_output: 192
    pad: 1
    kernel_size: 3
    weight_filler {
      type: "xavier"
    }
  }
}
layer {
  name: "fire6/relu_expand3x3"
  type: "ReLU"
  bottom: "fire6/expand3x3"
  top: "fire6/expand3x3"
}
layer {
  name: "fire6/concat"
  type: "Concat"
  bottom: "fire6/expand1x1"
  bottom: "fire6/expand3x3"
  top: "fire6/concat"
}
layer {
  name: "fire7/squeeze1x1"
  type: "Convolution"
  bottom: "fire6/concat"
  top: "fire7/squeeze1x1"
  convolution_param {
    num_output: 48
    kernel_size: 1
    weight_filler {
      type: "xavier"
    }
  }
}
layer {
  name: "fire7/relu_squeeze1x1"
  type: "ReLU"
  bottom: "fire7/squeeze1x1"
  top: "fire7/squeeze1x1"
}
layer {
  name: "fire7/expand1x1"
  type: "Convolution"
  bottom: "fire7/squeeze1x1"
  top: "fire7/expand1x1"
  convolution_param {
    num_output: 192
    kernel_size: 1
    weight_filler {
      type: "xavier"
    }
  }
}
layer {
  name: "fire7/relu_expand1x1"
  type: "ReLU"
  bottom: "fire7/expand1x1"
  top: "fire7/expand1x1"
}
layer {
  name: "fire7/expand3x3"
  type: "Convolution"
  bottom: "fire7/squeeze1x1"
  top: "fire7/expand3x3"
  convolution_param {
    num_output: 192
    pad: 1
    kernel_size: 3
    weight_filler {
      type: "xavier"
    }
  }
}
layer {
  name: "fire7/relu_expand3x3"
  type: "ReLU"
  bottom: "fire7/expand3x3"
  top: "fire7/expand3x3"
}
layer {
  name: "fire7/concat"
  type: "Concat"
  bottom: "fire7/expand1x1"
  bottom: "fire7/expand3x3"
  top: "fire7/concat"
}
layer {
  name: "fire8/squeeze1x1"
  type: "Convolution"
  bottom: "fire7/concat"
  top: "fire8/squeeze1x1"
  convolution_param {
    num_output: 64
    kernel_size: 1
    weight_filler {
      type: "xavier"
    }
  }
}
layer {
  name: "fire8/relu_squeeze1x1"
  type: "ReLU"
  bottom: "fire8/squeeze1x1"
  top: "fire8/squeeze1x1"
}
layer {
  name: "fire8/expand1x1"
  type: "Convolution"
  bottom: "fire8/squeeze1x1"
  top: "fire8/expand1x1"
  convolution_param {
    num_output: 256
    kernel_size: 1
    weight_filler {
      type: "xavier"
    }
  }
}
layer {
  name: "fire8/relu_expand1x1"
  type: "ReLU"
  bottom: "fire8/expand1x1"
  top: "fire8/expand1x1"
}
layer {
  name: "fire8/expand3x3"
  type: "Convolution"
  bottom: "fire8/squeeze1x1"
  top: "fire8/expand3x3"
  convolution_param {
    num_output: 256
    pad: 1
    kernel_size: 3
    weight_filler {
      type: "xavier"
    }
  }
}
layer {
  name: "fire8/relu_expand3x3"
  type: "ReLU"
  bottom: "fire8/expand3x3"
  top: "fire8/expand3x3"
}
layer {
  name: "fire8/concat"
  type: "Concat"
  bottom: "fire8/expand1x1"
  bottom: "fire8/expand3x3"
  top: "fire8/concat"
}
layer {
  name: "fire9/squeeze1x1"
  type: "Convolution"
  bottom: "fire8/concat"
  top: "fire9/squeeze1x1"
  convolution_param {
    num_output: 64
    kernel_size: 1
    weight_filler {
      type: "xavier"
    }
  }
}
layer {
  name: "fire9/relu_squeeze1x1"
  type: "ReLU"
  bottom: "fire9/squeeze1x1"
  top: "fire9/squeeze1x1"
}
layer {
  name: "fire9/expand1x1"
  type: "Convolution"
  bottom: "fire9/squeeze1x1"
  top: "fire9/expand1x1"
  convolution_param {
    num_output: 256
    kernel_size: 1
    weight_filler {
      type: "xavier"
    }
  }
}
layer {
  name: "fire9/relu_expand1x1"
  type: "ReLU"
  bottom: "fire9/expand1x1"
  top: "fire9/expand1x1"
}
layer {
  name: "fire9/expand3x3"
  type: "Convolution"
  bottom: "fire9/squeeze1x1"
  top: "fire9/expand3x3"
  convolution_param {
    num_output: 256
    pad: 1
    kernel_size: 3
    weight_filler {
      type: "xavier"
    }
  }
}
layer {
  name: "fire9/relu_expand3x3"
  type: "ReLU"
  bottom: "fire9/expand3x3"
  top: "fire9/expand3x3"
}
layer {
  name: "fire9/concat"
  type: "Concat"
  bottom: "fire9/expand1x1"
  bottom: "fire9/expand3x3"
  top: "fire9/concat"
}
layer {
  name: "drop9"
  type: "Dropout"
  bottom: "fire9/concat"
  top: "fire9/concat"
  dropout_param {
    dropout_ratio: 0.5
  }
}
layer {
  name: "conv10_2626"
  type: "Convolution"
  bottom: "fire9/concat"
  top: "conv10_2626"
  param {
    lr_mult: 10
    decay_mult: 1
  }
  convolution_param {
    num_output: 2626
    kernel_size: 1
    weight_filler {
      type: "gaussian"
      mean: 0
      std: 0.01
    }
  }
}
layer {
  name: "relu_conv10"
  type: "ReLU"
  bottom: "conv10_2626"
  top: "conv10_2626"
}
layer {
  name: "pool10"
  type: "Pooling"
  bottom: "conv10_2626"
  top: "pool10"
  pooling_param {
    pool: AVE
    global_pooling: true
  }
}
layer {
  name: "loss"
  type: "SoftmaxWithLoss"
  bottom: "pool10"
  bottom: "label"
  top: "loss"
}
layer {
  name: "accuracy"
  type: "Accuracy"
  bottom: "pool10"
  bottom: "label"
  top: "accuracy"
  include {
    phase: TEST
  }
}
I1012 18:33:48.393885 109031 layer_factory.hpp:77] Creating layer data
I1012 18:33:48.394032 109031 net.cpp:106] Creating Layer data
I1012 18:33:48.394049 109031 net.cpp:411] data -> data
I1012 18:33:48.394062 109031 net.cpp:411] data -> label
I1012 18:33:48.394071 109031 data_transformer.cpp:25] Loading mean file from: /share/zhh/mean.binaryproto
I1012 18:33:48.395238 109055 db_lmdb.cpp:38] Opened lmdb /share/front/test_lmdb
I1012 18:33:48.397066 109031 data_layer.cpp:41] output data size: 100,3,227,227
I1012 18:33:48.499388 109031 net.cpp:150] Setting up data
I1012 18:33:48.499433 109031 net.cpp:157] Top shape: 100 3 227 227 (15458700)
I1012 18:33:48.499439 109031 net.cpp:157] Top shape: 100 (100)
I1012 18:33:48.499444 109031 net.cpp:165] Memory required for data: 61835200
I1012 18:33:48.499449 109031 layer_factory.hpp:77] Creating layer label_data_1_split
I1012 18:33:48.499474 109031 net.cpp:106] Creating Layer label_data_1_split
I1012 18:33:48.499478 109031 net.cpp:454] label_data_1_split <- label
I1012 18:33:48.499486 109031 net.cpp:411] label_data_1_split -> label_data_1_split_0
I1012 18:33:48.499497 109031 net.cpp:411] label_data_1_split -> label_data_1_split_1
I1012 18:33:48.499691 109031 net.cpp:150] Setting up label_data_1_split
I1012 18:33:48.499718 109031 net.cpp:157] Top shape: 100 (100)
I1012 18:33:48.499723 109031 net.cpp:157] Top shape: 100 (100)
I1012 18:33:48.499727 109031 net.cpp:165] Memory required for data: 61836000
I1012 18:33:48.499732 109031 layer_factory.hpp:77] Creating layer conv1
I1012 18:33:48.499744 109031 net.cpp:106] Creating Layer conv1
I1012 18:33:48.499749 109031 net.cpp:454] conv1 <- data
I1012 18:33:48.499755 109031 net.cpp:411] conv1 -> conv1
I1012 18:33:48.501197 109031 net.cpp:150] Setting up conv1
I1012 18:33:48.501225 109031 net.cpp:157] Top shape: 100 64 113 113 (81721600)
I1012 18:33:48.501230 109031 net.cpp:165] Memory required for data: 388722400
I1012 18:33:48.501241 109031 layer_factory.hpp:77] Creating layer relu_conv1
I1012 18:33:48.501260 109031 net.cpp:106] Creating Layer relu_conv1
I1012 18:33:48.501265 109031 net.cpp:454] relu_conv1 <- conv1
I1012 18:33:48.501269 109031 net.cpp:397] relu_conv1 -> conv1 (in-place)
I1012 18:33:48.510162 109031 net.cpp:150] Setting up relu_conv1
I1012 18:33:48.510197 109031 net.cpp:157] Top shape: 100 64 113 113 (81721600)
I1012 18:33:48.510201 109031 net.cpp:165] Memory required for data: 715608800
I1012 18:33:48.510206 109031 layer_factory.hpp:77] Creating layer pool1
I1012 18:33:48.510217 109031 net.cpp:106] Creating Layer pool1
I1012 18:33:48.510222 109031 net.cpp:454] pool1 <- conv1
I1012 18:33:48.510241 109031 net.cpp:411] pool1 -> pool1
I1012 18:33:48.510519 109031 net.cpp:150] Setting up pool1
I1012 18:33:48.510530 109031 net.cpp:157] Top shape: 100 64 56 56 (20070400)
I1012 18:33:48.510545 109031 net.cpp:165] Memory required for data: 795890400
I1012 18:33:48.510550 109031 layer_factory.hpp:77] Creating layer fire2/squeeze1x1
I1012 18:33:48.510560 109031 net.cpp:106] Creating Layer fire2/squeeze1x1
I1012 18:33:48.510565 109031 net.cpp:454] fire2/squeeze1x1 <- pool1
I1012 18:33:48.510571 109031 net.cpp:411] fire2/squeeze1x1 -> fire2/squeeze1x1
I1012 18:33:48.511881 109031 net.cpp:150] Setting up fire2/squeeze1x1
I1012 18:33:48.511896 109031 net.cpp:157] Top shape: 100 16 56 56 (5017600)
I1012 18:33:48.511911 109031 net.cpp:165] Memory required for data: 815960800
I1012 18:33:48.511924 109031 layer_factory.hpp:77] Creating layer fire2/relu_squeeze1x1
I1012 18:33:48.511930 109031 net.cpp:106] Creating Layer fire2/relu_squeeze1x1
I1012 18:33:48.511945 109031 net.cpp:454] fire2/relu_squeeze1x1 <- fire2/squeeze1x1
I1012 18:33:48.511950 109031 net.cpp:397] fire2/relu_squeeze1x1 -> fire2/squeeze1x1 (in-place)
I1012 18:33:48.512367 109031 net.cpp:150] Setting up fire2/relu_squeeze1x1
I1012 18:33:48.512392 109031 net.cpp:157] Top shape: 100 16 56 56 (5017600)
I1012 18:33:48.512395 109031 net.cpp:165] Memory required for data: 836031200
I1012 18:33:48.512399 109031 layer_factory.hpp:77] Creating layer fire2/squeeze1x1_fire2/relu_squeeze1x1_0_split
I1012 18:33:48.512406 109031 net.cpp:106] Creating Layer fire2/squeeze1x1_fire2/relu_squeeze1x1_0_split
I1012 18:33:48.512410 109031 net.cpp:454] fire2/squeeze1x1_fire2/relu_squeeze1x1_0_split <- fire2/squeeze1x1
I1012 18:33:48.512416 109031 net.cpp:411] fire2/squeeze1x1_fire2/relu_squeeze1x1_0_split -> fire2/squeeze1x1_fire2/relu_squeeze1x1_0_split_0
I1012 18:33:48.512423 109031 net.cpp:411] fire2/squeeze1x1_fire2/relu_squeeze1x1_0_split -> fire2/squeeze1x1_fire2/relu_squeeze1x1_0_split_1
I1012 18:33:48.512470 109031 net.cpp:150] Setting up fire2/squeeze1x1_fire2/relu_squeeze1x1_0_split
I1012 18:33:48.512477 109031 net.cpp:157] Top shape: 100 16 56 56 (5017600)
I1012 18:33:48.512482 109031 net.cpp:157] Top shape: 100 16 56 56 (5017600)
I1012 18:33:48.512485 109031 net.cpp:165] Memory required for data: 876172000
I1012 18:33:48.512488 109031 layer_factory.hpp:77] Creating layer fire2/expand1x1
I1012 18:33:48.512498 109031 net.cpp:106] Creating Layer fire2/expand1x1
I1012 18:33:48.512502 109031 net.cpp:454] fire2/expand1x1 <- fire2/squeeze1x1_fire2/relu_squeeze1x1_0_split_0
I1012 18:33:48.512508 109031 net.cpp:411] fire2/expand1x1 -> fire2/expand1x1
I1012 18:33:48.513732 109031 net.cpp:150] Setting up fire2/expand1x1
I1012 18:33:48.513746 109031 net.cpp:157] Top shape: 100 64 56 56 (20070400)
I1012 18:33:48.513751 109031 net.cpp:165] Memory required for data: 956453600
I1012 18:33:48.513759 109031 layer_factory.hpp:77] Creating layer fire2/relu_expand1x1
I1012 18:33:48.513778 109031 net.cpp:106] Creating Layer fire2/relu_expand1x1
I1012 18:33:48.513782 109031 net.cpp:454] fire2/relu_expand1x1 <- fire2/expand1x1
I1012 18:33:48.513788 109031 net.cpp:397] fire2/relu_expand1x1 -> fire2/expand1x1 (in-place)
I1012 18:33:48.513964 109031 net.cpp:150] Setting up fire2/relu_expand1x1
I1012 18:33:48.513973 109031 net.cpp:157] Top shape: 100 64 56 56 (20070400)
I1012 18:33:48.513978 109031 net.cpp:165] Memory required for data: 1036735200
I1012 18:33:48.513993 109031 layer_factory.hpp:77] Creating layer fire2/expand3x3
I1012 18:33:48.514000 109031 net.cpp:106] Creating Layer fire2/expand3x3
I1012 18:33:48.514004 109031 net.cpp:454] fire2/expand3x3 <- fire2/squeeze1x1_fire2/relu_squeeze1x1_0_split_1
I1012 18:33:48.514010 109031 net.cpp:411] fire2/expand3x3 -> fire2/expand3x3
I1012 18:33:48.515599 109031 net.cpp:150] Setting up fire2/expand3x3
I1012 18:33:48.515611 109031 net.cpp:157] Top shape: 100 64 56 56 (20070400)
I1012 18:33:48.515626 109031 net.cpp:165] Memory required for data: 1117016800
I1012 18:33:48.515633 109031 layer_factory.hpp:77] Creating layer fire2/relu_expand3x3
I1012 18:33:48.515640 109031 net.cpp:106] Creating Layer fire2/relu_expand3x3
I1012 18:33:48.515666 109031 net.cpp:454] fire2/relu_expand3x3 <- fire2/expand3x3
I1012 18:33:48.515672 109031 net.cpp:397] fire2/relu_expand3x3 -> fire2/expand3x3 (in-place)
I1012 18:33:48.515842 109031 net.cpp:150] Setting up fire2/relu_expand3x3
I1012 18:33:48.515852 109031 net.cpp:157] Top shape: 100 64 56 56 (20070400)
I1012 18:33:48.515866 109031 net.cpp:165] Memory required for data: 1197298400
I1012 18:33:48.515871 109031 layer_factory.hpp:77] Creating layer fire2/concat
I1012 18:33:48.515877 109031 net.cpp:106] Creating Layer fire2/concat
I1012 18:33:48.515879 109031 net.cpp:454] fire2/concat <- fire2/expand1x1
I1012 18:33:48.515884 109031 net.cpp:454] fire2/concat <- fire2/expand3x3
I1012 18:33:48.515889 109031 net.cpp:411] fire2/concat -> fire2/concat
I1012 18:33:48.515919 109031 net.cpp:150] Setting up fire2/concat
I1012 18:33:48.515928 109031 net.cpp:157] Top shape: 100 128 56 56 (40140800)
I1012 18:33:48.515930 109031 net.cpp:165] Memory required for data: 1357861600
I1012 18:33:48.515933 109031 layer_factory.hpp:77] Creating layer fire3/squeeze1x1
I1012 18:33:48.515941 109031 net.cpp:106] Creating Layer fire3/squeeze1x1
I1012 18:33:48.515944 109031 net.cpp:454] fire3/squeeze1x1 <- fire2/concat
I1012 18:33:48.515949 109031 net.cpp:411] fire3/squeeze1x1 -> fire3/squeeze1x1
I1012 18:33:48.517225 109031 net.cpp:150] Setting up fire3/squeeze1x1
I1012 18:33:48.517238 109031 net.cpp:157] Top shape: 100 16 56 56 (5017600)
I1012 18:33:48.517253 109031 net.cpp:165] Memory required for data: 1377932000
I1012 18:33:48.517274 109031 layer_factory.hpp:77] Creating layer fire3/relu_squeeze1x1
I1012 18:33:48.517280 109031 net.cpp:106] Creating Layer fire3/relu_squeeze1x1
I1012 18:33:48.517284 109031 net.cpp:454] fire3/relu_squeeze1x1 <- fire3/squeeze1x1
I1012 18:33:48.517289 109031 net.cpp:397] fire3/relu_squeeze1x1 -> fire3/squeeze1x1 (in-place)
I1012 18:33:48.517663 109031 net.cpp:150] Setting up fire3/relu_squeeze1x1
I1012 18:33:48.517675 109031 net.cpp:157] Top shape: 100 16 56 56 (5017600)
I1012 18:33:48.517690 109031 net.cpp:165] Memory required for data: 1398002400
I1012 18:33:48.517694 109031 layer_factory.hpp:77] Creating layer fire3/squeeze1x1_fire3/relu_squeeze1x1_0_split
I1012 18:33:48.517699 109031 net.cpp:106] Creating Layer fire3/squeeze1x1_fire3/relu_squeeze1x1_0_split
I1012 18:33:48.517704 109031 net.cpp:454] fire3/squeeze1x1_fire3/relu_squeeze1x1_0_split <- fire3/squeeze1x1
I1012 18:33:48.517709 109031 net.cpp:411] fire3/squeeze1x1_fire3/relu_squeeze1x1_0_split -> fire3/squeeze1x1_fire3/relu_squeeze1x1_0_split_0
I1012 18:33:48.517715 109031 net.cpp:411] fire3/squeeze1x1_fire3/relu_squeeze1x1_0_split -> fire3/squeeze1x1_fire3/relu_squeeze1x1_0_split_1
I1012 18:33:48.517758 109031 net.cpp:150] Setting up fire3/squeeze1x1_fire3/relu_squeeze1x1_0_split
I1012 18:33:48.517765 109031 net.cpp:157] Top shape: 100 16 56 56 (5017600)
I1012 18:33:48.517768 109031 net.cpp:157] Top shape: 100 16 56 56 (5017600)
I1012 18:33:48.517771 109031 net.cpp:165] Memory required for data: 1438143200
I1012 18:33:48.517774 109031 layer_factory.hpp:77] Creating layer fire3/expand1x1
I1012 18:33:48.517784 109031 net.cpp:106] Creating Layer fire3/expand1x1
I1012 18:33:48.517787 109031 net.cpp:454] fire3/expand1x1 <- fire3/squeeze1x1_fire3/relu_squeeze1x1_0_split_0
I1012 18:33:48.517793 109031 net.cpp:411] fire3/expand1x1 -> fire3/expand1x1
I1012 18:33:48.519129 109031 net.cpp:150] Setting up fire3/expand1x1
I1012 18:33:48.519143 109031 net.cpp:157] Top shape: 100 64 56 56 (20070400)
I1012 18:33:48.519146 109031 net.cpp:165] Memory required for data: 1518424800
I1012 18:33:48.519153 109031 layer_factory.hpp:77] Creating layer fire3/relu_expand1x1
I1012 18:33:48.519170 109031 net.cpp:106] Creating Layer fire3/relu_expand1x1
I1012 18:33:48.519176 109031 net.cpp:454] fire3/relu_expand1x1 <- fire3/expand1x1
I1012 18:33:48.519192 109031 net.cpp:397] fire3/relu_expand1x1 -> fire3/expand1x1 (in-place)
I1012 18:33:48.519382 109031 net.cpp:150] Setting up fire3/relu_expand1x1
I1012 18:33:48.519392 109031 net.cpp:157] Top shape: 100 64 56 56 (20070400)
I1012 18:33:48.519421 109031 net.cpp:165] Memory required for data: 1598706400
I1012 18:33:48.519425 109031 layer_factory.hpp:77] Creating layer fire3/expand3x3
I1012 18:33:48.519434 109031 net.cpp:106] Creating Layer fire3/expand3x3
I1012 18:33:48.519438 109031 net.cpp:454] fire3/expand3x3 <- fire3/squeeze1x1_fire3/relu_squeeze1x1_0_split_1
I1012 18:33:48.519443 109031 net.cpp:411] fire3/expand3x3 -> fire3/expand3x3
I1012 18:33:48.520786 109031 net.cpp:150] Setting up fire3/expand3x3
I1012 18:33:48.520810 109031 net.cpp:157] Top shape: 100 64 56 56 (20070400)
I1012 18:33:48.520814 109031 net.cpp:165] Memory required for data: 1678988000
I1012 18:33:48.520822 109031 layer_factory.hpp:77] Creating layer fire3/relu_expand3x3
I1012 18:33:48.520838 109031 net.cpp:106] Creating Layer fire3/relu_expand3x3
I1012 18:33:48.520843 109031 net.cpp:454] fire3/relu_expand3x3 <- fire3/expand3x3
I1012 18:33:48.520848 109031 net.cpp:397] fire3/relu_expand3x3 -> fire3/expand3x3 (in-place)
I1012 18:33:48.521018 109031 net.cpp:150] Setting up fire3/relu_expand3x3
I1012 18:33:48.521028 109031 net.cpp:157] Top shape: 100 64 56 56 (20070400)
I1012 18:33:48.521041 109031 net.cpp:165] Memory required for data: 1759269600
I1012 18:33:48.521045 109031 layer_factory.hpp:77] Creating layer fire3/concat
I1012 18:33:48.521050 109031 net.cpp:106] Creating Layer fire3/concat
I1012 18:33:48.521054 109031 net.cpp:454] fire3/concat <- fire3/expand1x1
I1012 18:33:48.521059 109031 net.cpp:454] fire3/concat <- fire3/expand3x3
I1012 18:33:48.521064 109031 net.cpp:411] fire3/concat -> fire3/concat
I1012 18:33:48.521093 109031 net.cpp:150] Setting up fire3/concat
I1012 18:33:48.521100 109031 net.cpp:157] Top shape: 100 128 56 56 (40140800)
I1012 18:33:48.521103 109031 net.cpp:165] Memory required for data: 1919832800
I1012 18:33:48.521106 109031 layer_factory.hpp:77] Creating layer pool3
I1012 18:33:48.521112 109031 net.cpp:106] Creating Layer pool3
I1012 18:33:48.521116 109031 net.cpp:454] pool3 <- fire3/concat
I1012 18:33:48.521121 109031 net.cpp:411] pool3 -> pool3
I1012 18:33:48.521522 109031 net.cpp:150] Setting up pool3
I1012 18:33:48.521534 109031 net.cpp:157] Top shape: 100 128 28 28 (10035200)
I1012 18:33:48.521550 109031 net.cpp:165] Memory required for data: 1959973600
I1012 18:33:48.521553 109031 layer_factory.hpp:77] Creating layer fire4/squeeze1x1
I1012 18:33:48.521574 109031 net.cpp:106] Creating Layer fire4/squeeze1x1
I1012 18:33:48.521589 109031 net.cpp:454] fire4/squeeze1x1 <- pool3
I1012 18:33:48.521595 109031 net.cpp:411] fire4/squeeze1x1 -> fire4/squeeze1x1
I1012 18:33:48.522755 109031 net.cpp:150] Setting up fire4/squeeze1x1
I1012 18:33:48.522768 109031 net.cpp:157] Top shape: 100 32 28 28 (2508800)
I1012 18:33:48.522783 109031 net.cpp:165] Memory required for data: 1970008800
I1012 18:33:48.522790 109031 layer_factory.hpp:77] Creating layer fire4/relu_squeeze1x1
I1012 18:33:48.522807 109031 net.cpp:106] Creating Layer fire4/relu_squeeze1x1
I1012 18:33:48.522811 109031 net.cpp:454] fire4/relu_squeeze1x1 <- fire4/squeeze1x1
I1012 18:33:48.522816 109031 net.cpp:397] fire4/relu_squeeze1x1 -> fire4/squeeze1x1 (in-place)
I1012 18:33:48.522999 109031 net.cpp:150] Setting up fire4/relu_squeeze1x1
I1012 18:33:48.523008 109031 net.cpp:157] Top shape: 100 32 28 28 (2508800)
I1012 18:33:48.523012 109031 net.cpp:165] Memory required for data: 1980044000
I1012 18:33:48.523026 109031 layer_factory.hpp:77] Creating layer fire4/squeeze1x1_fire4/relu_squeeze1x1_0_split
I1012 18:33:48.523032 109031 net.cpp:106] Creating Layer fire4/squeeze1x1_fire4/relu_squeeze1x1_0_split
I1012 18:33:48.523036 109031 net.cpp:454] fire4/squeeze1x1_fire4/relu_squeeze1x1_0_split <- fire4/squeeze1x1
I1012 18:33:48.523041 109031 net.cpp:411] fire4/squeeze1x1_fire4/relu_squeeze1x1_0_split -> fire4/squeeze1x1_fire4/relu_squeeze1x1_0_split_0
I1012 18:33:48.523047 109031 net.cpp:411] fire4/squeeze1x1_fire4/relu_squeeze1x1_0_split -> fire4/squeeze1x1_fire4/relu_squeeze1x1_0_split_1
I1012 18:33:48.523090 109031 net.cpp:150] Setting up fire4/squeeze1x1_fire4/relu_squeeze1x1_0_split
I1012 18:33:48.523119 109031 net.cpp:157] Top shape: 100 32 28 28 (2508800)
I1012 18:33:48.523124 109031 net.cpp:157] Top shape: 100 32 28 28 (2508800)
I1012 18:33:48.523128 109031 net.cpp:165] Memory required for data: 2000114400
I1012 18:33:48.523130 109031 layer_factory.hpp:77] Creating layer fire4/expand1x1
I1012 18:33:48.523138 109031 net.cpp:106] Creating Layer fire4/expand1x1
I1012 18:33:48.523142 109031 net.cpp:454] fire4/expand1x1 <- fire4/squeeze1x1_fire4/relu_squeeze1x1_0_split_0
I1012 18:33:48.523147 109031 net.cpp:411] fire4/expand1x1 -> fire4/expand1x1
I1012 18:33:48.524364 109031 net.cpp:150] Setting up fire4/expand1x1
I1012 18:33:48.524377 109031 net.cpp:157] Top shape: 100 128 28 28 (10035200)
I1012 18:33:48.524392 109031 net.cpp:165] Memory required for data: 2040255200
I1012 18:33:48.524405 109031 layer_factory.hpp:77] Creating layer fire4/relu_expand1x1
I1012 18:33:48.524423 109031 net.cpp:106] Creating Layer fire4/relu_expand1x1
I1012 18:33:48.524427 109031 net.cpp:454] fire4/relu_expand1x1 <- fire4/expand1x1
I1012 18:33:48.524433 109031 net.cpp:397] fire4/relu_expand1x1 -> fire4/expand1x1 (in-place)
I1012 18:33:48.524823 109031 net.cpp:150] Setting up fire4/relu_expand1x1
I1012 18:33:48.524837 109031 net.cpp:157] Top shape: 100 128 28 28 (10035200)
I1012 18:33:48.524852 109031 net.cpp:165] Memory required for data: 2080396000
I1012 18:33:48.524855 109031 layer_factory.hpp:77] Creating layer fire4/expand3x3
I1012 18:33:48.524864 109031 net.cpp:106] Creating Layer fire4/expand3x3
I1012 18:33:48.524869 109031 net.cpp:454] fire4/expand3x3 <- fire4/squeeze1x1_fire4/relu_squeeze1x1_0_split_1
I1012 18:33:48.524876 109031 net.cpp:411] fire4/expand3x3 -> fire4/expand3x3
I1012 18:33:48.526203 109031 net.cpp:150] Setting up fire4/expand3x3
I1012 18:33:48.526218 109031 net.cpp:157] Top shape: 100 128 28 28 (10035200)
I1012 18:33:48.526233 109031 net.cpp:165] Memory required for data: 2120536800
I1012 18:33:48.526239 109031 layer_factory.hpp:77] Creating layer fire4/relu_expand3x3
I1012 18:33:48.526245 109031 net.cpp:106] Creating Layer fire4/relu_expand3x3
I1012 18:33:48.526260 109031 net.cpp:454] fire4/relu_expand3x3 <- fire4/expand3x3
I1012 18:33:48.526267 109031 net.cpp:397] fire4/relu_expand3x3 -> fire4/expand3x3 (in-place)
I1012 18:33:48.526659 109031 net.cpp:150] Setting up fire4/relu_expand3x3
I1012 18:33:48.526686 109031 net.cpp:157] Top shape: 100 128 28 28 (10035200)
I1012 18:33:48.526701 109031 net.cpp:165] Memory required for data: 2160677600
I1012 18:33:48.526705 109031 layer_factory.hpp:77] Creating layer fire4/concat
I1012 18:33:48.526723 109031 net.cpp:106] Creating Layer fire4/concat
I1012 18:33:48.526727 109031 net.cpp:454] fire4/concat <- fire4/expand1x1
I1012 18:33:48.526732 109031 net.cpp:454] fire4/concat <- fire4/expand3x3
I1012 18:33:48.526737 109031 net.cpp:411] fire4/concat -> fire4/concat
I1012 18:33:48.526772 109031 net.cpp:150] Setting up fire4/concat
I1012 18:33:48.526780 109031 net.cpp:157] Top shape: 100 256 28 28 (20070400)
I1012 18:33:48.526783 109031 net.cpp:165] Memory required for data: 2240959200
I1012 18:33:48.526787 109031 layer_factory.hpp:77] Creating layer fire5/squeeze1x1
I1012 18:33:48.526795 109031 net.cpp:106] Creating Layer fire5/squeeze1x1
I1012 18:33:48.526799 109031 net.cpp:454] fire5/squeeze1x1 <- fire4/concat
I1012 18:33:48.526806 109031 net.cpp:411] fire5/squeeze1x1 -> fire5/squeeze1x1
I1012 18:33:48.528105 109031 net.cpp:150] Setting up fire5/squeeze1x1
I1012 18:33:48.528120 109031 net.cpp:157] Top shape: 100 32 28 28 (2508800)
I1012 18:33:48.528134 109031 net.cpp:165] Memory required for data: 2250994400
I1012 18:33:48.528141 109031 layer_factory.hpp:77] Creating layer fire5/relu_squeeze1x1
I1012 18:33:48.528146 109031 net.cpp:106] Creating Layer fire5/relu_squeeze1x1
I1012 18:33:48.528151 109031 net.cpp:454] fire5/relu_squeeze1x1 <- fire5/squeeze1x1
I1012 18:33:48.528158 109031 net.cpp:397] fire5/relu_squeeze1x1 -> fire5/squeeze1x1 (in-place)
I1012 18:33:48.528352 109031 net.cpp:150] Setting up fire5/relu_squeeze1x1
I1012 18:33:48.528383 109031 net.cpp:157] Top shape: 100 32 28 28 (2508800)
I1012 18:33:48.528388 109031 net.cpp:165] Memory required for data: 2261029600
I1012 18:33:48.528391 109031 layer_factory.hpp:77] Creating layer fire5/squeeze1x1_fire5/relu_squeeze1x1_0_split
I1012 18:33:48.528400 109031 net.cpp:106] Creating Layer fire5/squeeze1x1_fire5/relu_squeeze1x1_0_split
I1012 18:33:48.528404 109031 net.cpp:454] fire5/squeeze1x1_fire5/relu_squeeze1x1_0_split <- fire5/squeeze1x1
I1012 18:33:48.528410 109031 net.cpp:411] fire5/squeeze1x1_fire5/relu_squeeze1x1_0_split -> fire5/squeeze1x1_fire5/relu_squeeze1x1_0_split_0
I1012 18:33:48.528416 109031 net.cpp:411] fire5/squeeze1x1_fire5/relu_squeeze1x1_0_split -> fire5/squeeze1x1_fire5/relu_squeeze1x1_0_split_1
I1012 18:33:48.528465 109031 net.cpp:150] Setting up fire5/squeeze1x1_fire5/relu_squeeze1x1_0_split
I1012 18:33:48.528471 109031 net.cpp:157] Top shape: 100 32 28 28 (2508800)
I1012 18:33:48.528475 109031 net.cpp:157] Top shape: 100 32 28 28 (2508800)
I1012 18:33:48.528477 109031 net.cpp:165] Memory required for data: 2281100000
I1012 18:33:48.528481 109031 layer_factory.hpp:77] Creating layer fire5/expand1x1
I1012 18:33:48.528489 109031 net.cpp:106] Creating Layer fire5/expand1x1
I1012 18:33:48.528492 109031 net.cpp:454] fire5/expand1x1 <- fire5/squeeze1x1_fire5/relu_squeeze1x1_0_split_0
I1012 18:33:48.528497 109031 net.cpp:411] fire5/expand1x1 -> fire5/expand1x1
I1012 18:33:48.529978 109031 net.cpp:150] Setting up fire5/expand1x1
I1012 18:33:48.529991 109031 net.cpp:157] Top shape: 100 128 28 28 (10035200)
I1012 18:33:48.530006 109031 net.cpp:165] Memory required for data: 2321240800
I1012 18:33:48.530012 109031 layer_factory.hpp:77] Creating layer fire5/relu_expand1x1
I1012 18:33:48.530019 109031 net.cpp:106] Creating Layer fire5/relu_expand1x1
I1012 18:33:48.530022 109031 net.cpp:454] fire5/relu_expand1x1 <- fire5/expand1x1
I1012 18:33:48.530040 109031 net.cpp:397] fire5/relu_expand1x1 -> fire5/expand1x1 (in-place)
I1012 18:33:48.530460 109031 net.cpp:150] Setting up fire5/relu_expand1x1
I1012 18:33:48.530473 109031 net.cpp:157] Top shape: 100 128 28 28 (10035200)
I1012 18:33:48.530488 109031 net.cpp:165] Memory required for data: 2361381600
I1012 18:33:48.530491 109031 layer_factory.hpp:77] Creating layer fire5/expand3x3
I1012 18:33:48.530501 109031 net.cpp:106] Creating Layer fire5/expand3x3
I1012 18:33:48.530505 109031 net.cpp:454] fire5/expand3x3 <- fire5/squeeze1x1_fire5/relu_squeeze1x1_0_split_1
I1012 18:33:48.530511 109031 net.cpp:411] fire5/expand3x3 -> fire5/expand3x3
I1012 18:33:48.531843 109031 net.cpp:150] Setting up fire5/expand3x3
I1012 18:33:48.531869 109031 net.cpp:157] Top shape: 100 128 28 28 (10035200)
I1012 18:33:48.531873 109031 net.cpp:165] Memory required for data: 2401522400
I1012 18:33:48.531880 109031 layer_factory.hpp:77] Creating layer fire5/relu_expand3x3
I1012 18:33:48.531886 109031 net.cpp:106] Creating Layer fire5/relu_expand3x3
I1012 18:33:48.531890 109031 net.cpp:454] fire5/relu_expand3x3 <- fire5/expand3x3
I1012 18:33:48.531903 109031 net.cpp:397] fire5/relu_expand3x3 -> fire5/expand3x3 (in-place)
I1012 18:33:48.532305 109031 net.cpp:150] Setting up fire5/relu_expand3x3
I1012 18:33:48.532318 109031 net.cpp:157] Top shape: 100 128 28 28 (10035200)
I1012 18:33:48.532332 109031 net.cpp:165] Memory required for data: 2441663200
I1012 18:33:48.532336 109031 layer_factory.hpp:77] Creating layer fire5/concat
I1012 18:33:48.532343 109031 net.cpp:106] Creating Layer fire5/concat
I1012 18:33:48.532347 109031 net.cpp:454] fire5/concat <- fire5/expand1x1
I1012 18:33:48.532352 109031 net.cpp:454] fire5/concat <- fire5/expand3x3
I1012 18:33:48.532357 109031 net.cpp:411] fire5/concat -> fire5/concat
I1012 18:33:48.532392 109031 net.cpp:150] Setting up fire5/concat
I1012 18:33:48.532397 109031 net.cpp:157] Top shape: 100 256 28 28 (20070400)
I1012 18:33:48.532400 109031 net.cpp:165] Memory required for data: 2521944800
I1012 18:33:48.532403 109031 layer_factory.hpp:77] Creating layer pool5
I1012 18:33:48.532409 109031 net.cpp:106] Creating Layer pool5
I1012 18:33:48.532430 109031 net.cpp:454] pool5 <- fire5/concat
I1012 18:33:48.532438 109031 net.cpp:411] pool5 -> pool5
I1012 18:33:48.532886 109031 net.cpp:150] Setting up pool5
I1012 18:33:48.532899 109031 net.cpp:157] Top shape: 100 256 14 14 (5017600)
I1012 18:33:48.532914 109031 net.cpp:165] Memory required for data: 2542015200
I1012 18:33:48.532918 109031 layer_factory.hpp:77] Creating layer fire6/squeeze1x1
I1012 18:33:48.532928 109031 net.cpp:106] Creating Layer fire6/squeeze1x1
I1012 18:33:48.532932 109031 net.cpp:454] fire6/squeeze1x1 <- pool5
I1012 18:33:48.532938 109031 net.cpp:411] fire6/squeeze1x1 -> fire6/squeeze1x1
I1012 18:33:48.534086 109031 net.cpp:150] Setting up fire6/squeeze1x1
I1012 18:33:48.534112 109031 net.cpp:157] Top shape: 100 48 14 14 (940800)
I1012 18:33:48.534116 109031 net.cpp:165] Memory required for data: 2545778400
I1012 18:33:48.534122 109031 layer_factory.hpp:77] Creating layer fire6/relu_squeeze1x1
I1012 18:33:48.534128 109031 net.cpp:106] Creating Layer fire6/relu_squeeze1x1
I1012 18:33:48.534132 109031 net.cpp:454] fire6/relu_squeeze1x1 <- fire6/squeeze1x1
I1012 18:33:48.534149 109031 net.cpp:397] fire6/relu_squeeze1x1 -> fire6/squeeze1x1 (in-place)
I1012 18:33:48.534543 109031 net.cpp:150] Setting up fire6/relu_squeeze1x1
I1012 18:33:48.534555 109031 net.cpp:157] Top shape: 100 48 14 14 (940800)
I1012 18:33:48.534571 109031 net.cpp:165] Memory required for data: 2549541600
I1012 18:33:48.534574 109031 layer_factory.hpp:77] Creating layer fire6/squeeze1x1_fire6/relu_squeeze1x1_0_split
I1012 18:33:48.534581 109031 net.cpp:106] Creating Layer fire6/squeeze1x1_fire6/relu_squeeze1x1_0_split
I1012 18:33:48.534585 109031 net.cpp:454] fire6/squeeze1x1_fire6/relu_squeeze1x1_0_split <- fire6/squeeze1x1
I1012 18:33:48.534591 109031 net.cpp:411] fire6/squeeze1x1_fire6/relu_squeeze1x1_0_split -> fire6/squeeze1x1_fire6/relu_squeeze1x1_0_split_0
I1012 18:33:48.534598 109031 net.cpp:411] fire6/squeeze1x1_fire6/relu_squeeze1x1_0_split -> fire6/squeeze1x1_fire6/relu_squeeze1x1_0_split_1
I1012 18:33:48.534652 109031 net.cpp:150] Setting up fire6/squeeze1x1_fire6/relu_squeeze1x1_0_split
I1012 18:33:48.534672 109031 net.cpp:157] Top shape: 100 48 14 14 (940800)
I1012 18:33:48.534677 109031 net.cpp:157] Top shape: 100 48 14 14 (940800)
I1012 18:33:48.534678 109031 net.cpp:165] Memory required for data: 2557068000
I1012 18:33:48.534694 109031 layer_factory.hpp:77] Creating layer fire6/expand1x1
I1012 18:33:48.534703 109031 net.cpp:106] Creating Layer fire6/expand1x1
I1012 18:33:48.534708 109031 net.cpp:454] fire6/expand1x1 <- fire6/squeeze1x1_fire6/relu_squeeze1x1_0_split_0
I1012 18:33:48.534714 109031 net.cpp:411] fire6/expand1x1 -> fire6/expand1x1
I1012 18:33:48.536340 109031 net.cpp:150] Setting up fire6/expand1x1
I1012 18:33:48.536355 109031 net.cpp:157] Top shape: 100 192 14 14 (3763200)
I1012 18:33:48.536370 109031 net.cpp:165] Memory required for data: 2572120800
I1012 18:33:48.536376 109031 layer_factory.hpp:77] Creating layer fire6/relu_expand1x1
I1012 18:33:48.536383 109031 net.cpp:106] Creating Layer fire6/relu_expand1x1
I1012 18:33:48.536387 109031 net.cpp:454] fire6/relu_expand1x1 <- fire6/expand1x1
I1012 18:33:48.536404 109031 net.cpp:397] fire6/relu_expand1x1 -> fire6/expand1x1 (in-place)
I1012 18:33:48.536605 109031 net.cpp:150] Setting up fire6/relu_expand1x1
I1012 18:33:48.536615 109031 net.cpp:157] Top shape: 100 192 14 14 (3763200)
I1012 18:33:48.536630 109031 net.cpp:165] Memory required for data: 2587173600
I1012 18:33:48.536633 109031 layer_factory.hpp:77] Creating layer fire6/expand3x3
I1012 18:33:48.536644 109031 net.cpp:106] Creating Layer fire6/expand3x3
I1012 18:33:48.536648 109031 net.cpp:454] fire6/expand3x3 <- fire6/squeeze1x1_fire6/relu_squeeze1x1_0_split_1
I1012 18:33:48.536653 109031 net.cpp:411] fire6/expand3x3 -> fire6/expand3x3
I1012 18:33:48.538642 109031 net.cpp:150] Setting up fire6/expand3x3
I1012 18:33:48.538655 109031 net.cpp:157] Top shape: 100 192 14 14 (3763200)
I1012 18:33:48.538671 109031 net.cpp:165] Memory required for data: 2602226400
I1012 18:33:48.538686 109031 layer_factory.hpp:77] Creating layer fire6/relu_expand3x3
I1012 18:33:48.538707 109031 net.cpp:106] Creating Layer fire6/relu_expand3x3
I1012 18:33:48.538710 109031 net.cpp:454] fire6/relu_expand3x3 <- fire6/expand3x3
I1012 18:33:48.538717 109031 net.cpp:397] fire6/relu_expand3x3 -> fire6/expand3x3 (in-place)
I1012 18:33:48.539110 109031 net.cpp:150] Setting up fire6/relu_expand3x3
I1012 18:33:48.539124 109031 net.cpp:157] Top shape: 100 192 14 14 (3763200)
I1012 18:33:48.539137 109031 net.cpp:165] Memory required for data: 2617279200
I1012 18:33:48.539141 109031 layer_factory.hpp:77] Creating layer fire6/concat
I1012 18:33:48.539147 109031 net.cpp:106] Creating Layer fire6/concat
I1012 18:33:48.539151 109031 net.cpp:454] fire6/concat <- fire6/expand1x1
I1012 18:33:48.539156 109031 net.cpp:454] fire6/concat <- fire6/expand3x3
I1012 18:33:48.539162 109031 net.cpp:411] fire6/concat -> fire6/concat
I1012 18:33:48.539198 109031 net.cpp:150] Setting up fire6/concat
I1012 18:33:48.539206 109031 net.cpp:157] Top shape: 100 384 14 14 (7526400)
I1012 18:33:48.539209 109031 net.cpp:165] Memory required for data: 2647384800
I1012 18:33:48.539212 109031 layer_factory.hpp:77] Creating layer fire7/squeeze1x1
I1012 18:33:48.539219 109031 net.cpp:106] Creating Layer fire7/squeeze1x1
I1012 18:33:48.539223 109031 net.cpp:454] fire7/squeeze1x1 <- fire6/concat
I1012 18:33:48.539230 109031 net.cpp:411] fire7/squeeze1x1 -> fire7/squeeze1x1
I1012 18:33:48.540457 109031 net.cpp:150] Setting up fire7/squeeze1x1
I1012 18:33:48.540482 109031 net.cpp:157] Top shape: 100 48 14 14 (940800)
I1012 18:33:48.540487 109031 net.cpp:165] Memory required for data: 2651148000
I1012 18:33:48.540499 109031 layer_factory.hpp:77] Creating layer fire7/relu_squeeze1x1
I1012 18:33:48.540516 109031 net.cpp:106] Creating Layer fire7/relu_squeeze1x1
I1012 18:33:48.540520 109031 net.cpp:454] fire7/relu_squeeze1x1 <- fire7/squeeze1x1
I1012 18:33:48.540526 109031 net.cpp:397] fire7/relu_squeeze1x1 -> fire7/squeeze1x1 (in-place)
I1012 18:33:48.540942 109031 net.cpp:150] Setting up fire7/relu_squeeze1x1
I1012 18:33:48.540967 109031 net.cpp:157] Top shape: 100 48 14 14 (940800)
I1012 18:33:48.540982 109031 net.cpp:165] Memory required for data: 2654911200
I1012 18:33:48.540987 109031 layer_factory.hpp:77] Creating layer fire7/squeeze1x1_fire7/relu_squeeze1x1_0_split
I1012 18:33:48.540993 109031 net.cpp:106] Creating Layer fire7/squeeze1x1_fire7/relu_squeeze1x1_0_split
I1012 18:33:48.540997 109031 net.cpp:454] fire7/squeeze1x1_fire7/relu_squeeze1x1_0_split <- fire7/squeeze1x1
I1012 18:33:48.541002 109031 net.cpp:411] fire7/squeeze1x1_fire7/relu_squeeze1x1_0_split -> fire7/squeeze1x1_fire7/relu_squeeze1x1_0_split_0
I1012 18:33:48.541013 109031 net.cpp:411] fire7/squeeze1x1_fire7/relu_squeeze1x1_0_split -> fire7/squeeze1x1_fire7/relu_squeeze1x1_0_split_1
I1012 18:33:48.541062 109031 net.cpp:150] Setting up fire7/squeeze1x1_fire7/relu_squeeze1x1_0_split
I1012 18:33:48.541070 109031 net.cpp:157] Top shape: 100 48 14 14 (940800)
I1012 18:33:48.541086 109031 net.cpp:157] Top shape: 100 48 14 14 (940800)
I1012 18:33:48.541090 109031 net.cpp:165] Memory required for data: 2662437600
I1012 18:33:48.541092 109031 layer_factory.hpp:77] Creating layer fire7/expand1x1
I1012 18:33:48.541111 109031 net.cpp:106] Creating Layer fire7/expand1x1
I1012 18:33:48.541115 109031 net.cpp:454] fire7/expand1x1 <- fire7/squeeze1x1_fire7/relu_squeeze1x1_0_split_0
I1012 18:33:48.541121 109031 net.cpp:411] fire7/expand1x1 -> fire7/expand1x1
I1012 18:33:48.542695 109031 net.cpp:150] Setting up fire7/expand1x1
I1012 18:33:48.542709 109031 net.cpp:157] Top shape: 100 192 14 14 (3763200)
I1012 18:33:48.542724 109031 net.cpp:165] Memory required for data: 2677490400
I1012 18:33:48.542732 109031 layer_factory.hpp:77] Creating layer fire7/relu_expand1x1
I1012 18:33:48.542737 109031 net.cpp:106] Creating Layer fire7/relu_expand1x1
I1012 18:33:48.542740 109031 net.cpp:454] fire7/relu_expand1x1 <- fire7/expand1x1
I1012 18:33:48.542759 109031 net.cpp:397] fire7/relu_expand1x1 -> fire7/expand1x1 (in-place)
I1012 18:33:48.542975 109031 net.cpp:150] Setting up fire7/relu_expand1x1
I1012 18:33:48.542986 109031 net.cpp:157] Top shape: 100 192 14 14 (3763200)
I1012 18:33:48.543000 109031 net.cpp:165] Memory required for data: 2692543200
I1012 18:33:48.543004 109031 layer_factory.hpp:77] Creating layer fire7/expand3x3
I1012 18:33:48.543014 109031 net.cpp:106] Creating Layer fire7/expand3x3
I1012 18:33:48.543017 109031 net.cpp:454] fire7/expand3x3 <- fire7/squeeze1x1_fire7/relu_squeeze1x1_0_split_1
I1012 18:33:48.543023 109031 net.cpp:411] fire7/expand3x3 -> fire7/expand3x3
I1012 18:33:48.545040 109031 net.cpp:150] Setting up fire7/expand3x3
I1012 18:33:48.545066 109031 net.cpp:157] Top shape: 100 192 14 14 (3763200)
I1012 18:33:48.545070 109031 net.cpp:165] Memory required for data: 2707596000
I1012 18:33:48.545076 109031 layer_factory.hpp:77] Creating layer fire7/relu_expand3x3
I1012 18:33:48.545083 109031 net.cpp:106] Creating Layer fire7/relu_expand3x3
I1012 18:33:48.545086 109031 net.cpp:454] fire7/relu_expand3x3 <- fire7/expand3x3
I1012 18:33:48.545104 109031 net.cpp:397] fire7/relu_expand3x3 -> fire7/expand3x3 (in-place)
I1012 18:33:48.545763 109031 net.cpp:150] Setting up fire7/relu_expand3x3
I1012 18:33:48.545778 109031 net.cpp:157] Top shape: 100 192 14 14 (3763200)
I1012 18:33:48.545794 109031 net.cpp:165] Memory required for data: 2722648800
I1012 18:33:48.545796 109031 layer_factory.hpp:77] Creating layer fire7/concat
I1012 18:33:48.545802 109031 net.cpp:106] Creating Layer fire7/concat
I1012 18:33:48.545805 109031 net.cpp:454] fire7/concat <- fire7/expand1x1
I1012 18:33:48.545822 109031 net.cpp:454] fire7/concat <- fire7/expand3x3
I1012 18:33:48.545827 109031 net.cpp:411] fire7/concat -> fire7/concat
I1012 18:33:48.545864 109031 net.cpp:150] Setting up fire7/concat
I1012 18:33:48.545872 109031 net.cpp:157] Top shape: 100 384 14 14 (7526400)
I1012 18:33:48.545876 109031 net.cpp:165] Memory required for data: 2752754400
I1012 18:33:48.545879 109031 layer_factory.hpp:77] Creating layer fire8/squeeze1x1
I1012 18:33:48.545887 109031 net.cpp:106] Creating Layer fire8/squeeze1x1
I1012 18:33:48.545894 109031 net.cpp:454] fire8/squeeze1x1 <- fire7/concat
I1012 18:33:48.545899 109031 net.cpp:411] fire8/squeeze1x1 -> fire8/squeeze1x1
I1012 18:33:48.547657 109031 net.cpp:150] Setting up fire8/squeeze1x1
I1012 18:33:48.547672 109031 net.cpp:157] Top shape: 100 64 14 14 (1254400)
I1012 18:33:48.547686 109031 net.cpp:165] Memory required for data: 2757772000
I1012 18:33:48.547693 109031 layer_factory.hpp:77] Creating layer fire8/relu_squeeze1x1
I1012 18:33:48.547700 109031 net.cpp:106] Creating Layer fire8/relu_squeeze1x1
I1012 18:33:48.547716 109031 net.cpp:454] fire8/relu_squeeze1x1 <- fire8/squeeze1x1
I1012 18:33:48.547722 109031 net.cpp:397] fire8/relu_squeeze1x1 -> fire8/squeeze1x1 (in-place)
I1012 18:33:48.548153 109031 net.cpp:150] Setting up fire8/relu_squeeze1x1
I1012 18:33:48.548166 109031 net.cpp:157] Top shape: 100 64 14 14 (1254400)
I1012 18:33:48.548182 109031 net.cpp:165] Memory required for data: 2762789600
I1012 18:33:48.548184 109031 layer_factory.hpp:77] Creating layer fire8/squeeze1x1_fire8/relu_squeeze1x1_0_split
I1012 18:33:48.548190 109031 net.cpp:106] Creating Layer fire8/squeeze1x1_fire8/relu_squeeze1x1_0_split
I1012 18:33:48.548194 109031 net.cpp:454] fire8/squeeze1x1_fire8/relu_squeeze1x1_0_split <- fire8/squeeze1x1
I1012 18:33:48.548202 109031 net.cpp:411] fire8/squeeze1x1_fire8/relu_squeeze1x1_0_split -> fire8/squeeze1x1_fire8/relu_squeeze1x1_0_split_0
I1012 18:33:48.548209 109031 net.cpp:411] fire8/squeeze1x1_fire8/relu_squeeze1x1_0_split -> fire8/squeeze1x1_fire8/relu_squeeze1x1_0_split_1
I1012 18:33:48.548260 109031 net.cpp:150] Setting up fire8/squeeze1x1_fire8/relu_squeeze1x1_0_split
I1012 18:33:48.548269 109031 net.cpp:157] Top shape: 100 64 14 14 (1254400)
I1012 18:33:48.548272 109031 net.cpp:157] Top shape: 100 64 14 14 (1254400)
I1012 18:33:48.548275 109031 net.cpp:165] Memory required for data: 2772824800
I1012 18:33:48.548280 109031 layer_factory.hpp:77] Creating layer fire8/expand1x1
I1012 18:33:48.548301 109031 net.cpp:106] Creating Layer fire8/expand1x1
I1012 18:33:48.548306 109031 net.cpp:454] fire8/expand1x1 <- fire8/squeeze1x1_fire8/relu_squeeze1x1_0_split_0
I1012 18:33:48.548312 109031 net.cpp:411] fire8/expand1x1 -> fire8/expand1x1
I1012 18:33:48.549705 109031 net.cpp:150] Setting up fire8/expand1x1
I1012 18:33:48.549717 109031 net.cpp:157] Top shape: 100 256 14 14 (5017600)
I1012 18:33:48.549732 109031 net.cpp:165] Memory required for data: 2792895200
I1012 18:33:48.549739 109031 layer_factory.hpp:77] Creating layer fire8/relu_expand1x1
I1012 18:33:48.549746 109031 net.cpp:106] Creating Layer fire8/relu_expand1x1
I1012 18:33:48.549762 109031 net.cpp:454] fire8/relu_expand1x1 <- fire8/expand1x1
I1012 18:33:48.549767 109031 net.cpp:397] fire8/relu_expand1x1 -> fire8/expand1x1 (in-place)
I1012 18:33:48.549960 109031 net.cpp:150] Setting up fire8/relu_expand1x1
I1012 18:33:48.549971 109031 net.cpp:157] Top shape: 100 256 14 14 (5017600)
I1012 18:33:48.549986 109031 net.cpp:165] Memory required for data: 2812965600
I1012 18:33:48.549989 109031 layer_factory.hpp:77] Creating layer fire8/expand3x3
I1012 18:33:48.549998 109031 net.cpp:106] Creating Layer fire8/expand3x3
I1012 18:33:48.550014 109031 net.cpp:454] fire8/expand3x3 <- fire8/squeeze1x1_fire8/relu_squeeze1x1_0_split_1
I1012 18:33:48.550021 109031 net.cpp:411] fire8/expand3x3 -> fire8/expand3x3
I1012 18:33:48.552989 109031 net.cpp:150] Setting up fire8/expand3x3
I1012 18:33:48.553004 109031 net.cpp:157] Top shape: 100 256 14 14 (5017600)
I1012 18:33:48.553019 109031 net.cpp:165] Memory required for data: 2833036000
I1012 18:33:48.553025 109031 layer_factory.hpp:77] Creating layer fire8/relu_expand3x3
I1012 18:33:48.553032 109031 net.cpp:106] Creating Layer fire8/relu_expand3x3
I1012 18:33:48.553036 109031 net.cpp:454] fire8/relu_expand3x3 <- fire8/expand3x3
I1012 18:33:48.553052 109031 net.cpp:397] fire8/relu_expand3x3 -> fire8/expand3x3 (in-place)
I1012 18:33:48.553483 109031 net.cpp:150] Setting up fire8/relu_expand3x3
I1012 18:33:48.553495 109031 net.cpp:157] Top shape: 100 256 14 14 (5017600)
I1012 18:33:48.553510 109031 net.cpp:165] Memory required for data: 2853106400
I1012 18:33:48.553514 109031 layer_factory.hpp:77] Creating layer fire8/concat
I1012 18:33:48.553520 109031 net.cpp:106] Creating Layer fire8/concat
I1012 18:33:48.553524 109031 net.cpp:454] fire8/concat <- fire8/expand1x1
I1012 18:33:48.553529 109031 net.cpp:454] fire8/concat <- fire8/expand3x3
I1012 18:33:48.553535 109031 net.cpp:411] fire8/concat -> fire8/concat
I1012 18:33:48.553573 109031 net.cpp:150] Setting up fire8/concat
I1012 18:33:48.553581 109031 net.cpp:157] Top shape: 100 512 14 14 (10035200)
I1012 18:33:48.553584 109031 net.cpp:165] Memory required for data: 2893247200
I1012 18:33:48.553587 109031 layer_factory.hpp:77] Creating layer fire9/squeeze1x1
I1012 18:33:48.553596 109031 net.cpp:106] Creating Layer fire9/squeeze1x1
I1012 18:33:48.553601 109031 net.cpp:454] fire9/squeeze1x1 <- fire8/concat
I1012 18:33:48.553606 109031 net.cpp:411] fire9/squeeze1x1 -> fire9/squeeze1x1
I1012 18:33:48.554913 109031 net.cpp:150] Setting up fire9/squeeze1x1
I1012 18:33:48.554926 109031 net.cpp:157] Top shape: 100 64 14 14 (1254400)
I1012 18:33:48.554941 109031 net.cpp:165] Memory required for data: 2898264800
I1012 18:33:48.554947 109031 layer_factory.hpp:77] Creating layer fire9/relu_squeeze1x1
I1012 18:33:48.554972 109031 net.cpp:106] Creating Layer fire9/relu_squeeze1x1
I1012 18:33:48.554976 109031 net.cpp:454] fire9/relu_squeeze1x1 <- fire9/squeeze1x1
I1012 18:33:48.554982 109031 net.cpp:397] fire9/relu_squeeze1x1 -> fire9/squeeze1x1 (in-place)
I1012 18:33:48.555387 109031 net.cpp:150] Setting up fire9/relu_squeeze1x1
I1012 18:33:48.555398 109031 net.cpp:157] Top shape: 100 64 14 14 (1254400)
I1012 18:33:48.555413 109031 net.cpp:165] Memory required for data: 2903282400
I1012 18:33:48.555418 109031 layer_factory.hpp:77] Creating layer fire9/squeeze1x1_fire9/relu_squeeze1x1_0_split
I1012 18:33:48.555424 109031 net.cpp:106] Creating Layer fire9/squeeze1x1_fire9/relu_squeeze1x1_0_split
I1012 18:33:48.555449 109031 net.cpp:454] fire9/squeeze1x1_fire9/relu_squeeze1x1_0_split <- fire9/squeeze1x1
I1012 18:33:48.555455 109031 net.cpp:411] fire9/squeeze1x1_fire9/relu_squeeze1x1_0_split -> fire9/squeeze1x1_fire9/relu_squeeze1x1_0_split_0
I1012 18:33:48.555464 109031 net.cpp:411] fire9/squeeze1x1_fire9/relu_squeeze1x1_0_split -> fire9/squeeze1x1_fire9/relu_squeeze1x1_0_split_1
I1012 18:33:48.555529 109031 net.cpp:150] Setting up fire9/squeeze1x1_fire9/relu_squeeze1x1_0_split
I1012 18:33:48.555548 109031 net.cpp:157] Top shape: 100 64 14 14 (1254400)
I1012 18:33:48.555552 109031 net.cpp:157] Top shape: 100 64 14 14 (1254400)
I1012 18:33:48.555567 109031 net.cpp:165] Memory required for data: 2913317600
I1012 18:33:48.555570 109031 layer_factory.hpp:77] Creating layer fire9/expand1x1
I1012 18:33:48.555582 109031 net.cpp:106] Creating Layer fire9/expand1x1
I1012 18:33:48.555584 109031 net.cpp:454] fire9/expand1x1 <- fire9/squeeze1x1_fire9/relu_squeeze1x1_0_split_0
I1012 18:33:48.555590 109031 net.cpp:411] fire9/expand1x1 -> fire9/expand1x1
I1012 18:33:48.557003 109031 net.cpp:150] Setting up fire9/expand1x1
I1012 18:33:48.557029 109031 net.cpp:157] Top shape: 100 256 14 14 (5017600)
I1012 18:33:48.557032 109031 net.cpp:165] Memory required for data: 2933388000
I1012 18:33:48.557050 109031 layer_factory.hpp:77] Creating layer fire9/relu_expand1x1
I1012 18:33:48.557056 109031 net.cpp:106] Creating Layer fire9/relu_expand1x1
I1012 18:33:48.557060 109031 net.cpp:454] fire9/relu_expand1x1 <- fire9/expand1x1
I1012 18:33:48.557066 109031 net.cpp:397] fire9/relu_expand1x1 -> fire9/expand1x1 (in-place)
I1012 18:33:48.557261 109031 net.cpp:150] Setting up fire9/relu_expand1x1
I1012 18:33:48.557271 109031 net.cpp:157] Top shape: 100 256 14 14 (5017600)
I1012 18:33:48.557286 109031 net.cpp:165] Memory required for data: 2953458400
I1012 18:33:48.557291 109031 layer_factory.hpp:77] Creating layer fire9/expand3x3
I1012 18:33:48.557304 109031 net.cpp:106] Creating Layer fire9/expand3x3
I1012 18:33:48.557308 109031 net.cpp:454] fire9/expand3x3 <- fire9/squeeze1x1_fire9/relu_squeeze1x1_0_split_1
I1012 18:33:48.557314 109031 net.cpp:411] fire9/expand3x3 -> fire9/expand3x3
I1012 18:33:48.560657 109031 net.cpp:150] Setting up fire9/expand3x3
I1012 18:33:48.560672 109031 net.cpp:157] Top shape: 100 256 14 14 (5017600)
I1012 18:33:48.560686 109031 net.cpp:165] Memory required for data: 2973528800
I1012 18:33:48.560693 109031 layer_factory.hpp:77] Creating layer fire9/relu_expand3x3
I1012 18:33:48.560700 109031 net.cpp:106] Creating Layer fire9/relu_expand3x3
I1012 18:33:48.560704 109031 net.cpp:454] fire9/relu_expand3x3 <- fire9/expand3x3
I1012 18:33:48.560722 109031 net.cpp:397] fire9/relu_expand3x3 -> fire9/expand3x3 (in-place)
I1012 18:33:48.561141 109031 net.cpp:150] Setting up fire9/relu_expand3x3
I1012 18:33:48.561153 109031 net.cpp:157] Top shape: 100 256 14 14 (5017600)
I1012 18:33:48.561169 109031 net.cpp:165] Memory required for data: 2993599200
I1012 18:33:48.561172 109031 layer_factory.hpp:77] Creating layer fire9/concat
I1012 18:33:48.561178 109031 net.cpp:106] Creating Layer fire9/concat
I1012 18:33:48.561182 109031 net.cpp:454] fire9/concat <- fire9/expand1x1
I1012 18:33:48.561188 109031 net.cpp:454] fire9/concat <- fire9/expand3x3
I1012 18:33:48.561205 109031 net.cpp:411] fire9/concat -> fire9/concat
I1012 18:33:48.561242 109031 net.cpp:150] Setting up fire9/concat
I1012 18:33:48.561250 109031 net.cpp:157] Top shape: 100 512 14 14 (10035200)
I1012 18:33:48.561254 109031 net.cpp:165] Memory required for data: 3033740000
I1012 18:33:48.561257 109031 layer_factory.hpp:77] Creating layer drop9
I1012 18:33:48.561264 109031 net.cpp:106] Creating Layer drop9
I1012 18:33:48.561266 109031 net.cpp:454] drop9 <- fire9/concat
I1012 18:33:48.561271 109031 net.cpp:397] drop9 -> fire9/concat (in-place)
I1012 18:33:48.561302 109031 net.cpp:150] Setting up drop9
I1012 18:33:48.561311 109031 net.cpp:157] Top shape: 100 512 14 14 (10035200)
I1012 18:33:48.561313 109031 net.cpp:165] Memory required for data: 3073880800
I1012 18:33:48.561327 109031 layer_factory.hpp:77] Creating layer conv10_2626
I1012 18:33:48.561337 109031 net.cpp:106] Creating Layer conv10_2626
I1012 18:33:48.561342 109031 net.cpp:454] conv10_2626 <- fire9/concat
I1012 18:33:48.561348 109031 net.cpp:411] conv10_2626 -> conv10_2626
I1012 18:33:48.584844 109031 net.cpp:150] Setting up conv10_2626
I1012 18:33:48.584882 109031 net.cpp:157] Top shape: 100 2626 14 14 (51469600)
I1012 18:33:48.584887 109031 net.cpp:165] Memory required for data: 3279759200
I1012 18:33:48.584897 109031 layer_factory.hpp:77] Creating layer relu_conv10
I1012 18:33:48.584904 109031 net.cpp:106] Creating Layer relu_conv10
I1012 18:33:48.584909 109031 net.cpp:454] relu_conv10 <- conv10_2626
I1012 18:33:48.584928 109031 net.cpp:397] relu_conv10 -> conv10_2626 (in-place)
I1012 18:33:48.585361 109031 net.cpp:150] Setting up relu_conv10
I1012 18:33:48.585373 109031 net.cpp:157] Top shape: 100 2626 14 14 (51469600)
I1012 18:33:48.585388 109031 net.cpp:165] Memory required for data: 3485637600
I1012 18:33:48.585391 109031 layer_factory.hpp:77] Creating layer pool10
I1012 18:33:48.585400 109031 net.cpp:106] Creating Layer pool10
I1012 18:33:48.585404 109031 net.cpp:454] pool10 <- conv10_2626
I1012 18:33:48.585410 109031 net.cpp:411] pool10 -> pool10
I1012 18:33:48.585631 109031 net.cpp:150] Setting up pool10
I1012 18:33:48.585642 109031 net.cpp:157] Top shape: 100 2626 1 1 (262600)
I1012 18:33:48.585657 109031 net.cpp:165] Memory required for data: 3486688000
I1012 18:33:48.585661 109031 layer_factory.hpp:77] Creating layer pool10_pool10_0_split
I1012 18:33:48.585667 109031 net.cpp:106] Creating Layer pool10_pool10_0_split
I1012 18:33:48.585670 109031 net.cpp:454] pool10_pool10_0_split <- pool10
I1012 18:33:48.585676 109031 net.cpp:411] pool10_pool10_0_split -> pool10_pool10_0_split_0
I1012 18:33:48.585685 109031 net.cpp:411] pool10_pool10_0_split -> pool10_pool10_0_split_1
I1012 18:33:48.585734 109031 net.cpp:150] Setting up pool10_pool10_0_split
I1012 18:33:48.585742 109031 net.cpp:157] Top shape: 100 2626 1 1 (262600)
I1012 18:33:48.585747 109031 net.cpp:157] Top shape: 100 2626 1 1 (262600)
I1012 18:33:48.585750 109031 net.cpp:165] Memory required for data: 3488788800
I1012 18:33:48.585753 109031 layer_factory.hpp:77] Creating layer loss
I1012 18:33:48.585760 109031 net.cpp:106] Creating Layer loss
I1012 18:33:48.585763 109031 net.cpp:454] loss <- pool10_pool10_0_split_0
I1012 18:33:48.585768 109031 net.cpp:454] loss <- label_data_1_split_0
I1012 18:33:48.585772 109031 net.cpp:411] loss -> loss
…
