…
I1017 16:01:40.416911 19677 net.cpp:322] The NetState phase (0) differed from the phase (1) specified by a rule in layer data
I1017 16:01:40.416962 19677 net.cpp:322] The NetState phase (0) differed from the phase (1) specified by a rule in layer accuracy
I1017 16:01:40.417366 19677 net.cpp:58] Initializing net from parameters: 
state {
  phase: TRAIN
  level: 0
  stage: ""
}
layer {
  name: "data"
  type: "Data"
  top: "data"
  top: "label"
  include {
    phase: TRAIN
  }
  transform_param {
    crop_size: 227
    mean_file: "/share/zhh/mean.binaryproto"
  }
  data_param {
    source: "/share/front/train_lmdb"
    batch_size: 128
    backend: LMDB
  }
}
layer {
  name: "conv1"
  type: "Convolution"
  bottom: "data"
  top: "conv1"
  convolution_param {
    num_output: 64
    kernel_size: 3
    stride: 2
    weight_filler {
      type: "xavier"
    }
  }
}
layer {
  name: "relu_conv1"
  type: "ReLU"
  bottom: "conv1"
  top: "conv1"
}
layer {
  name: "pool1"
  type: "Pooling"
  bottom: "conv1"
  top: "pool1"
  pooling_param {
    pool: MAX
    kernel_size: 3
    stride: 2
  }
}
layer {
  name: "fire2/squeeze1x1"
  type: "Convolution"
  bottom: "pool1"
  top: "fire2/squeeze1x1"
  convolution_param {
    num_output: 16
    kernel_size: 1
    weight_filler {
      type: "xavier"
    }
  }
}
layer {
  name: "fire2/relu_squeeze1x1"
  type: "ReLU"
  bottom: "fire2/squeeze1x1"
  top: "fire2/squeeze1x1"
}
layer {
  name: "fire2/expand1x1"
  type: "Convolution"
  bottom: "fire2/squeeze1x1"
  top: "fire2/expand1x1"
  convolution_param {
    num_output: 64
    kernel_size: 1
    weight_filler {
      type: "xavier"
    }
  }
}
layer {
  name: "fire2/relu_expand1x1"
  type: "ReLU"
  bottom: "fire2/expand1x1"
  top: "fire2/expand1x1"
}
layer {
  name: "fire2/expand3x3"
  type: "Convolution"
  bottom: "fire2/squeeze1x1"
  top: "fire2/expand3x3"
  convolution_param {
    num_output: 64
    pad: 1
    kernel_size: 3
    weight_filler {
      type: "xavier"
    }
  }
}
layer {
  name: "fire2/relu_expand3x3"
  type: "ReLU"
  bottom: "fire2/expand3x3"
  top: "fire2/expand3x3"
}
layer {
  name: "fire2/concat"
  type: "Concat"
  bottom: "fire2/expand1x1"
  bottom: "fire2/expand3x3"
  top: "fire2/concat"
}
layer {
  name: "fire3/squeeze1x1"
  type: "Convolution"
  bottom: "fire2/concat"
  top: "fire3/squeeze1x1"
  convolution_param {
    num_output: 16
    kernel_size: 1
    weight_filler {
      type: "xavier"
    }
  }
}
layer {
  name: "fire3/relu_squeeze1x1"
  type: "ReLU"
  bottom: "fire3/squeeze1x1"
  top: "fire3/squeeze1x1"
}
layer {
  name: "fire3/expand1x1"
  type: "Convolution"
  bottom: "fire3/squeeze1x1"
  top: "fire3/expand1x1"
  convolution_param {
    num_output: 64
    kernel_size: 1
    weight_filler {
      type: "xavier"
    }
  }
}
layer {
  name: "fire3/relu_expand1x1"
  type: "ReLU"
  bottom: "fire3/expand1x1"
  top: "fire3/expand1x1"
}
layer {
  name: "fire3/expand3x3"
  type: "Convolution"
  bottom: "fire3/squeeze1x1"
  top: "fire3/expand3x3"
  convolution_param {
    num_output: 64
    pad: 1
    kernel_size: 3
    weight_filler {
      type: "xavier"
    }
  }
}
layer {
  name: "fire3/relu_expand3x3"
  type: "ReLU"
  bottom: "fire3/expand3x3"
  top: "fire3/expand3x3"
}
layer {
  name: "fire3/concat"
  type: "Concat"
  bottom: "fire3/expand1x1"
  bottom: "fire3/expand3x3"
  top: "fire3/concat"
}
layer {
  name: "pool3"
  type: "Pooling"
  bottom: "fire3/concat"
  top: "pool3"
  pooling_param {
    pool: MAX
    kernel_size: 3
    stride: 2
  }
}
layer {
  name: "fire4/squeeze1x1"
  type: "Convolution"
  bottom: "pool3"
  top: "fire4/squeeze1x1"
  convolution_param {
    num_output: 32
    kernel_size: 1
    weight_filler {
      type: "xavier"
    }
  }
}
layer {
  name: "fire4/relu_squeeze1x1"
  type: "ReLU"
  bottom: "fire4/squeeze1x1"
  top: "fire4/squeeze1x1"
}
layer {
  name: "fire4/expand1x1"
  type: "Convolution"
  bottom: "fire4/squeeze1x1"
  top: "fire4/expand1x1"
  convolution_param {
    num_output: 128
    kernel_size: 1
    weight_filler {
      type: "xavier"
    }
  }
}
layer {
  name: "fire4/relu_expand1x1"
  type: "ReLU"
  bottom: "fire4/expand1x1"
  top: "fire4/expand1x1"
}
layer {
  name: "fire4/expand3x3"
  type: "Convolution"
  bottom: "fire4/squeeze1x1"
  top: "fire4/expand3x3"
  convolution_param {
    num_output: 128
    pad: 1
    kernel_size: 3
    weight_filler {
      type: "xavier"
    }
  }
}
layer {
  name: "fire4/relu_expand3x3"
  type: "ReLU"
  bottom: "fire4/expand3x3"
  top: "fire4/expand3x3"
}
layer {
  name: "fire4/concat"
  type: "Concat"
  bottom: "fire4/expand1x1"
  bottom: "fire4/expand3x3"
  top: "fire4/concat"
}
layer {
  name: "fire5/squeeze1x1"
  type: "Convolution"
  bottom: "fire4/concat"
  top: "fire5/squeeze1x1"
  convolution_param {
    num_output: 32
    kernel_size: 1
    weight_filler {
      type: "xavier"
    }
  }
}
layer {
  name: "fire5/relu_squeeze1x1"
  type: "ReLU"
  bottom: "fire5/squeeze1x1"
  top: "fire5/squeeze1x1"
}
layer {
  name: "fire5/expand1x1"
  type: "Convolution"
  bottom: "fire5/squeeze1x1"
  top: "fire5/expand1x1"
  convolution_param {
    num_output: 128
    kernel_size: 1
    weight_filler {
      type: "xavier"
    }
  }
}
layer {
  name: "fire5/relu_expand1x1"
  type: "ReLU"
  bottom: "fire5/expand1x1"
  top: "fire5/expand1x1"
}
layer {
  name: "fire5/expand3x3"
  type: "Convolution"
  bottom: "fire5/squeeze1x1"
  top: "fire5/expand3x3"
  convolution_param {
    num_output: 128
    pad: 1
    kernel_size: 3
    weight_filler {
      type: "xavier"
    }
  }
}
layer {
  name: "fire5/relu_expand3x3"
  type: "ReLU"
  bottom: "fire5/expand3x3"
  top: "fire5/expand3x3"
}
layer {
  name: "fire5/concat"
  type: "Concat"
  bottom: "fire5/expand1x1"
  bottom: "fire5/expand3x3"
  top: "fire5/concat"
}
layer {
  name: "pool5"
  type: "Pooling"
  bottom: "fire5/concat"
  top: "pool5"
  pooling_param {
    pool: MAX
    kernel_size: 3
    stride: 2
  }
}
layer {
  name: "fire6/squeeze1x1"
  type: "Convolution"
  bottom: "pool5"
  top: "fire6/squeeze1x1"
  convolution_param {
    num_output: 48
    kernel_size: 1
    weight_filler {
      type: "xavier"
    }
  }
}
layer {
  name: "fire6/relu_squeeze1x1"
  type: "ReLU"
  bottom: "fire6/squeeze1x1"
  top: "fire6/squeeze1x1"
}
layer {
  name: "fire6/expand1x1"
  type: "Convolution"
  bottom: "fire6/squeeze1x1"
  top: "fire6/expand1x1"
  convolution_param {
    num_output: 192
    kernel_size: 1
    weight_filler {
      type: "xavier"
    }
  }
}
layer {
  name: "fire6/relu_expand1x1"
  type: "ReLU"
  bottom: "fire6/expand1x1"
  top: "fire6/expand1x1"
}
layer {
  name: "fire6/expand3x3"
  type: "Convolution"
  bottom: "fire6/squeeze1x1"
  top: "fire6/expand3x3"
  convolution_param {
    num_output: 192
    pad: 1
    kernel_size: 3
    weight_filler {
      type: "xavier"
    }
  }
}
layer {
  name: "fire6/relu_expand3x3"
  type: "ReLU"
  bottom: "fire6/expand3x3"
  top: "fire6/expand3x3"
}
layer {
  name: "fire6/concat"
  type: "Concat"
  bottom: "fire6/expand1x1"
  bottom: "fire6/expand3x3"
  top: "fire6/concat"
}
layer {
  name: "fire7/squeeze1x1"
  type: "Convolution"
  bottom: "fire6/concat"
  top: "fire7/squeeze1x1"
  convolution_param {
    num_output: 48
    kernel_size: 1
    weight_filler {
      type: "xavier"
    }
  }
}
layer {
  name: "fire7/relu_squeeze1x1"
  type: "ReLU"
  bottom: "fire7/squeeze1x1"
  top: "fire7/squeeze1x1"
}
layer {
  name: "fire7/expand1x1"
  type: "Convolution"
  bottom: "fire7/squeeze1x1"
  top: "fire7/expand1x1"
  convolution_param {
    num_output: 192
    kernel_size: 1
    weight_filler {
      type: "xavier"
    }
  }
}
layer {
  name: "fire7/relu_expand1x1"
  type: "ReLU"
  bottom: "fire7/expand1x1"
  top: "fire7/expand1x1"
}
layer {
  name: "fire7/expand3x3"
  type: "Convolution"
  bottom: "fire7/squeeze1x1"
  top: "fire7/expand3x3"
  convolution_param {
    num_output: 192
    pad: 1
    kernel_size: 3
    weight_filler {
      type: "xavier"
    }
  }
}
layer {
  name: "fire7/relu_expand3x3"
  type: "ReLU"
  bottom: "fire7/expand3x3"
  top: "fire7/expand3x3"
}
layer {
  name: "fire7/concat"
  type: "Concat"
  bottom: "fire7/expand1x1"
  bottom: "fire7/expand3x3"
  top: "fire7/concat"
}
layer {
  name: "fire8/squeeze1x1"
  type: "Convolution"
  bottom: "fire7/concat"
  top: "fire8/squeeze1x1"
  convolution_param {
    num_output: 64
    kernel_size: 1
    weight_filler {
      type: "xavier"
    }
  }
}
layer {
  name: "fire8/relu_squeeze1x1"
  type: "ReLU"
  bottom: "fire8/squeeze1x1"
  top: "fire8/squeeze1x1"
}
layer {
  name: "fire8/expand1x1"
  type: "Convolution"
  bottom: "fire8/squeeze1x1"
  top: "fire8/expand1x1"
  convolution_param {
    num_output: 256
    kernel_size: 1
    weight_filler {
      type: "xavier"
    }
  }
}
layer {
  name: "fire8/relu_expand1x1"
  type: "ReLU"
  bottom: "fire8/expand1x1"
  top: "fire8/expand1x1"
}
layer {
  name: "fire8/expand3x3"
  type: "Convolution"
  bottom: "fire8/squeeze1x1"
  top: "fire8/expand3x3"
  convolution_param {
    num_output: 256
    pad: 1
    kernel_size: 3
    weight_filler {
      type: "xavier"
    }
  }
}
layer {
  name: "fire8/relu_expand3x3"
  type: "ReLU"
  bottom: "fire8/expand3x3"
  top: "fire8/expand3x3"
}
layer {
  name: "fire8/concat"
  type: "Concat"
  bottom: "fire8/expand1x1"
  bottom: "fire8/expand3x3"
  top: "fire8/concat"
}
layer {
  name: "fire9/squeeze1x1"
  type: "Convolution"
  bottom: "fire8/concat"
  top: "fire9/squeeze1x1"
  convolution_param {
    num_output: 64
    kernel_size: 1
    weight_filler {
      type: "xavier"
    }
  }
}
layer {
  name: "fire9/relu_squeeze1x1"
  type: "ReLU"
  bottom: "fire9/squeeze1x1"
  top: "fire9/squeeze1x1"
}
layer {
  name: "fire9/expand1x1"
  type: "Convolution"
  bottom: "fire9/squeeze1x1"
  top: "fire9/expand1x1"
  convolution_param {
    num_output: 256
    kernel_size: 1
    weight_filler {
      type: "xavier"
    }
  }
}
layer {
  name: "fire9/relu_expand1x1"
  type: "ReLU"
  bottom: "fire9/expand1x1"
  top: "fire9/expand1x1"
}
layer {
  name: "fire9/expand3x3"
  type: "Convolution"
  bottom: "fire9/squeeze1x1"
  top: "fire9/expand3x3"
  convolution_param {
    num_output: 256
    pad: 1
    kernel_size: 3
    weight_filler {
      type: "xavier"
    }
  }
}
layer {
  name: "fire9/relu_expand3x3"
  type: "ReLU"
  bottom: "fire9/expand3x3"
  top: "fire9/expand3x3"
}
layer {
  name: "fire9/concat"
  type: "Concat"
  bottom: "fire9/expand1x1"
  bottom: "fire9/expand3x3"
  top: "fire9/concat"
}
layer {
  name: "drop9"
  type: "Dropout"
  bottom: "fire9/concat"
  top: "fire9/concat"
  dropout_param {
    dropout_ratio: 0.5
  }
}
layer {
  name: "conv10_2626"
  type: "Convolution"
  bottom: "fire9/concat"
  top: "conv10_2626"
  param {
    lr_mult: 10
    decay_mult: 1
  }
  convolution_param {
    num_output: 2626
    kernel_size: 1
    weight_filler {
      type: "gaussian"
      mean: 0
      std: 0.01
    }
  }
}
layer {
  name: "relu_conv10"
  type: "ReLU"
  bottom: "conv10_2626"
  top: "conv10_2626"
}
layer {
  name: "pool10"
  type: "Pooling"
  bottom: "conv10_2626"
  top: "pool10"
  pooling_param {
    pool: AVE
    global_pooling: true
  }
}
layer {
  name: "loss"
  type: "SoftmaxWithLoss"
  bottom: "pool10"
  bottom: "label"
  top: "loss"
}
I1017 16:01:40.417670 19677 layer_factory.hpp:77] Creating layer data
I1017 16:01:40.417855 19677 net.cpp:100] Creating Layer data
I1017 16:01:40.417865 19677 net.cpp:408] data -> data
I1017 16:01:40.417912 19677 net.cpp:408] data -> label
I1017 16:01:40.417925 19677 data_transformer.cpp:25] Loading mean file from: /share/zhh/mean.binaryproto
I1017 16:01:40.419014 19695 db_lmdb.cpp:35] Opened lmdb /share/front/train_lmdb
I1017 16:01:40.450605 19677 data_layer.cpp:41] output data size: 128,3,227,227
I1017 16:01:40.569561 19677 net.cpp:150] Setting up data
I1017 16:01:40.569608 19677 net.cpp:157] Top shape: 128 3 227 227 (19787136)
I1017 16:01:40.569615 19677 net.cpp:157] Top shape: 128 (128)
I1017 16:01:40.569618 19677 net.cpp:165] Memory required for data: 79149056
I1017 16:01:40.569628 19677 layer_factory.hpp:77] Creating layer conv1
I1017 16:01:40.569658 19677 net.cpp:100] Creating Layer conv1
I1017 16:01:40.569665 19677 net.cpp:434] conv1 <- data
I1017 16:01:40.569679 19677 net.cpp:408] conv1 -> conv1
I1017 16:01:40.583679 19697 blocking_queue.cpp:50] Waiting for data
I1017 16:01:40.733592 19677 net.cpp:150] Setting up conv1
I1017 16:01:40.733634 19677 net.cpp:157] Top shape: 128 64 113 113 (104603648)
I1017 16:01:40.733639 19677 net.cpp:165] Memory required for data: 497563648
I1017 16:01:40.733661 19677 layer_factory.hpp:77] Creating layer relu_conv1
I1017 16:01:40.733688 19677 net.cpp:100] Creating Layer relu_conv1
I1017 16:01:40.733693 19677 net.cpp:434] relu_conv1 <- conv1
I1017 16:01:40.733705 19677 net.cpp:395] relu_conv1 -> conv1 (in-place)
I1017 16:01:40.734086 19677 net.cpp:150] Setting up relu_conv1
I1017 16:01:40.734100 19677 net.cpp:157] Top shape: 128 64 113 113 (104603648)
I1017 16:01:40.734115 19677 net.cpp:165] Memory required for data: 915978240
I1017 16:01:40.734119 19677 layer_factory.hpp:77] Creating layer pool1
I1017 16:01:40.734128 19677 net.cpp:100] Creating Layer pool1
I1017 16:01:40.734133 19677 net.cpp:434] pool1 <- conv1
I1017 16:01:40.734138 19677 net.cpp:408] pool1 -> pool1
I1017 16:01:40.734185 19677 net.cpp:150] Setting up pool1
I1017 16:01:40.734192 19677 net.cpp:157] Top shape: 128 64 56 56 (25690112)
I1017 16:01:40.734195 19677 net.cpp:165] Memory required for data: 1018738688
I1017 16:01:40.734199 19677 layer_factory.hpp:77] Creating layer fire2/squeeze1x1
I1017 16:01:40.734210 19677 net.cpp:100] Creating Layer fire2/squeeze1x1
I1017 16:01:40.734215 19677 net.cpp:434] fire2/squeeze1x1 <- pool1
I1017 16:01:40.734220 19677 net.cpp:408] fire2/squeeze1x1 -> fire2/squeeze1x1
I1017 16:01:40.735632 19677 net.cpp:150] Setting up fire2/squeeze1x1
I1017 16:01:40.735646 19677 net.cpp:157] Top shape: 128 16 56 56 (6422528)
I1017 16:01:40.735662 19677 net.cpp:165] Memory required for data: 1044428800
I1017 16:01:40.735671 19677 layer_factory.hpp:77] Creating layer fire2/relu_squeeze1x1
I1017 16:01:40.735677 19677 net.cpp:100] Creating Layer fire2/relu_squeeze1x1
I1017 16:01:40.735680 19677 net.cpp:434] fire2/relu_squeeze1x1 <- fire2/squeeze1x1
I1017 16:01:40.735698 19677 net.cpp:395] fire2/relu_squeeze1x1 -> fire2/squeeze1x1 (in-place)
I1017 16:01:40.736063 19677 net.cpp:150] Setting up fire2/relu_squeeze1x1
I1017 16:01:40.736075 19677 net.cpp:157] Top shape: 128 16 56 56 (6422528)
I1017 16:01:40.736090 19677 net.cpp:165] Memory required for data: 1070118912
I1017 16:01:40.736093 19677 layer_factory.hpp:77] Creating layer fire2/squeeze1x1_fire2/relu_squeeze1x1_0_split
I1017 16:01:40.736104 19677 net.cpp:100] Creating Layer fire2/squeeze1x1_fire2/relu_squeeze1x1_0_split
I1017 16:01:40.736109 19677 net.cpp:434] fire2/squeeze1x1_fire2/relu_squeeze1x1_0_split <- fire2/squeeze1x1
I1017 16:01:40.736115 19677 net.cpp:408] fire2/squeeze1x1_fire2/relu_squeeze1x1_0_split -> fire2/squeeze1x1_fire2/relu_squeeze1x1_0_split_0
I1017 16:01:40.736122 19677 net.cpp:408] fire2/squeeze1x1_fire2/relu_squeeze1x1_0_split -> fire2/squeeze1x1_fire2/relu_squeeze1x1_0_split_1
I1017 16:01:40.736160 19677 net.cpp:150] Setting up fire2/squeeze1x1_fire2/relu_squeeze1x1_0_split
I1017 16:01:40.736168 19677 net.cpp:157] Top shape: 128 16 56 56 (6422528)
I1017 16:01:40.736172 19677 net.cpp:157] Top shape: 128 16 56 56 (6422528)
I1017 16:01:40.736176 19677 net.cpp:165] Memory required for data: 1121499136
I1017 16:01:40.736179 19677 layer_factory.hpp:77] Creating layer fire2/expand1x1
I1017 16:01:40.736186 19677 net.cpp:100] Creating Layer fire2/expand1x1
I1017 16:01:40.736222 19677 net.cpp:434] fire2/expand1x1 <- fire2/squeeze1x1_fire2/relu_squeeze1x1_0_split_0
I1017 16:01:40.736234 19677 net.cpp:408] fire2/expand1x1 -> fire2/expand1x1
I1017 16:01:40.737334 19677 net.cpp:150] Setting up fire2/expand1x1
I1017 16:01:40.737347 19677 net.cpp:157] Top shape: 128 64 56 56 (25690112)
I1017 16:01:40.737362 19677 net.cpp:165] Memory required for data: 1224259584
I1017 16:01:40.737371 19677 layer_factory.hpp:77] Creating layer fire2/relu_expand1x1
I1017 16:01:40.737380 19677 net.cpp:100] Creating Layer fire2/relu_expand1x1
I1017 16:01:40.737382 19677 net.cpp:434] fire2/relu_expand1x1 <- fire2/expand1x1
I1017 16:01:40.737402 19677 net.cpp:395] fire2/relu_expand1x1 -> fire2/expand1x1 (in-place)
I1017 16:01:40.737571 19677 net.cpp:150] Setting up fire2/relu_expand1x1
I1017 16:01:40.737581 19677 net.cpp:157] Top shape: 128 64 56 56 (25690112)
I1017 16:01:40.737596 19677 net.cpp:165] Memory required for data: 1327020032
I1017 16:01:40.737598 19677 layer_factory.hpp:77] Creating layer fire2/expand3x3
I1017 16:01:40.737607 19677 net.cpp:100] Creating Layer fire2/expand3x3
I1017 16:01:40.737612 19677 net.cpp:434] fire2/expand3x3 <- fire2/squeeze1x1_fire2/relu_squeeze1x1_0_split_1
I1017 16:01:40.737618 19677 net.cpp:408] fire2/expand3x3 -> fire2/expand3x3
I1017 16:01:40.738795 19677 net.cpp:150] Setting up fire2/expand3x3
I1017 16:01:40.738809 19677 net.cpp:157] Top shape: 128 64 56 56 (25690112)
I1017 16:01:40.738824 19677 net.cpp:165] Memory required for data: 1429780480
I1017 16:01:40.738831 19677 layer_factory.hpp:77] Creating layer fire2/relu_expand3x3
I1017 16:01:40.738838 19677 net.cpp:100] Creating Layer fire2/relu_expand3x3
I1017 16:01:40.738842 19677 net.cpp:434] fire2/relu_expand3x3 <- fire2/expand3x3
I1017 16:01:40.738847 19677 net.cpp:395] fire2/relu_expand3x3 -> fire2/expand3x3 (in-place)
I1017 16:01:40.739222 19677 net.cpp:150] Setting up fire2/relu_expand3x3
I1017 16:01:40.739235 19677 net.cpp:157] Top shape: 128 64 56 56 (25690112)
I1017 16:01:40.739250 19677 net.cpp:165] Memory required for data: 1532540928
I1017 16:01:40.739254 19677 layer_factory.hpp:77] Creating layer fire2/concat
I1017 16:01:40.739264 19677 net.cpp:100] Creating Layer fire2/concat
I1017 16:01:40.739266 19677 net.cpp:434] fire2/concat <- fire2/expand1x1
I1017 16:01:40.739271 19677 net.cpp:434] fire2/concat <- fire2/expand3x3
I1017 16:01:40.739276 19677 net.cpp:408] fire2/concat -> fire2/concat
I1017 16:01:40.739305 19677 net.cpp:150] Setting up fire2/concat
I1017 16:01:40.739312 19677 net.cpp:157] Top shape: 128 128 56 56 (51380224)
I1017 16:01:40.739316 19677 net.cpp:165] Memory required for data: 1738061824
I1017 16:01:40.739320 19677 layer_factory.hpp:77] Creating layer fire3/squeeze1x1
I1017 16:01:40.739333 19677 net.cpp:100] Creating Layer fire3/squeeze1x1
I1017 16:01:40.739337 19677 net.cpp:434] fire3/squeeze1x1 <- fire2/concat
I1017 16:01:40.739342 19677 net.cpp:408] fire3/squeeze1x1 -> fire3/squeeze1x1
I1017 16:01:40.740270 19677 net.cpp:150] Setting up fire3/squeeze1x1
I1017 16:01:40.740295 19677 net.cpp:157] Top shape: 128 16 56 56 (6422528)
I1017 16:01:40.740298 19677 net.cpp:165] Memory required for data: 1763751936
I1017 16:01:40.740320 19677 layer_factory.hpp:77] Creating layer fire3/relu_squeeze1x1
I1017 16:01:40.740326 19677 net.cpp:100] Creating Layer fire3/relu_squeeze1x1
I1017 16:01:40.740330 19677 net.cpp:434] fire3/relu_squeeze1x1 <- fire3/squeeze1x1
I1017 16:01:40.740335 19677 net.cpp:395] fire3/relu_squeeze1x1 -> fire3/squeeze1x1 (in-place)
I1017 16:01:40.740710 19677 net.cpp:150] Setting up fire3/relu_squeeze1x1
I1017 16:01:40.740723 19677 net.cpp:157] Top shape: 128 16 56 56 (6422528)
I1017 16:01:40.740739 19677 net.cpp:165] Memory required for data: 1789442048
I1017 16:01:40.740742 19677 layer_factory.hpp:77] Creating layer fire3/squeeze1x1_fire3/relu_squeeze1x1_0_split
I1017 16:01:40.740748 19677 net.cpp:100] Creating Layer fire3/squeeze1x1_fire3/relu_squeeze1x1_0_split
I1017 16:01:40.740751 19677 net.cpp:434] fire3/squeeze1x1_fire3/relu_squeeze1x1_0_split <- fire3/squeeze1x1
I1017 16:01:40.740767 19677 net.cpp:408] fire3/squeeze1x1_fire3/relu_squeeze1x1_0_split -> fire3/squeeze1x1_fire3/relu_squeeze1x1_0_split_0
I1017 16:01:40.740777 19677 net.cpp:408] fire3/squeeze1x1_fire3/relu_squeeze1x1_0_split -> fire3/squeeze1x1_fire3/relu_squeeze1x1_0_split_1
I1017 16:01:40.740815 19677 net.cpp:150] Setting up fire3/squeeze1x1_fire3/relu_squeeze1x1_0_split
I1017 16:01:40.740823 19677 net.cpp:157] Top shape: 128 16 56 56 (6422528)
I1017 16:01:40.740828 19677 net.cpp:157] Top shape: 128 16 56 56 (6422528)
I1017 16:01:40.740830 19677 net.cpp:165] Memory required for data: 1840822272
I1017 16:01:40.740833 19677 layer_factory.hpp:77] Creating layer fire3/expand1x1
I1017 16:01:40.740841 19677 net.cpp:100] Creating Layer fire3/expand1x1
I1017 16:01:40.740845 19677 net.cpp:434] fire3/expand1x1 <- fire3/squeeze1x1_fire3/relu_squeeze1x1_0_split_0
I1017 16:01:40.740851 19677 net.cpp:408] fire3/expand1x1 -> fire3/expand1x1
I1017 16:01:40.742048 19677 net.cpp:150] Setting up fire3/expand1x1
I1017 16:01:40.742063 19677 net.cpp:157] Top shape: 128 64 56 56 (25690112)
I1017 16:01:40.742079 19677 net.cpp:165] Memory required for data: 1943582720
I1017 16:01:40.742084 19677 layer_factory.hpp:77] Creating layer fire3/relu_expand1x1
I1017 16:01:40.742094 19677 net.cpp:100] Creating Layer fire3/relu_expand1x1
I1017 16:01:40.742097 19677 net.cpp:434] fire3/relu_expand1x1 <- fire3/expand1x1
I1017 16:01:40.742113 19677 net.cpp:395] fire3/relu_expand1x1 -> fire3/expand1x1 (in-place)
I1017 16:01:40.742283 19677 net.cpp:150] Setting up fire3/relu_expand1x1
I1017 16:01:40.742292 19677 net.cpp:157] Top shape: 128 64 56 56 (25690112)
I1017 16:01:40.742307 19677 net.cpp:165] Memory required for data: 2046343168
I1017 16:01:40.742311 19677 layer_factory.hpp:77] Creating layer fire3/expand3x3
I1017 16:01:40.742321 19677 net.cpp:100] Creating Layer fire3/expand3x3
I1017 16:01:40.742326 19677 net.cpp:434] fire3/expand3x3 <- fire3/squeeze1x1_fire3/relu_squeeze1x1_0_split_1
I1017 16:01:40.742331 19677 net.cpp:408] fire3/expand3x3 -> fire3/expand3x3
I1017 16:01:40.743499 19677 net.cpp:150] Setting up fire3/expand3x3
I1017 16:01:40.743513 19677 net.cpp:157] Top shape: 128 64 56 56 (25690112)
I1017 16:01:40.743528 19677 net.cpp:165] Memory required for data: 2149103616
I1017 16:01:40.743535 19677 layer_factory.hpp:77] Creating layer fire3/relu_expand3x3
I1017 16:01:40.743541 19677 net.cpp:100] Creating Layer fire3/relu_expand3x3
I1017 16:01:40.743546 19677 net.cpp:434] fire3/relu_expand3x3 <- fire3/expand3x3
I1017 16:01:40.743562 19677 net.cpp:395] fire3/relu_expand3x3 -> fire3/expand3x3 (in-place)
I1017 16:01:40.743963 19677 net.cpp:150] Setting up fire3/relu_expand3x3
I1017 16:01:40.743975 19677 net.cpp:157] Top shape: 128 64 56 56 (25690112)
I1017 16:01:40.743990 19677 net.cpp:165] Memory required for data: 2251864064
I1017 16:01:40.743993 19677 layer_factory.hpp:77] Creating layer fire3/concat
I1017 16:01:40.743999 19677 net.cpp:100] Creating Layer fire3/concat
I1017 16:01:40.744004 19677 net.cpp:434] fire3/concat <- fire3/expand1x1
I1017 16:01:40.744007 19677 net.cpp:434] fire3/concat <- fire3/expand3x3
I1017 16:01:40.744025 19677 net.cpp:408] fire3/concat -> fire3/concat
I1017 16:01:40.744052 19677 net.cpp:150] Setting up fire3/concat
I1017 16:01:40.744061 19677 net.cpp:157] Top shape: 128 128 56 56 (51380224)
I1017 16:01:40.744065 19677 net.cpp:165] Memory required for data: 2457384960
I1017 16:01:40.744067 19677 layer_factory.hpp:77] Creating layer pool3
I1017 16:01:40.744073 19677 net.cpp:100] Creating Layer pool3
I1017 16:01:40.744076 19677 net.cpp:434] pool3 <- fire3/concat
I1017 16:01:40.744081 19677 net.cpp:408] pool3 -> pool3
I1017 16:01:40.744118 19677 net.cpp:150] Setting up pool3
I1017 16:01:40.744125 19677 net.cpp:157] Top shape: 128 128 28 28 (12845056)
I1017 16:01:40.744143 19677 net.cpp:165] Memory required for data: 2508765184
I1017 16:01:40.744148 19677 layer_factory.hpp:77] Creating layer fire4/squeeze1x1
I1017 16:01:40.744158 19677 net.cpp:100] Creating Layer fire4/squeeze1x1
I1017 16:01:40.744174 19677 net.cpp:434] fire4/squeeze1x1 <- pool3
I1017 16:01:40.744181 19677 net.cpp:408] fire4/squeeze1x1 -> fire4/squeeze1x1
I1017 16:01:40.745396 19677 net.cpp:150] Setting up fire4/squeeze1x1
I1017 16:01:40.745410 19677 net.cpp:157] Top shape: 128 32 28 28 (3211264)
I1017 16:01:40.745425 19677 net.cpp:165] Memory required for data: 2521610240
I1017 16:01:40.745431 19677 layer_factory.hpp:77] Creating layer fire4/relu_squeeze1x1
I1017 16:01:40.745440 19677 net.cpp:100] Creating Layer fire4/relu_squeeze1x1
I1017 16:01:40.745442 19677 net.cpp:434] fire4/relu_squeeze1x1 <- fire4/squeeze1x1
I1017 16:01:40.745448 19677 net.cpp:395] fire4/relu_squeeze1x1 -> fire4/squeeze1x1 (in-place)
I1017 16:01:40.745823 19677 net.cpp:150] Setting up fire4/relu_squeeze1x1
I1017 16:01:40.745851 19677 net.cpp:157] Top shape: 128 32 28 28 (3211264)
I1017 16:01:40.745853 19677 net.cpp:165] Memory required for data: 2534455296
I1017 16:01:40.745857 19677 layer_factory.hpp:77] Creating layer fire4/squeeze1x1_fire4/relu_squeeze1x1_0_split
I1017 16:01:40.745863 19677 net.cpp:100] Creating Layer fire4/squeeze1x1_fire4/relu_squeeze1x1_0_split
I1017 16:01:40.745867 19677 net.cpp:434] fire4/squeeze1x1_fire4/relu_squeeze1x1_0_split <- fire4/squeeze1x1
I1017 16:01:40.745872 19677 net.cpp:408] fire4/squeeze1x1_fire4/relu_squeeze1x1_0_split -> fire4/squeeze1x1_fire4/relu_squeeze1x1_0_split_0
I1017 16:01:40.745879 19677 net.cpp:408] fire4/squeeze1x1_fire4/relu_squeeze1x1_0_split -> fire4/squeeze1x1_fire4/relu_squeeze1x1_0_split_1
I1017 16:01:40.745918 19677 net.cpp:150] Setting up fire4/squeeze1x1_fire4/relu_squeeze1x1_0_split
I1017 16:01:40.745924 19677 net.cpp:157] Top shape: 128 32 28 28 (3211264)
I1017 16:01:40.745929 19677 net.cpp:157] Top shape: 128 32 28 28 (3211264)
I1017 16:01:40.745930 19677 net.cpp:165] Memory required for data: 2560145408
I1017 16:01:40.745934 19677 layer_factory.hpp:77] Creating layer fire4/expand1x1
I1017 16:01:40.745942 19677 net.cpp:100] Creating Layer fire4/expand1x1
I1017 16:01:40.745946 19677 net.cpp:434] fire4/expand1x1 <- fire4/squeeze1x1_fire4/relu_squeeze1x1_0_split_0
I1017 16:01:40.745952 19677 net.cpp:408] fire4/expand1x1 -> fire4/expand1x1
I1017 16:01:40.747105 19677 net.cpp:150] Setting up fire4/expand1x1
I1017 16:01:40.747119 19677 net.cpp:157] Top shape: 128 128 28 28 (12845056)
I1017 16:01:40.747134 19677 net.cpp:165] Memory required for data: 2611525632
I1017 16:01:40.747145 19677 layer_factory.hpp:77] Creating layer fire4/relu_expand1x1
I1017 16:01:40.747151 19677 net.cpp:100] Creating Layer fire4/relu_expand1x1
I1017 16:01:40.747155 19677 net.cpp:434] fire4/relu_expand1x1 <- fire4/expand1x1
I1017 16:01:40.747174 19677 net.cpp:395] fire4/relu_expand1x1 -> fire4/expand1x1 (in-place)
I1017 16:01:40.747347 19677 net.cpp:150] Setting up fire4/relu_expand1x1
I1017 16:01:40.747359 19677 net.cpp:157] Top shape: 128 128 28 28 (12845056)
I1017 16:01:40.747372 19677 net.cpp:165] Memory required for data: 2662905856
I1017 16:01:40.747376 19677 layer_factory.hpp:77] Creating layer fire4/expand3x3
I1017 16:01:40.747385 19677 net.cpp:100] Creating Layer fire4/expand3x3
I1017 16:01:40.747390 19677 net.cpp:434] fire4/expand3x3 <- fire4/squeeze1x1_fire4/relu_squeeze1x1_0_split_1
I1017 16:01:40.747395 19677 net.cpp:408] fire4/expand3x3 -> fire4/expand3x3
I1017 16:01:40.749609 19677 net.cpp:150] Setting up fire4/expand3x3
I1017 16:01:40.749624 19677 net.cpp:157] Top shape: 128 128 28 28 (12845056)
I1017 16:01:40.749640 19677 net.cpp:165] Memory required for data: 2714286080
I1017 16:01:40.749647 19677 layer_factory.hpp:77] Creating layer fire4/relu_expand3x3
I1017 16:01:40.749653 19677 net.cpp:100] Creating Layer fire4/relu_expand3x3
I1017 16:01:40.749657 19677 net.cpp:434] fire4/relu_expand3x3 <- fire4/expand3x3
I1017 16:01:40.749673 19677 net.cpp:395] fire4/relu_expand3x3 -> fire4/expand3x3 (in-place)
I1017 16:01:40.750046 19677 net.cpp:150] Setting up fire4/relu_expand3x3
I1017 16:01:40.750058 19677 net.cpp:157] Top shape: 128 128 28 28 (12845056)
I1017 16:01:40.750074 19677 net.cpp:165] Memory required for data: 2765666304
I1017 16:01:40.750087 19677 layer_factory.hpp:77] Creating layer fire4/concat
I1017 16:01:40.750095 19677 net.cpp:100] Creating Layer fire4/concat
I1017 16:01:40.750099 19677 net.cpp:434] fire4/concat <- fire4/expand1x1
I1017 16:01:40.750103 19677 net.cpp:434] fire4/concat <- fire4/expand3x3
I1017 16:01:40.750108 19677 net.cpp:408] fire4/concat -> fire4/concat
I1017 16:01:40.750138 19677 net.cpp:150] Setting up fire4/concat
I1017 16:01:40.750162 19677 net.cpp:157] Top shape: 128 256 28 28 (25690112)
I1017 16:01:40.750165 19677 net.cpp:165] Memory required for data: 2868426752
I1017 16:01:40.750169 19677 layer_factory.hpp:77] Creating layer fire5/squeeze1x1
I1017 16:01:40.750177 19677 net.cpp:100] Creating Layer fire5/squeeze1x1
I1017 16:01:40.750180 19677 net.cpp:434] fire5/squeeze1x1 <- fire4/concat
I1017 16:01:40.750188 19677 net.cpp:408] fire5/squeeze1x1 -> fire5/squeeze1x1
I1017 16:01:40.751240 19677 net.cpp:150] Setting up fire5/squeeze1x1
I1017 16:01:40.751253 19677 net.cpp:157] Top shape: 128 32 28 28 (3211264)
I1017 16:01:40.751257 19677 net.cpp:165] Memory required for data: 2881271808
I1017 16:01:40.751263 19677 layer_factory.hpp:77] Creating layer fire5/relu_squeeze1x1
I1017 16:01:40.751269 19677 net.cpp:100] Creating Layer fire5/relu_squeeze1x1
I1017 16:01:40.751286 19677 net.cpp:434] fire5/relu_squeeze1x1 <- fire5/squeeze1x1
I1017 16:01:40.751291 19677 net.cpp:395] fire5/relu_squeeze1x1 -> fire5/squeeze1x1 (in-place)
I1017 16:01:40.751715 19677 net.cpp:150] Setting up fire5/relu_squeeze1x1
I1017 16:01:40.751727 19677 net.cpp:157] Top shape: 128 32 28 28 (3211264)
I1017 16:01:40.751744 19677 net.cpp:165] Memory required for data: 2894116864
I1017 16:01:40.751746 19677 layer_factory.hpp:77] Creating layer fire5/squeeze1x1_fire5/relu_squeeze1x1_0_split
I1017 16:01:40.751754 19677 net.cpp:100] Creating Layer fire5/squeeze1x1_fire5/relu_squeeze1x1_0_split
I1017 16:01:40.751757 19677 net.cpp:434] fire5/squeeze1x1_fire5/relu_squeeze1x1_0_split <- fire5/squeeze1x1
I1017 16:01:40.751762 19677 net.cpp:408] fire5/squeeze1x1_fire5/relu_squeeze1x1_0_split -> fire5/squeeze1x1_fire5/relu_squeeze1x1_0_split_0
I1017 16:01:40.751781 19677 net.cpp:408] fire5/squeeze1x1_fire5/relu_squeeze1x1_0_split -> fire5/squeeze1x1_fire5/relu_squeeze1x1_0_split_1
I1017 16:01:40.751821 19677 net.cpp:150] Setting up fire5/squeeze1x1_fire5/relu_squeeze1x1_0_split
I1017 16:01:40.751837 19677 net.cpp:157] Top shape: 128 32 28 28 (3211264)
I1017 16:01:40.751842 19677 net.cpp:157] Top shape: 128 32 28 28 (3211264)
I1017 16:01:40.751844 19677 net.cpp:165] Memory required for data: 2919806976
I1017 16:01:40.751847 19677 layer_factory.hpp:77] Creating layer fire5/expand1x1
I1017 16:01:40.751860 19677 net.cpp:100] Creating Layer fire5/expand1x1
I1017 16:01:40.751864 19677 net.cpp:434] fire5/expand1x1 <- fire5/squeeze1x1_fire5/relu_squeeze1x1_0_split_0
I1017 16:01:40.751869 19677 net.cpp:408] fire5/expand1x1 -> fire5/expand1x1
I1017 16:01:40.753128 19677 net.cpp:150] Setting up fire5/expand1x1
I1017 16:01:40.753141 19677 net.cpp:157] Top shape: 128 128 28 28 (12845056)
I1017 16:01:40.753145 19677 net.cpp:165] Memory required for data: 2971187200
I1017 16:01:40.753151 19677 layer_factory.hpp:77] Creating layer fire5/relu_expand1x1
I1017 16:01:40.753157 19677 net.cpp:100] Creating Layer fire5/relu_expand1x1
I1017 16:01:40.753173 19677 net.cpp:434] fire5/relu_expand1x1 <- fire5/expand1x1
I1017 16:01:40.753178 19677 net.cpp:395] fire5/relu_expand1x1 -> fire5/expand1x1 (in-place)
I1017 16:01:40.753347 19677 net.cpp:150] Setting up fire5/relu_expand1x1
I1017 16:01:40.753357 19677 net.cpp:157] Top shape: 128 128 28 28 (12845056)
I1017 16:01:40.753361 19677 net.cpp:165] Memory required for data: 3022567424
I1017 16:01:40.753365 19677 layer_factory.hpp:77] Creating layer fire5/expand3x3
I1017 16:01:40.753376 19677 net.cpp:100] Creating Layer fire5/expand3x3
I1017 16:01:40.753379 19677 net.cpp:434] fire5/expand3x3 <- fire5/squeeze1x1_fire5/relu_squeeze1x1_0_split_1
I1017 16:01:40.753386 19677 net.cpp:408] fire5/expand3x3 -> fire5/expand3x3
I1017 16:01:40.754832 19677 net.cpp:150] Setting up fire5/expand3x3
I1017 16:01:40.754848 19677 net.cpp:157] Top shape: 128 128 28 28 (12845056)
I1017 16:01:40.754850 19677 net.cpp:165] Memory required for data: 3073947648
I1017 16:01:40.754869 19677 layer_factory.hpp:77] Creating layer fire5/relu_expand3x3
I1017 16:01:40.754880 19677 net.cpp:100] Creating Layer fire5/relu_expand3x3
I1017 16:01:40.754884 19677 net.cpp:434] fire5/relu_expand3x3 <- fire5/expand3x3
I1017 16:01:40.754891 19677 net.cpp:395] fire5/relu_expand3x3 -> fire5/expand3x3 (in-place)
I1017 16:01:40.755244 19677 net.cpp:150] Setting up fire5/relu_expand3x3
I1017 16:01:40.755257 19677 net.cpp:157] Top shape: 128 128 28 28 (12845056)
I1017 16:01:40.755260 19677 net.cpp:165] Memory required for data: 3125327872
I1017 16:01:40.755264 19677 layer_factory.hpp:77] Creating layer fire5/concat
I1017 16:01:40.755270 19677 net.cpp:100] Creating Layer fire5/concat
I1017 16:01:40.755275 19677 net.cpp:434] fire5/concat <- fire5/expand1x1
I1017 16:01:40.755278 19677 net.cpp:434] fire5/concat <- fire5/expand3x3
I1017 16:01:40.755283 19677 net.cpp:408] fire5/concat -> fire5/concat
I1017 16:01:40.755313 19677 net.cpp:150] Setting up fire5/concat
I1017 16:01:40.755321 19677 net.cpp:157] Top shape: 128 256 28 28 (25690112)
I1017 16:01:40.755323 19677 net.cpp:165] Memory required for data: 3228088320
I1017 16:01:40.755326 19677 layer_factory.hpp:77] Creating layer pool5
I1017 16:01:40.755333 19677 net.cpp:100] Creating Layer pool5
I1017 16:01:40.755336 19677 net.cpp:434] pool5 <- fire5/concat
I1017 16:01:40.755342 19677 net.cpp:408] pool5 -> pool5
I1017 16:01:40.755378 19677 net.cpp:150] Setting up pool5
I1017 16:01:40.755385 19677 net.cpp:157] Top shape: 128 256 14 14 (6422528)
I1017 16:01:40.755388 19677 net.cpp:165] Memory required for data: 3253778432
I1017 16:01:40.755391 19677 layer_factory.hpp:77] Creating layer fire6/squeeze1x1
I1017 16:01:40.755400 19677 net.cpp:100] Creating Layer fire6/squeeze1x1
I1017 16:01:40.755404 19677 net.cpp:434] fire6/squeeze1x1 <- pool5
I1017 16:01:40.755409 19677 net.cpp:408] fire6/squeeze1x1 -> fire6/squeeze1x1
I1017 16:01:40.756541 19677 net.cpp:150] Setting up fire6/squeeze1x1
I1017 16:01:40.756554 19677 net.cpp:157] Top shape: 128 48 14 14 (1204224)
I1017 16:01:40.756570 19677 net.cpp:165] Memory required for data: 3258595328
I1017 16:01:40.756577 19677 layer_factory.hpp:77] Creating layer fire6/relu_squeeze1x1
I1017 16:01:40.756583 19677 net.cpp:100] Creating Layer fire6/relu_squeeze1x1
I1017 16:01:40.756587 19677 net.cpp:434] fire6/relu_squeeze1x1 <- fire6/squeeze1x1
I1017 16:01:40.756592 19677 net.cpp:395] fire6/relu_squeeze1x1 -> fire6/squeeze1x1 (in-place)
I1017 16:01:40.756983 19677 net.cpp:150] Setting up fire6/relu_squeeze1x1
I1017 16:01:40.756994 19677 net.cpp:157] Top shape: 128 48 14 14 (1204224)
I1017 16:01:40.757009 19677 net.cpp:165] Memory required for data: 3263412224
I1017 16:01:40.757014 19677 layer_factory.hpp:77] Creating layer fire6/squeeze1x1_fire6/relu_squeeze1x1_0_split
I1017 16:01:40.757019 19677 net.cpp:100] Creating Layer fire6/squeeze1x1_fire6/relu_squeeze1x1_0_split
I1017 16:01:40.757022 19677 net.cpp:434] fire6/squeeze1x1_fire6/relu_squeeze1x1_0_split <- fire6/squeeze1x1
I1017 16:01:40.757028 19677 net.cpp:408] fire6/squeeze1x1_fire6/relu_squeeze1x1_0_split -> fire6/squeeze1x1_fire6/relu_squeeze1x1_0_split_0
I1017 16:01:40.757047 19677 net.cpp:408] fire6/squeeze1x1_fire6/relu_squeeze1x1_0_split -> fire6/squeeze1x1_fire6/relu_squeeze1x1_0_split_1
I1017 16:01:40.757092 19677 net.cpp:150] Setting up fire6/squeeze1x1_fire6/relu_squeeze1x1_0_split
I1017 16:01:40.757100 19677 net.cpp:157] Top shape: 128 48 14 14 (1204224)
I1017 16:01:40.757105 19677 net.cpp:157] Top shape: 128 48 14 14 (1204224)
I1017 16:01:40.757108 19677 net.cpp:165] Memory required for data: 3273046016
I1017 16:01:40.757112 19677 layer_factory.hpp:77] Creating layer fire6/expand1x1
I1017 16:01:40.757119 19677 net.cpp:100] Creating Layer fire6/expand1x1
I1017 16:01:40.757123 19677 net.cpp:434] fire6/expand1x1 <- fire6/squeeze1x1_fire6/relu_squeeze1x1_0_split_0
I1017 16:01:40.757141 19677 net.cpp:408] fire6/expand1x1 -> fire6/expand1x1
I1017 16:01:40.758327 19677 net.cpp:150] Setting up fire6/expand1x1
I1017 16:01:40.758339 19677 net.cpp:157] Top shape: 128 192 14 14 (4816896)
I1017 16:01:40.758355 19677 net.cpp:165] Memory required for data: 3292313600
I1017 16:01:40.758361 19677 layer_factory.hpp:77] Creating layer fire6/relu_expand1x1
I1017 16:01:40.758368 19677 net.cpp:100] Creating Layer fire6/relu_expand1x1
I1017 16:01:40.758371 19677 net.cpp:434] fire6/relu_expand1x1 <- fire6/expand1x1
I1017 16:01:40.758376 19677 net.cpp:395] fire6/relu_expand1x1 -> fire6/expand1x1 (in-place)
I1017 16:01:40.758566 19677 net.cpp:150] Setting up fire6/relu_expand1x1
I1017 16:01:40.758576 19677 net.cpp:157] Top shape: 128 192 14 14 (4816896)
I1017 16:01:40.758579 19677 net.cpp:165] Memory required for data: 3311581184
I1017 16:01:40.758582 19677 layer_factory.hpp:77] Creating layer fire6/expand3x3
I1017 16:01:40.758604 19677 net.cpp:100] Creating Layer fire6/expand3x3
I1017 16:01:40.758607 19677 net.cpp:434] fire6/expand3x3 <- fire6/squeeze1x1_fire6/relu_squeeze1x1_0_split_1
I1017 16:01:40.758615 19677 net.cpp:408] fire6/expand3x3 -> fire6/expand3x3
I1017 16:01:40.761560 19677 net.cpp:150] Setting up fire6/expand3x3
I1017 16:01:40.761574 19677 net.cpp:157] Top shape: 128 192 14 14 (4816896)
I1017 16:01:40.761590 19677 net.cpp:165] Memory required for data: 3330848768
I1017 16:01:40.761607 19677 layer_factory.hpp:77] Creating layer fire6/relu_expand3x3
I1017 16:01:40.761615 19677 net.cpp:100] Creating Layer fire6/relu_expand3x3
I1017 16:01:40.761620 19677 net.cpp:434] fire6/relu_expand3x3 <- fire6/expand3x3
I1017 16:01:40.761637 19677 net.cpp:395] fire6/relu_expand3x3 -> fire6/expand3x3 (in-place)
I1017 16:01:40.762060 19677 net.cpp:150] Setting up fire6/relu_expand3x3
I1017 16:01:40.762073 19677 net.cpp:157] Top shape: 128 192 14 14 (4816896)
I1017 16:01:40.762089 19677 net.cpp:165] Memory required for data: 3350116352
I1017 16:01:40.762091 19677 layer_factory.hpp:77] Creating layer fire6/concat
I1017 16:01:40.762099 19677 net.cpp:100] Creating Layer fire6/concat
I1017 16:01:40.762102 19677 net.cpp:434] fire6/concat <- fire6/expand1x1
I1017 16:01:40.762107 19677 net.cpp:434] fire6/concat <- fire6/expand3x3
I1017 16:01:40.762112 19677 net.cpp:408] fire6/concat -> fire6/concat
I1017 16:01:40.762142 19677 net.cpp:150] Setting up fire6/concat
I1017 16:01:40.762151 19677 net.cpp:157] Top shape: 128 384 14 14 (9633792)
I1017 16:01:40.762153 19677 net.cpp:165] Memory required for data: 3388651520
I1017 16:01:40.762156 19677 layer_factory.hpp:77] Creating layer fire7/squeeze1x1
I1017 16:01:40.762166 19677 net.cpp:100] Creating Layer fire7/squeeze1x1
I1017 16:01:40.762169 19677 net.cpp:434] fire7/squeeze1x1 <- fire6/concat
I1017 16:01:40.762176 19677 net.cpp:408] fire7/squeeze1x1 -> fire7/squeeze1x1
I1017 16:01:40.763430 19677 net.cpp:150] Setting up fire7/squeeze1x1
I1017 16:01:40.763444 19677 net.cpp:157] Top shape: 128 48 14 14 (1204224)
I1017 16:01:40.763460 19677 net.cpp:165] Memory required for data: 3393468416
I1017 16:01:40.763471 19677 layer_factory.hpp:77] Creating layer fire7/relu_squeeze1x1
I1017 16:01:40.763478 19677 net.cpp:100] Creating Layer fire7/relu_squeeze1x1
I1017 16:01:40.763483 19677 net.cpp:434] fire7/relu_squeeze1x1 <- fire7/squeeze1x1
I1017 16:01:40.763499 19677 net.cpp:395] fire7/relu_squeeze1x1 -> fire7/squeeze1x1 (in-place)
I1017 16:01:40.763883 19677 net.cpp:150] Setting up fire7/relu_squeeze1x1
I1017 16:01:40.763908 19677 net.cpp:157] Top shape: 128 48 14 14 (1204224)
I1017 16:01:40.763912 19677 net.cpp:165] Memory required for data: 3398285312
I1017 16:01:40.763916 19677 layer_factory.hpp:77] Creating layer fire7/squeeze1x1_fire7/relu_squeeze1x1_0_split
I1017 16:01:40.763922 19677 net.cpp:100] Creating Layer fire7/squeeze1x1_fire7/relu_squeeze1x1_0_split
I1017 16:01:40.763937 19677 net.cpp:434] fire7/squeeze1x1_fire7/relu_squeeze1x1_0_split <- fire7/squeeze1x1
I1017 16:01:40.763942 19677 net.cpp:408] fire7/squeeze1x1_fire7/relu_squeeze1x1_0_split -> fire7/squeeze1x1_fire7/relu_squeeze1x1_0_split_0
I1017 16:01:40.763960 19677 net.cpp:408] fire7/squeeze1x1_fire7/relu_squeeze1x1_0_split -> fire7/squeeze1x1_fire7/relu_squeeze1x1_0_split_1
I1017 16:01:40.764008 19677 net.cpp:150] Setting up fire7/squeeze1x1_fire7/relu_squeeze1x1_0_split
I1017 16:01:40.764015 19677 net.cpp:157] Top shape: 128 48 14 14 (1204224)
I1017 16:01:40.764019 19677 net.cpp:157] Top shape: 128 48 14 14 (1204224)
I1017 16:01:40.764022 19677 net.cpp:165] Memory required for data: 3407919104
I1017 16:01:40.764025 19677 layer_factory.hpp:77] Creating layer fire7/expand1x1
I1017 16:01:40.764034 19677 net.cpp:100] Creating Layer fire7/expand1x1
I1017 16:01:40.764039 19677 net.cpp:434] fire7/expand1x1 <- fire7/squeeze1x1_fire7/relu_squeeze1x1_0_split_0
I1017 16:01:40.764044 19677 net.cpp:408] fire7/expand1x1 -> fire7/expand1x1
I1017 16:01:40.765383 19677 net.cpp:150] Setting up fire7/expand1x1
I1017 16:01:40.765408 19677 net.cpp:157] Top shape: 128 192 14 14 (4816896)
I1017 16:01:40.765413 19677 net.cpp:165] Memory required for data: 3427186688
I1017 16:01:40.765419 19677 layer_factory.hpp:77] Creating layer fire7/relu_expand1x1
I1017 16:01:40.765425 19677 net.cpp:100] Creating Layer fire7/relu_expand1x1
I1017 16:01:40.765429 19677 net.cpp:434] fire7/relu_expand1x1 <- fire7/expand1x1
I1017 16:01:40.765434 19677 net.cpp:395] fire7/relu_expand1x1 -> fire7/expand1x1 (in-place)
I1017 16:01:40.765630 19677 net.cpp:150] Setting up fire7/relu_expand1x1
I1017 16:01:40.765640 19677 net.cpp:157] Top shape: 128 192 14 14 (4816896)
I1017 16:01:40.765642 19677 net.cpp:165] Memory required for data: 3446454272
I1017 16:01:40.765657 19677 layer_factory.hpp:77] Creating layer fire7/expand3x3
I1017 16:01:40.765666 19677 net.cpp:100] Creating Layer fire7/expand3x3
I1017 16:01:40.765671 19677 net.cpp:434] fire7/expand3x3 <- fire7/squeeze1x1_fire7/relu_squeeze1x1_0_split_1
I1017 16:01:40.765676 19677 net.cpp:408] fire7/expand3x3 -> fire7/expand3x3
I1017 16:01:40.767542 19677 net.cpp:150] Setting up fire7/expand3x3
I1017 16:01:40.767556 19677 net.cpp:157] Top shape: 128 192 14 14 (4816896)
I1017 16:01:40.767571 19677 net.cpp:165] Memory required for data: 3465721856
I1017 16:01:40.767577 19677 layer_factory.hpp:77] Creating layer fire7/relu_expand3x3
I1017 16:01:40.767583 19677 net.cpp:100] Creating Layer fire7/relu_expand3x3
I1017 16:01:40.767588 19677 net.cpp:434] fire7/relu_expand3x3 <- fire7/expand3x3
I1017 16:01:40.767597 19677 net.cpp:395] fire7/relu_expand3x3 -> fire7/expand3x3 (in-place)
I1017 16:01:40.768050 19677 net.cpp:150] Setting up fire7/relu_expand3x3
I1017 16:01:40.768064 19677 net.cpp:157] Top shape: 128 192 14 14 (4816896)
I1017 16:01:40.768079 19677 net.cpp:165] Memory required for data: 3484989440
I1017 16:01:40.768082 19677 layer_factory.hpp:77] Creating layer fire7/concat
I1017 16:01:40.768088 19677 net.cpp:100] Creating Layer fire7/concat
I1017 16:01:40.768092 19677 net.cpp:434] fire7/concat <- fire7/expand1x1
I1017 16:01:40.768097 19677 net.cpp:434] fire7/concat <- fire7/expand3x3
I1017 16:01:40.768103 19677 net.cpp:408] fire7/concat -> fire7/concat
I1017 16:01:40.768132 19677 net.cpp:150] Setting up fire7/concat
I1017 16:01:40.768141 19677 net.cpp:157] Top shape: 128 384 14 14 (9633792)
I1017 16:01:40.768144 19677 net.cpp:165] Memory required for data: 3523524608
I1017 16:01:40.768147 19677 layer_factory.hpp:77] Creating layer fire8/squeeze1x1
I1017 16:01:40.768157 19677 net.cpp:100] Creating Layer fire8/squeeze1x1
I1017 16:01:40.768160 19677 net.cpp:434] fire8/squeeze1x1 <- fire7/concat
I1017 16:01:40.768167 19677 net.cpp:408] fire8/squeeze1x1 -> fire8/squeeze1x1
I1017 16:01:40.769454 19677 net.cpp:150] Setting up fire8/squeeze1x1
I1017 16:01:40.769481 19677 net.cpp:157] Top shape: 128 64 14 14 (1605632)
I1017 16:01:40.769485 19677 net.cpp:165] Memory required for data: 3529947136
I1017 16:01:40.769492 19677 layer_factory.hpp:77] Creating layer fire8/relu_squeeze1x1
I1017 16:01:40.769500 19677 net.cpp:100] Creating Layer fire8/relu_squeeze1x1
I1017 16:01:40.769502 19677 net.cpp:434] fire8/relu_squeeze1x1 <- fire8/squeeze1x1
I1017 16:01:40.769541 19677 net.cpp:395] fire8/relu_squeeze1x1 -> fire8/squeeze1x1 (in-place)
I1017 16:01:40.769940 19677 net.cpp:150] Setting up fire8/relu_squeeze1x1
I1017 16:01:40.769966 19677 net.cpp:157] Top shape: 128 64 14 14 (1605632)
I1017 16:01:40.769980 19677 net.cpp:165] Memory required for data: 3536369664
I1017 16:01:40.769984 19677 layer_factory.hpp:77] Creating layer fire8/squeeze1x1_fire8/relu_squeeze1x1_0_split
I1017 16:01:40.770004 19677 net.cpp:100] Creating Layer fire8/squeeze1x1_fire8/relu_squeeze1x1_0_split
I1017 16:01:40.770012 19677 net.cpp:434] fire8/squeeze1x1_fire8/relu_squeeze1x1_0_split <- fire8/squeeze1x1
I1017 16:01:40.770018 19677 net.cpp:408] fire8/squeeze1x1_fire8/relu_squeeze1x1_0_split -> fire8/squeeze1x1_fire8/relu_squeeze1x1_0_split_0
I1017 16:01:40.770038 19677 net.cpp:408] fire8/squeeze1x1_fire8/relu_squeeze1x1_0_split -> fire8/squeeze1x1_fire8/relu_squeeze1x1_0_split_1
I1017 16:01:40.770124 19677 net.cpp:150] Setting up fire8/squeeze1x1_fire8/relu_squeeze1x1_0_split
I1017 16:01:40.770133 19677 net.cpp:157] Top shape: 128 64 14 14 (1605632)
I1017 16:01:40.770148 19677 net.cpp:157] Top shape: 128 64 14 14 (1605632)
I1017 16:01:40.770151 19677 net.cpp:165] Memory required for data: 3549214720
I1017 16:01:40.770154 19677 layer_factory.hpp:77] Creating layer fire8/expand1x1
I1017 16:01:40.770162 19677 net.cpp:100] Creating Layer fire8/expand1x1
I1017 16:01:40.770166 19677 net.cpp:434] fire8/expand1x1 <- fire8/squeeze1x1_fire8/relu_squeeze1x1_0_split_0
I1017 16:01:40.770174 19677 net.cpp:408] fire8/expand1x1 -> fire8/expand1x1
I1017 16:01:40.771661 19677 net.cpp:150] Setting up fire8/expand1x1
I1017 16:01:40.771675 19677 net.cpp:157] Top shape: 128 256 14 14 (6422528)
I1017 16:01:40.771690 19677 net.cpp:165] Memory required for data: 3574904832
I1017 16:01:40.771697 19677 layer_factory.hpp:77] Creating layer fire8/relu_expand1x1
I1017 16:01:40.771704 19677 net.cpp:100] Creating Layer fire8/relu_expand1x1
I1017 16:01:40.771708 19677 net.cpp:434] fire8/relu_expand1x1 <- fire8/expand1x1
I1017 16:01:40.771713 19677 net.cpp:395] fire8/relu_expand1x1 -> fire8/expand1x1 (in-place)
I1017 16:01:40.771911 19677 net.cpp:150] Setting up fire8/relu_expand1x1
I1017 16:01:40.771921 19677 net.cpp:157] Top shape: 128 256 14 14 (6422528)
I1017 16:01:40.771936 19677 net.cpp:165] Memory required for data: 3600594944
I1017 16:01:40.771939 19677 layer_factory.hpp:77] Creating layer fire8/expand3x3
I1017 16:01:40.771950 19677 net.cpp:100] Creating Layer fire8/expand3x3
I1017 16:01:40.771955 19677 net.cpp:434] fire8/expand3x3 <- fire8/squeeze1x1_fire8/relu_squeeze1x1_0_split_1
I1017 16:01:40.771960 19677 net.cpp:408] fire8/expand3x3 -> fire8/expand3x3
I1017 16:01:40.774916 19677 net.cpp:150] Setting up fire8/expand3x3
I1017 16:01:40.774930 19677 net.cpp:157] Top shape: 128 256 14 14 (6422528)
I1017 16:01:40.774945 19677 net.cpp:165] Memory required for data: 3626285056
I1017 16:01:40.774952 19677 layer_factory.hpp:77] Creating layer fire8/relu_expand3x3
I1017 16:01:40.774958 19677 net.cpp:100] Creating Layer fire8/relu_expand3x3
I1017 16:01:40.774962 19677 net.cpp:434] fire8/relu_expand3x3 <- fire8/expand3x3
I1017 16:01:40.774969 19677 net.cpp:395] fire8/relu_expand3x3 -> fire8/expand3x3 (in-place)
I1017 16:01:40.775429 19677 net.cpp:150] Setting up fire8/relu_expand3x3
I1017 16:01:40.775442 19677 net.cpp:157] Top shape: 128 256 14 14 (6422528)
I1017 16:01:40.775457 19677 net.cpp:165] Memory required for data: 3651975168
I1017 16:01:40.775461 19677 layer_factory.hpp:77] Creating layer fire8/concat
I1017 16:01:40.775467 19677 net.cpp:100] Creating Layer fire8/concat
I1017 16:01:40.775471 19677 net.cpp:434] fire8/concat <- fire8/expand1x1
I1017 16:01:40.775475 19677 net.cpp:434] fire8/concat <- fire8/expand3x3
I1017 16:01:40.775481 19677 net.cpp:408] fire8/concat -> fire8/concat
I1017 16:01:40.775527 19677 net.cpp:150] Setting up fire8/concat
I1017 16:01:40.775534 19677 net.cpp:157] Top shape: 128 512 14 14 (12845056)
I1017 16:01:40.775550 19677 net.cpp:165] Memory required for data: 3703355392
I1017 16:01:40.775568 19677 layer_factory.hpp:77] Creating layer fire9/squeeze1x1
I1017 16:01:40.775578 19677 net.cpp:100] Creating Layer fire9/squeeze1x1
I1017 16:01:40.775581 19677 net.cpp:434] fire9/squeeze1x1 <- fire8/concat
I1017 16:01:40.775588 19677 net.cpp:408] fire9/squeeze1x1 -> fire9/squeeze1x1
I1017 16:01:40.776854 19677 net.cpp:150] Setting up fire9/squeeze1x1
I1017 16:01:40.776867 19677 net.cpp:157] Top shape: 128 64 14 14 (1605632)
I1017 16:01:40.776883 19677 net.cpp:165] Memory required for data: 3709777920
I1017 16:01:40.776890 19677 layer_factory.hpp:77] Creating layer fire9/relu_squeeze1x1
I1017 16:01:40.776895 19677 net.cpp:100] Creating Layer fire9/relu_squeeze1x1
I1017 16:01:40.776899 19677 net.cpp:434] fire9/relu_squeeze1x1 <- fire9/squeeze1x1
I1017 16:01:40.776927 19677 net.cpp:395] fire9/relu_squeeze1x1 -> fire9/squeeze1x1 (in-place)
I1017 16:01:40.777307 19677 net.cpp:150] Setting up fire9/relu_squeeze1x1
I1017 16:01:40.777319 19677 net.cpp:157] Top shape: 128 64 14 14 (1605632)
I1017 16:01:40.777334 19677 net.cpp:165] Memory required for data: 3716200448
I1017 16:01:40.777338 19677 layer_factory.hpp:77] Creating layer fire9/squeeze1x1_fire9/relu_squeeze1x1_0_split
I1017 16:01:40.777349 19677 net.cpp:100] Creating Layer fire9/squeeze1x1_fire9/relu_squeeze1x1_0_split
I1017 16:01:40.777354 19677 net.cpp:434] fire9/squeeze1x1_fire9/relu_squeeze1x1_0_split <- fire9/squeeze1x1
I1017 16:01:40.777359 19677 net.cpp:408] fire9/squeeze1x1_fire9/relu_squeeze1x1_0_split -> fire9/squeeze1x1_fire9/relu_squeeze1x1_0_split_0
I1017 16:01:40.777366 19677 net.cpp:408] fire9/squeeze1x1_fire9/relu_squeeze1x1_0_split -> fire9/squeeze1x1_fire9/relu_squeeze1x1_0_split_1
I1017 16:01:40.777410 19677 net.cpp:150] Setting up fire9/squeeze1x1_fire9/relu_squeeze1x1_0_split
I1017 16:01:40.777418 19677 net.cpp:157] Top shape: 128 64 14 14 (1605632)
I1017 16:01:40.777436 19677 net.cpp:157] Top shape: 128 64 14 14 (1605632)
I1017 16:01:40.777438 19677 net.cpp:165] Memory required for data: 3729045504
I1017 16:01:40.777441 19677 layer_factory.hpp:77] Creating layer fire9/expand1x1
I1017 16:01:40.777463 19677 net.cpp:100] Creating Layer fire9/expand1x1
I1017 16:01:40.777467 19677 net.cpp:434] fire9/expand1x1 <- fire9/squeeze1x1_fire9/relu_squeeze1x1_0_split_0
I1017 16:01:40.777473 19677 net.cpp:408] fire9/expand1x1 -> fire9/expand1x1
I1017 16:01:40.779228 19677 net.cpp:150] Setting up fire9/expand1x1
I1017 16:01:40.779242 19677 net.cpp:157] Top shape: 128 256 14 14 (6422528)
I1017 16:01:40.779258 19677 net.cpp:165] Memory required for data: 3754735616
I1017 16:01:40.779263 19677 layer_factory.hpp:77] Creating layer fire9/relu_expand1x1
I1017 16:01:40.779270 19677 net.cpp:100] Creating Layer fire9/relu_expand1x1
I1017 16:01:40.779274 19677 net.cpp:434] fire9/relu_expand1x1 <- fire9/expand1x1
I1017 16:01:40.779291 19677 net.cpp:395] fire9/relu_expand1x1 -> fire9/expand1x1 (in-place)
I1017 16:01:40.779476 19677 net.cpp:150] Setting up fire9/relu_expand1x1
I1017 16:01:40.779486 19677 net.cpp:157] Top shape: 128 256 14 14 (6422528)
I1017 16:01:40.779501 19677 net.cpp:165] Memory required for data: 3780425728
I1017 16:01:40.779505 19677 layer_factory.hpp:77] Creating layer fire9/expand3x3
I1017 16:01:40.779515 19677 net.cpp:100] Creating Layer fire9/expand3x3
I1017 16:01:40.779518 19677 net.cpp:434] fire9/expand3x3 <- fire9/squeeze1x1_fire9/relu_squeeze1x1_0_split_1
I1017 16:01:40.779525 19677 net.cpp:408] fire9/expand3x3 -> fire9/expand3x3
I1017 16:01:40.782377 19677 net.cpp:150] Setting up fire9/expand3x3
I1017 16:01:40.782392 19677 net.cpp:157] Top shape: 128 256 14 14 (6422528)
I1017 16:01:40.782407 19677 net.cpp:165] Memory required for data: 3806115840
I1017 16:01:40.782413 19677 layer_factory.hpp:77] Creating layer fire9/relu_expand3x3
I1017 16:01:40.782418 19677 net.cpp:100] Creating Layer fire9/relu_expand3x3
I1017 16:01:40.782423 19677 net.cpp:434] fire9/relu_expand3x3 <- fire9/expand3x3
I1017 16:01:40.782439 19677 net.cpp:395] fire9/relu_expand3x3 -> fire9/expand3x3 (in-place)
I1017 16:01:40.782845 19677 net.cpp:150] Setting up fire9/relu_expand3x3
I1017 16:01:40.782868 19677 net.cpp:157] Top shape: 128 256 14 14 (6422528)
I1017 16:01:40.782886 19677 net.cpp:165] Memory required for data: 3831805952
I1017 16:01:40.782888 19677 layer_factory.hpp:77] Creating layer fire9/concat
I1017 16:01:40.782896 19677 net.cpp:100] Creating Layer fire9/concat
I1017 16:01:40.782912 19677 net.cpp:434] fire9/concat <- fire9/expand1x1
I1017 16:01:40.782937 19677 net.cpp:434] fire9/concat <- fire9/expand3x3
I1017 16:01:40.782944 19677 net.cpp:408] fire9/concat -> fire9/concat
I1017 16:01:40.782980 19677 net.cpp:150] Setting up fire9/concat
I1017 16:01:40.783004 19677 net.cpp:157] Top shape: 128 512 14 14 (12845056)
I1017 16:01:40.783020 19677 net.cpp:165] Memory required for data: 3883186176
I1017 16:01:40.783022 19677 layer_factory.hpp:77] Creating layer drop9
I1017 16:01:40.783043 19677 net.cpp:100] Creating Layer drop9
I1017 16:01:40.783047 19677 net.cpp:434] drop9 <- fire9/concat
I1017 16:01:40.783052 19677 net.cpp:395] drop9 -> fire9/concat (in-place)
I1017 16:01:40.783082 19677 net.cpp:150] Setting up drop9
I1017 16:01:40.783089 19677 net.cpp:157] Top shape: 128 512 14 14 (12845056)
I1017 16:01:40.783093 19677 net.cpp:165] Memory required for data: 3934566400
I1017 16:01:40.783097 19677 layer_factory.hpp:77] Creating layer conv10_2626
I1017 16:01:40.783105 19677 net.cpp:100] Creating Layer conv10_2626
I1017 16:01:40.783110 19677 net.cpp:434] conv10_2626 <- fire9/concat
I1017 16:01:40.783115 19677 net.cpp:408] conv10_2626 -> conv10_2626
I1017 16:01:40.804821 19677 net.cpp:150] Setting up conv10_2626
I1017 16:01:40.804837 19677 net.cpp:157] Top shape: 128 2626 14 14 (65881088)
I1017 16:01:40.804853 19677 net.cpp:165] Memory required for data: 4198090752
I1017 16:01:40.804859 19677 layer_factory.hpp:77] Creating layer relu_conv10
I1017 16:01:40.804867 19677 net.cpp:100] Creating Layer relu_conv10
I1017 16:01:40.804872 19677 net.cpp:434] relu_conv10 <- conv10_2626
I1017 16:01:40.804890 19677 net.cpp:395] relu_conv10 -> conv10_2626 (in-place)
I1017 16:01:40.805266 19677 net.cpp:150] Setting up relu_conv10
I1017 16:01:40.805279 19677 net.cpp:157] Top shape: 128 2626 14 14 (65881088)
I1017 16:01:40.805295 19677 net.cpp:165] Memory required for data: 4461615104
I1017 16:01:40.805299 19677 layer_factory.hpp:77] Creating layer pool10
I1017 16:01:40.805307 19677 net.cpp:100] Creating Layer pool10
I1017 16:01:40.805311 19677 net.cpp:434] pool10 <- conv10_2626
I1017 16:01:40.805318 19677 net.cpp:408] pool10 -> pool10
I1017 16:01:40.805516 19677 net.cpp:150] Setting up pool10
I1017 16:01:40.805527 19677 net.cpp:157] Top shape: 128 2626 1 1 (336128)
I1017 16:01:40.805542 19677 net.cpp:165] Memory required for data: 4462959616
I1017 16:01:40.805546 19677 layer_factory.hpp:77] Creating layer loss
I1017 16:01:40.805552 19677 net.cpp:100] Creating Layer loss
I1017 16:01:40.805557 19677 net.cpp:434] loss <- pool10
I1017 16:01:40.805562 19677 net.cpp:434] loss <- label
I1017 16:01:40.805568 19677 net.cpp:408] loss -> loss
I1017 16:01:40.805580 19677 layer_factory.hpp:77] Creating layer loss
…
I1017 16:01:40.808377 19677 solver.cpp:181] Creating test net (#0) specified by net file: /home/zhh/DL/models/SqueezeNet/train_val.prototxt
I1017 16:01:40.808500 19677 net.cpp:322] The NetState phase (1) differed from the phase (0) specified by a rule in layer data
I1017 16:01:40.808935 19677 net.cpp:58] Initializing net from parameters: 
state {
  phase: TEST
}
layer {
  name: "data"
  type: "Data"
  top: "data"
  top: "label"
  include {
    phase: TEST
  }
  transform_param {
    crop_size: 227
    mean_file: "/share/zhh/mean.binaryproto"
  }
  data_param {
    source: "/share/front/test_lmdb"
    batch_size: 100
    backend: LMDB
  }
}
layer {
  name: "conv1"
  type: "Convolution"
  bottom: "data"
  top: "conv1"
  convolution_param {
    num_output: 64
    kernel_size: 3
    stride: 2
    weight_filler {
      type: "xavier"
    }
  }
}
layer {
  name: "relu_conv1"
  type: "ReLU"
  bottom: "conv1"
  top: "conv1"
}
layer {
  name: "pool1"
  type: "Pooling"
  bottom: "conv1"
  top: "pool1"
  pooling_param {
    pool: MAX
    kernel_size: 3
    stride: 2
  }
}
layer {
  name: "fire2/squeeze1x1"
  type: "Convolution"
  bottom: "pool1"
  top: "fire2/squeeze1x1"
  convolution_param {
    num_output: 16
    kernel_size: 1
    weight_filler {
      type: "xavier"
    }
  }
}
layer {
  name: "fire2/relu_squeeze1x1"
  type: "ReLU"
  bottom: "fire2/squeeze1x1"
  top: "fire2/squeeze1x1"
}
layer {
  name: "fire2/expand1x1"
  type: "Convolution"
  bottom: "fire2/squeeze1x1"
  top: "fire2/expand1x1"
  convolution_param {
    num_output: 64
    kernel_size: 1
    weight_filler {
      type: "xavier"
    }
  }
}
layer {
  name: "fire2/relu_expand1x1"
  type: "ReLU"
  bottom: "fire2/expand1x1"
  top: "fire2/expand1x1"
}
layer {
  name: "fire2/expand3x3"
  type: "Convolution"
  bottom: "fire2/squeeze1x1"
  top: "fire2/expand3x3"
  convolution_param {
    num_output: 64
    pad: 1
    kernel_size: 3
    weight_filler {
      type: "xavier"
    }
  }
}
layer {
  name: "fire2/relu_expand3x3"
  type: "ReLU"
  bottom: "fire2/expand3x3"
  top: "fire2/expand3x3"
}
layer {
  name: "fire2/concat"
  type: "Concat"
  bottom: "fire2/expand1x1"
  bottom: "fire2/expand3x3"
  top: "fire2/concat"
}
layer {
  name: "fire3/squeeze1x1"
  type: "Convolution"
  bottom: "fire2/concat"
  top: "fire3/squeeze1x1"
  convolution_param {
    num_output: 16
    kernel_size: 1
    weight_filler {
      type: "xavier"
    }
  }
}
layer {
  name: "fire3/relu_squeeze1x1"
  type: "ReLU"
  bottom: "fire3/squeeze1x1"
  top: "fire3/squeeze1x1"
}
layer {
  name: "fire3/expand1x1"
  type: "Convolution"
  bottom: "fire3/squeeze1x1"
  top: "fire3/expand1x1"
  convolution_param {
    num_output: 64
    kernel_size: 1
    weight_filler {
      type: "xavier"
    }
  }
}
layer {
  name: "fire3/relu_expand1x1"
  type: "ReLU"
  bottom: "fire3/expand1x1"
  top: "fire3/expand1x1"
}
layer {
  name: "fire3/expand3x3"
  type: "Convolution"
  bottom: "fire3/squeeze1x1"
  top: "fire3/expand3x3"
  convolution_param {
    num_output: 64
    pad: 1
    kernel_size: 3
    weight_filler {
      type: "xavier"
    }
  }
}
layer {
  name: "fire3/relu_expand3x3"
  type: "ReLU"
  bottom: "fire3/expand3x3"
  top: "fire3/expand3x3"
}
layer {
  name: "fire3/concat"
  type: "Concat"
  bottom: "fire3/expand1x1"
  bottom: "fire3/expand3x3"
  top: "fire3/concat"
}
layer {
  name: "pool3"
  type: "Pooling"
  bottom: "fire3/concat"
  top: "pool3"
  pooling_param {
    pool: MAX
    kernel_size: 3
    stride: 2
  }
}
layer {
  name: "fire4/squeeze1x1"
  type: "Convolution"
  bottom: "pool3"
  top: "fire4/squeeze1x1"
  convolution_param {
    num_output: 32
    kernel_size: 1
    weight_filler {
      type: "xavier"
    }
  }
}
layer {
  name: "fire4/relu_squeeze1x1"
  type: "ReLU"
  bottom: "fire4/squeeze1x1"
  top: "fire4/squeeze1x1"
}
layer {
  name: "fire4/expand1x1"
  type: "Convolution"
  bottom: "fire4/squeeze1x1"
  top: "fire4/expand1x1"
  convolution_param {
    num_output: 128
    kernel_size: 1
    weight_filler {
      type: "xavier"
    }
  }
}
layer {
  name: "fire4/relu_expand1x1"
  type: "ReLU"
  bottom: "fire4/expand1x1"
  top: "fire4/expand1x1"
}
layer {
  name: "fire4/expand3x3"
  type: "Convolution"
  bottom: "fire4/squeeze1x1"
  top: "fire4/expand3x3"
  convolution_param {
    num_output: 128
    pad: 1
    kernel_size: 3
    weight_filler {
      type: "xavier"
    }
  }
}
layer {
  name: "fire4/relu_expand3x3"
  type: "ReLU"
  bottom: "fire4/expand3x3"
  top: "fire4/expand3x3"
}
layer {
  name: "fire4/concat"
  type: "Concat"
  bottom: "fire4/expand1x1"
  bottom: "fire4/expand3x3"
  top: "fire4/concat"
}
layer {
  name: "fire5/squeeze1x1"
  type: "Convolution"
  bottom: "fire4/concat"
  top: "fire5/squeeze1x1"
  convolution_param {
    num_output: 32
    kernel_size: 1
    weight_filler {
      type: "xavier"
    }
  }
}
layer {
  name: "fire5/relu_squeeze1x1"
  type: "ReLU"
  bottom: "fire5/squeeze1x1"
  top: "fire5/squeeze1x1"
}
layer {
  name: "fire5/expand1x1"
  type: "Convolution"
  bottom: "fire5/squeeze1x1"
  top: "fire5/expand1x1"
  convolution_param {
    num_output: 128
    kernel_size: 1
    weight_filler {
      type: "xavier"
    }
  }
}
layer {
  name: "fire5/relu_expand1x1"
  type: "ReLU"
  bottom: "fire5/expand1x1"
  top: "fire5/expand1x1"
}
layer {
  name: "fire5/expand3x3"
  type: "Convolution"
  bottom: "fire5/squeeze1x1"
  top: "fire5/expand3x3"
  convolution_param {
    num_output: 128
    pad: 1
    kernel_size: 3
    weight_filler {
      type: "xavier"
    }
  }
}
layer {
  name: "fire5/relu_expand3x3"
  type: "ReLU"
  bottom: "fire5/expand3x3"
  top: "fire5/expand3x3"
}
layer {
  name: "fire5/concat"
  type: "Concat"
  bottom: "fire5/expand1x1"
  bottom: "fire5/expand3x3"
  top: "fire5/concat"
}
layer {
  name: "pool5"
  type: "Pooling"
  bottom: "fire5/concat"
  top: "pool5"
  pooling_param {
    pool: MAX
    kernel_size: 3
    stride: 2
  }
}
layer {
  name: "fire6/squeeze1x1"
  type: "Convolution"
  bottom: "pool5"
  top: "fire6/squeeze1x1"
  convolution_param {
    num_output: 48
    kernel_size: 1
    weight_filler {
      type: "xavier"
    }
  }
}
layer {
  name: "fire6/relu_squeeze1x1"
  type: "ReLU"
  bottom: "fire6/squeeze1x1"
  top: "fire6/squeeze1x1"
}
layer {
  name: "fire6/expand1x1"
  type: "Convolution"
  bottom: "fire6/squeeze1x1"
  top: "fire6/expand1x1"
  convolution_param {
    num_output: 192
    kernel_size: 1
    weight_filler {
      type: "xavier"
    }
  }
}
layer {
  name: "fire6/relu_expand1x1"
  type: "ReLU"
  bottom: "fire6/expand1x1"
  top: "fire6/expand1x1"
}
layer {
  name: "fire6/expand3x3"
  type: "Convolution"
  bottom: "fire6/squeeze1x1"
  top: "fire6/expand3x3"
  convolution_param {
    num_output: 192
    pad: 1
    kernel_size: 3
    weight_filler {
      type: "xavier"
    }
  }
}
layer {
  name: "fire6/relu_expand3x3"
  type: "ReLU"
  bottom: "fire6/expand3x3"
  top: "fire6/expand3x3"
}
layer {
  name: "fire6/concat"
  type: "Concat"
  bottom: "fire6/expand1x1"
  bottom: "fire6/expand3x3"
  top: "fire6/concat"
}
layer {
  name: "fire7/squeeze1x1"
  type: "Convolution"
  bottom: "fire6/concat"
  top: "fire7/squeeze1x1"
  convolution_param {
    num_output: 48
    kernel_size: 1
    weight_filler {
      type: "xavier"
    }
  }
}
layer {
  name: "fire7/relu_squeeze1x1"
  type: "ReLU"
  bottom: "fire7/squeeze1x1"
  top: "fire7/squeeze1x1"
}
layer {
  name: "fire7/expand1x1"
  type: "Convolution"
  bottom: "fire7/squeeze1x1"
  top: "fire7/expand1x1"
  convolution_param {
    num_output: 192
    kernel_size: 1
    weight_filler {
      type: "xavier"
    }
  }
}
layer {
  name: "fire7/relu_expand1x1"
  type: "ReLU"
  bottom: "fire7/expand1x1"
  top: "fire7/expand1x1"
}
layer {
  name: "fire7/expand3x3"
  type: "Convolution"
  bottom: "fire7/squeeze1x1"
  top: "fire7/expand3x3"
  convolution_param {
    num_output: 192
    pad: 1
    kernel_size: 3
    weight_filler {
      type: "xavier"
    }
  }
}
layer {
  name: "fire7/relu_expand3x3"
  type: "ReLU"
  bottom: "fire7/expand3x3"
  top: "fire7/expand3x3"
}
layer {
  name: "fire7/concat"
  type: "Concat"
  bottom: "fire7/expand1x1"
  bottom: "fire7/expand3x3"
  top: "fire7/concat"
}
layer {
  name: "fire8/squeeze1x1"
  type: "Convolution"
  bottom: "fire7/concat"
  top: "fire8/squeeze1x1"
  convolution_param {
    num_output: 64
    kernel_size: 1
    weight_filler {
      type: "xavier"
    }
  }
}
layer {
  name: "fire8/relu_squeeze1x1"
  type: "ReLU"
  bottom: "fire8/squeeze1x1"
  top: "fire8/squeeze1x1"
}
layer {
  name: "fire8/expand1x1"
  type: "Convolution"
  bottom: "fire8/squeeze1x1"
  top: "fire8/expand1x1"
  convolution_param {
    num_output: 256
    kernel_size: 1
    weight_filler {
      type: "xavier"
    }
  }
}
layer {
  name: "fire8/relu_expand1x1"
  type: "ReLU"
  bottom: "fire8/expand1x1"
  top: "fire8/expand1x1"
}
layer {
  name: "fire8/expand3x3"
  type: "Convolution"
  bottom: "fire8/squeeze1x1"
  top: "fire8/expand3x3"
  convolution_param {
    num_output: 256
    pad: 1
    kernel_size: 3
    weight_filler {
      type: "xavier"
    }
  }
}
layer {
  name: "fire8/relu_expand3x3"
  type: "ReLU"
  bottom: "fire8/expand3x3"
  top: "fire8/expand3x3"
}
layer {
  name: "fire8/concat"
  type: "Concat"
  bottom: "fire8/expand1x1"
  bottom: "fire8/expand3x3"
  top: "fire8/concat"
}
layer {
  name: "fire9/squeeze1x1"
  type: "Convolution"
  bottom: "fire8/concat"
  top: "fire9/squeeze1x1"
  convolution_param {
    num_output: 64
    kernel_size: 1
    weight_filler {
      type: "xavier"
    }
  }
}
layer {
  name: "fire9/relu_squeeze1x1"
  type: "ReLU"
  bottom: "fire9/squeeze1x1"
  top: "fire9/squeeze1x1"
}
layer {
  name: "fire9/expand1x1"
  type: "Convolution"
  bottom: "fire9/squeeze1x1"
  top: "fire9/expand1x1"
  convolution_param {
    num_output: 256
    kernel_size: 1
    weight_filler {
      type: "xavier"
    }
  }
}
layer {
  name: "fire9/relu_expand1x1"
  type: "ReLU"
  bottom: "fire9/expand1x1"
  top: "fire9/expand1x1"
}
layer {
  name: "fire9/expand3x3"
  type: "Convolution"
  bottom: "fire9/squeeze1x1"
  top: "fire9/expand3x3"
  convolution_param {
    num_output: 256
    pad: 1
    kernel_size: 3
    weight_filler {
      type: "xavier"
    }
  }
}
layer {
  name: "fire9/relu_expand3x3"
  type: "ReLU"
  bottom: "fire9/expand3x3"
  top: "fire9/expand3x3"
}
layer {
  name: "fire9/concat"
  type: "Concat"
  bottom: "fire9/expand1x1"
  bottom: "fire9/expand3x3"
  top: "fire9/concat"
}
layer {
  name: "drop9"
  type: "Dropout"
  bottom: "fire9/concat"
  top: "fire9/concat"
  dropout_param {
    dropout_ratio: 0.5
  }
}
layer {
  name: "conv10_2626"
  type: "Convolution"
  bottom: "fire9/concat"
  top: "conv10_2626"
  param {
    lr_mult: 10
    decay_mult: 1
  }
  convolution_param {
    num_output: 2626
    kernel_size: 1
    weight_filler {
      type: "gaussian"
      mean: 0
      std: 0.01
    }
  }
}
layer {
  name: "relu_conv10"
  type: "ReLU"
  bottom: "conv10_2626"
  top: "conv10_2626"
}
layer {
  name: "pool10"
  type: "Pooling"
  bottom: "conv10_2626"
  top: "pool10"
  pooling_param {
    pool: AVE
    global_pooling: true
  }
}
layer {
  name: "loss"
  type: "SoftmaxWithLoss"
  bottom: "pool10"
  bottom: "label"
  top: "loss"
}
layer {
  name: "accuracy"
  type: "Accuracy"
  bottom: "pool10"
  bottom: "label"
  top: "accuracy"
  include {
    phase: TEST
  }
}
I1017 16:01:40.809221 19677 layer_factory.hpp:77] Creating layer data
I1017 16:01:40.809339 19677 net.cpp:100] Creating Layer data
I1017 16:01:40.809347 19677 net.cpp:408] data -> data
I1017 16:01:40.809377 19677 net.cpp:408] data -> label
I1017 16:01:40.809386 19677 data_transformer.cpp:25] Loading mean file from: /share/zhh/mean.binaryproto
I1017 16:01:40.810693 19698 db_lmdb.cpp:35] Opened lmdb /share/front/test_lmdb
I1017 16:01:40.811863 19677 data_layer.cpp:41] output data size: 100,3,227,227
I1017 16:01:40.902951 19677 net.cpp:150] Setting up data
I1017 16:01:40.902995 19677 net.cpp:157] Top shape: 100 3 227 227 (15458700)
I1017 16:01:40.903002 19677 net.cpp:157] Top shape: 100 (100)
I1017 16:01:40.903004 19677 net.cpp:165] Memory required for data: 61835200
I1017 16:01:40.903012 19677 layer_factory.hpp:77] Creating layer label_data_1_split
I1017 16:01:40.903035 19677 net.cpp:100] Creating Layer label_data_1_split
I1017 16:01:40.903040 19677 net.cpp:434] label_data_1_split <- label
I1017 16:01:40.903048 19677 net.cpp:408] label_data_1_split -> label_data_1_split_0
I1017 16:01:40.903060 19677 net.cpp:408] label_data_1_split -> label_data_1_split_1
I1017 16:01:40.903188 19677 net.cpp:150] Setting up label_data_1_split
I1017 16:01:40.903198 19677 net.cpp:157] Top shape: 100 (100)
I1017 16:01:40.903214 19677 net.cpp:157] Top shape: 100 (100)
I1017 16:01:40.903218 19677 net.cpp:165] Memory required for data: 61836000
I1017 16:01:40.903223 19677 layer_factory.hpp:77] Creating layer conv1
I1017 16:01:40.903235 19677 net.cpp:100] Creating Layer conv1
I1017 16:01:40.903239 19677 net.cpp:434] conv1 <- data
I1017 16:01:40.903244 19677 net.cpp:408] conv1 -> conv1
I1017 16:01:40.904774 19677 net.cpp:150] Setting up conv1
I1017 16:01:40.904790 19677 net.cpp:157] Top shape: 100 64 113 113 (81721600)
I1017 16:01:40.904794 19677 net.cpp:165] Memory required for data: 388722400
I1017 16:01:40.904819 19677 layer_factory.hpp:77] Creating layer relu_conv1
I1017 16:01:40.904827 19677 net.cpp:100] Creating Layer relu_conv1
I1017 16:01:40.904831 19677 net.cpp:434] relu_conv1 <- conv1
I1017 16:01:40.904851 19677 net.cpp:395] relu_conv1 -> conv1 (in-place)
I1017 16:01:40.913244 19677 net.cpp:150] Setting up relu_conv1
I1017 16:01:40.913264 19677 net.cpp:157] Top shape: 100 64 113 113 (81721600)
I1017 16:01:40.913269 19677 net.cpp:165] Memory required for data: 715608800
I1017 16:01:40.913285 19677 layer_factory.hpp:77] Creating layer pool1
I1017 16:01:40.913296 19677 net.cpp:100] Creating Layer pool1
I1017 16:01:40.913305 19677 net.cpp:434] pool1 <- conv1
I1017 16:01:40.913311 19677 net.cpp:408] pool1 -> pool1
I1017 16:01:40.913383 19677 net.cpp:150] Setting up pool1
I1017 16:01:40.913390 19677 net.cpp:157] Top shape: 100 64 56 56 (20070400)
I1017 16:01:40.913405 19677 net.cpp:165] Memory required for data: 795890400
I1017 16:01:40.913408 19677 layer_factory.hpp:77] Creating layer fire2/squeeze1x1
I1017 16:01:40.913419 19677 net.cpp:100] Creating Layer fire2/squeeze1x1
I1017 16:01:40.913422 19677 net.cpp:434] fire2/squeeze1x1 <- pool1
I1017 16:01:40.913445 19677 net.cpp:408] fire2/squeeze1x1 -> fire2/squeeze1x1
I1017 16:01:40.914791 19677 net.cpp:150] Setting up fire2/squeeze1x1
I1017 16:01:40.914806 19677 net.cpp:157] Top shape: 100 16 56 56 (5017600)
I1017 16:01:40.914824 19677 net.cpp:165] Memory required for data: 815960800
I1017 16:01:40.914834 19677 layer_factory.hpp:77] Creating layer fire2/relu_squeeze1x1
I1017 16:01:40.914846 19677 net.cpp:100] Creating Layer fire2/relu_squeeze1x1
I1017 16:01:40.914850 19677 net.cpp:434] fire2/relu_squeeze1x1 <- fire2/squeeze1x1
I1017 16:01:40.914867 19677 net.cpp:395] fire2/relu_squeeze1x1 -> fire2/squeeze1x1 (in-place)
I1017 16:01:40.915271 19677 net.cpp:150] Setting up fire2/relu_squeeze1x1
I1017 16:01:40.915285 19677 net.cpp:157] Top shape: 100 16 56 56 (5017600)
I1017 16:01:40.915289 19677 net.cpp:165] Memory required for data: 836031200
I1017 16:01:40.915293 19677 layer_factory.hpp:77] Creating layer fire2/squeeze1x1_fire2/relu_squeeze1x1_0_split
I1017 16:01:40.915299 19677 net.cpp:100] Creating Layer fire2/squeeze1x1_fire2/relu_squeeze1x1_0_split
I1017 16:01:40.915304 19677 net.cpp:434] fire2/squeeze1x1_fire2/relu_squeeze1x1_0_split <- fire2/squeeze1x1
I1017 16:01:40.915310 19677 net.cpp:408] fire2/squeeze1x1_fire2/relu_squeeze1x1_0_split -> fire2/squeeze1x1_fire2/relu_squeeze1x1_0_split_0
I1017 16:01:40.915318 19677 net.cpp:408] fire2/squeeze1x1_fire2/relu_squeeze1x1_0_split -> fire2/squeeze1x1_fire2/relu_squeeze1x1_0_split_1
I1017 16:01:40.915365 19677 net.cpp:150] Setting up fire2/squeeze1x1_fire2/relu_squeeze1x1_0_split
I1017 16:01:40.915372 19677 net.cpp:157] Top shape: 100 16 56 56 (5017600)
I1017 16:01:40.915377 19677 net.cpp:157] Top shape: 100 16 56 56 (5017600)
I1017 16:01:40.915380 19677 net.cpp:165] Memory required for data: 876172000
I1017 16:01:40.915383 19677 layer_factory.hpp:77] Creating layer fire2/expand1x1
I1017 16:01:40.915397 19677 net.cpp:100] Creating Layer fire2/expand1x1
I1017 16:01:40.915401 19677 net.cpp:434] fire2/expand1x1 <- fire2/squeeze1x1_fire2/relu_squeeze1x1_0_split_0
I1017 16:01:40.915407 19677 net.cpp:408] fire2/expand1x1 -> fire2/expand1x1
I1017 16:01:40.916710 19677 net.cpp:150] Setting up fire2/expand1x1
I1017 16:01:40.916725 19677 net.cpp:157] Top shape: 100 64 56 56 (20070400)
I1017 16:01:40.916730 19677 net.cpp:165] Memory required for data: 956453600
I1017 16:01:40.916740 19677 layer_factory.hpp:77] Creating layer fire2/relu_expand1x1
I1017 16:01:40.916759 19677 net.cpp:100] Creating Layer fire2/relu_expand1x1
I1017 16:01:40.916762 19677 net.cpp:434] fire2/relu_expand1x1 <- fire2/expand1x1
I1017 16:01:40.916769 19677 net.cpp:395] fire2/relu_expand1x1 -> fire2/expand1x1 (in-place)
I1017 16:01:40.916949 19677 net.cpp:150] Setting up fire2/relu_expand1x1
I1017 16:01:40.916960 19677 net.cpp:157] Top shape: 100 64 56 56 (20070400)
I1017 16:01:40.916975 19677 net.cpp:165] Memory required for data: 1036735200
I1017 16:01:40.916977 19677 layer_factory.hpp:77] Creating layer fire2/expand3x3
I1017 16:01:40.916985 19677 net.cpp:100] Creating Layer fire2/expand3x3
I1017 16:01:40.916990 19677 net.cpp:434] fire2/expand3x3 <- fire2/squeeze1x1_fire2/relu_squeeze1x1_0_split_1
I1017 16:01:40.916996 19677 net.cpp:408] fire2/expand3x3 -> fire2/expand3x3
I1017 16:01:40.918370 19677 net.cpp:150] Setting up fire2/expand3x3
I1017 16:01:40.918383 19677 net.cpp:157] Top shape: 100 64 56 56 (20070400)
I1017 16:01:40.918400 19677 net.cpp:165] Memory required for data: 1117016800
I1017 16:01:40.918406 19677 layer_factory.hpp:77] Creating layer fire2/relu_expand3x3
I1017 16:01:40.918412 19677 net.cpp:100] Creating Layer fire2/relu_expand3x3
I1017 16:01:40.918416 19677 net.cpp:434] fire2/relu_expand3x3 <- fire2/expand3x3
I1017 16:01:40.918433 19677 net.cpp:395] fire2/relu_expand3x3 -> fire2/expand3x3 (in-place)
I1017 16:01:40.918613 19677 net.cpp:150] Setting up fire2/relu_expand3x3
I1017 16:01:40.918623 19677 net.cpp:157] Top shape: 100 64 56 56 (20070400)
I1017 16:01:40.918638 19677 net.cpp:165] Memory required for data: 1197298400
I1017 16:01:40.918643 19677 layer_factory.hpp:77] Creating layer fire2/concat
I1017 16:01:40.918663 19677 net.cpp:100] Creating Layer fire2/concat
I1017 16:01:40.918668 19677 net.cpp:434] fire2/concat <- fire2/expand1x1
I1017 16:01:40.918673 19677 net.cpp:434] fire2/concat <- fire2/expand3x3
I1017 16:01:40.918678 19677 net.cpp:408] fire2/concat -> fire2/concat
I1017 16:01:40.918711 19677 net.cpp:150] Setting up fire2/concat
I1017 16:01:40.918720 19677 net.cpp:157] Top shape: 100 128 56 56 (40140800)
I1017 16:01:40.918722 19677 net.cpp:165] Memory required for data: 1357861600
I1017 16:01:40.918725 19677 layer_factory.hpp:77] Creating layer fire3/squeeze1x1
I1017 16:01:40.918733 19677 net.cpp:100] Creating Layer fire3/squeeze1x1
I1017 16:01:40.918751 19677 net.cpp:434] fire3/squeeze1x1 <- fire2/concat
I1017 16:01:40.918759 19677 net.cpp:408] fire3/squeeze1x1 -> fire3/squeeze1x1
I1017 16:01:40.920366 19677 net.cpp:150] Setting up fire3/squeeze1x1
I1017 16:01:40.920380 19677 net.cpp:157] Top shape: 100 16 56 56 (5017600)
I1017 16:01:40.920395 19677 net.cpp:165] Memory required for data: 1377932000
I1017 16:01:40.920406 19677 layer_factory.hpp:77] Creating layer fire3/relu_squeeze1x1
I1017 16:01:40.920413 19677 net.cpp:100] Creating Layer fire3/relu_squeeze1x1
I1017 16:01:40.920444 19677 net.cpp:434] fire3/relu_squeeze1x1 <- fire3/squeeze1x1
I1017 16:01:40.920450 19677 net.cpp:395] fire3/relu_squeeze1x1 -> fire3/squeeze1x1 (in-place)
I1017 16:01:40.920893 19677 net.cpp:150] Setting up fire3/relu_squeeze1x1
I1017 16:01:40.920908 19677 net.cpp:157] Top shape: 100 16 56 56 (5017600)
I1017 16:01:40.920927 19677 net.cpp:165] Memory required for data: 1398002400
I1017 16:01:40.920930 19677 layer_factory.hpp:77] Creating layer fire3/squeeze1x1_fire3/relu_squeeze1x1_0_split
I1017 16:01:40.920936 19677 net.cpp:100] Creating Layer fire3/squeeze1x1_fire3/relu_squeeze1x1_0_split
I1017 16:01:40.920940 19677 net.cpp:434] fire3/squeeze1x1_fire3/relu_squeeze1x1_0_split <- fire3/squeeze1x1
I1017 16:01:40.920946 19677 net.cpp:408] fire3/squeeze1x1_fire3/relu_squeeze1x1_0_split -> fire3/squeeze1x1_fire3/relu_squeeze1x1_0_split_0
I1017 16:01:40.920954 19677 net.cpp:408] fire3/squeeze1x1_fire3/relu_squeeze1x1_0_split -> fire3/squeeze1x1_fire3/relu_squeeze1x1_0_split_1
I1017 16:01:40.921003 19677 net.cpp:150] Setting up fire3/squeeze1x1_fire3/relu_squeeze1x1_0_split
I1017 16:01:40.921010 19677 net.cpp:157] Top shape: 100 16 56 56 (5017600)
I1017 16:01:40.921015 19677 net.cpp:157] Top shape: 100 16 56 56 (5017600)
I1017 16:01:40.921018 19677 net.cpp:165] Memory required for data: 1438143200
I1017 16:01:40.921021 19677 layer_factory.hpp:77] Creating layer fire3/expand1x1
I1017 16:01:40.921031 19677 net.cpp:100] Creating Layer fire3/expand1x1
I1017 16:01:40.921036 19677 net.cpp:434] fire3/expand1x1 <- fire3/squeeze1x1_fire3/relu_squeeze1x1_0_split_0
I1017 16:01:40.921041 19677 net.cpp:408] fire3/expand1x1 -> fire3/expand1x1
I1017 16:01:40.922344 19677 net.cpp:150] Setting up fire3/expand1x1
I1017 16:01:40.922358 19677 net.cpp:157] Top shape: 100 64 56 56 (20070400)
I1017 16:01:40.922374 19677 net.cpp:165] Memory required for data: 1518424800
I1017 16:01:40.922381 19677 layer_factory.hpp:77] Creating layer fire3/relu_expand1x1
I1017 16:01:40.922389 19677 net.cpp:100] Creating Layer fire3/relu_expand1x1
I1017 16:01:40.922392 19677 net.cpp:434] fire3/relu_expand1x1 <- fire3/expand1x1
I1017 16:01:40.922410 19677 net.cpp:395] fire3/relu_expand1x1 -> fire3/expand1x1 (in-place)
I1017 16:01:40.922590 19677 net.cpp:150] Setting up fire3/relu_expand1x1
I1017 16:01:40.922600 19677 net.cpp:157] Top shape: 100 64 56 56 (20070400)
I1017 16:01:40.922616 19677 net.cpp:165] Memory required for data: 1598706400
I1017 16:01:40.922619 19677 layer_factory.hpp:77] Creating layer fire3/expand3x3
I1017 16:01:40.922627 19677 net.cpp:100] Creating Layer fire3/expand3x3
I1017 16:01:40.922632 19677 net.cpp:434] fire3/expand3x3 <- fire3/squeeze1x1_fire3/relu_squeeze1x1_0_split_1
I1017 16:01:40.922638 19677 net.cpp:408] fire3/expand3x3 -> fire3/expand3x3
I1017 16:01:40.923974 19677 net.cpp:150] Setting up fire3/expand3x3
I1017 16:01:40.924013 19677 net.cpp:157] Top shape: 100 64 56 56 (20070400)
I1017 16:01:40.924018 19677 net.cpp:165] Memory required for data: 1678988000
I1017 16:01:40.924024 19677 layer_factory.hpp:77] Creating layer fire3/relu_expand3x3
I1017 16:01:40.924031 19677 net.cpp:100] Creating Layer fire3/relu_expand3x3
I1017 16:01:40.924036 19677 net.cpp:434] fire3/relu_expand3x3 <- fire3/expand3x3
I1017 16:01:40.924052 19677 net.cpp:395] fire3/relu_expand3x3 -> fire3/expand3x3 (in-place)
I1017 16:01:40.924275 19677 net.cpp:150] Setting up fire3/relu_expand3x3
I1017 16:01:40.924301 19677 net.cpp:157] Top shape: 100 64 56 56 (20070400)
I1017 16:01:40.924305 19677 net.cpp:165] Memory required for data: 1759269600
I1017 16:01:40.924320 19677 layer_factory.hpp:77] Creating layer fire3/concat
I1017 16:01:40.924326 19677 net.cpp:100] Creating Layer fire3/concat
I1017 16:01:40.924330 19677 net.cpp:434] fire3/concat <- fire3/expand1x1
I1017 16:01:40.924335 19677 net.cpp:434] fire3/concat <- fire3/expand3x3
I1017 16:01:40.924353 19677 net.cpp:408] fire3/concat -> fire3/concat
I1017 16:01:40.924394 19677 net.cpp:150] Setting up fire3/concat
I1017 16:01:40.924403 19677 net.cpp:157] Top shape: 100 128 56 56 (40140800)
I1017 16:01:40.924407 19677 net.cpp:165] Memory required for data: 1919832800
I1017 16:01:40.924409 19677 layer_factory.hpp:77] Creating layer pool3
I1017 16:01:40.924417 19677 net.cpp:100] Creating Layer pool3
I1017 16:01:40.924420 19677 net.cpp:434] pool3 <- fire3/concat
I1017 16:01:40.924425 19677 net.cpp:408] pool3 -> pool3
I1017 16:01:40.924469 19677 net.cpp:150] Setting up pool3
I1017 16:01:40.924487 19677 net.cpp:157] Top shape: 100 128 28 28 (10035200)
I1017 16:01:40.924490 19677 net.cpp:165] Memory required for data: 1959973600
I1017 16:01:40.924506 19677 layer_factory.hpp:77] Creating layer fire4/squeeze1x1
I1017 16:01:40.924520 19677 net.cpp:100] Creating Layer fire4/squeeze1x1
I1017 16:01:40.924525 19677 net.cpp:434] fire4/squeeze1x1 <- pool3
I1017 16:01:40.924530 19677 net.cpp:408] fire4/squeeze1x1 -> fire4/squeeze1x1
I1017 16:01:40.925809 19677 net.cpp:150] Setting up fire4/squeeze1x1
I1017 16:01:40.925824 19677 net.cpp:157] Top shape: 100 32 28 28 (2508800)
I1017 16:01:40.925839 19677 net.cpp:165] Memory required for data: 1970008800
I1017 16:01:40.925846 19677 layer_factory.hpp:77] Creating layer fire4/relu_squeeze1x1
I1017 16:01:40.925853 19677 net.cpp:100] Creating Layer fire4/relu_squeeze1x1
I1017 16:01:40.925858 19677 net.cpp:434] fire4/relu_squeeze1x1 <- fire4/squeeze1x1
I1017 16:01:40.925874 19677 net.cpp:395] fire4/relu_squeeze1x1 -> fire4/squeeze1x1 (in-place)
I1017 16:01:40.926278 19677 net.cpp:150] Setting up fire4/relu_squeeze1x1
I1017 16:01:40.926292 19677 net.cpp:157] Top shape: 100 32 28 28 (2508800)
I1017 16:01:40.926307 19677 net.cpp:165] Memory required for data: 1980044000
I1017 16:01:40.926311 19677 layer_factory.hpp:77] Creating layer fire4/squeeze1x1_fire4/relu_squeeze1x1_0_split
I1017 16:01:40.926317 19677 net.cpp:100] Creating Layer fire4/squeeze1x1_fire4/relu_squeeze1x1_0_split
I1017 16:01:40.926321 19677 net.cpp:434] fire4/squeeze1x1_fire4/relu_squeeze1x1_0_split <- fire4/squeeze1x1
I1017 16:01:40.926327 19677 net.cpp:408] fire4/squeeze1x1_fire4/relu_squeeze1x1_0_split -> fire4/squeeze1x1_fire4/relu_squeeze1x1_0_split_0
I1017 16:01:40.926336 19677 net.cpp:408] fire4/squeeze1x1_fire4/relu_squeeze1x1_0_split -> fire4/squeeze1x1_fire4/relu_squeeze1x1_0_split_1
I1017 16:01:40.926384 19677 net.cpp:150] Setting up fire4/squeeze1x1_fire4/relu_squeeze1x1_0_split
I1017 16:01:40.926393 19677 net.cpp:157] Top shape: 100 32 28 28 (2508800)
I1017 16:01:40.926398 19677 net.cpp:157] Top shape: 100 32 28 28 (2508800)
I1017 16:01:40.926400 19677 net.cpp:165] Memory required for data: 2000114400
I1017 16:01:40.926403 19677 layer_factory.hpp:77] Creating layer fire4/expand1x1
I1017 16:01:40.926411 19677 net.cpp:100] Creating Layer fire4/expand1x1
I1017 16:01:40.926415 19677 net.cpp:434] fire4/expand1x1 <- fire4/squeeze1x1_fire4/relu_squeeze1x1_0_split_0
I1017 16:01:40.926421 19677 net.cpp:408] fire4/expand1x1 -> fire4/expand1x1
I1017 16:01:40.927786 19677 net.cpp:150] Setting up fire4/expand1x1
I1017 16:01:40.927801 19677 net.cpp:157] Top shape: 100 128 28 28 (10035200)
I1017 16:01:40.927817 19677 net.cpp:165] Memory required for data: 2040255200
I1017 16:01:40.927829 19677 layer_factory.hpp:77] Creating layer fire4/relu_expand1x1
I1017 16:01:40.927847 19677 net.cpp:100] Creating Layer fire4/relu_expand1x1
I1017 16:01:40.927852 19677 net.cpp:434] fire4/relu_expand1x1 <- fire4/expand1x1
I1017 16:01:40.927858 19677 net.cpp:395] fire4/relu_expand1x1 -> fire4/expand1x1 (in-place)
I1017 16:01:40.928050 19677 net.cpp:150] Setting up fire4/relu_expand1x1
I1017 16:01:40.928061 19677 net.cpp:157] Top shape: 100 128 28 28 (10035200)
I1017 16:01:40.928076 19677 net.cpp:165] Memory required for data: 2080396000
I1017 16:01:40.928079 19677 layer_factory.hpp:77] Creating layer fire4/expand3x3
I1017 16:01:40.928088 19677 net.cpp:100] Creating Layer fire4/expand3x3
I1017 16:01:40.928092 19677 net.cpp:434] fire4/expand3x3 <- fire4/squeeze1x1_fire4/relu_squeeze1x1_0_split_1
I1017 16:01:40.928098 19677 net.cpp:408] fire4/expand3x3 -> fire4/expand3x3
I1017 16:01:40.929777 19677 net.cpp:150] Setting up fire4/expand3x3
I1017 16:01:40.929792 19677 net.cpp:157] Top shape: 100 128 28 28 (10035200)
I1017 16:01:40.929807 19677 net.cpp:165] Memory required for data: 2120536800
I1017 16:01:40.929814 19677 layer_factory.hpp:77] Creating layer fire4/relu_expand3x3
I1017 16:01:40.929821 19677 net.cpp:100] Creating Layer fire4/relu_expand3x3
I1017 16:01:40.929826 19677 net.cpp:434] fire4/relu_expand3x3 <- fire4/expand3x3
I1017 16:01:40.929837 19677 net.cpp:395] fire4/relu_expand3x3 -> fire4/expand3x3 (in-place)
I1017 16:01:40.930034 19677 net.cpp:150] Setting up fire4/relu_expand3x3
I1017 16:01:40.930045 19677 net.cpp:157] Top shape: 100 128 28 28 (10035200)
I1017 16:01:40.930060 19677 net.cpp:165] Memory required for data: 2160677600
I1017 16:01:40.930063 19677 layer_factory.hpp:77] Creating layer fire4/concat
I1017 16:01:40.930069 19677 net.cpp:100] Creating Layer fire4/concat
I1017 16:01:40.930075 19677 net.cpp:434] fire4/concat <- fire4/expand1x1
I1017 16:01:40.930080 19677 net.cpp:434] fire4/concat <- fire4/expand3x3
I1017 16:01:40.930085 19677 net.cpp:408] fire4/concat -> fire4/concat
I1017 16:01:40.930119 19677 net.cpp:150] Setting up fire4/concat
I1017 16:01:40.930124 19677 net.cpp:157] Top shape: 100 256 28 28 (20070400)
I1017 16:01:40.930129 19677 net.cpp:165] Memory required for data: 2240959200
I1017 16:01:40.930131 19677 layer_factory.hpp:77] Creating layer fire5/squeeze1x1
I1017 16:01:40.930138 19677 net.cpp:100] Creating Layer fire5/squeeze1x1
I1017 16:01:40.930142 19677 net.cpp:434] fire5/squeeze1x1 <- fire4/concat
I1017 16:01:40.930147 19677 net.cpp:408] fire5/squeeze1x1 -> fire5/squeeze1x1
I1017 16:01:40.931640 19677 net.cpp:150] Setting up fire5/squeeze1x1
I1017 16:01:40.931655 19677 net.cpp:157] Top shape: 100 32 28 28 (2508800)
I1017 16:01:40.931671 19677 net.cpp:165] Memory required for data: 2250994400
I1017 16:01:40.931679 19677 layer_factory.hpp:77] Creating layer fire5/relu_squeeze1x1
I1017 16:01:40.931685 19677 net.cpp:100] Creating Layer fire5/relu_squeeze1x1
I1017 16:01:40.931689 19677 net.cpp:434] fire5/relu_squeeze1x1 <- fire5/squeeze1x1
I1017 16:01:40.931696 19677 net.cpp:395] fire5/relu_squeeze1x1 -> fire5/squeeze1x1 (in-place)
I1017 16:01:40.932155 19677 net.cpp:150] Setting up fire5/relu_squeeze1x1
I1017 16:01:40.932169 19677 net.cpp:157] Top shape: 100 32 28 28 (2508800)
I1017 16:01:40.932173 19677 net.cpp:165] Memory required for data: 2261029600
I1017 16:01:40.932178 19677 layer_factory.hpp:77] Creating layer fire5/squeeze1x1_fire5/relu_squeeze1x1_0_split
I1017 16:01:40.932190 19677 net.cpp:100] Creating Layer fire5/squeeze1x1_fire5/relu_squeeze1x1_0_split
I1017 16:01:40.932195 19677 net.cpp:434] fire5/squeeze1x1_fire5/relu_squeeze1x1_0_split <- fire5/squeeze1x1
I1017 16:01:40.932210 19677 net.cpp:408] fire5/squeeze1x1_fire5/relu_squeeze1x1_0_split -> fire5/squeeze1x1_fire5/relu_squeeze1x1_0_split_0
I1017 16:01:40.932222 19677 net.cpp:408] fire5/squeeze1x1_fire5/relu_squeeze1x1_0_split -> fire5/squeeze1x1_fire5/relu_squeeze1x1_0_split_1
I1017 16:01:40.932315 19677 net.cpp:150] Setting up fire5/squeeze1x1_fire5/relu_squeeze1x1_0_split
I1017 16:01:40.932324 19677 net.cpp:157] Top shape: 100 32 28 28 (2508800)
I1017 16:01:40.932340 19677 net.cpp:157] Top shape: 100 32 28 28 (2508800)
I1017 16:01:40.932344 19677 net.cpp:165] Memory required for data: 2281100000
I1017 16:01:40.932348 19677 layer_factory.hpp:77] Creating layer fire5/expand1x1
I1017 16:01:40.932358 19677 net.cpp:100] Creating Layer fire5/expand1x1
I1017 16:01:40.932361 19677 net.cpp:434] fire5/expand1x1 <- fire5/squeeze1x1_fire5/relu_squeeze1x1_0_split_0
I1017 16:01:40.932368 19677 net.cpp:408] fire5/expand1x1 -> fire5/expand1x1
I1017 16:01:40.933758 19677 net.cpp:150] Setting up fire5/expand1x1
I1017 16:01:40.933773 19677 net.cpp:157] Top shape: 100 128 28 28 (10035200)
I1017 16:01:40.933787 19677 net.cpp:165] Memory required for data: 2321240800
I1017 16:01:40.933794 19677 layer_factory.hpp:77] Creating layer fire5/relu_expand1x1
I1017 16:01:40.933800 19677 net.cpp:100] Creating Layer fire5/relu_expand1x1
I1017 16:01:40.933816 19677 net.cpp:434] fire5/relu_expand1x1 <- fire5/expand1x1
I1017 16:01:40.933825 19677 net.cpp:395] fire5/relu_expand1x1 -> fire5/expand1x1 (in-place)
I1017 16:01:40.934032 19677 net.cpp:150] Setting up fire5/relu_expand1x1
I1017 16:01:40.934043 19677 net.cpp:157] Top shape: 100 128 28 28 (10035200)
I1017 16:01:40.934058 19677 net.cpp:165] Memory required for data: 2361381600
I1017 16:01:40.934062 19677 layer_factory.hpp:77] Creating layer fire5/expand3x3
I1017 16:01:40.934072 19677 net.cpp:100] Creating Layer fire5/expand3x3
I1017 16:01:40.934075 19677 net.cpp:434] fire5/expand3x3 <- fire5/squeeze1x1_fire5/relu_squeeze1x1_0_split_1
I1017 16:01:40.934083 19677 net.cpp:408] fire5/expand3x3 -> fire5/expand3x3
I1017 16:01:40.936029 19677 net.cpp:150] Setting up fire5/expand3x3
I1017 16:01:40.936044 19677 net.cpp:157] Top shape: 100 128 28 28 (10035200)
I1017 16:01:40.936060 19677 net.cpp:165] Memory required for data: 2401522400
I1017 16:01:40.936067 19677 layer_factory.hpp:77] Creating layer fire5/relu_expand3x3
I1017 16:01:40.936086 19677 net.cpp:100] Creating Layer fire5/relu_expand3x3
I1017 16:01:40.936091 19677 net.cpp:434] fire5/relu_expand3x3 <- fire5/expand3x3
I1017 16:01:40.936097 19677 net.cpp:395] fire5/relu_expand3x3 -> fire5/expand3x3 (in-place)
I1017 16:01:40.936297 19677 net.cpp:150] Setting up fire5/relu_expand3x3
I1017 16:01:40.936309 19677 net.cpp:157] Top shape: 100 128 28 28 (10035200)
I1017 16:01:40.936326 19677 net.cpp:165] Memory required for data: 2441663200
I1017 16:01:40.936328 19677 layer_factory.hpp:77] Creating layer fire5/concat
I1017 16:01:40.936336 19677 net.cpp:100] Creating Layer fire5/concat
I1017 16:01:40.936341 19677 net.cpp:434] fire5/concat <- fire5/expand1x1
I1017 16:01:40.936345 19677 net.cpp:434] fire5/concat <- fire5/expand3x3
I1017 16:01:40.936352 19677 net.cpp:408] fire5/concat -> fire5/concat
I1017 16:01:40.936388 19677 net.cpp:150] Setting up fire5/concat
I1017 16:01:40.936395 19677 net.cpp:157] Top shape: 100 256 28 28 (20070400)
I1017 16:01:40.936398 19677 net.cpp:165] Memory required for data: 2521944800
I1017 16:01:40.936401 19677 layer_factory.hpp:77] Creating layer pool5
I1017 16:01:40.936411 19677 net.cpp:100] Creating Layer pool5
I1017 16:01:40.936415 19677 net.cpp:434] pool5 <- fire5/concat
I1017 16:01:40.936421 19677 net.cpp:408] pool5 -> pool5
I1017 16:01:40.936470 19677 net.cpp:150] Setting up pool5
I1017 16:01:40.936491 19677 net.cpp:157] Top shape: 100 256 14 14 (5017600)
I1017 16:01:40.936493 19677 net.cpp:165] Memory required for data: 2542015200
I1017 16:01:40.936496 19677 layer_factory.hpp:77] Creating layer fire6/squeeze1x1
I1017 16:01:40.936517 19677 net.cpp:100] Creating Layer fire6/squeeze1x1
I1017 16:01:40.936522 19677 net.cpp:434] fire6/squeeze1x1 <- pool5
I1017 16:01:40.936527 19677 net.cpp:408] fire6/squeeze1x1 -> fire6/squeeze1x1
I1017 16:01:40.937942 19677 net.cpp:150] Setting up fire6/squeeze1x1
I1017 16:01:40.937973 19677 net.cpp:157] Top shape: 100 48 14 14 (940800)
I1017 16:01:40.937988 19677 net.cpp:165] Memory required for data: 2545778400
I1017 16:01:40.937995 19677 layer_factory.hpp:77] Creating layer fire6/relu_squeeze1x1
I1017 16:01:40.938014 19677 net.cpp:100] Creating Layer fire6/relu_squeeze1x1
I1017 16:01:40.938019 19677 net.cpp:434] fire6/relu_squeeze1x1 <- fire6/squeeze1x1
I1017 16:01:40.938025 19677 net.cpp:395] fire6/relu_squeeze1x1 -> fire6/squeeze1x1 (in-place)
I1017 16:01:40.938447 19677 net.cpp:150] Setting up fire6/relu_squeeze1x1
I1017 16:01:40.938462 19677 net.cpp:157] Top shape: 100 48 14 14 (940800)
I1017 16:01:40.938477 19677 net.cpp:165] Memory required for data: 2549541600
I1017 16:01:40.938480 19677 layer_factory.hpp:77] Creating layer fire6/squeeze1x1_fire6/relu_squeeze1x1_0_split
I1017 16:01:40.938488 19677 net.cpp:100] Creating Layer fire6/squeeze1x1_fire6/relu_squeeze1x1_0_split
I1017 16:01:40.938504 19677 net.cpp:434] fire6/squeeze1x1_fire6/relu_squeeze1x1_0_split <- fire6/squeeze1x1
I1017 16:01:40.938519 19677 net.cpp:408] fire6/squeeze1x1_fire6/relu_squeeze1x1_0_split -> fire6/squeeze1x1_fire6/relu_squeeze1x1_0_split_0
I1017 16:01:40.938525 19677 net.cpp:408] fire6/squeeze1x1_fire6/relu_squeeze1x1_0_split -> fire6/squeeze1x1_fire6/relu_squeeze1x1_0_split_1
I1017 16:01:40.938585 19677 net.cpp:150] Setting up fire6/squeeze1x1_fire6/relu_squeeze1x1_0_split
I1017 16:01:40.938593 19677 net.cpp:157] Top shape: 100 48 14 14 (940800)
I1017 16:01:40.938598 19677 net.cpp:157] Top shape: 100 48 14 14 (940800)
I1017 16:01:40.938601 19677 net.cpp:165] Memory required for data: 2557068000
I1017 16:01:40.938604 19677 layer_factory.hpp:77] Creating layer fire6/expand1x1
I1017 16:01:40.938614 19677 net.cpp:100] Creating Layer fire6/expand1x1
I1017 16:01:40.938618 19677 net.cpp:434] fire6/expand1x1 <- fire6/squeeze1x1_fire6/relu_squeeze1x1_0_split_0
I1017 16:01:40.938624 19677 net.cpp:408] fire6/expand1x1 -> fire6/expand1x1
I1017 16:01:40.940021 19677 net.cpp:150] Setting up fire6/expand1x1
I1017 16:01:40.940037 19677 net.cpp:157] Top shape: 100 192 14 14 (3763200)
I1017 16:01:40.940052 19677 net.cpp:165] Memory required for data: 2572120800
I1017 16:01:40.940058 19677 layer_factory.hpp:77] Creating layer fire6/relu_expand1x1
I1017 16:01:40.940064 19677 net.cpp:100] Creating Layer fire6/relu_expand1x1
I1017 16:01:40.940069 19677 net.cpp:434] fire6/relu_expand1x1 <- fire6/expand1x1
I1017 16:01:40.940088 19677 net.cpp:395] fire6/relu_expand1x1 -> fire6/expand1x1 (in-place)
I1017 16:01:40.940330 19677 net.cpp:150] Setting up fire6/relu_expand1x1
I1017 16:01:40.940343 19677 net.cpp:157] Top shape: 100 192 14 14 (3763200)
I1017 16:01:40.940358 19677 net.cpp:165] Memory required for data: 2587173600
I1017 16:01:40.940361 19677 layer_factory.hpp:77] Creating layer fire6/expand3x3
I1017 16:01:40.940373 19677 net.cpp:100] Creating Layer fire6/expand3x3
I1017 16:01:40.940377 19677 net.cpp:434] fire6/expand3x3 <- fire6/squeeze1x1_fire6/relu_squeeze1x1_0_split_1
I1017 16:01:40.940384 19677 net.cpp:408] fire6/expand3x3 -> fire6/expand3x3
I1017 16:01:40.942466 19677 net.cpp:150] Setting up fire6/expand3x3
I1017 16:01:40.942481 19677 net.cpp:157] Top shape: 100 192 14 14 (3763200)
I1017 16:01:40.942497 19677 net.cpp:165] Memory required for data: 2602226400
I1017 16:01:40.942513 19677 layer_factory.hpp:77] Creating layer fire6/relu_expand3x3
I1017 16:01:40.942522 19677 net.cpp:100] Creating Layer fire6/relu_expand3x3
I1017 16:01:40.942538 19677 net.cpp:434] fire6/relu_expand3x3 <- fire6/expand3x3
I1017 16:01:40.942544 19677 net.cpp:395] fire6/relu_expand3x3 -> fire6/expand3x3 (in-place)
I1017 16:01:40.942734 19677 net.cpp:150] Setting up fire6/relu_expand3x3
I1017 16:01:40.942742 19677 net.cpp:157] Top shape: 100 192 14 14 (3763200)
I1017 16:01:40.942757 19677 net.cpp:165] Memory required for data: 2617279200
I1017 16:01:40.942761 19677 layer_factory.hpp:77] Creating layer fire6/concat
I1017 16:01:40.942769 19677 net.cpp:100] Creating Layer fire6/concat
I1017 16:01:40.942772 19677 net.cpp:434] fire6/concat <- fire6/expand1x1
I1017 16:01:40.942790 19677 net.cpp:434] fire6/concat <- fire6/expand3x3
I1017 16:01:40.942796 19677 net.cpp:408] fire6/concat -> fire6/concat
I1017 16:01:40.942834 19677 net.cpp:150] Setting up fire6/concat
I1017 16:01:40.942842 19677 net.cpp:157] Top shape: 100 384 14 14 (7526400)
I1017 16:01:40.942847 19677 net.cpp:165] Memory required for data: 2647384800
I1017 16:01:40.942850 19677 layer_factory.hpp:77] Creating layer fire7/squeeze1x1
I1017 16:01:40.942878 19677 net.cpp:100] Creating Layer fire7/squeeze1x1
I1017 16:01:40.942883 19677 net.cpp:434] fire7/squeeze1x1 <- fire6/concat
I1017 16:01:40.942888 19677 net.cpp:408] fire7/squeeze1x1 -> fire7/squeeze1x1
I1017 16:01:40.944521 19677 net.cpp:150] Setting up fire7/squeeze1x1
I1017 16:01:40.944537 19677 net.cpp:157] Top shape: 100 48 14 14 (940800)
I1017 16:01:40.944553 19677 net.cpp:165] Memory required for data: 2651148000
I1017 16:01:40.944566 19677 layer_factory.hpp:77] Creating layer fire7/relu_squeeze1x1
I1017 16:01:40.944574 19677 net.cpp:100] Creating Layer fire7/relu_squeeze1x1
I1017 16:01:40.944591 19677 net.cpp:434] fire7/relu_squeeze1x1 <- fire7/squeeze1x1
I1017 16:01:40.944597 19677 net.cpp:395] fire7/relu_squeeze1x1 -> fire7/squeeze1x1 (in-place)
I1017 16:01:40.945015 19677 net.cpp:150] Setting up fire7/relu_squeeze1x1
I1017 16:01:40.945029 19677 net.cpp:157] Top shape: 100 48 14 14 (940800)
I1017 16:01:40.945047 19677 net.cpp:165] Memory required for data: 2654911200
I1017 16:01:40.945062 19677 layer_factory.hpp:77] Creating layer fire7/squeeze1x1_fire7/relu_squeeze1x1_0_split
I1017 16:01:40.945075 19677 net.cpp:100] Creating Layer fire7/squeeze1x1_fire7/relu_squeeze1x1_0_split
I1017 16:01:40.945080 19677 net.cpp:434] fire7/squeeze1x1_fire7/relu_squeeze1x1_0_split <- fire7/squeeze1x1
I1017 16:01:40.945086 19677 net.cpp:408] fire7/squeeze1x1_fire7/relu_squeeze1x1_0_split -> fire7/squeeze1x1_fire7/relu_squeeze1x1_0_split_0
I1017 16:01:40.945092 19677 net.cpp:408] fire7/squeeze1x1_fire7/relu_squeeze1x1_0_split -> fire7/squeeze1x1_fire7/relu_squeeze1x1_0_split_1
I1017 16:01:40.945145 19677 net.cpp:150] Setting up fire7/squeeze1x1_fire7/relu_squeeze1x1_0_split
I1017 16:01:40.945154 19677 net.cpp:157] Top shape: 100 48 14 14 (940800)
I1017 16:01:40.945158 19677 net.cpp:157] Top shape: 100 48 14 14 (940800)
I1017 16:01:40.945161 19677 net.cpp:165] Memory required for data: 2662437600
I1017 16:01:40.945165 19677 layer_factory.hpp:77] Creating layer fire7/expand1x1
I1017 16:01:40.945174 19677 net.cpp:100] Creating Layer fire7/expand1x1
I1017 16:01:40.945179 19677 net.cpp:434] fire7/expand1x1 <- fire7/squeeze1x1_fire7/relu_squeeze1x1_0_split_0
I1017 16:01:40.945185 19677 net.cpp:408] fire7/expand1x1 -> fire7/expand1x1
I1017 16:01:40.946576 19677 net.cpp:150] Setting up fire7/expand1x1
I1017 16:01:40.946590 19677 net.cpp:157] Top shape: 100 192 14 14 (3763200)
I1017 16:01:40.946606 19677 net.cpp:165] Memory required for data: 2677490400
I1017 16:01:40.946614 19677 layer_factory.hpp:77] Creating layer fire7/relu_expand1x1
I1017 16:01:40.946620 19677 net.cpp:100] Creating Layer fire7/relu_expand1x1
I1017 16:01:40.946624 19677 net.cpp:434] fire7/relu_expand1x1 <- fire7/expand1x1
I1017 16:01:40.946642 19677 net.cpp:395] fire7/relu_expand1x1 -> fire7/expand1x1 (in-place)
I1017 16:01:40.946843 19677 net.cpp:150] Setting up fire7/relu_expand1x1
I1017 16:01:40.946853 19677 net.cpp:157] Top shape: 100 192 14 14 (3763200)
I1017 16:01:40.946867 19677 net.cpp:165] Memory required for data: 2692543200
I1017 16:01:40.946871 19677 layer_factory.hpp:77] Creating layer fire7/expand3x3
I1017 16:01:40.946879 19677 net.cpp:100] Creating Layer fire7/expand3x3
I1017 16:01:40.946884 19677 net.cpp:434] fire7/expand3x3 <- fire7/squeeze1x1_fire7/relu_squeeze1x1_0_split_1
I1017 16:01:40.946892 19677 net.cpp:408] fire7/expand3x3 -> fire7/expand3x3
I1017 16:01:40.949049 19677 net.cpp:150] Setting up fire7/expand3x3
I1017 16:01:40.949066 19677 net.cpp:157] Top shape: 100 192 14 14 (3763200)
I1017 16:01:40.949081 19677 net.cpp:165] Memory required for data: 2707596000
I1017 16:01:40.949100 19677 layer_factory.hpp:77] Creating layer fire7/relu_expand3x3
I1017 16:01:40.949117 19677 net.cpp:100] Creating Layer fire7/relu_expand3x3
I1017 16:01:40.949121 19677 net.cpp:434] fire7/relu_expand3x3 <- fire7/expand3x3
I1017 16:01:40.949127 19677 net.cpp:395] fire7/relu_expand3x3 -> fire7/expand3x3 (in-place)
I1017 16:01:40.949321 19677 net.cpp:150] Setting up fire7/relu_expand3x3
I1017 16:01:40.949332 19677 net.cpp:157] Top shape: 100 192 14 14 (3763200)
I1017 16:01:40.949347 19677 net.cpp:165] Memory required for data: 2722648800
I1017 16:01:40.949352 19677 layer_factory.hpp:77] Creating layer fire7/concat
I1017 16:01:40.949357 19677 net.cpp:100] Creating Layer fire7/concat
I1017 16:01:40.949360 19677 net.cpp:434] fire7/concat <- fire7/expand1x1
I1017 16:01:40.949365 19677 net.cpp:434] fire7/concat <- fire7/expand3x3
I1017 16:01:40.949370 19677 net.cpp:408] fire7/concat -> fire7/concat
I1017 16:01:40.949405 19677 net.cpp:150] Setting up fire7/concat
I1017 16:01:40.949414 19677 net.cpp:157] Top shape: 100 384 14 14 (7526400)
I1017 16:01:40.949416 19677 net.cpp:165] Memory required for data: 2752754400
I1017 16:01:40.949419 19677 layer_factory.hpp:77] Creating layer fire8/squeeze1x1
I1017 16:01:40.949429 19677 net.cpp:100] Creating Layer fire8/squeeze1x1
I1017 16:01:40.949432 19677 net.cpp:434] fire8/squeeze1x1 <- fire7/concat
I1017 16:01:40.949439 19677 net.cpp:408] fire8/squeeze1x1 -> fire8/squeeze1x1
I1017 16:01:40.951453 19677 net.cpp:150] Setting up fire8/squeeze1x1
I1017 16:01:40.951469 19677 net.cpp:157] Top shape: 100 64 14 14 (1254400)
I1017 16:01:40.951484 19677 net.cpp:165] Memory required for data: 2757772000
I1017 16:01:40.951491 19677 layer_factory.hpp:77] Creating layer fire8/relu_squeeze1x1
I1017 16:01:40.951499 19677 net.cpp:100] Creating Layer fire8/relu_squeeze1x1
I1017 16:01:40.951503 19677 net.cpp:434] fire8/relu_squeeze1x1 <- fire8/squeeze1x1
I1017 16:01:40.951509 19677 net.cpp:395] fire8/relu_squeeze1x1 -> fire8/squeeze1x1 (in-place)
I1017 16:01:40.951969 19677 net.cpp:150] Setting up fire8/relu_squeeze1x1
I1017 16:01:40.951982 19677 net.cpp:157] Top shape: 100 64 14 14 (1254400)
I1017 16:01:40.951997 19677 net.cpp:165] Memory required for data: 2762789600
I1017 16:01:40.952002 19677 layer_factory.hpp:77] Creating layer fire8/squeeze1x1_fire8/relu_squeeze1x1_0_split
I1017 16:01:40.952008 19677 net.cpp:100] Creating Layer fire8/squeeze1x1_fire8/relu_squeeze1x1_0_split
I1017 16:01:40.952013 19677 net.cpp:434] fire8/squeeze1x1_fire8/relu_squeeze1x1_0_split <- fire8/squeeze1x1
I1017 16:01:40.952018 19677 net.cpp:408] fire8/squeeze1x1_fire8/relu_squeeze1x1_0_split -> fire8/squeeze1x1_fire8/relu_squeeze1x1_0_split_0
I1017 16:01:40.952025 19677 net.cpp:408] fire8/squeeze1x1_fire8/relu_squeeze1x1_0_split -> fire8/squeeze1x1_fire8/relu_squeeze1x1_0_split_1
I1017 16:01:40.952080 19677 net.cpp:150] Setting up fire8/squeeze1x1_fire8/relu_squeeze1x1_0_split
I1017 16:01:40.952087 19677 net.cpp:157] Top shape: 100 64 14 14 (1254400)
I1017 16:01:40.952091 19677 net.cpp:157] Top shape: 100 64 14 14 (1254400)
I1017 16:01:40.952095 19677 net.cpp:165] Memory required for data: 2772824800
I1017 16:01:40.952097 19677 layer_factory.hpp:77] Creating layer fire8/expand1x1
I1017 16:01:40.952121 19677 net.cpp:100] Creating Layer fire8/expand1x1
I1017 16:01:40.952129 19677 net.cpp:434] fire8/expand1x1 <- fire8/squeeze1x1_fire8/relu_squeeze1x1_0_split_0
I1017 16:01:40.952143 19677 net.cpp:408] fire8/expand1x1 -> fire8/expand1x1
I1017 16:01:40.954114 19677 net.cpp:150] Setting up fire8/expand1x1
I1017 16:01:40.954129 19677 net.cpp:157] Top shape: 100 256 14 14 (5017600)
I1017 16:01:40.954145 19677 net.cpp:165] Memory required for data: 2792895200
I1017 16:01:40.954152 19677 layer_factory.hpp:77] Creating layer fire8/relu_expand1x1
I1017 16:01:40.954159 19677 net.cpp:100] Creating Layer fire8/relu_expand1x1
I1017 16:01:40.954162 19677 net.cpp:434] fire8/relu_expand1x1 <- fire8/expand1x1
I1017 16:01:40.954181 19677 net.cpp:395] fire8/relu_expand1x1 -> fire8/expand1x1 (in-place)
I1017 16:01:40.954393 19677 net.cpp:150] Setting up fire8/relu_expand1x1
I1017 16:01:40.954413 19677 net.cpp:157] Top shape: 100 256 14 14 (5017600)
I1017 16:01:40.954429 19677 net.cpp:165] Memory required for data: 2812965600
I1017 16:01:40.954433 19677 layer_factory.hpp:77] Creating layer fire8/expand3x3
I1017 16:01:40.954443 19677 net.cpp:100] Creating Layer fire8/expand3x3
I1017 16:01:40.954448 19677 net.cpp:434] fire8/expand3x3 <- fire8/squeeze1x1_fire8/relu_squeeze1x1_0_split_1
I1017 16:01:40.954455 19677 net.cpp:408] fire8/expand3x3 -> fire8/expand3x3
I1017 16:01:40.957729 19677 net.cpp:150] Setting up fire8/expand3x3
I1017 16:01:40.957744 19677 net.cpp:157] Top shape: 100 256 14 14 (5017600)
I1017 16:01:40.957761 19677 net.cpp:165] Memory required for data: 2833036000
I1017 16:01:40.957767 19677 layer_factory.hpp:77] Creating layer fire8/relu_expand3x3
I1017 16:01:40.957773 19677 net.cpp:100] Creating Layer fire8/relu_expand3x3
I1017 16:01:40.957778 19677 net.cpp:434] fire8/relu_expand3x3 <- fire8/expand3x3
I1017 16:01:40.957798 19677 net.cpp:395] fire8/relu_expand3x3 -> fire8/expand3x3 (in-place)
I1017 16:01:40.957993 19677 net.cpp:150] Setting up fire8/relu_expand3x3
I1017 16:01:40.958016 19677 net.cpp:157] Top shape: 100 256 14 14 (5017600)
I1017 16:01:40.958032 19677 net.cpp:165] Memory required for data: 2853106400
I1017 16:01:40.958035 19677 layer_factory.hpp:77] Creating layer fire8/concat
I1017 16:01:40.958041 19677 net.cpp:100] Creating Layer fire8/concat
I1017 16:01:40.958045 19677 net.cpp:434] fire8/concat <- fire8/expand1x1
I1017 16:01:40.958050 19677 net.cpp:434] fire8/concat <- fire8/expand3x3
I1017 16:01:40.958057 19677 net.cpp:408] fire8/concat -> fire8/concat
I1017 16:01:40.958094 19677 net.cpp:150] Setting up fire8/concat
I1017 16:01:40.958103 19677 net.cpp:157] Top shape: 100 512 14 14 (10035200)
I1017 16:01:40.958107 19677 net.cpp:165] Memory required for data: 2893247200
I1017 16:01:40.958111 19677 layer_factory.hpp:77] Creating layer fire9/squeeze1x1
I1017 16:01:40.958118 19677 net.cpp:100] Creating Layer fire9/squeeze1x1
I1017 16:01:40.958122 19677 net.cpp:434] fire9/squeeze1x1 <- fire8/concat
I1017 16:01:40.958129 19677 net.cpp:408] fire9/squeeze1x1 -> fire9/squeeze1x1
I1017 16:01:40.959760 19677 net.cpp:150] Setting up fire9/squeeze1x1
I1017 16:01:40.959775 19677 net.cpp:157] Top shape: 100 64 14 14 (1254400)
I1017 16:01:40.959792 19677 net.cpp:165] Memory required for data: 2898264800
I1017 16:01:40.959799 19677 layer_factory.hpp:77] Creating layer fire9/relu_squeeze1x1
I1017 16:01:40.959812 19677 net.cpp:100] Creating Layer fire9/relu_squeeze1x1
I1017 16:01:40.959830 19677 net.cpp:434] fire9/relu_squeeze1x1 <- fire9/squeeze1x1
I1017 16:01:40.959836 19677 net.cpp:395] fire9/relu_squeeze1x1 -> fire9/squeeze1x1 (in-place)
I1017 16:01:40.960273 19677 net.cpp:150] Setting up fire9/relu_squeeze1x1
I1017 16:01:40.960286 19677 net.cpp:157] Top shape: 100 64 14 14 (1254400)
I1017 16:01:40.960301 19677 net.cpp:165] Memory required for data: 2903282400
I1017 16:01:40.960306 19677 layer_factory.hpp:77] Creating layer fire9/squeeze1x1_fire9/relu_squeeze1x1_0_split
I1017 16:01:40.960314 19677 net.cpp:100] Creating Layer fire9/squeeze1x1_fire9/relu_squeeze1x1_0_split
I1017 16:01:40.960317 19677 net.cpp:434] fire9/squeeze1x1_fire9/relu_squeeze1x1_0_split <- fire9/squeeze1x1
I1017 16:01:40.960322 19677 net.cpp:408] fire9/squeeze1x1_fire9/relu_squeeze1x1_0_split -> fire9/squeeze1x1_fire9/relu_squeeze1x1_0_split_0
I1017 16:01:40.960341 19677 net.cpp:408] fire9/squeeze1x1_fire9/relu_squeeze1x1_0_split -> fire9/squeeze1x1_fire9/relu_squeeze1x1_0_split_1
I1017 16:01:40.960397 19677 net.cpp:150] Setting up fire9/squeeze1x1_fire9/relu_squeeze1x1_0_split
I1017 16:01:40.960404 19677 net.cpp:157] Top shape: 100 64 14 14 (1254400)
I1017 16:01:40.960408 19677 net.cpp:157] Top shape: 100 64 14 14 (1254400)
I1017 16:01:40.960412 19677 net.cpp:165] Memory required for data: 2913317600
I1017 16:01:40.960414 19677 layer_factory.hpp:77] Creating layer fire9/expand1x1
I1017 16:01:40.960423 19677 net.cpp:100] Creating Layer fire9/expand1x1
I1017 16:01:40.960438 19677 net.cpp:434] fire9/expand1x1 <- fire9/squeeze1x1_fire9/relu_squeeze1x1_0_split_0
I1017 16:01:40.960445 19677 net.cpp:408] fire9/expand1x1 -> fire9/expand1x1
I1017 16:01:40.962163 19677 net.cpp:150] Setting up fire9/expand1x1
I1017 16:01:40.962177 19677 net.cpp:157] Top shape: 100 256 14 14 (5017600)
I1017 16:01:40.962193 19677 net.cpp:165] Memory required for data: 2933388000
I1017 16:01:40.962201 19677 layer_factory.hpp:77] Creating layer fire9/relu_expand1x1
I1017 16:01:40.962208 19677 net.cpp:100] Creating Layer fire9/relu_expand1x1
I1017 16:01:40.962211 19677 net.cpp:434] fire9/relu_expand1x1 <- fire9/expand1x1
I1017 16:01:40.962229 19677 net.cpp:395] fire9/relu_expand1x1 -> fire9/expand1x1 (in-place)
I1017 16:01:40.962433 19677 net.cpp:150] Setting up fire9/relu_expand1x1
I1017 16:01:40.962445 19677 net.cpp:157] Top shape: 100 256 14 14 (5017600)
I1017 16:01:40.962460 19677 net.cpp:165] Memory required for data: 2953458400
I1017 16:01:40.962463 19677 layer_factory.hpp:77] Creating layer fire9/expand3x3
I1017 16:01:40.962473 19677 net.cpp:100] Creating Layer fire9/expand3x3
I1017 16:01:40.962477 19677 net.cpp:434] fire9/expand3x3 <- fire9/squeeze1x1_fire9/relu_squeeze1x1_0_split_1
I1017 16:01:40.962486 19677 net.cpp:408] fire9/expand3x3 -> fire9/expand3x3
I1017 16:01:40.965719 19677 net.cpp:150] Setting up fire9/expand3x3
I1017 16:01:40.965735 19677 net.cpp:157] Top shape: 100 256 14 14 (5017600)
I1017 16:01:40.965751 19677 net.cpp:165] Memory required for data: 2973528800
I1017 16:01:40.965759 19677 layer_factory.hpp:77] Creating layer fire9/relu_expand3x3
I1017 16:01:40.965765 19677 net.cpp:100] Creating Layer fire9/relu_expand3x3
I1017 16:01:40.965770 19677 net.cpp:434] fire9/relu_expand3x3 <- fire9/expand3x3
I1017 16:01:40.965777 19677 net.cpp:395] fire9/relu_expand3x3 -> fire9/expand3x3 (in-place)
I1017 16:01:40.966001 19677 net.cpp:150] Setting up fire9/relu_expand3x3
I1017 16:01:40.966012 19677 net.cpp:157] Top shape: 100 256 14 14 (5017600)
I1017 16:01:40.966027 19677 net.cpp:165] Memory required for data: 2993599200
I1017 16:01:40.966029 19677 layer_factory.hpp:77] Creating layer fire9/concat
I1017 16:01:40.966035 19677 net.cpp:100] Creating Layer fire9/concat
I1017 16:01:40.966039 19677 net.cpp:434] fire9/concat <- fire9/expand1x1
I1017 16:01:40.966044 19677 net.cpp:434] fire9/concat <- fire9/expand3x3
I1017 16:01:40.966061 19677 net.cpp:408] fire9/concat -> fire9/concat
I1017 16:01:40.966110 19677 net.cpp:150] Setting up fire9/concat
I1017 16:01:40.966119 19677 net.cpp:157] Top shape: 100 512 14 14 (10035200)
I1017 16:01:40.966121 19677 net.cpp:165] Memory required for data: 3033740000
I1017 16:01:40.966125 19677 layer_factory.hpp:77] Creating layer drop9
I1017 16:01:40.966133 19677 net.cpp:100] Creating Layer drop9
I1017 16:01:40.966137 19677 net.cpp:434] drop9 <- fire9/concat
I1017 16:01:40.966142 19677 net.cpp:395] drop9 -> fire9/concat (in-place)
I1017 16:01:40.966174 19677 net.cpp:150] Setting up drop9
I1017 16:01:40.966181 19677 net.cpp:157] Top shape: 100 512 14 14 (10035200)
I1017 16:01:40.966186 19677 net.cpp:165] Memory required for data: 3073880800
I1017 16:01:40.966188 19677 layer_factory.hpp:77] Creating layer conv10_2626
I1017 16:01:40.966208 19677 net.cpp:100] Creating Layer conv10_2626
I1017 16:01:40.966214 19677 net.cpp:434] conv10_2626 <- fire9/concat
I1017 16:01:40.966222 19677 net.cpp:408] conv10_2626 -> conv10_2626
I1017 16:01:40.998881 19677 net.cpp:150] Setting up conv10_2626
I1017 16:01:40.998922 19677 net.cpp:157] Top shape: 100 2626 14 14 (51469600)
I1017 16:01:40.998926 19677 net.cpp:165] Memory required for data: 3279759200
I1017 16:01:40.998937 19677 layer_factory.hpp:77] Creating layer relu_conv10
I1017 16:01:40.998949 19677 net.cpp:100] Creating Layer relu_conv10
I1017 16:01:40.998953 19677 net.cpp:434] relu_conv10 <- conv10_2626
I1017 16:01:40.998965 19677 net.cpp:395] relu_conv10 -> conv10_2626 (in-place)
I1017 16:01:40.999415 19677 net.cpp:150] Setting up relu_conv10
I1017 16:01:40.999430 19677 net.cpp:157] Top shape: 100 2626 14 14 (51469600)
I1017 16:01:40.999451 19677 net.cpp:165] Memory required for data: 3485637600
I1017 16:01:40.999456 19677 layer_factory.hpp:77] Creating layer pool10
I1017 16:01:40.999464 19677 net.cpp:100] Creating Layer pool10
I1017 16:01:40.999469 19677 net.cpp:434] pool10 <- conv10_2626
I1017 16:01:40.999477 19677 net.cpp:408] pool10 -> pool10
I1017 16:01:40.999727 19677 net.cpp:150] Setting up pool10
I1017 16:01:40.999749 19677 net.cpp:157] Top shape: 100 2626 1 1 (262600)
I1017 16:01:40.999752 19677 net.cpp:165] Memory required for data: 3486688000
I1017 16:01:40.999755 19677 layer_factory.hpp:77] Creating layer pool10_pool10_0_split
I1017 16:01:40.999773 19677 net.cpp:100] Creating Layer pool10_pool10_0_split
I1017 16:01:40.999778 19677 net.cpp:434] pool10_pool10_0_split <- pool10
I1017 16:01:40.999785 19677 net.cpp:408] pool10_pool10_0_split -> pool10_pool10_0_split_0
I1017 16:01:40.999791 19677 net.cpp:408] pool10_pool10_0_split -> pool10_pool10_0_split_1
I1017 16:01:40.999842 19677 net.cpp:150] Setting up pool10_pool10_0_split
I1017 16:01:40.999850 19677 net.cpp:157] Top shape: 100 2626 1 1 (262600)
I1017 16:01:40.999855 19677 net.cpp:157] Top shape: 100 2626 1 1 (262600)
I1017 16:01:40.999858 19677 net.cpp:165] Memory required for data: 3488788800
I1017 16:01:40.999861 19677 layer_factory.hpp:77] Creating layer loss
I1017 16:01:40.999869 19677 net.cpp:100] Creating Layer loss
I1017 16:01:40.999872 19677 net.cpp:434] loss <- pool10_pool10_0_split_0
I1017 16:01:40.999878 19677 net.cpp:434] loss <- label_data_1_split_0
I1017 16:01:40.999884 19677 net.cpp:408] loss -> loss
…
